TorchModels/DeepQtrader8.pt (torch, 25047 bytes, 6 tensors)

fc1.weight f4 [50, 50]
00000000: fd93 fbbb b52e a9bc f1ec 5fbd a16b aa3b
00000010: c82f d1bd 3abb 8d3d 212c 54ba b7bd 5dbd
00000020: ac4e 093e 1875 e63d 0ee8 183d 0ce4 053d
00000030: b540 17bc a667 eebd 1112 a93d 0bbf b03d
00000040: b309 88bd d047 1ebc c5d3 4b3d 81fb 813d
00000050: fc08 edbd d62f fa3c 94cf edbd 0264 efbd
00000060: 4d7c 003e d002 aebd a7d4 693d 4df5 72bc
00000070: f27b d5bc 31bf d03d e694 e23d 29c2 723c
00000080: 0563 563d aa96 98bc 1cd0 953d 54c6 cf3d
00000090: c2df a13b ff1f c03d 005e fcbd ba79 fdbd
000000a0: 78cc 81b9 6bca 6c3c 8949 56bd 6866 bf3d
000000b0: 586a 14bd 18d7 793d 0d31 ba3d 085b 04be
000000c0: 863c a2bd d1b8 29bd c755 9ebd 3741 1e3d
000000d0: d443 133e dc05 14bd 3ada da3d b80a 0f3e
000000e0: 9418 d8bc 6c0b c73d 1443 d33d 9c7a cc3d
000000f0: 95ac 063e 5643 5cbd d48d 80bc c1cb ee3d
00000100: 1116 443d 3b0d b23d 1de7 30bd c4ab e23d
00000110: 30bc c3bd ca49 d5bd 329a 1a3d e783 f53c
00000120: aa9d 93bd 9fb8 ca3d 272a 0cbe 60c2 733d
00000130: bb7b 74bd ad87 f33d 2b1f ca3d 81ba c33b
00000140: 8c00 c23d 760a 7dbd cea7 a0bd e744 05be
00000150: fa6f edbd c547 f8bd 65d1 a53d 5127 e9bd
00000160: 372b 83bc a941 da3b 3def fbbd 86e5 1bbd
00000170: f6e5 003e b459 a6bd 92cf dbbd 9eb9 9cbd
00000180: 197d f9bd 3d22 03be 7203 a1bc 692b dfbd
00000190: d297 e4bc a78b a13c 1c3b 2ebd 9df9 06be
000001a0: edd8 b83d ccea cc3c caa1 f0bc e3cf 0e3e
000001b0: 54a6 d03c edb9 dd3c f530 3b3d c8ad b03c
000001c0: cc1a f43d 59e5 8a3d f53f e13d 7926 c13d
000001d0: fcf2 29bd f786 71bd 90cb fcbd ab40 9ebd
000001e0: afef c73c 9b75 fd3d 1aed 13be edbb dd3b
000001f0: 66e2 c4bd e76e d5bd 66ac c33d 01f3 19be
00000200: 1331 e13d 2dda c43c 23cc 0dbe 83b0 3b3d
00000210: 9e98 e03d b78d c63d 9ff2 c5bd f37e 16be
00000220: b0da 05be 2c26 dbbd 52cf 0abe 7102 f7bd
00000230: 9b5a be3d 00e5 2dbd 80d5 f23d 6083 5e3d
00000240: 6e69 40bc 8a89 0a3c e1a1 c0bd a298 be3d
00000250: 4931 88bd 0584 f1bd 90d9 ab3d 059b 063e
00000260: 74e9 0a3e cfc9 5d3b 88f5 d1bd 04ec f9bd
00000270: 3ace 09be a829 e8bd ba78 de3d 1802 a1bd
00000280: 9855 f23c acf3 99bd b53c 6c3d 8964 043e
00000290: 27d3 08be d81e ab3d 70b4 9f3d a62a bbbd
000002a0: 170c e7bd c124 0bbd f4ec ffbd dc7a 643d
000002b0: b6eb d13d 6738 cf3d 1328 08be 2a57 0c3d
000002c0: e437 a13d 2f21 093e 291e 93bd d62a c5bd
000002d0: 5c0a d13d 7a10 ae3b c34b 0e3e 9ed0 c3bd
000002e0: fb8d 063e c777 24bd b43b 013e bf5a 04be
000002f0: 7ef4 e13c b92f 123e 32cf 21bd 2b3c 78bd
00000300: c279 ba3c 667d 5e3d 0905 afbd 56e6 e8bd
00000310: 7e05 103c 0980 45bd 891d 6c3d 2c69 51bb
00000320: 8ccc 45bd 33ce 0f3c 971c 07be e75f e13d
00000330: 3c1b ecbd 314e ac3d a079 043e 1b1e 303d
00000340: 6e59 ffbd 2ab3 60bd d922 023d d36d b33d
00000350: be83 133d e7ac 133c 5e16 36bd 6232 a83d
00000360: 4278 d8bd b9b8 9a3d 10f9 ad3d 635f 9c3d
00000370: 96fd fc3d 67bd 073e 4e88 ce3b 7956 b03d
00000380: b55e 0cbc 4a17 63bd 38a0 b6bd b4c9 883b
00000390: 6b47 e03d 5f16 383d e492 78bc b69e 5dbd
000003a0: b55d 86bc 4e6f 07be ddd2 1abd 9ec0 a53b
000003b0: 929f 123d aed5 1b3d 33c9 c9bc e8e8 3ebd
000003c0: 3835 a6bc 334d bb3d fed3 0d3d a6f4 e2bd
000003d0: 18a5 8b3d fca0 c9bd 419b a9bd 99c0 e93d
000003e0: 6602 9bbd bda8 e23d 8c36 4ebc 9573 063e
000003f0: 2a45 073e 6a36 253b acb2 5c3c d1fa b13c
-0.0076775537 -0.020652154 -0.054669324 0.0052008186 -0.10214192 0.06920476 -0.0008093734 -0.054136004
0.13408917 0.112528026 0.03733068 0.032688186 -0.009231736 -0.11640863 0.08255399 0.086301886
-0.06642475 -0.009660676 0.049762506 0.06346799 -0.11573979 0.030540388 -0.11611858 -0.11688997
0.12547417 -0.0849663 0.057087567 -0.014828992 -0.026060078 0.10192717 0.110635564 0.014816799
0.052340526 -0.01862653 0.07315084 0.1014525 0.004940004 0.09381103 -0.123226166 -0.12376733
-0.00024757138 0.014452557 -0.052316222 0.09345704 -0.03623423 0.060996145 0.09091387 -0.1292535
-0.079217 -0.04143602 -0.077312045 0.038636412 0.14381343 -0.0361384 0.10686155 0.13968933
-0.026378907 0.097189754 0.103155285 0.099843234 0.13151772 -0.053775154 -0.015692629 0.11659957
0.047872607 0.0869393 -0.043189157 0.11067918 -0.09557378 -0.10414465 0.03774471 0.029970123
-0.072078064 0.09898495 -0.13687955 0.059511542 -0.05968831 0.118911125 0.09869226 0.0059731607
0.094727606 -0.061777554 -0.07844506 -0.13014565 -0.115936235 -0.12123064 0.080965795 -0.11384452
-0.016011817 0.0066606593 -0.123014905 -0.038060687 0.12587723 -0.08122578 -0.1073295 -0.07652591
-0.121820636 -0.1280603 -0.019654963 -0.10896952 -0.027904425 0.019719912 -0.04253684 -0.13181157
0.0902575 0.025014304 -0.029374022 0.1394649 0.025469936 0.027066195 0.045700986 0.02156724
0.119191736 0.06782026 0.10998527 0.09431166 -0.041491494 -0.058966603 -0.12343514 -0.07727178
0.024406282 0.12375947 -0.14445916 0.0067667873 -0.096134946 -0.104215436 0.09554367 -0.15034105
0.10995688 0.024029816 -0.13847403 0.04582263 0.109666094 0.09694999 -0.09665417 -0.14696865
-0.13071704 -0.1070064 -0.13555649 -0.120610125 0.09294625 -0.04245472 0.11857128 0.054324508
-0.011743886 0.008455643 -0.09405876 0.09306456 -0.066500254 -0.11792759 0.08391106 0.13145073
0.13565618 0.003384221 -0.102519095 -0.122032195 -0.13457575 -0.1133607 0.108628705 -0.078617275
0.02958183 -0.0751718 0.057675082 0.12928976 -0.13361798 0.08355492 0.077980876 -0.09138994
-0.11281603 -0.033970598 -0.12496367 0.05578123 0.102500364 0.1011818 -0.13296537 0.034262814
0.078719884 0.13391565 -0.07183487 -0.09627311 0.10207054 0.0053120228 0.13896088 -0.09561275
0.13140099 -0.04015329 0.12620431 -0.12925242 0.027582403 0.14276017 -0.039504237 -0.060604256
0.022763137 0.054318808 -0.08545882 -0.11372058 0.008790372 -0.048217807 0.057645354 -0.0031953556
-0.048290774 0.008777189 -0.131945 0.1100462 -0.11528632 0.08413351 0.12937021 0.04299746
-0.12468229 -0.054858364 0.031771515 0.08761182 0.03601431 0.009013391 -0.044454925 0.08212735
-0.10569812 0.07554764 0.084947705 0.07635381 0.12353055 0.13255845 0.00630287 0.08610243
-0.008567502 -0.055442132 -0.08917278 0.0041744355 0.10951122 0.04494321 -0.01517174 -0.054106437
-0.016402105 -0.13226053 -0.03779875 0.005058362 0.03579671 0.038045578 -0.024632072 -0.046608835
-0.020289049 0.09145584 0.034626 -0.11081819 0.068185985 -0.098451585 -0.082815655 0.11413688
-0.07568817 0.110673405 -0.012586247 0.13130029 0.13209978 0.0025209435 0.013470333 0.021726044

fc1.bias f4 [50]
00000000: fb92 763d 8ded 923b d8d8 4cbc 545e b13d
00000010: c4d3 983d e8aa 84bd a19e d83d c85d d4bd
00000020: 8c0d 063e 3ad9 82bb efe4 e03d 1527 f33c
00000030: 9d15 123e 48c0 97bd 3475 09b8 b714 793d
00000040: b726 03bd 82a7 febc fea2 83bd 12d4 023e
00000050: 3ab9 00be 0fa1 f3bd d50e 9dbd 3cf4 e23d
00000060: b0a2 81bd da3a 85bc 025b eb3d 0676 e53c
00000070: 4200 fe3d 0ffd f13a 50ed dc3d 4e51 053e
00000080: 0c1c 913d 0d93 15bd 0583 6cbd a14c 293d
00000090: b66c 83bd 14a4 b83d 406b ef3d 62a0 0b3e
000000a0: 58b7 aa3d 1a0a 653b 9076 423d b790 353c
000000b0: 4b0d c8bc f55e 103c 7fdd 8ebd ff68 c23d
000000c0: e5af d33d 9782 1ebd
0.060198765 0.0044838847 -0.012502871 0.0866057 0.07462266 -0.0647791 0.10577131 -0.1036945
0.13091105 -0.0039931806 0.109811656 0.029681722 0.14266057 -0.074097216 -3.27725e-05 0.06081077
-0.032019343 -0.031085733 -0.06427573 0.12776211 -0.12570658 -0.11895954 -0.076688446 0.1108174
-0.06329858 -0.016263414 0.11491968 0.02801038 0.12402393 0.0018462258 0.10787451 0.13019297
0.07085428 -0.03651719 -0.057742137 0.041332845 -0.06417219 0.090156704 0.11690378 0.136354
0.08335751 0.0034948648 0.04747635 0.011081866 -0.024420401 0.008811702 -0.06975841 0.09492683
0.103362836 -0.03869876

fc2.weight f4 [50, 50]
00000000: 3095 aa3d c7c7 b4bd d4bf 1dbd ce52 233d
00000010: be3f e4bc b553 113e 699a c0bd e6c7 88bd
00000020: 134d a6bd 4bb8 eabd b8de 843d 465d dc3d
00000030: 9197 1f3d c1bd 853d 8d97 9c3d 3911 debd
00000040: ac9e b23d 6d21 a7bc a7b3 c43d 18c2 90bd
00000050: e1ca be3c 9447 9ebd 01a0 4fbd 77c8 89bd
00000060: 9f79 82bc e9d7 00bd 388a bd3b 23aa 74bd
00000070: 378f 2dbd 4506 9bbd ce85 86bd da14 b33d
00000080: 0d51 b8bd b243 0cbe 928d 7dbc 3a7c e53d
00000090: 8aff 973c 5bb3 e5bd 1bbd 953b fcc0 f1bd
000000a0: b604 acbd 0700 b8bd ce3a 0d3e 0fd6 983d
000000b0: 8d95 48bc 1662 6d3c d4ef b5bd 1ada 8b3d
000000c0: c048 f8bd 5039 ae3d 8478 f0bd 5e24 163d
000000d0: 1954 14be f5e5 b9bd 52be 06be a220 e4bd
000000e0: 8ec1 77bd 1934 a3bd 6afd a53c 5f4f b8bc
000000f0: 89b9 803c 9348 aabd 56a0 f6bd d4c0 cb3d
00000100: da5d 91bd c5db 01be 61bc e53d 9177 2dbd
00000110: a845 2cbd e546 98bd de87 843d 1cb1 55bd
00000120: 9a4f f63d c707 13bd 3301 013e e3ba 01be
00000130: a7ae 823d e06f 833d c11f 5d3c 4c95 0d3e
00000140: 52d8 143d cee1 01bd 84a4 023e 94da 19bd
00000150: e7cc 623d b93b e43c 1bf8 f53d 3cae 8a3b
00000160: 1cab e0bd 3af5 143e e0a8 c43d 7cab ddbd
00000170: 5914 fb3c 7fc0 1dbd dc60 b9bd 9941 943d
00000180: a3c8 febc 19e1 bc3d 9214 0a3e 1a69 ca3d
00000190: 4f67 cf3d cfc7 00bd a32e e3bd 707e 9dbd
000001a0: 3831 debd f300 ce3d 5186 8c3d ea74 86bd
000001b0: 85e8 4fbd 8f33 9c3d 08e3 f93d 28c5 023e
000001c0: 2b70 023e ec3d f4bd 8cc4 143d aba0 433d
000001d0: e42d 783d 27ff abbd aee8 02bc 2c0a e63d
000001e0: 71d5 0d3d 0925 c13b c285 e23d 0d54 c0bd
000001f0: b2e4 9f3d c05a 97bd 01e6 beba 3dc2 bb3c
00000200: e500 cabb eeef 0d3e 8604 853d 44e5 f4bd
00000210: 3918 4a3d 64a8 01be 6c83 c83d 2f20 ef3d
00000220: 0d40 58bd c917 f63d 39bd 323d f649 c1bb
00000230: 6343 52bd dd15 e2bd 1cdc b63d fdf0 fdbd
00000240: 6275 2e3d c8fc b73d a26b 523d 348f 8e3d
00000250: 65c0 af3d d88d 7cbd 4150 6ebc 1543 c8bc
00000260: 0ec4 0cbe 0e1d 883d 685d d8bd 788c ea3d
00000270: 94d0 7f3d a837 38bd 8fc5 3dbd ad37 b2bd
00000280: d274 aa3d 699c 323c 6f4f d4bc 75e9 e7bd
00000290: fd15 863d 2777 793d 055d e7bb f58b 0e3e
000002a0: bc41 103e 50ca 4a3d 6317 0fbd fffe 6fbd
000002b0: ee4c 203d 161e 86bb 3a0c 8c3d e9d6 d4bd
000002c0: e80b 53bb 9938 d83c ded3 afbd 1960 a23d
000002d0: 5ce7 03be cac2 263d ff82 cfbd 81dc a5bd
000002e0: 0f51 04be 23c5 9e3d 38ea 0fbe 8366 fdbd
000002f0: 8fb5 f23d d179 bcbd 2400 003e 71af 6bbc
00000300: b1f7 edbb 33b3 a93d cafc 8e3d 1c6e c1bd
00000310: e27e febd 6470 463c 80f8 6fbd 7449 a63d
00000320: 12a9 e13d 8743 13be 1c7c 07be 7ff7 bfbd
00000330: 5b9b 66bc 05e4 e7bc ca1c 90bd ca32 cfbd
00000340: e37b 00be 954b 093c 2a6c 88bd 5407 d1bd
00000350: 1aeb b2bd cca3 babb 1338 43bc 3a23 eabd
00000360: cede 8d3d 8174 7abd 6845 d53d 882d 8f3b
00000370: 40b9 44bd 144c d73c f7d3 babd 1a1d cfbd
00000380: 5429 233c fc9f 613d c94d 87bd e137 0fbe
00000390: 2e1f babd d7b2 883d 27d4 f43d 8d4c bfbc
000003a0: 3617 6bbb 2760 073e ceca 293d 6545 a63c
000003b0: 6d88 ddbc 8a53 ce3b 6f0e 11bd d071 75bd
000003c0: 73c1 eebd b386 48bd f75d 36bd e788 023e
000003d0: 1ef7 923d b9af 42bd 4118 06be 68e1 efbd
000003e0: cc65 453d 8702 0b3e 64a9 063e a3dc 41bd
000003f0: efc9 93bd c08b 92bc 1f3b 9f3d f9ee fcbd
0.083292365 -0.08827167 -0.03851302 0.03987389 -0.027862426 0.14192088 -0.094044514 -0.066787526
-0.081201695 -0.11460932 0.06487793 0.10759978 0.038962904 0.06530333 0.076460935 -0.10843129
0.087216705 -0.02040168 0.096045785 -0.070682704 0.0232901 -0.07728496 -0.0506897 -0.06727689
-0.015927134 -0.031455908 0.005784299 -0.059732568 -0.04237291 -0.07569555 -0.0656849 0.087442115
-0.08999834 -0.13697699 -0.0154756475 0.11205335 0.018554468 -0.1121585 0.0045696623 -0.11804387
-0.08399336 -0.0898438 0.13791963 0.074627034 -0.012242687 0.014488718 -0.08883634 0.06828709
-0.12123251 0.08507025 -0.117417365 0.036655776 -0.14485206 -0.09077064 -0.13158539 -0.11139037
-0.060487323 -0.07968921 0.020262439 -0.022498785 0.01571347 -0.08314624 -0.120423004 0.099488884
-0.07097979 -0.12681492 0.11217571 -0.042350356 -0.042058617 -0.07435397 0.06471227 -0.052170858
0.120269015 -0.03589609 0.12598114 -0.12668948 0.063809685 0.06417823 0.01349634 0.13826483
0.03633911 -0.031709485 0.1275807 -0.037561968 0.05537119 0.02786051 0.12010213 0.004232196
-0.109701365 0.14546672 0.09602523 -0.10823724 0.030649351 -0.038513657 -0.090516776 0.07239074
-0.03110153 0.092226215 0.1348441 0.09883328 0.101271264 -0.031440552 -0.110928796 -0.07690132
-0.108492315 0.10058775 0.06861556 -0.06565268 -0.050758857 0.076270215 0.12201506 0.12770522
0.12738101 -0.11925873 0.036320254 0.047760647 0.06059064 -0.08398276 -0.0079900455 0.11232409
0.03462738 0.0058943075 0.110606685 -0.093910314 0.07807292 -0.07390356 -0.0014564396 0.022919768
-0.0061646574 0.13861057 0.064950034 -0.119577914 0.049339507 -0.12661892 0.09790692 0.116760604
-0.05279546 0.120162554 0.043637488 -0.0058987094 -0.051333796 -0.11039326 0.08928701 -0.123994805
0.042592414 0.08983761 0.051372178 0.069609076 0.08581618 -0.06165871 -0.014545501 -0.02444605
-0.13746664 0.06646167 -0.10564691 0.114525735 0.062454775 -0.044974953 -0.046330985 -0.087020256
0.08323063 0.010901549 -0.025916783 -0.11323825 0.06547163 0.06090465 -0.0070606493 0.13920577
0.14087576 0.049509346 -0.034934413 -0.058592793 0.039135866 -0.004092942 0.068382695 -0.10392553
-0.0032203142 0.026394175 -0.08585332 0.079284854 -0.12881225 0.04071311 -0.101324074 -0.080986984
-0.12921546 0.077524446 -0.14054191 -0.12373068 0.11851036 -0.09202922 0.12500054 -0.01438509
-0.007262193 0.08286133 0.069818094 -0.0944483 -0.12426545 0.012111757 -0.058586597 0.08119479
0.11018576 -0.14381228 -0.13230938 -0.09373378 -0.014075126 -0.02830697 -0.07036741 -0.10117109
-0.12547259 0.008379837 -0.06661256 -0.10206476 -0.08736248 -0.0056957956 -0.011915225 -0.114325
0.06927262 -0.061146263 0.10413629 0.0043694414 -0.04802823 0.026281394 -0.0912246 -0.101129726
0.009958584 0.055084214 -0.06606633 -0.1398616 -0.09087978 0.06674736 0.11954527 -0.023351932
-0.003587199 0.13220273 0.041453175 0.020296762 -0.027042592 0.0062965797 -0.035414156 -0.059922993
-0.11657991 -0.048956584 -0.044523206 0.12747537 0.0717604 -0.047530863 -0.1309519 -0.11712915
0.048192784 0.13575183 0.13150555 -0.047329556 -0.0721625 -0.017888904 0.07774948 -0.12350268

fc2.bias f4 [50]
00000000: c618 d33d 9891 7d3c 0086 91bb 439e d73c
00000010: 8167 f1bd 98f6 47bd 77d8 d03d 9070 11be
00000020: 9363 653d 2e66 eb3d 077a 763d 7eb4 afbc
00000030: cb42 e43c 2d74 4abd 37bb abbd 326f 9abd
00000040: 5918 c8bc 6279 c43d 070c c73c bf53 44bd
00000050: 1ebc 8ebd 2db9 7e3c cc4b 1b3d 0775 04be
00000060: cc43 94bd e286 fcbd c5fe ee3d 522e fd3d
00000070: f8d3 fb3c 45b5 00be 7767 5fbd 40d1 e03c
00000080: 2da1 c33d 65ea 80bd 5a45 e4bd 77e3 983d
00000090: 9b83 2d3c b6a8 66bd 51bf 32bd d07b c03d
000000a0: a6c0 2b3c 8465 893d df55 73bd 34e5 083e
000000b0: d413 053e 13e2 dfbd 069b 24bd 9964 84bd
000000c0: 7015 9abd b6ab 093e
0.103074595 0.015476607 -0.004441023 0.026320582 -0.1178732 -0.048819155 0.101975374 -0.14203095
0.056003164 0.114940986 0.060174968 -0.02144837 0.02786388 -0.0494272 -0.08385318 -0.0754074
-0.024425672 0.095934644 0.024297727 -0.04793143 -0.06969474 0.015547079 0.037914082 -0.12935267
-0.07239494 -0.12330414 0.11669687 0.123623505 0.030740723 -0.12569149 -0.05454203 0.027443528
0.09552226 -0.06294707 -0.1114604 0.074652605 0.010590459 -0.05631324 -0.043639485 0.09398615
0.010482943 0.06708816 -0.059408065 0.13368684 0.12995845 -0.10931792 -0.040186904 -0.064645
-0.0752362 0.13444409

fc3.weight f4 [13, 50]
00000000: 78b4 9ebd dc95 c7bd 003b b03c deeb d9bd
00000010: 62e8 cfbb cf15 70bd 466b b1bd 4ad3 bd3d
00000020: cc68 c33d 9f97 423d c40f 58bd 1641 833d
00000030: 6f6f 893d 6b79 efbc 0297 d33c 8e10 493d
00000040: 2fc2 043e cebd b7bc 3aef cabd 9b8a 91ba
00000050: 72b5 e6bd bb5d 8fbc eddc 133d 00c0 913d
00000060: f68e 053e 1003 f23d ae6f c2bd fc39 fe3d
00000070: 3ff9 67bd 94d5 1d3d 5c1a 083e 5ccc 323d
00000080: 2849 a73d 500d fc3d 8640 923c a40a df3c
00000090: 031a 07be cdf8 bbbd 1d07 c6bd dd4f 97bd
000000a0: 02c0 193d a5a4 de3d d214 f839 6673 9f3d
000000b0: 0f15 f5bc 42b5 fb3d 6b9e 413d e213 313d
000000c0: 10ed 68bd a545 3d3d 5c13 dabd 05c6 b7bc
000000d0: fc3b cabd 1395 0a3e 4468 0a3e 6252 063d
000000e0: a991 db3d d0b9 3dbd e402 d3bb a124 d73d
000000f0: 1748 0f3e da1d 623c 3494 233d 04bf 133e
00000100: f51a 80bd c724 33bd af5b c7bd 0fbf 863d
00000110: 79f4 76bc 184e 55bd 8835 f7bd 735a b5bd
00000120: d4a0 b83d 42ba 973d cdc0 34bd e317 04be
00000130: ecdd 593d 8887 cfbd b0d2 7a3d d561 763d
00000140: ef56 a9bd be7b 8a3d cefb 9fbc 1a94 b4bd
00000150: b1b3 b63d 7d65 75bb ba5d 50bd d0f3 d2bd
00000160: 5162 07be b455 f2bc b6a3 eebd a27c 16bc
00000170: 9657 5c3d ede6 73bc 07fc 01be b3ce e63b
00000180: e688 e1bd d945 333c 2b13 f13d 20b0 e63c
00000190: f94b a1bd 0a2f 833c 3368 0f3e 424e cabc
000001a0: 6ab5 f1bd 4988 243d f525 67bd 6629 9e3d
000001b0: 9492 8c3d 53ae 1f3d c536 973d 2b46 afbd
000001c0: 09ec 96bd 2a0a debd 1d26 833c 4420 793d
000001d0: fae6 af3d 31f0 83bd 631b 69bc e519 b93d
000001e0: 993a b63d bc42 333d c7bb c7bd f58f c83d
000001f0: a54a d53d f4be 113d 8aa8 7abc 0b54 c4bd
00000200: 8ee0 d83d 6f96 cbbd a225 eabd dcb1 603d
00000210: ec5d a1bd 0936 023e b55d d23d 29d2 9e3c
00000220: 68b5 12bd 2102 1a3d ef05 80bd 2cb7 673d
00000230: c8fb 033e 9e12 4b3d 39b1 b5bd 180c 0f3e
00000240: 42ee 463c 90ff 0d3e 5fd2 f1bd f47d 303d
00000250: 7808 4e3d 027f 7fbd 5fff a3bd 9479 82bd
00000260: cc05 d9bd c20f f13d 1749 bc3d 557b 06be
00000270: b927 f6bd 3430 c13d 00d1 8bbc b71d ba3d
00000280: 21e1 0c3e 68ab e43d 1eb1 d43c b47b 073e
00000290: dd5a debd 156e ff3d 2f74 d73d 6d34 f8bc
000002a0: 1ede 113e 0375 a5bd 05c7 dabc dd0b b33b
000002b0: eea5 fe3d bcfe a4bd 54eb 94bd 62c0 803d
000002c0: bfc5 cb3d 001d ad3c 4363 03bd 01c8 cd3d
000002d0: 584e 9c3d 3e62 84bd 5c2c 113d 581f 163d
000002e0: 5126 d93b 7e51 13be 44ec de3d 69b3 92bd
000002f0: 9796 e3bd c4c2 e13b a1b1 bbbd 6431 123d
00000300: a6f6 fe3d 60c8 193c c558 9fbd b02e 90bd
00000310: 5013 aebc 830d 66bc 3929 a43d 5635 ee3d
00000320: fc52 f1bd 254a e73c 49bf ac3d 22ca d2bd
00000330: b4d2 973d 4c0b dcbb bbdd 0a3e 69b6 333d
00000340: 51f5 0f3e f989 5cbb 5058 f73d 9bf5 95bd
00000350: a5d3 6c3c be73 e83d 771f 0fbd be45 de3d
00000360: c816 723d cdb0 3f3d 92fb 343c aedf 023e
00000370: 7ba9 19bb 4cc5 9dbd 78dd 20bc 5c9a 96bd
00000380: 386a b03d 5b82 cd3d 9c2e e4bc 266c 053e
00000390: 4eb2 d33d deba e9bd e70a d0bc 3a7d dd3d
000003a0: d936 d2bd 5115 953c d794 39bd 2fe4 2a3d
000003b0: 68e3 96bd 3dad 10bc 3c75 2dbc eceb 443d
000003c0: b91f 873d eab9 09be 97d9 0c3d 698b fcbc
000003d0: 38e6 95bd 4675 bf3b 9420 413c bd65 9ebd
000003e0: d165 f83c 8d19 f1bd e934 dfbd aa65 be3d
000003f0: e1e8 83bd 732b 843d 1f0b 3d3d 397a 4abd
-0.077492654 -0.0974538 0.021512508 -0.10640691 -0.006344841 -0.05861455 -0.08663039 0.09268816
0.09541473 0.04750788 -0.05274941 0.064088985 0.067107074 -0.029232701 0.025828842 0.049088053
0.129647 -0.022429373 -0.0990891 -0.001110393 -0.11265077 -0.017500749 0.036099363 0.07116699
0.13042817 0.118169904 -0.094939575 0.124134034 -0.056634184 0.038533762 0.13291305 0.043651924
0.0816825 0.12307227 0.017853033 0.027226754 -0.13193516 -0.09178314 -0.096693255 -0.073882796
0.03753663 0.10871247 0.00047317758 0.077856824 -0.029917268 0.122904316 0.04727022 0.043231852
-0.056866705 0.046208996 -0.10648224 -0.02243329 -0.09874722 0.1353343 0.13516337 0.03279341
0.10721142 -0.046319783 -0.0064395536 0.10505033 0.13992344 0.0138010625 0.03993626 0.14428335
-0.06255142 -0.043736245 -0.09734284 0.0657941 -0.015072935 -0.05207643 -0.12070757 -0.088551424
0.090150505 0.07408573 -0.04412918 -0.12899737 0.053190157 -0.101332724 0.061236084 0.060151894
-0.082685344 0.06761883 -0.01952925 -0.08817311 0.08920992 -0.0037444525 -0.050870635 -0.1030041
-0.13221098 -0.029581882 -0.11652319 -0.009184988 0.053794466 -0.0148866 -0.12693797 0.0070436834
-0.110124394 0.010941946 0.11771234 0.028160155 -0.07875819 0.01601364 0.14004593 -0.02469552
-0.1180218 0.040169034 -0.056432683 0.0772274 0.06863895 0.038984608 0.07383493 -0.08558305
-0.07369239 -0.108417824 0.016009385 0.060821787 0.08588977 -0.06442297 -0.014227721 0.09038142
0.08897895 0.043764815 -0.097526126 0.097930826 0.10414628 0.035582498 -0.015298972 -0.095863424
0.105897054 -0.09940802 -0.11432959 0.05485712 -0.07879242 0.12715925 0.102717794 0.019387322
-0.035817534 0.037599687 -0.06251132 0.05657117 0.12889016 0.0495783 -0.08871693 0.13969457
0.012141766 0.1386702 -0.11807703 0.04308887 0.050301045 -0.062376983 -0.080076925 -0.063708454
-0.10596809 0.11770584 0.09193628 -0.13132985 -0.12019295 0.09433022 -0.017067432 0.09087699
0.13757755 0.11165506 0.025963362 0.13230783 -0.108571745 0.12472168 0.10520207 -0.030298436
0.14244887 -0.08078959 -0.026706228 0.0054640607 0.12433992 -0.08056399 -0.07271448 0.06286694
0.099498264 0.021131992 -0.032077085 0.10047913 0.076321304 -0.06464051 0.035442695 0.036650985
0.006626882 -0.14386556 0.10884908 -0.07163126 -0.11112707 0.006889673 -0.091647394 0.035691634
0.12449388 0.009386152 -0.07780603 -0.07040155 -0.021249443 -0.014041307 0.08015675 0.11631267
-0.11783406 0.028233597 0.08434922 -0.1029246 0.07413235 -0.006715214 0.13561146 0.04387513
0.14058425 -0.0033651574 0.12077391 -0.07322236 0.014454757 0.11350201 -0.034942117 0.10853146
0.059103757 0.04679947 0.011046307 0.1278064 -0.0023446965 -0.07703647 -0.009818427 -0.073536605
0.086140096 0.10034629 -0.027854256 0.13029537 0.10336743 -0.11412595 -0.025395824 0.10814901
-0.102643676 0.018198641 -0.04530796 0.04172152 -0.07367593 -0.008830366 -0.010587033 0.048076555
0.065978475 -0.13449827 0.034387197 -0.030828195 -0.07319301 0.0058428375 0.011787552 -0.07734249
0.030321987 -0.117724515 -0.10898764 0.09296735 -0.064409025 0.064536 0.046153184 -0.049432967

fc3.bias f4 [13]
00000000: eb5b 173e 5e25 aebd c7fc 24bd 4811 d5bd
00000010: c92d 48bd 8a79 193c 5c32 b7bd 38c9 523d
00000020: 4dec 7e3c afd7 883d 5006 cbbd 45fb 4d3d
00000030: 5e54 c03c
0.14781158 -0.08503221 -0.04028013 -0.10403687 -0.04887179 0.009367356 -0.08945152 0.05146143
0.015559268 0.066817634 -0.099133134 0.050288457 0.02347773
