TorchModels/DeepQtrader19.pt (torch, 25047 bytes, 6 tensors)

fc1.weight f4 [50, 50]
0	0x3b0595e8	0.002038354
1	0xbcdd458f	-0.027010707
2	0x3d820bf9	0.0634994
3	0x3dd0d509	0.10196883
4	0xbc1e9573	-0.009679186
5	0xbe12ae5f	-0.1432433
6	0x3db5c759	0.08875913
7	0xbe0eda9e	-0.13950583
8	0x3def117e	0.11673258
9	0xbddf54fa	-0.1090488
10	0xbd7230b3	-0.059128474
11	0xbd7d48fa	-0.061837174
12	0x3d189d4b	0.03725938
13	0xbdaa8e37	-0.083279066
14	0xbe0a6a65	-0.13517149
15	0x3d543143	0.051804792
16	0xbdceb561	-0.10093189
17	0xbdb5e8fc	-0.08882329
18	0x3e03586c	0.12826699
19	0x3d5cd47f	0.05391359
20	0x3d1cfb45	0.038325567
21	0xbb8a256c	-0.004215887
22	0xbd72d10e	-0.0592814
23	0x3d917763	0.07102849
24	0xbddda8e9	-0.10823233
25	0x3da639cb	0.08116492
26	0x3e0fe5f1	0.1405256
27	0x3daa7187	0.08322435
28	0x3db18826	0.086685464
29	0x3d0a6422	0.0337869
30	0x3d3baa94	0.045816973
31	0x3d9c2657	0.076245
32	0x3e06f97c	0.13181108
33	0x3d0da16c	0.034577772
34	0xbdf0d386	-0.11759095
35	0x3dd69ca2	0.10479094
36	0x3deb3f94	0.11486736
37	0xbd0e2266	-0.034700774
38	0x3ca86076	0.020553809
39	0x3ddc643a	0.10761304
40	0x3dfa806e	0.12231527
41	0xbd9a7ed3	-0.07543721
42	0x3d996b47	0.07491165
43	0x3d093a13	0.03350265
44	0xbdcdf232	-0.10055961
45	0x3dc5bfb3	0.09655704
46	0x3e05a953	0.13052873
47	0x3d8a108b	0.067414366
48	0xbcbc11d9	-0.02295773
49	0xbda57336	-0.08078615
50	0x3d768df4	0.06019397
51	0xbe1a258d	-0.15053387
52	0x3b41d554	0.0029576616
53	0xbd84b158	-0.06479138
54	0xbd918366	-0.071051404
55	0x3d9a6daa	0.07540448
56	0x3a16db20	0.0005754698
57	0x3d4c7c7d	0.04992341
58	0xbd82a82f	-0.06379735
59	0xbd0ac63e	-0.033880465
60	0x3d46e2f8	0.048556298
61	0xbccdce1c	-0.025122695
62	0xbc5898eb	-0.013220052
63	0x3d86e72b	0.065870605
64	0x3c836348	0.016038552
65	0xbd9e16ca	-0.077191904
66	0x3c75ec99	0.015010023
67	0xbde7af46	-0.11312728
68	0xbcdf49ae	-0.027256813
69	0xbdfdde5a	-0.12395926
70	0xbde856aa	-0.11344655
71	0x3dc63a1d	0.09679053
72	0x3dd61b9b	0.10454484
73	0x3d705d06	0.058682464
74	0xbdc2c475	-0.095101275
75	0xbe092f8f	-0.13397048
76	0x3e02daa4	0.12778717
77	0x3b858195	0.0040742853
78	0xbd0d6f0e	-0.034529738
79	0xbcf533c2	-0.029931907
80	0x3d78e363	0.060763728
81	0x3c2b6d1f	0.010463028
82	0x3d38c11c	0.04510604
83	0x3c5bb5f1	0.013410077
84	0x3d24f1e3	0.040269744
85	0x3e062e29	0.13103546
86	0xbc2dcee5	-0.0106084095
87	0x3de67eb5	0.11254636
88	0x3c501cde	0.012702195
89	0x3dd2f17e	0.10299967
90	0xbd7491f2	-0.059709497
91	0x3ddde44e	0.10834561
92	0xba8b96e0	-0.0010649823
93	0xbd7f7bb8	-0.062373847
94	0xbdf89157	-0.121370964
95	0x3d1cc3aa	0.038272537
96	0x3dee065b	0.11622306
97	0xbd45e3ca	-0.04831294
98	0xbd1403d0	-0.03613645
99	0xbdf61202	-0.120151535
100	0x3d6f1755	0.05837186
101	0x3d9eb7ab	0.07749876
102	0x3da9790b	0.0827504
103	0x3dfdf21e	0.12399696
104	0xbc004b69	-0.007830479
105	0xbc885656	-0.01664273
106	0x3d192de1	0.03739727
107	0xbcce80a4	-0.025207825
108	0xbe07ad11	-0.13249613
109	0xbdfdf25a	-0.123997405
110	0x3da491bc	0.08035609
111	0x3de2c865	0.110733785
112	0xbc7fa2ad	-0.01560275
113	0x3d25a4d7	0.040440407
114	0x3dae7cf6	0.08519928
115	0xbdfad633	-0.122478865
116	0x3d6246b8	0.055243224
117	0xbddf6214	-0.10907379
118	0x3dfcc4f4	0.12342253
119	0x3d9c5f2b	0.07635339
120	0x3d6733a4	0.056445733
121	0x3cf8e48c	0.030382417
122	0xbc33127b	-0.010929699
123	0x3c3092d6	0.010777196
124	0x3d49472a	0.049140133
125	0xbdd9b3b1	-0.106299765
126	0xbdef3b51	-0.116812356
127	0x3db1f93e	0.08690117
128	0xbc6fadba	-0.014628822
129	0xbe0acf20	-0.13555574
130	0x3e10ab92	0.14127949
131	0x3db218be	0.086961254
132	0xbd924acc	-0.071431726
133	0xbdacf8bc	-0.0844588
134	0x3c3385c7	0.010957188
135	0x3db2581a	0.0870821
136	0x3c51e219	0.012810254
137	0x3d8099e7	0.062793545
138	0x3d9f57a1	0.07780386
139	0xbdeea270	-0.11652076
140	0x3c980018	0.018554732
141	0x3da56e07	0.08077627
142	0xbc8b6ec6	-0.017020594
143	0xbdd04fba	-0.10171457
144	0x3dc6a917	0.0970022
145	0xbe022b8e	-0.12711927
146	0xbdfceeb3	-0.12350216
147	0x3d054d57	0.03254446
148	0xbd9e8ea8	-0.07742053
149	0x3e078bb1	0.13236882
150	0x3e0962a1	0.1341653
151	0xbc0cb354	-0.008587677
152	0x3d896d36	0.067102835
153	0x3d3fedf9	0.046857808
154	0xbdd58faf	-0.10427796
155	0x3dc572a4	0.096410066
156	0x3be259d9	0.0069076833
157	0xbcecd1f5	-0.028908709
158	0xbcb83349	-0.022485392
159	0xbd84dee4	-0.064878255
160	0xbd275e0c	-0.040861174
161	0x3c3c88b5	0.011507203
162	0xbda16978	-0.07881445
163	0x3b9158f4	0.004435653
164	0x3cb2eb14	0.02184061
165	0xbdf8509f	-0.12124752
166	0x3e121c3b	0.14268582
167	0xbdae83b0	-0.08521211
168	0xbd541538	-0.05177805
169	0x3d8a122b	0.067417465
170	0xbbf134a4	-0.0073610116
171	0xbd91ffa7	-0.0712884
172	0xbcd753e6	-0.026285123
173	0x3d0bf4f6	0.03416916
174	0x3d863e8a	0.06554897
175	0x3debb19c	0.11508486
176	0x3e062938	0.13101661
177	0x3df9c6e1	0.12196136
178	0xbbb273c1	-0.005445928
179	0x3c69cc38	0.014269881
180	0xbd55c3da	-0.05218873
181	0xbd8cd42d	-0.06876407
182	0xbd56694a	-0.052346505
183	0x3d8512f9	0.06497759
184	0xbd9637a3	-0.073348306
185	0x3c4d8c62	0.012545677
186	0x38f5b3d4	0.00011716006
187	0x3d77d1cc	0.060502812
188	0x3e06cc74	0.1316393
189	0x3dac2711	0.08405889
190	0x3d79d902	0.06099797
191	0xbc8c59cf	-0.017132668
192	0xbd028cb3	-0.031872462
193	0xbd36a5c1	-0.04459167
194	0xbd99c707	-0.075086646
195	0x3de561e9	0.112003155
196	0xbe10d96e	-0.14145443
197	0x3ddc57b5	0.10758916
198	0x3db34258	0.087528884
199	0xbce0c36f	-0.02743694
200	0xbdf23b40	-0.11827707
201	0x3e0c2b31	0.13688351
202	0x3c833053	0.016014254
203	0x3dfbaece	0.12289201
204	0xbd723036	-0.05912801
205	0x3db11e23	0.08648326
206	0xbdae16db	-0.08500453
207	0x3df77d57	0.120844536
208	0x3d94c620	0.07264352
209	0xbd17c63b	-0.03705428
210	0x3d08929c	0.033342943
211	0x3d609f25	0.054839272
212	0x3c66aedd	0.014079777
213	0x3dfd9ec6	0.12383799
214	0xbe08e81e	-0.13369796
215	0xbd820e09	-0.06350333
216	0xbd1f2bcf	-0.03886014
217	0x3b443919	0.002994126
218	0xbc15236d	-0.009102684
219	0xbe0ac114	-0.13550216
220	0x3d0c0326	0.03418269
221	0xbd4afd24	-0.04955782
222	0x3c567aac	0.013090771
223	0x3cab8296	0.020936292
224	0xbe0cf938	-0.13766944
225	0xbddd8b7d	-0.10817621
226	0x3e04c518	0.1296581
227	0x3dae6742	0.085157886
228	0x3d81e8ff	0.063432686
229	0xbdaaf42b	-0.083473526
230	0x3dd9b3a2	0.10629965
231	0x3d102a16	0.035196386
232	0x3e0d9fd5	0.13830502
233	0x3d431c77	0.047634568
234	0x3d8532c6	0.06503825
235	0xbd856de8	-0.065151036
236	0xbdce1a9a	-0.100636676
237	0x3cca4e7e	0.024695631
238	0x3da86606	0.082225844
239	0xbd18b485	-0.03728153
240	0x3ceec6fe	0.029147621
241	0xbca387d2	-0.019962225
242	0xbd3fddfa	-0.046842553
243	0xbc1bbdcb	-0.009505699
244	0x3de58635	0.112072386
245	0xbd860f76	-0.06545918
246	0x3dc5a074	0.09649745
247	0x3df26cb9	0.118371435
248	0xbc6cc0c5	-0.014450257
249	0xbd3594ba	-0.04433129
250	0x3dfd5986	0.12370591
251	0xbd433fe8	-0.047668368
252	0xbd4577c2	-0.048209913
253	0xbdb343cb	-0.08753165
254	0x3df9cfdd	0.1219785
255	0x3dd9fbe3	0.10643747

fc1.bias f4 [50]
0	0x3dee3dcf	0.11632883
1	0x3c9b37aa	0.018947441
2	0xbd8660bc	-0.06561419
3	0x3c028961	0.007967324
4	0x3dedb882	0.11607458
5	0xbe0cfa5d	-0.13767381
6	0x3ccf2b22	0.025289122
7	0x3d885ad7	0.06657951
8	0xbdf50927	-0.11964636
9	0x3dbb42a5	0.09143571
10	0xbdaee7ed	-0.0854033
11	0x3dfec859	0.12440557
12	0xbc7e409e	-0.015518336
13	0xbe050cef	-0.12993215
14	0x3dddd53b	0.10831686
15	0xbdb1ffa4	-0.08691338
16	0xbdd73b3b	-0.10509344
17	0x3e0658b6	0.13119778
18	0x3e036061	0.12829734
19	0x3e0d460d	0.13796254
20	0xbdc70b23	-0.09718921
21	0x3e008769	0.12551655
22	0x3dae7853	0.08519044
23	0x3d91926e	0.07108007
24	0x3df06805	0.1173859
25	0x3c7e6197	0.015526197
26	0x3d785c0a	0.06063465
27	0x3dbd9130	0.09256208
28	0xbb136b91	-0.0022494534
29	0xbdb56d7b	-0.08858772
30	0xbdefaceb	-0.11702903
31	0xbda0b6d9	-0.078473754
32	0xbc91cf75	-0.017799119
33	0x3d9e5220	0.07730508
34	0x3c933e94	0.017974176
35	0x3c3e92b3	0.0116316555
36	0x3d1f60f7	0.038910832
37	0xbddcc2fa	-0.10779376
38	0x3d5936f4	0.053030923
39	0x3dfa39dd	0.12218068
40	0x3d8d88e5	0.06910876
41	0x3db6c0e0	0.08923507
42	0x3da4da9b	0.08049508
43	0x3db1e1ec	0.08685669
44	0x3d834879	0.064103074
45	0x3dab8797	0.08375471
46	0x3c0613f2	0.008183466
47	0x3db2138a	0.08695133
48	0x3bb18c0c	0.005418306
49	0x3dd5609d	0.10418818

fc2.weight f4 [50, 50]
0	0x3c012942	0.007883372
1	0x3d562f9d	0.0522915
2	0xbc843271	-0.016137334
3	0xbce0e2b0	-0.027451843
4	0x3df64922	0.12025668
5	0xbbf699f5	-0.0075256773
6	0xbcc13c0d	-0.023588205
7	0xbe04fca0	-0.12986994
8	0x3cff3115	0.031151334
9	0xbcf89c39	-0.03034793
10	0xbcc7334a	-0.024316449
11	0x3c70d694	0.014699597
12	0xbdb4dadf	-0.08830809
13	0xbd80c568	-0.06287652
14	0x3e019a25	0.12656458
15	0x3dd7a837	0.10530131
16	0xbdf6b8e5	-0.120469846
17	0xbdc38cac	-0.095483154
18	0x3d938aff	0.07204246
19	0x3d1b64cb	0.03793792
20	0x3ce5d0dc	0.028053693
21	0xbde1a395	-0.11017529
22	0x3d007377	0.031360116
23	0xbd9ea29e	-0.077458605
24	0xbdb03aa8	-0.08604938
25	0xbda6cb76	-0.08144276
26	0x3cc86559	0.024462389
27	0xbda641c2	-0.08118011
28	0x3daeb39a	0.0853035
29	0x3d929435	0.071571745
30	0xbd92e048	-0.071716845
31	0xbe0d1f76	-0.13781533
32	0xbdc28bf2	-0.09499349
33	0xbde09c77	-0.10967343
34	0xbde79f98	-0.11309737
35	0xbd8f08cc	-0.069841
36	0xbdf41329	-0.11917717
37	0xbd299904	-0.041405693
38	0x3dd9e055	0.10638491
39	0x3d95b8f5	0.073106684
40	0xbe0b2f8b	-0.13592355
41	0xbe0a989d	-0.1353478
42	0xbded8e23	-0.11599376
43	0xbd9b96ab	-0.07597097
44	0xbd9fe9c5	-0.0780826
45	0xbd23dcd6	-0.040005527
46	0x3d98cad3	0.07460561
47	0xbd355411	-0.044269625
48	0x3d48eb59	0.04905257
49	0x3d063c26	0.032772206
50	0xbdcff673	-0.10154428
51	0x3dd1824e	0.10229932
52	0x3df4cd58	0.11953229
53	0x3e103e55	0.14086278
54	0xbe01de0b	-0.12682359
55	0x3dd6aa05	0.104816474
56	0xbd3fc21b	-0.046815973
57	0x3cca99e2	0.02473158
58	0xbdf76fa0	-0.12081838
59	0xbcf6a5aa	-0.030108292
60	0x3cc68b56	0.024236362
61	0x3d507d7c	0.05090092
62	0x3cd95c00	0.026533127
63	0x3d43b11a	0.04777632
64	0xbd1b4962	-0.03791178
65	0x3dfeebb2	0.12447299
66	0x3d8aaef1	0.06771649
67	0xbd9cafba	-0.07650705
68	0x3db1403a	0.08654828
69	0xbd837d5c	-0.06420395
70	0x3c943057	0.018089456
71	0x3cf4e454	0.029894032
72	0xbdfa5bda	-0.122245505
73	0xbe0699b1	-0.13144566
74	0xbe080cb4	-0.13286096
75	0x3daa8d06	0.08327679
76	0x3c63d2ca	0.0139052365
77	0xbcf63352	-0.030053768
78	0xbd422732	-0.04740066
79	0xbdd2dab6	-0.10295622
80	0xbd906621	-0.070507295
81	0xbdf49084	-0.11941627
82	0xbcedc7af	-0.02902588
83	0x3d97265e	0.07380365
84	0xbbdfa65a	-0.0068252506
85	0x3dc6fa93	0.09715762
86	0x3d54d419	0.051960085
87	0xbdf11c19	-0.11772937
88	0x3cfc2fa7	0.030784441
89	0xbdb2699a	-0.08711548
90	0xbdff5135	-0.12466661
91	0xbc8c91c2	-0.017159346
92	0x3d50c825	0.050972123
93	0xbdf068fa	-0.11738773
94	0xbad8a007	-0.0016527184
95	0xbd9daf17	-0.07699411
96	0x3d43541e	0.047687642
97	0xbdcf7023	-0.1012881
98	0x3def6310	0.116888165
99	0x3caaa82f	0.02083215
100	0x3dfda237	0.12384456
101	0xbdd913ad	-0.10599456
102	0xbdec7f50	-0.115477204
103	0x3d1aa09a	0.037750818
104	0xbc9f6d32	-0.019461248
105	0xbd965121	-0.07339693
106	0xbbb40301	-0.005493522
107	0x3cad5816	0.021160167
108	0x3c86f212	0.01647285
109	0x3da03b08	0.07823759
110	0xbd3c7ee4	-0.04601945
111	0xbd878e31	-0.06618918
112	0x3d914d45	0.07094816
113	0x3da6e418	0.08148974
114	0xbdc166cf	-0.09443437
115	0x3dd7fa15	0.10545746
116	0xbcc1cab6	-0.02365623
117	0x3c936d38	0.017996415
118	0x3d1d4db2	0.038404174
119	0xbd88cd0c	-0.066797346
120	0xbd158d5d	-0.036511768
121	0xbc79ca41	-0.015245975
122	0xbd1fa3df	-0.03897464
123	0xbd6254f7	-0.05525681
124	0x3ab1d8e6	0.0013568669
125	0x3d971dfd	0.07378767
126	0x3dac909f	0.08426022
127	0xbd51fd65	-0.051267046
128	0x3de25408	0.11051184
129	0x3e0825f8	0.13295734
130	0x3cbe9038	0.023262128
131	0x3d2706ee	0.040778093
132	0xbd9befe1	-0.07614113
133	0x3e0375c1	0.12837888
134	0x3d5d8cb6	0.05408927
135	0xbe068c81	-0.13139535
136	0x3dd42fcc	0.10360679
137	0x3d0fefba	0.03514073
138	0xbd7f2df0	-0.06229967
139	0xbd0cae5c	-0.03434597
140	0x3cf2d270	0.02964136
141	0xbd13a4cb	-0.03604583
142	0x3e03baf2	0.12864283
143	0xbd5ba39c	-0.053622827
144	0x3dffb5cd	0.124858476
145	0xbdab2df4	-0.08358374
146	0x3da0ba74	0.07848063
147	0xbc23fbd6	-0.010008773
148	0x3b65f06d	0.0035085932
149	0x3d9b4f17	0.075834446
150	0x3dc51d44	0.096247226
151	0x3db8a59d	0.09015963
152	0x3e0189a0	0.12650156
153	0x3d954a57	0.0728957
154	0xbe00d3ac	-0.12580746
155	0xbe0802d5	-0.1328233
156	0xbd9233a5	-0.07138757
157	0x3e0f05a4	0.13966995
158	0x3d802192	0.06256403
159	0x3da9229f	0.082585566
160	0x3b128666	0.002235794
161	0xbcc23da6	-0.023711037
162	0x3d2c6e3f	0.042097326
163	0xbda994fb	-0.08280369
164	0xba92922f	-0.0011182482
165	0xbd388914	-0.045052603
166	0xbdebdc0e	-0.115165815
167	0x3daec247	0.08533149
168	0x3dfbbbe9	0.122917004
169	0xbc591840	-0.013250411
170	0x3d4cf868	0.050041586
171	0xbcd977bb	-0.02654635
172	0xbba01195	-0.0048849084
173	0x3d54882e	0.051887684
174	0x3d886ce1	0.06661392
175	0x3e00ede9	0.12590756
176	0xbe0f419e	-0.13989875
177	0xbaa9dd8e	-0.0012959705
178	0xbe0994dd	-0.13435693
179	0x3d8f23dc	0.069892615
180	0x3e03506e	0.1282365
181	0xbe02f605	-0.12789162
182	0xbdfd7c4f	-0.123772256
183	0x3dc01177	0.09378331
184	0x3dbf5b35	0.09343568
185	0xbcfab817	-0.030605359
186	0xbb9a209c	-0.0047035944
187	0xbc1e5000	-0.009662628
188	0xbdbb7884	-0.09153846
189	0xbe009d80	-0.12560081
190	0x3e064626	0.13112697
191	0xbdc31627	-0.095257096
192	0x3dfbb138	0.12289661
193	0xbc962234	-0.018326856
194	0xbd434768	-0.04767552
195	0xbcd42b72	-0.025899623
196	0x3d2676b7	0.04064056
197	0xbd409e7e	-0.04702615
198	0x3d4525db	0.048131805
199	0xbdd89226	-0.105747506
200	0x3ddde7c7	0.10835224
201	0x3dcf20e3	0.101136945
202	0x3da47074	0.08029261
203	0x3d529560	0.051411986
204	0xbdd00966	-0.101580426
205	0xbb9e1718	-0.0048245303
206	0x3d1f2f45	0.03886344
207	0x3cc82cb2	0.024435375
208	0xbe01c166	-0.12671432
209	0xbce61cb1	-0.028089853
210	0xbdfad32a	-0.122473076
211	0xbd9d84c5	-0.076913394
212	0x3db40e1a	0.08791752
213	0x3ca8676f	0.020557133
214	0x3de10e62	0.109890714
215	0xbc682ac3	-0.014170351
216	0x3de7d532	0.11319961
217	0x3d32c104	0.043641105
218	0x3e076f69	0.13226093
219	0x3e0fcfa1	0.14044048
220	0xbcfd3d90	-0.030913144
221	0xbdc2b4f8	-0.09507173
222	0xbd4e2559	-0.050328586
223	0xbddc5fb5	-0.10760442
224	0xbdf68fe6	-0.12039165
225	0xbc8c019a	-0.017090607
226	0x3db27ce4	0.08715227
227	0xbdfed8af	-0.12443673
228	0xbc3c67ab	-0.011499326
229	0xbdcf0e31	-0.10110129
230	0xb98c4913	-0.00026757325
231	0x3d395942	0.04525114
232	0x3c55a5ed	0.013040048
233	0x3d332d6e	0.043744497
234	0xbc7a05f5	-0.015260209
235	0xbcfe207a	-0.031021345
236	0xbdd90f30	-0.105986
237	0x3d974fae	0.073882446
238	0x3d9a23f3	0.07526388
239	0xbde71231	-0.112827666
240	0xbe0735ec	-0.13204163
241	0xbb7c4270	-0.0038491748
242	0xbd8e4bc1	-0.06948043
243	0x3ceba5ac	0.028765522
244	0x3dd4955d	0.10380051
245	0x3de5e983	0.112261795
246	0x3d19f75d	0.03758942
247	0xbd8369bc	-0.064166516
248	0x3d012bd1	0.031535927
249	0x3d8c13cf	0.06839716
250	0xbe0d42cf	-0.13795017
251	0xbc24ec2b	-0.010066072
252	0x3c314db3	0.010821748
253	0xbdcebac9	-0.1009422
254	0x3e066179	0.1312312
255	0x3de28bc4	0.110618144

fc2.bias f4 [50]
0	0x3d9cdab1	0.076588996
1	0xbcad5066	-0.021156501
2	0xbd29dacf	-0.041468438
3	0xbe088d17	-0.13335072
4	0xbde79f50	-0.11309683
5	0xbd2e9feb	-0.04263298
6	0xbd4a61d5	-0.049409706
7	0xbca8003c	-0.020507924
8	0x3d1e3ead	0.03863399
9	0xbdbae9da	-0.09126635
10	0x3ddfc289	0.109257765
11	0x3d9afd0f	0.07567798
12	0xbd442f30	-0.047896564
13	0x3e065036	0.13116536
14	0xbd7c5a8d	-0.061609793
15	0x3de9ea81	0.11421681
16	0xbdec5fa0	-0.115416765
17	0xbcf65699	-0.03007059
18	0xbe041084	-0.12896925
19	0xbd45838f	-0.048221167
20	0xbc96892c	-0.018375956
21	0x3d8b0d0d	0.067895986
22	0xbd715179	-0.05891559
23	0x3e0aa058	0.13537729
24	0x3dc200bf	0.094727986
25	0x3d0f5dcd	0.035001565
26	0xbdf5c853	-0.120010994
27	0xbca324b1	-0.019914957
28	0xbe07b1df	-0.13251446
29	0x3e1946b7	0.14968382
30	0x3dcb2acc	0.09920272
31	0xbd5009a2	-0.050790437
32	0xbc977915	-0.018490354
33	0x3cb13598	0.021632
34	0x3da11870	0.07865989
35	0x3da78c80	0.08181095
36	0xbcd4bb68	-0.025968269
37	0xbd45939e	-0.04823648
38	0x3c675b81	0.014120937
39	0x3e1053bf	0.14094447
40	0xbdb68bff	-0.08913421
41	0x3d601e44	0.054716364
42	0xbdce0fff	-0.10061645
43	0xbdae6300	-0.085149765
44	0xbd36536f	-0.044513162
45	0x3d1904d5	0.037358124
46	0x3d16ff36	0.036864482
47	0xbd002bbe	-0.031291716
48	0xbdb0d5ef	-0.086345546
49	0x3db88906	0.0901051

fc3.weight f4 [13, 50]
0	0xbded7377	-0.11594289
1	0xbd3ac725	-0.045600075
2	0x3a9d1091	0.0011983087
3	0x3dddaa0d	0.1082345
4	0x3c14ab42	0.009074034
5	0x3cf8afc1	0.030357243
6	0x3dc84b2c	0.09779963
7	0xbd95c005	-0.073120154
8	0xbe09ec9c	-0.13469166
9	0x3b7b7588	0.0038369615
10	0xbddac354	-0.10681787
11	0x3d8fd83d	0.07023666
12	0xbc6a33a2	-0.014294537
13	0xbbf6b824	-0.0075292755
14	0x3dbe19f5	0.09282295
15	0x3e10e759	0.14150752
16	0xbdd4f54b	-0.103983484
17	0xbd829197	-0.06375425
18	0xbc4976a8	-0.012296356
19	0xbe038b0d	-0.12846012
20	0x3ce57e27	0.028014256
21	0xbd4e68d7	-0.05039295
22	0xbd682d5d	-0.056683887
23	0xbd999a6c	-0.07500157
24	0x3d5cfa53	0.053949665
25	0x3c04ec96	0.008113047
26	0x3dfd4ea2	0.12368514
27	0x3dce6d5e	0.10079454
28	0xbdb39c2d	-0.087700225
29	0x3cee3764	0.029079147
30	0x3e097cf0	0.13426566
31	0x3cfe99f7	0.031079276
32	0x3dbd0030	0.092285514
33	0x3e08a400	0.13343811
34	0x3dc6f6ff	0.097150795
35	0xbd9162ca	-0.07098921
36	0xbdbefc6c	-0.093254894
37	0xbcd3676e	-0.025806155
38	0x3db76cd1	0.08956302
39	0xbcc39be7	-0.023878051
40	0xbc921492	-0.017832074
41	0x3dd4784d	0.10374508
42	0x3d1ba959	0.0380033
43	0x3e07e7f7	0.13272081
44	0xbdc797e8	-0.09745771
45	0xbdbbd098	-0.091706455
46	0xbd711ceb	-0.05886547
47	0x3da811a5	0.082064904
48	0xbd888097	-0.066651516
49	0x3d300904	0.042977348
50	0xbdb27c71	-0.087151416
51	0xbe0041a1	-0.12525035
52	0x3c985c8f	0.018598823
53	0x3de1ff9f	0.11035084
54	0xbdfdd46b	-0.12394031
55	0x3e0c769f	0.13717125
56	0xbd8ead4a	-0.06966646
57	0xbd37341e	-0.044727437
58	0xbd63d9e7	-0.05562773
59	0x3d96cd26	0.07363348
60	0xbe02d413	-0.12776212
61	0xbb9f0a4f	-0.004853524
62	0x3deee26a	0.11664279
63	0xbe00dcca	-0.12584224
64	0xbde6d4ad	-0.112710334
65	0x3ae1ae8f	0.001721816
66	0xbd17f7b9	-0.03710148
67	0xbe0165fc	-0.1263656
68	0xbd074cea	-0.033032335
69	0x3ad7f297	0.0016475496
70	0x3d9569e3	0.07295587
71	0xbe0ae463	-0.13563685
72	0xbdba5b33	-0.09099426
73	0xbddf90de	-0.10916303
74	0xbde6d87f	-0.11271762
75	0x3d5239b1	0.05132455
76	0x3d9bad4d	0.07601414
77	0xbda51c73	-0.08062067
78	0xbdfe4e78	-0.124173105
79	0xbde803fa	-0.113288835
80	0x3dd7bc65	0.1053398
81	0xbe028a75	-0.1274813
82	0xbd5f9541	-0.0545857
83	0x3cb51f44	0.022109635
84	0xbd6dbac6	-0.05803945
85	0x394e3396	0.00019664908
86	0x3d856834	0.06514016
87	0x3e00cfa2	0.12579206
88	0x3d5ddd16	0.054165922
89	0x3e12abc3	0.14323334
90	0xbcec6e10	-0.028861076
91	0x3aa57d0a	0.0012625766
92	0x3d65f344	0.0561402
93	0x3cd5beb2	0.026091907
94	0x3d8f87fb	0.07008358
95	0xbdce1fcb	-0.10064658
96	0xbd233a8a	-0.03985075
97	0x3d6feb0d	0.05857377
98	0xbd9cd77b	-0.07658287
99	0x3dad2d1d	0.0845587
100	0xbd59290f	-0.053017672
101	0x3d8f5bce	0.06999932
102	0x3d82b0ed	0.06381402
103	0x3e0cbec9	0.13744654
104	0x3d5e9b95	0.054347593
105	0x3d932254	0.07184282
106	0xbde86af1	-0.113485225
107	0x3dc6c31a	0.097051814
108	0x3d418b0b	0.047251742
109	0xbd8bb24d	-0.068211176
110	0xbd02a4ab	-0.03189532
111	0x3d9abd60	0.07555652
112	0xbba010ca	-0.004884814
113	0x3d077295	0.03306826
114	0x3dc45346	0.09586196
115	0x3c2acf3b	0.010425384
116	0x3cb89c02	0.022535328
117	0x3d250943	0.040292036
118	0x3c4679da	0.012114013
119	0xbcc1798e	-0.023617532
120	0x3d0df3c6	0.03465631
121	0x3d86f723	0.06590106
122	0x3d8529a4	0.06502083
123	0x3daab13b	0.08334585
124	0xbd9b58f2	-0.07585324
125	0xbd9056b3	-0.070477866
126	0x3dc14630	0.09437215
127	0x3dd5d109	0.10440261
128	0x3cd41dda	0.02589314
129	0x3ca757d2	0.020427618
130	0xbdf2c7b5	-0.11854497
131	0x3d3931a2	0.04521335
132	0xbd97f49d	-0.07419703
133	0xbb96c43c	-0.0046010297
134	0x3dcedfac	0.10101256
135	0xbd9b48d1	-0.07582248
136	0x3cc276ec	0.023738347
137	0xbdae92da	-0.085241035
138	0xbd873de2	-0.066036
139	0xbd3d4d06	-0.046216033
140	0xbddff897	-0.109360866
141	0xbe02a73b	-0.12759106
142	0x3d98f8e9	0.07469351
143	0x3dc50647	0.09620338
144	0xbe04c0bc	-0.12964147
145	0x3d56053b	0.052251082
146	0x3d9bde0d	0.07610712
147	0x3c2939e4	0.010328744
148	0x3d0356b3	0.032065105
149	0xbd3a97bd	-0.045554865
150	0xbd580bac	-0.052745506
151	0x3d25a196	0.040437303
152	0xbdec45ec	-0.11536774
153	0x3cb35af8	0.021893963
154	0xbdb7b303	-0.08969691
155	0x3cd9871b	0.026553681
156	0xbd1ea011	-0.03872687
157	0xbdb24f55	-0.08706538
158	0x3d241cef	0.040066656
159	0xbd8ff174	-0.070284754
160	0x3deda5e9	0.116039105
161	0x3e117495	0.14204629
162	0x3dfb50e7	0.1227129
163	0x3da0600c	0.078308195
164	0xbb151493	-0.002274786
165	0xbd3a14d3	-0.045430016
166	0xbd91d557	-0.071207695
167	0xbd28fd0f	-0.04125696
168	0xbdeb4b1f	-0.114889376
169	0xbd26d722	-0.04073251
170	0x3cb1f1cb	0.021721741
171	0xbdc25b0a	-0.094900206
172	0xbda2e708	-0.07954222
173	0xbd68bfca	-0.05682353
174	0xbd8ba066	-0.06817703
175	0xbd50f480	-0.051014423
176	0xbc6bf42b	-0.014401476
177	0x3e06285d	0.13101335
178	0xbd02d0b2	-0.03193731
179	0x3db84fcc	0.08999595
180	0xbe00e3a5	-0.1258684
181	0xbd61936e	-0.05507224
182	0xbd09a3f9	-0.033603642
183	0x3e0eabc2	0.13932708
184	0xbe012ad1	-0.1261399
185	0x3dbee068	0.09320146
186	0xbe006982	-0.12540248
187	0x3e100eac	0.14068097
188	0x3c0dad5e	0.008647291
189	0x3df11c38	0.117729604
190	0xbc16e85a	-0.00921067
191	0xbd28b40b	-0.041187327
192	0xbc778edf	-0.015109747
193	0x3e0edabc	0.13950628
194	0xbd9b6d05	-0.07589153
195	0xbdf61e3d	-0.12017486
196	0xbd7ee00e	-0.062225394
197	0xbdd78007	-0.10522466
198	0xbe01932c	-0.12653798
199	0xbdb8a47d	-0.09015749
200	0xbdb9384a	-0.090439394
201	0xbdae214c	-0.085024446
202	0x3d6c5b53	0.05770428
203	0xbe0d521a	-0.1380085
204	0x3cf820de	0.03028911
205	0xbcc049b3	-0.023472643
206	0xbd26569d	-0.040609945
207	0x3c8db6b2	0.01729903
208	0x3dbf2885	0.093339
209	0xbe07bfbe	-0.13256738
210	0xbde665ee	-0.1124991
211	0x3c37ab13	0.011210221
212	0x3cc97abb	0.024594655
213	0x3dba7974	0.091051966
214	0x3d8734e9	0.06601889
215	0x3d9cfe9a	0.07665749
216	0xbc770852	-0.015077667
217	0xbd03e974	-0.03220506
218	0xbe07c63b	-0.13259213
219	0x3deb7ed0	0.11498797
220	0xbcb07af0	-0.021542996
221	0xbd8402ce	-0.064458475
222	0xbc08f8b4	-0.008360077
223	0x3dde5dc1	0.10857726
224	0x3d0545db	0.032537322
225	0xbab8fe31	-0.0014113841
226	0xbd07e172	-0.033173986
227	0xbcf04a1f	-0.029332219
228	0xbd9a2b3c	-0.075277776
229	0x3dd4616a	0.10370143
230	0x3dbbe742	0.09174968
231	0x3e005df2	0.12535837
232	0x3da784a5	0.08179597
233	0x3ddc22f6	0.10748856
234	0x3d8fb24b	0.070164286
235	0x3de63582	0.112406746
236	0x3d13145d	0.03590809
237	0x3dd3c378	0.10340017
238	0x3c684b19	0.014178061
239	0xbde305a1	-0.11085058
240	0xbdb15508	-0.086587965
241	0xbd968e9e	-0.07351421
242	0xbe0cc8e4	-0.13748509
243	0x3d0358aa	0.03206698
244	0x3d4d70be	0.050156347
245	0xbe0e8395	-0.13917382
246	0xbda5ebd6	-0.08101623
247	0x3d7cd427	0.06172576
248	0x3d849d53	0.0647532
249	0x3d6749ad	0.056466747
250	0xbdcaa746	-0.09895186
251	0x3cc4ea42	0.024037484
252	0x3dc3397f	0.09532451
253	0xbc0ca366	-0.008583879
254	0x3d02f67e	0.031973355
255	0xbd806e6c	-0.06271061

fc3.bias f4 [13]
0	0x3d3b9422	0.045795567
1	0x3c0eb79a	0.008710766
2	0x3b30660e	0.0026916298
3	0xbd21d3a7	-0.039508488
4	0xbc4a7e5b	-0.012359227
5	0xbbf50a58	-0.0074780397
6	0x3e02d9fd	0.12778468
7	0xbd8c0f7c	-0.06838891
8	0x3cf1f67b	0.029536476
9	0x3c3ec0b8	0.011642627
10	0xbdfdd0cb	-0.1239334
11	0xbd9b4ec0	-0.0758338
12	0xbd9f771d	-0.07786391
