TorchModels/DeepQtrader43.pt (torch, 25047 bytes, 6 tensors)

fc1.weight f4 [50, 50]
0	0xbc0eea61	-0.0087228725
1	0x3d710607	0.05884364
2	0xbc384123	-0.011245999
3	0x3bc92207	0.0061380896
4	0xbd7207f7	-0.059089627
5	0x3d3b75d7	0.045766678
6	0x3bd60e24	0.0065324474
7	0x3e0df3ab	0.13862483
8	0xbcc25f04	-0.023726948
9	0x3d87b5c1	0.06626464
10	0x3c6f44ca	0.014603803
11	0xbdfbd423	-0.12296321
12	0x3ccbc642	0.02487481
13	0x3e081847	0.13290511
14	0x3e01f2a1	0.12690212
15	0x3db785dd	0.08961079
16	0x3d9d6af1	0.07686413
17	0x3e0a928a	0.13532463
18	0x3c65364b	0.013989995
19	0xbdef2b4c	-0.1167818
20	0xbbdfd216	-0.006830464
21	0xbd815e7b	-0.06316849
22	0x3e070579	0.13185681
23	0x3da6ebd4	0.081504494
24	0xbcb5973e	-0.022166844
25	0xbbf17b86	-0.0073694615
26	0xbddb02df	-0.10693907
27	0x3dcaefef	0.09909045
28	0x3d97e444	0.07416585
29	0xbdd848f7	-0.10560792
30	0x3db21a66	0.08696441
31	0xbdd00ce8	-0.10158712
32	0xbd4d16dc	-0.05007063
33	0xbd033ae2	-0.032038577
34	0xbd8c9093	-0.06863513
35	0x3df72173	0.12066927
36	0x3d3cfd6e	0.046140127
37	0x3d9a21e0	0.075259924
38	0xbc7d5c58	-0.015463911
39	0xbd6de704	-0.05808164
40	0x3d9c7537	0.076395445
41	0x3e01d747	0.12679778
42	0xbda3ef00	-0.0800457
43	0x3d9a0578	0.07520574
44	0x3da06ee7	0.07833653
45	0x3e0d24a5	0.1378351
46	0xbd9a44d3	-0.075326584
47	0x3ad39216	0.001614156
48	0xbd519e7a	-0.051176526
49	0x3dcfe622	0.10151316
50	0xbda3603a	-0.07977338
51	0x3d06d2e3	0.03291596
52	0xbdd9dd01	-0.10637856
53	0x3af30707	0.0018541523
54	0x3e04d417	0.12971531
55	0xbdcbc96b	-0.09950527
56	0x3bcb6dcf	0.0062081586
57	0xbc7eb0f5	-0.0155451195
58	0xbd1fc4ba	-0.039005972
59	0x3dc29c4a	0.09502466
60	0x3d4d2bff	0.050090786
61	0xbd2cf099	-0.04222164
62	0xbdd9ad20	-0.10628724
63	0x3c9a6e44	0.018851407
64	0x3d9efebb	0.0776343
65	0xbe02df6d	-0.12780543
66	0xbc378ecd	-0.01120348
67	0x3e00289d	0.12515493
68	0x3da7f120	0.08200288
69	0xbd90ad1d	-0.07064269
70	0x3e04234a	0.12904087
71	0xbdda156e	-0.10648619
72	0xbe060094	-0.13086158
73	0x3cbd7c1e	0.023130473
74	0xbd83005d	-0.06396554
75	0x3d254dc2	0.04035736
76	0x3c74c668	0.014939882
77	0xbd0b2724	-0.033972874
78	0x3c8fb895	0.01754407
79	0xbc94dacf	-0.018170742
80	0x3d68c680	0.05682993
81	0xbdb72e2b	-0.08944353
82	0x3d475174	0.048661664
83	0x3ca18a15	0.019719163
84	0xbdcb97eb	-0.099410854
85	0x3e038d95	0.12846978
86	0x3d0c9a51	0.034326855
87	0xbdd349d0	-0.10316813
88	0x3a5feaed	0.00085417816
89	0xbdacdf9d	-0.08441088
90	0x3dabcf39	0.08389134
91	0xbcd7e0be	-0.026352283
92	0xbe03dc49	-0.12877001
93	0xbe0d4f25	-0.13799722
94	0x3df42afe	0.119222626
95	0x3d281e35	0.041044433
96	0xb91103ba	-0.00013829666
97	0x3ded2b7f	0.11580562
98	0x3dab14bb	0.083535634
99	0xbca71dfd	-0.020400042
100	0xbcb896ac	-0.022532783
101	0xbe031e22	-0.12804464
102	0x3dac5543	0.084147
103	0xbadc526b	-0.001680923
104	0x3defb286	0.117039725
105	0xbd876119	-0.06610317
106	0xbdd30444	-0.10303548
107	0x3d98738d	0.074439146
108	0xbd5744fa	-0.052556016
109	0x3d014300	0.031558037
110	0xbd9603af	-0.07324921
111	0x3d2e0f9b	0.04249535
112	0xbd427038	-0.0474703
113	0xbd447cad	-0.047970463
114	0x3e0e8ee6	0.13921699
115	0x3dee0925	0.11622838
116	0xbce5d000	-0.028053284
117	0x3d9d5d7d	0.07683847
118	0xbcd75feb	-0.026290854
119	0x3c0bc80a	0.00853158
120	0xbcaeb904	-0.021328457
121	0x3c53a0bf	0.012916743
122	0xbe07a4ad	-0.13246413
123	0x3d972860	0.07380748
124	0x3e0aff1d	0.1357388
125	0x3c668b97	0.014071367
126	0xbe0685f1	-0.13137032
127	0xbda79cc3	-0.08184197
128	0x3c371b5e	0.011175958
129	0xbdaadc9e	-0.08342861
130	0xbd03f8fb	-0.03221987
131	0x3dd9ed7e	0.10641001
132	0xbc65bc6a	-0.014021972
133	0x3e0b3b3a	0.13596812
134	0x3cd4741e	0.025934275
135	0xbd46852e	-0.048466854
136	0x3d5d2248	0.05398777
137	0xbdbc77bf	-0.09202527
138	0xbd89a48a	-0.067208365
139	0x3d40c07e	0.047058575
140	0x3e0317e3	0.12802081
141	0xbde259d7	-0.11052292
142	0xbdb2795f	-0.08714556
143	0x3d9fcf0b	0.07803162
144	0xbdae6864	-0.08516005
145	0xbd014a40	-0.03156495
146	0xbc2f9282	-0.0107160825
147	0xbe0a3f32	-0.1350067
148	0x3d529544	0.051411882
149	0x3d314927	0.043282654
150	0x3d5dd629	0.054159317
151	0x3d83e6ee	0.06440531
152	0xbde733f0	-0.11289203
153	0xbc93e5cf	-0.018053917
154	0xbdf5bbc8	-0.11998707
155	0xbd9fc6c7	-0.07801586
156	0xbd550431	-0.05200595
157	0xbde20d2a	-0.11037667
158	0x3e0c4ec4	0.13701922
159	0x3ca407d8	0.020023271
160	0xbd251f3d	-0.040312994
161	0x3d580cf8	0.052746743
162	0x3c9efb65	0.019406984
163	0xbde4af1a	-0.111662105
164	0x3dbbdecf	0.09173357
165	0xbcd88b81	-0.026433708
166	0xbd1fd246	-0.03901889
167	0xbced5794	-0.028972425
168	0xbd5a0fdd	-0.053237785
169	0xbc087ae5	-0.008330082
170	0x3de8e62d	0.113720275
171	0xbcbc304d	-0.02297225
172	0xbd58c09a	-0.052918054
173	0x3d279b2d	0.04091947
174	0xbcaa20e1	-0.020767631
175	0xbd9b5e47	-0.07586341
176	0xbe0612a1	-0.13093044
177	0x3d90e3e5	0.070747174
178	0xbd27d5c5	-0.04097535
179	0x3e15dd7a	0.14635268
180	0xbd7acc53	-0.061230015
181	0x3ddbe2f7	0.107366495
182	0xbd33afae	-0.043868713
183	0xbd0a232d	-0.033724952
184	0xbde7fb15	-0.11327187
185	0x3da0eca4	0.078576356
186	0x3d74ca21	0.059763078
187	0x3be93d97	0.007117938
188	0xbdff5fe8	-0.124694645
189	0xbdfbec56	-0.12300937
190	0xbe0228c2	-0.1271086
191	0xbd6d3e00	-0.057920456
192	0xbdf7ab93	-0.12093272
193	0xbdd01222	-0.101597086
194	0xbcfd501a	-0.030921984
195	0xbcc1e14b	-0.023666998
196	0xbd5333dd	-0.051563133
197	0x3de31339	0.11087651
198	0xbd1eacf7	-0.03873917
199	0xbd8e0f2f	-0.0693649
200	0xbda55d9d	-0.08074496
201	0xbc787dbe	-0.015166698
202	0x3d1c711b	0.038193803
203	0xbd3cf8e0	-0.046135783
204	0xbd1b1b9a	-0.03786812
205	0xbda05787	-0.078291945
206	0xbcc19ff2	-0.023635838
207	0x3dd857d6	0.105636284
208	0x3de8ebd4	0.11373106
209	0xba9723b2	-0.0011531024
210	0xbc06568f	-0.008199348
211	0xbd2af156	-0.041734062
212	0xbdc6a0bf	-0.09698629
213	0xbe06cab9	-0.1316327
214	0xbd5ef5a5	-0.054433484
215	0x3e0c3629	0.13692535
216	0x3b091d62	0.0020922055
217	0x3ab2688c	0.001361148
218	0xbdb02601	-0.08600999
219	0xbd1cee56	-0.038313232
220	0x3d308a7f	0.04310083
221	0x3e0ed856	0.13949713
222	0xbdb07c67	-0.08617478
223	0x3d0f929c	0.035051927
224	0x3d99cc25	0.075096406
225	0xbda19a3f	-0.07890748
226	0xbd6ea5cb	-0.05826358
227	0x3cdf76c7	0.027278317
228	0x3db79844	0.08964589
229	0x3e14a56d	0.1451623
230	0xbd6a66b1	-0.05722684
231	0x3d9387e4	0.072036535
232	0xbd8152eb	-0.063146435
233	0xbc731ddd	-0.014838663
234	0xbc3a4fee	-0.011371596
235	0xbc855daf	-0.016280023
236	0xbddd8505	-0.10816387
237	0xbdd9e0aa	-0.106385544
238	0xbdbf4fe3	-0.09341409
239	0x3e00a422	0.12562612
240	0xbaf2549d	-0.0018488351
241	0x3cfe67d4	0.031055368
242	0xbd239d90	-0.039945185
243	0x3ddf5830	0.10905492
244	0xbdc6d53b	-0.09708639
245	0xbd799de1	-0.06094158
246	0x3d70ebb1	0.058818523
247	0xbdf47bf4	-0.11937705
248	0x3d417e04	0.04723932
249	0xbd71b884	-0.05901386
250	0xbd07425c	-0.03302227
251	0x3c65546b	0.013997178
252	0x3defdfe6	0.11712627
253	0xbdd49e17	-0.10381716
254	0xbd0bc8e6	-0.03412714
255	0x3dcb50df	0.09927534

fc1.bias f4 [50]
0	0xbd07d3ce	-0.033160977
1	0x3dc6fb45	0.097158946
2	0xbd8821b5	-0.06647054
3	0x3d531b24	0.051539555
4	0x3d535289	0.051592384
5	0xbe08e41f	-0.13368271
6	0x3afac2f5	0.0019131588
7	0xbc296817	-0.010339758
8	0x3de92015	0.11383072
9	0xbe06020e	-0.13086721
10	0x3d263bc5	0.040584344
11	0xbd4a42ec	-0.049380228
12	0x3d0895b0	0.033345878
13	0x3bbb10f0	0.005708806
14	0xbd9b2fd2	-0.075774804
15	0xbe14e279	-0.14539517
16	0x3dfafd09	0.12255294
17	0x3bd1589a	0.006388736
18	0x3da71240	0.08157778
19	0xbd3ac61b	-0.045599084
20	0xbd21c3da	-0.03949342
21	0x3db2e94d	0.08735905
22	0x3d619ccb	0.05508117
23	0x3c8aa44c	0.016924046
24	0xbc8c2aa7	-0.017110182
25	0x3dd40d42	0.10354091
26	0xbd2e4f19	-0.042555902
27	0x3ccfea95	0.025380412
28	0x3d6999d1	0.057031456
29	0xbe01b28b	-0.12665765
30	0x3cb63fb3	0.022247171
31	0x3d531d90	0.051541865
32	0xbbe4dfe3	-0.006984697
33	0xbaad7523	-0.0013233762
34	0x3d1fde1c	0.03903018
35	0xbe06826e	-0.13135692
36	0xbd815b1d	-0.063162066
37	0xbbad0685	-0.005280318
38	0xbcda2588	-0.026629224
39	0x3dc30163	0.09521749
40	0x3e1977db	0.14987127
41	0xbc61a36d	-0.013771874
42	0x3dcfb2f7	0.10141557
43	0x3cb2c9de	0.021824773
44	0xbe05d659	-0.13070048
45	0x3e179642	0.14803413
46	0xbc277d74	-0.010222781
47	0xbd9c083d	-0.07618759
48	0x3dc407d7	0.09571808
49	0x3cc5c8da	0.024143625

fc2.weight f4 [50, 50]
0	0x3d69751e	0.056996457
1	0xbd186586	-0.037206195
2	0x3db0889d	0.08619807
3	0xbca68ac1	-0.020329835
4	0xbd38a42e	-0.04507845
5	0xbcbcc4c7	-0.02304305
6	0x3a131818	0.0005611195
7	0x3e0266b0	0.12734485
8	0xbcafb721	-0.021449627
9	0x3d470d4b	0.04859666
10	0xbda4e515	-0.080515064
11	0xbdecf605	-0.11570362
12	0x3d9196a4	0.071088105
13	0xbbb88750	-0.005631365
14	0xbd18dc28	-0.037319332
15	0x3cac6aae	0.021046963
16	0x3dd54119	0.10412807
17	0xbdae6d0a	-0.08516891
18	0xbc933acd	-0.017972374
19	0xbde778f8	-0.1130237
20	0xbcb73d50	-0.022368103
21	0xbdeaa3c1	-0.11457015
22	0x3d420b21	0.047373895
23	0xbd3c9493	-0.04604013
24	0x3d97a3d0	0.07404292
25	0x3e0ab4c7	0.13545524
26	0xbda1c7d8	-0.07899445
27	0x3e064b19	0.13114585
28	0xbc537a1f	-0.012907534
29	0xbd48ff86	-0.04907181
30	0xbd37f6b0	-0.044912994
31	0x3cd3b1cb	0.025841614
32	0x3dd58da6	0.10427408
33	0x3c32af68	0.010906078
34	0xbd1443a3	-0.036197316
35	0xbdc07460	-0.09397197
36	0x3d49189c	0.049095735
37	0x3db6367f	0.08897113
38	0xbdd71456	-0.10501926
39	0x3d8e49a4	0.069476396
40	0xbbaca8f1	-0.005269163
41	0xbe090b91	-0.13383318
42	0x3da1a67f	0.07893085
43	0x3cb2c9aa	0.021824677
44	0xbda5c496	-0.080941364
45	0x3e0fe022	0.14050344
46	0xbdd7d720	-0.10539079
47	0x3b98ed66	0.004666972
48	0x3d538582	0.051640995
49	0x3de84fb9	0.11343331
50	0x3d8a21f8	0.0674476
51	0x3df76baa	0.12081082
52	0xbdcbbe50	-0.099484086
53	0xbdbc8870	-0.09205711
54	0x3d107c27	0.03527465
55	0x3dabf507	0.08396345
56	0x3d871d77	0.06597417
57	0xbd55ca0b	-0.052194636
58	0xbd7aa2e5	-0.061190505
59	0xbe05a3ea	-0.1305081
60	0xbdf17aa8	-0.11790973
61	0x3d861dd8	0.06548661
62	0x3dd332c8	0.1031242
63	0xbdcd85f3	-0.100353144
64	0xbdc71f88	-0.09722811
65	0x3caa7482	0.020807508
66	0x3e04227b	0.12903778
67	0xbdd16b0d	-0.102254964
68	0x3ddf0f2e	0.10891567
69	0xbcdf0530	-0.027224153
70	0xbd1ccfd4	-0.038284138
71	0xbd4918c7	-0.049095895
72	0x3e0f60e7	0.14001809
73	0xb9740793	-0.00023272475
74	0xbdc86be8	-0.097862065
75	0x3c80489b	0.015659621
76	0xbdb291cd	-0.087192155
77	0x3e04aa46	0.12955579
78	0x3db7878a	0.08961399
79	0x3e089ac1	0.13340284
80	0xbdaac033	-0.0833744
81	0xbd86217e	-0.06549357
82	0xbcbf7e2f	-0.023375599
83	0xbd946eb9	-0.07247681
84	0x3d5dc08c	0.054138705
85	0xbe01803b	-0.12646572
86	0x3d751add	0.059840072
87	0xbcbcff5f	-0.02307099
88	0x3d04e184	0.03244163
89	0xbdb0de67	-0.0863617
90	0x3d114178	0.035462826
91	0xbd8f0460	-0.06983256
92	0x3dba0780	0.09083462
93	0xbd2982e0	-0.041384578
94	0xbde94f0f	-0.11392032
95	0x3d4af763	0.049552333
96	0x3cfbc503	0.030733591
97	0x3dd6cfc8	0.1048885
98	0x3e0d814f	0.13818859
99	0x3ddfd784	0.10929778
100	0x3c925d72	0.017866824
101	0x3daef7a9	0.08543331
102	0x3d09df8d	0.03366046
103	0xbda0d7ae	-0.07853638
104	0x3e0411c6	0.12897405
105	0xbddb9802	-0.107223526
106	0x3dc53a7c	0.09630296
107	0xbd34e5dd	-0.044164527
108	0x3d12fe4c	0.035887048
109	0xbd43a0f0	-0.047760904
110	0x3da57ef1	0.08080853
111	0x3cd3eee8	0.025870755
112	0xbc724433	-0.014786768
113	0xbc8000b0	-0.015625328
114	0x3dad49f4	0.08461371
115	0x3d996ca3	0.07491424
116	0x3d2f7898	0.042839617
117	0xbdb83016	-0.08993547
118	0x3d24e179	0.04025409
119	0x3c2ef05a	0.010677421
120	0x3deb7cb4	0.114983946
121	0x3b78c3b9	0.0037958457
122	0x3dc24c0e	0.094871625
123	0xbdbcca84	-0.09218314
124	0xbda103e6	-0.07862072
125	0x3a72be5e	0.00092599343
126	0x3de6553f	0.11246728
127	0xbcf73cb6	-0.030180316
128	0xbd591229	-0.052995834
129	0xbdf3f4c7	-0.11911922
130	0x3d50b417	0.050952997
131	0xbe0ce90d	-0.13760777
132	0xbdbaf9df	-0.091296904
133	0x3d9ab5ed	0.07554231
134	0xbb29b811	-0.0025897066
135	0x3d17710f	0.036973055
136	0x3ca19a01	0.019726755
137	0xbd105dad	-0.035245586
138	0x3bb4fdb6	0.0055234088
139	0xbe00bc2d	-0.12571783
140	0xbdd7a687	-0.105298094
141	0x3d90a651	0.07062972
142	0xbd25f032	-0.04051227
143	0xbd6ac779	-0.05731914
144	0xbd53a48b	-0.051670592
145	0xbd29dbfa	-0.04146955
146	0xbd827a77	-0.063710146
147	0x3e013adc	0.1262011
148	0xbe08d8a9	-0.133639
149	0x3d856371	0.065131076
150	0xbda7144f	-0.081581704
151	0xbdf9d953	-0.121996544
152	0x3d984364	0.07434729
153	0xbcdd0cd7	-0.026983662
154	0xbdbbcfbe	-0.09170483
155	0xbcf0d52f	-0.029398529
156	0x3d141302	0.03615094
157	0xbced2fb9	-0.02895342
158	0xbe008ad8	-0.12552965
159	0xbc76c458	-0.01506146
160	0x3d3992bb	0.04530595
161	0xbde04133	-0.10949936
162	0xbdac71cb	-0.08420142
163	0xbda99309	-0.08279998
164	0xbdcedeb1	-0.10101069
165	0xbe0a86c4	-0.13527972
166	0x3e02074a	0.12698093
167	0x3d11dd5f	0.035611507
168	0x3d98f538	0.07468647
169	0x3de8d139	0.11368031
170	0x3cf5c020	0.029998839
171	0x3db26807	0.08711248
172	0xbd8f4474	-0.06995478
173	0x3db1f3d2	0.08689083
174	0xbdb14f06	-0.08657651
175	0xbd5d47a8	-0.054023415
176	0xbdd19038	-0.10232586
177	0x3c856cca	0.016287226
178	0xbe00b0f4	-0.12567502
179	0xbd08139c	-0.033221826
180	0x3df4d773	0.11955156
181	0xbd8c96a9	-0.06864674
182	0xbd45755d	-0.04820763
183	0x3dc57f12	0.09643377
184	0x3d780403	0.0605507
185	0xbcf48236	-0.029847246
186	0x3c1d88f7	0.0096151745
187	0x3dbd3c61	0.09240032
188	0x3db19b56	0.08672206
189	0x3dfa8994	0.12233272
190	0xbc90732f	-0.017633049
191	0xbb961825	-0.004580515
192	0x3d6cb9a8	0.057794243
193	0xbad3dcc5	-0.0016163817
194	0xbd9d4eb2	-0.076810256
195	0x3d6daac4	0.058024183
196	0x3d33e73b	0.04392169
197	0x3d24b9a2	0.040216096
198	0xbd178d61	-0.037000064
199	0x3c3e4cbd	0.0116149755
200	0x3c2edad7	0.010672293
201	0xbd988375	-0.074469484
202	0xbd93237d	-0.07184503
203	0x3cd3defd	0.025863165
204	0xbbc16b48	-0.0059026815
205	0x3e06d6f5	0.13167937
206	0x3dbd07bf	0.09229993
207	0x3da9c173	0.08288851
208	0x3d6b4dfa	0.05744741
209	0xbe138bd4	-0.14408809
210	0x3b3650ae	0.0027819085
211	0x3d802e2c	0.062588066
212	0xbe089fb2	-0.13342169
213	0xbd679a16	-0.056543432
214	0xbd8a6833	-0.06758156
215	0xbcdd0328	-0.026979044
216	0x3dffd02e	0.12490879
217	0xbd74a7b4	-0.059730247
218	0x3c129850	0.008947447
219	0xbdc2cd83	-0.095118545
220	0xbd92d57a	-0.07169624
221	0xbe1ba2f0	-0.15198874
222	0x3e0e1026	0.13873348
223	0xba517581	-0.0007990227
224	0xbe1074e5	-0.14107092
225	0x3de0781a	0.109604076
226	0x3da75b8f	0.0817176
227	0xbd0b73da	-0.03404603
228	0x3d59f8da	0.05321584
229	0xbde1fb83	-0.110343
230	0x3deaaab2	0.11458339
231	0x3d4a5954	0.049401596
232	0xbd4ade76	-0.04952856
233	0xbd97ef3d	-0.07418678
234	0x3dc988f5	0.098405756
235	0xbd13d4b7	-0.036091533
236	0xbd32a0ab	-0.043610256
237	0xbd511b0c	-0.051051185
238	0xbdb7eeb7	-0.08981078
239	0x3dddd16d	0.108309604
240	0xbd744efa	-0.05964563
241	0xbde493df	-0.11161017
242	0x3d08bdaf	0.03338402
243	0x3d8bc07e	0.06823824
244	0xbc8a18fe	-0.01685762
245	0xbcbbe9c7	-0.022938622
246	0x3cf9a450	0.030473858
247	0x3dbaefed	0.091277935
248	0x3d83629f	0.06415295
249	0x3e021eeb	0.12707107
250	0x3db41821	0.08793665
251	0xbe0198e7	-0.12655984
252	0x3e0b5795	0.13607629
253	0xbde47b65	-0.11156348
254	0x3c567f46	0.013091868
255	0x3dd54584	0.1041365

fc2.bias f4 [50]
0	0xbdb7a915	-0.08967797
1	0x3e0390f0	0.12848258
2	0x3e024c7c	0.12724489
3	0x3ca3c352	0.019990597
4	0x3cddfe77	0.027098877
5	0xbd8549db	-0.065082274
6	0x3da4f109	0.08053786
7	0x3caf21c6	0.02137841
8	0x3dfe195e	0.12407182
9	0x3bca06fe	0.0061653843
10	0xbc1b18b6	-0.009466341
11	0x3d967609	0.07346732
12	0xbdbe17c4	-0.09281877
13	0xbde1c489	-0.11023814
14	0x3db42f99	0.08798141
15	0xbdbdebd5	-0.09273497
16	0x3df2ae69	0.11849672
17	0x3e01de32	0.12682417
18	0xbbd7c1e3	-0.0065843924
19	0x3b9361a2	0.0044977227
20	0xbdef01fd	-0.11670301
21	0x3e0bab5d	0.13639589
22	0xbc24583f	-0.010030805
23	0x3cade890	0.021229059
24	0xbd950325	-0.072759904
25	0xbc77bd0b	-0.015120755
26	0x3d7936d5	0.060843308
27	0x3d9c199c	0.07622072
28	0x3d408bb4	0.04700823
29	0x3e08c16b	0.13355033
30	0x3db2c118	0.08728236
31	0x3e089338	0.1333741
32	0xbddc0329	-0.1074279
33	0x3dc3e8b2	0.095658675
34	0xbda956f1	-0.08268536
35	0x3e016be1	0.12638809
36	0x3d7cf0a3	0.061752927
37	0xbd31d7e6	-0.043418787
38	0xbc7faf1c	-0.015605714
39	0xbdf75ac4	-0.12077859
40	0x3de516c0	0.1118598
41	0xbd536781	-0.05161238
42	0xbd6b0248	-0.057375222
43	0x3d8f5d18	0.07000178
44	0xbc9d698e	-0.019215371
45	0x3d2197fa	0.039451577
46	0xbd798e96	-0.060926996
47	0x3dc0fce5	0.09423236
48	0xbe0c8861	-0.137239
49	0xbc8aed47	-0.016958846

fc3.weight f4 [13, 50]
0	0xbe0d2a57	-0.13785683
1	0x3d8204e5	0.0634859
2	0xbda378bf	-0.07982015
3	0xbdea4029	-0.11438019
4	0xbd03a95a	-0.032143928
5	0x3d0ba41f	0.034092065
6	0x3e0682d8	0.1313585
7	0x3dc86832	0.09785499
8	0xbd8ca389	-0.06867129
9	0xbdfc2e75	-0.123135485
10	0xbb850c42	-0.004060299
11	0x3d8e9c29	0.06963379
12	0x3de5a09f	0.11212277
13	0x3cab97ef	0.020946471
14	0x3d0314b1	0.032002155
15	0x3c91783d	0.01775753
16	0x3dffd03d	0.1249089
17	0x3cdba6ad	0.026812876
18	0xbdbd2175	-0.09234897
19	0xbdbe6c2f	-0.09297978
20	0xbd48201a	-0.04885874
21	0x3e04535f	0.12922429
22	0x3d3b3a66	0.04570999
23	0xbdc91e43	-0.09820225
24	0x3d1fd04c	0.039017007
25	0xbd7b713e	-0.061387293
26	0xbe0fda62	-0.1404815
27	0x3de54880	0.11195469
28	0xbd8d3d2e	-0.06896435
29	0x3dd877cb	0.10569724
30	0xbd18a67c	-0.037268147
31	0xbdd79c5b	-0.10527869
32	0x3df3b049	0.11898858
33	0xbe11e78c	-0.14248484
34	0x3b5ea606	0.003397347
35	0x3c8298fd	0.015942091
36	0xbb0a0590	-0.0021060444
37	0xbd507ae9	-0.050898466
38	0x3daeb7a9	0.08531124
39	0x3dbe5068	0.0929268
40	0x3d59d91b	0.053185564
41	0xbdcac1f3	-0.09900274
42	0xbddbc809	-0.10731513
43	0xbd96f9e0	-0.073718786
44	0x3dbf2280	0.09332752
45	0xbe04c257	-0.1296476
46	0x3cbd21b6	0.023087364
47	0xbd56e3de	-0.052463405
48	0xbdc9e2b2	-0.09857692
49	0xbdc369f7	-0.095416956
50	0xbc0ca163	-0.0085833995
51	0xbd017350	-0.03160411
52	0x3d9f72b0	0.07785547
53	0x3c9d1170	0.019173354
54	0x3e041064	0.12896878
55	0xbb891328	-0.004183192
56	0xbdcad626	-0.09904127
57	0x3d9361ce	0.07196389
58	0x3d6fc1f2	0.05853457
59	0xbe0d9ea2	-0.13830045
60	0x3e11d0d2	0.14239815
61	0xbcb49fab	-0.022048792
62	0xbd95b5e0	-0.073100805
63	0xbe168f4c	-0.14703101
64	0x3daf5302	0.08560754
65	0x3d7e5c22	0.062099583
66	0xbda7efe5	-0.08200053
67	0xbcae054b	-0.021242758
68	0xbda459dc	-0.08024952
69	0x3d987241	0.07443667
70	0x3ded1446	0.115761325
71	0xbde0dad1	-0.10979236
72	0xbd07051a	-0.03296385
73	0xbd4436f4	-0.04790397
74	0x3d63e35d	0.055636752
75	0xbd22a70d	-0.039710093
76	0x3d74e6f2	0.05979056
77	0xbddda738	-0.1082291
78	0x3d3c4dcb	0.045972627
79	0xbe09efe0	-0.13470411
80	0xbe0b4160	-0.13599157
81	0xbd1495f7	-0.03627583
82	0x3d851921	0.064989336
83	0x3c887d1f	0.016661225
84	0xbe082ba9	-0.13297905
85	0xbdaab869	-0.08335955
86	0xbde78c58	-0.11306065
87	0xbc4a5bd5	-0.012350996
88	0xbc86380f	-0.016384153
89	0x3d82ceba	0.06387086
90	0xbce54188	-0.02798535
91	0x3cb74637	0.022372348
92	0x3d0806e7	0.033209708
93	0x3c8e3803	0.017360693
94	0xbe060364	-0.13087231
95	0xbdde115f	-0.10843157
96	0xbccdb7e4	-0.0251121
97	0xbd254e9e	-0.04035818
98	0xbdc12f67	-0.094328694
99	0xbddb633b	-0.10712286
100	0xbbe5882c	-0.0070047583
101	0x3d1bafe6	0.038009547
102	0x3df03f43	0.11730816
103	0xbd9f9910	-0.07792866
104	0x3dba35cc	0.09092292
105	0xbc986008	-0.018600479
106	0x3e042c58	0.12907541
107	0xbd0aefdd	-0.033920158
108	0x3ae10249	0.0017166819
109	0x3dec4428	0.11536437
110	0x3ba9232f	0.005161665
111	0x3dc66d50	0.096888185
112	0xbca94cf0	-0.02066657
113	0xbd6d4bcd	-0.057933617
114	0xbd36cc9f	-0.044628736
115	0x3baadd62	0.005214379
116	0xbd0cd714	-0.034384802
117	0x3cc54590	0.024081022
118	0x3def8b72	0.11696519
119	0x3ded8e01	0.11599351
120	0x3debc979	0.11513037
121	0xbe177ec2	-0.14794448
122	0xbe0c1fe1	-0.13684036
123	0x3d24c2ec	0.040224954
124	0x3da171a8	0.07883006
125	0xbe199be5	-0.15000875
126	0x3cce24df	0.025164066
127	0x3ba4ec7c	0.005033074
128	0x3d6bc265	0.057558436
129	0xbde86d24	-0.11348942
130	0x3db5b175	0.08871738
131	0xbd922cdf	-0.07137465
132	0x3d8c6462	0.06855084
133	0x3cc7523e	0.024331208
134	0x3db8189c	0.08989069
135	0xbd644d3e	-0.055737726
136	0x3dacfc55	0.08446566
137	0x3d6cf895	0.057854254
138	0x3d5c6ff0	0.05381769
139	0xbde6a136	-0.11261217
140	0xbdd76077	-0.10516446
141	0x3d3708d2	0.044686146
142	0xbdf88d43	-0.121363185
143	0xba9576e3	-0.0011403229
144	0x3cddf757	0.02709548
145	0x3dbf9a80	0.093556404
146	0x3d0ec1fa	0.03485296
147	0xb85d85c5	-5.281509e-05
148	0xbcaff23b	-0.02147781
149	0xbc9179c5	-0.01775826
150	0x3d7d9d27	0.06191745
151	0x3de6e5f1	0.112743266
152	0xbd64e6cf	-0.05588418
153	0x3df92e1d	0.121669985
154	0x3d1c8f11	0.038222376
155	0x3d3835be	0.044973128
156	0xbd99dc3f	-0.07512712
157	0xbe0d79bb	-0.13815968
158	0xbd64ed6b	-0.055890482
159	0x3d82c690	0.06385529
160	0xbe07186c	-0.1319291
161	0x3d964bed	0.073387004
162	0x3d4e5259	0.0503715
163	0x3de8b833	0.11363258
164	0x3ddfe0ab	0.10931524
165	0x3dd3c5d1	0.10340465
166	0x3d751884	0.059837833
167	0x3daa7915	0.08323876
168	0xbba38903	-0.0049906983
169	0x3dc9d328	0.09854728
170	0xbdb20cb5	-0.0869383
171	0x3da25e9f	0.07928204
172	0x3d312eef	0.04325765
173	0x3d7af95e	0.06127297
174	0xbda9225a	-0.08258505
175	0xbdddf4aa	-0.108376816
176	0x3cf618b1	0.03004107
177	0x3dc3cc38	0.09560436
178	0xbe158907	-0.14603053
179	0xbe012c30	-0.12614512
180	0xbd6026d6	-0.054724537
181	0xbc493be1	-0.012282343
182	0xbdb5ad4b	-0.08870944
183	0x3dd8a81a	0.10578938
184	0xbe0bd507	-0.13655482
185	0x3e0a30c9	0.13495173
186	0x3ddd3d40	0.10802698
187	0x3d796618	0.06088838
188	0xbdcc7d78	-0.09984869
189	0xbd5cf123	-0.053940903
190	0x3e03ae24	0.12859398
191	0x3d3f6e87	0.046736266
192	0xbe120328	-0.14259017
193	0xbcdf81da	-0.027283598
194	0x3d904327	0.07044058
195	0xbe0e80cf	-0.13916324
196	0x3c23f92e	0.01000814
197	0xbdab2d9b	-0.08358308
198	0xbe09102c	-0.13385075
199	0xbc77fe59	-0.015136325
200	0xbdfa4984	-0.12221053
201	0x3df448ed	0.11927972
202	0x3d7c3d0a	0.06158165
203	0xbdb19b66	-0.08672218
204	0xbd511142	-0.05104185
205	0x3e091a40	0.1338892
206	0x3db16ffd	0.08663938
207	0xbdd44640	-0.103649616
208	0x3bde7415	0.0067887404
209	0x3d8cbabe	0.06871556
210	0xbcf6725f	-0.030083833
211	0x3ddac2a8	0.10681659
212	0xbddd505c	-0.10806343
213	0x3dd3bfb6	0.103393
214	0xbe063b0b	-0.1310846
215	0xbda98e34	-0.08279076
216	0xbdcd0c80	-0.1001215
217	0x3d9d41da	0.07678576
218	0xbd6501f6	-0.055910073
219	0x3db98a59	0.09059591
220	0x3dcf6eb6	0.10128538
221	0x3dddd978	0.108324945
222	0x3d140562	0.036137946
223	0xbd3c9215	-0.046037752
224	0xbd971c65	-0.07378463
225	0xbdd037db	-0.101669036
226	0x3cc8778d	0.024471069
227	0xbd132b42	-0.035929926
228	0xbdaf8a4b	-0.08571299
229	0x3cf4e52c	0.029894434
230	0xbdf4688c	-0.11934003
231	0xbd39a202	-0.04532052
232	0x3c6463c1	0.013939799
233	0xbdf4856e	-0.11939512
234	0xbd846335	-0.06464235
235	0xbdb95b04	-0.09050563
236	0xbd74ae5d	-0.0597366
237	0xbdb638e8	-0.08897573
238	0xbcee1ee9	-0.029067473
239	0x3c801f8c	0.015640043
240	0x3c381d52	0.011237459
241	0x3e04dc02	0.12974551
242	0x39354ac7	0.00017289362
243	0x3dde9075	0.10867397
244	0x3de59a00	0.11211014
245	0x3cbbccd0	0.02292481
246	0xbd88872c	-0.06666407
247	0x3e09a83d	0.13443084
248	0x3d039062	0.032120116
249	0x3db80b9c	0.08986589
250	0xbe05bbf4	-0.1305998
251	0xbd98531e	-0.07437728
252	0xbda3a625	-0.07990674
253	0xbd55c315	-0.052187998
254	0xbe057675	-0.13033469
255	0x3dba48f6	0.090959474

fc3.bias f4 [13]
0	0xbce4afcb	-0.027915856
1	0x3c91f917	0.01781897
2	0xbdffc83e	-0.12489365
3	0xbe124c3c	-0.14286894
4	0xbbebb32e	-0.0071929907
5	0xbe0d810d	-0.1381876
6	0xbddb296c	-0.1070126
7	0xbdd0ed5b	-0.10201522
8	0x3d929189	0.07156665
9	0x3dfc8264	0.123295575
10	0xbcc4c888	-0.024021402
11	0x3d50b7e9	0.05095664
12	0xbe080ba0	-0.13285685
