TorchModels/DeepQtrader12.pt (torch, 25047 bytes, 6 tensors)

fc1.weight f4 [50, 50]
00000000: c124 e4bd 0228 e6bd 0fd9 eb3d ba07 793d
00000010: 9a0c 923d 4afe c4bd e50b 06be 2094 4eb8
00000020: 9c82 4fbd 2290 25bd 5b93 0fbe e977 a2bd
00000030: 3777 553d 4c7b 66bd e557 12bd 17f4 3cbd
00000040: c763 e03d 9648 723a 6785 0d3e 8da8 fcbd
00000050: e0a4 ee3c e348 303d 6d2d 893d c10d b9bd
00000060: 824d 08bd a789 d73d 5424 98bd 0990 d4bd
00000070: 325a dfbd 35ce 073e 2b8b 0a3e f90d 80bc
00000080: fede 743d cec2 eebc 2c14 29bd 3d95 aabd
00000090: 5167 d8bb 6ccf bdbd 40d5 c2bd 8853 b2bd
000000a0: 2f78 353d 7d48 c7bd 03c9 06be 7fa5 1abd
000000b0: b25d b6bc 0c01 cabd aac8 61bd 0418 6bbd
000000c0: 7bce bd3d 4dbc b43c 0edf ce3d e9de 83bd
000000d0: 5f96 d03d 85e2 a6bd d818 bbbd b538 fabd
000000e0: 2fa2 d9bd 47ef 243d 4a42 d1bd 5482 01be
000000f0: ca1b c9bc c442 fcbd 40d9 273c 66bf 9dbd
00000100: 95ac 093e 466b 18bc 516a 2a3d 7ab9 ae3d
00000110: 9e16 c53d cd50 95bc 6e7b 0fbd 4947 6b3d
00000120: 41e6 aabd 36f5 a83d 25bf c33d 175b 87bd
00000130: 5781 02be ff94 05be 8b5e 8cbc f32b e8bd
00000140: 18a3 ba3c 62fd cabd 5cae 2e3c 72e8 093d
00000150: feb7 d33d 05c2 393d cb03 dbbd 310c a5bd
00000160: c00d 093e 4c12 f3bd bf23 073c f638 debd
00000170: 2db7 42bd f0d9 d23d 6ed8 fb3c 8b71 023e
00000180: c92e a63d 024e c7bd 17d9 d8bd 1db9 9dbd
00000190: 532a 583d c849 b3bd 2bef 133e da1e 5c3d
000001a0: 52cb 9abd 72f1 683d b44c 96bc bab6 533d
000001b0: c6d5 05be 9c2f 5f3d fe00 ee3d 3731 e2bd
000001c0: f35d 8e3d adef f3bd 65ca 143e bca6 80bb
000001d0: 43d9 2c3d b387 8e3d c27d 9abd a760 653d
000001e0: 0caf 41bd 3b73 9fbd 1b47 553c 768b eebb
000001f0: 4204 36bd 7eb4 283c 01f0 febd cd17 8cbd
00000200: e8f9 f73d 0e76 233d 686b ecbd 5068 ee3d
00000210: 1551 aa3c 5c71 c43b 1fa9 84bd a8e6 333d
00000220: 4c2f 90bd 02ec babd d3cc 013e b44e 403d
00000230: b2c1 cb3d a553 0abe 3170 85bc 354d ce3d
00000240: 17b8 b9bd 6e68 383d a13e b13c 9040 143e
00000250: 283a ffbd 0faf d3bd cdbb 03be 785c 2cbc
00000260: 6ac4 e23c 6009 8ebd 006b 8ebd 0a4a f1bd
00000270: a33a 053e 277a c3ba 173b e6bd 32f1 e83c
00000280: 6f92 f23c 1dab 533c d170 e83d 82c1 e5bc
00000290: 7736 3bbc 8f58 00be 28d9 803d 8f79 6f3b
000002a0: ccb3 793d a0a4 9c3d cd91 0e3e bde4 eabd
000002b0: 7417 25bd c74a 593d b8e2 b3bc 45c6 57bd
000002c0: e5da 86bc d854 a23d 3857 99bd 51aa ad3d
000002d0: a55a 40bd e776 c93d 6715 093e 3db5 53bd
000002e0: b08c 0b3e 657e dbbd 88a3 093e 70a0 c83d
000002f0: 1702 053e 851e 0f3c 4149 aa3d 2db3 0bbe
00000300: 9be7 e43d e3e5 9cbd bdb6 16bd 8cf2 af3d
00000310: 7076 69bd e02f 8c3c f7bc febd 8a73 42bd
00000320: 3e2e 2dbd afe5 97bd 0080 f4bd 21fe bcbd
00000330: c448 8dbd a10b 87bd 4d81 d9bd 6bbd 403d
00000340: 9921 0abd 4c10 6a3d 1469 5d3d 5c03 e2bd
00000350: ca5f 513c c598 90bd 34b0 21bd 11a7 e2bd
00000360: 591f b13b e592 bfbd 883e 983c 2e0b ffbd
00000370: 51e4 babd 0609 ae3d e8ab 0a3e fa65 c43b
00000380: cf7e babd b7e7 f23c 3af7 b63d 807e a33d
00000390: 2a7a 043e cb9b fdbc d5c1 7b3c e375 043e
000003a0: ca31 0a3e 5dd5 0e3e 8675 e73c 6d6e 80bd
000003b0: 04e1 1f3d f902 493d d6da 14bc 1679 9c3d
000003c0: f3ac 9fbd 0724 923d 5068 b63d 67b9 13bd
000003d0: a8eb 323d 9e80 833d b7c1 8c3d 2ebb cdbd
000003e0: 2508 78bd 7f2f f13d 842d fabd c141 ab3d
000003f0: 8c58 c53d 6ef8 2b3d 5e2a 3fbd 7c36 903c
-0.11139823 -0.112381 0.1151601 0.060798384 0.0713131 -0.09618814 -0.13090475 -4.925218e-05
-0.05066167 -0.04042066 -0.14021055 -0.07933027 0.052115645 -0.05626993 -0.035728354 -0.04613122
0.10956531 0.00092423835 0.1382042 -0.12336836 0.029131353 0.04303826 0.066981174 -0.090358265
-0.033277042 0.10524302 -0.07428804 -0.10379035 -0.10905875 0.13262255 0.13529651 -0.015631663
0.059782974 -0.029145624 -0.041279003 -0.08329246 -0.006604113 -0.09268078 -0.095133305 -0.087073386
0.04430407 -0.09730623 -0.13162617 -0.037755486 -0.022261474 -0.09863481 -0.05512301 -0.05739595
0.09267899 0.022062445 0.10101138 -0.06439001 0.10184931 -0.08148674 -0.09135598 -0.12217847
-0.10626637 0.040267255 -0.10217722 -0.12647372 -0.024549384 -0.12317422 0.0102446675 -0.07702522
0.13444741 -0.00930292 0.041605297 0.085314706 0.096234545 -0.018227005 -0.03502982 0.05744103
-0.08344699 0.08249895 0.09557942 -0.06609171 -0.12744652 -0.13045119 -0.017134925 -0.11336508
0.022782847 -0.0991161 0.010661688 0.033668943 0.10337828 0.045351047 -0.10694083 -0.08058966
0.13384151 -0.11868724 0.008248269 -0.10850708 -0.04753797 0.102954745 0.03074285 0.12738626
0.08114392 -0.09731676 -0.105882816 -0.07701323 0.05277474 -0.08754307 0.14446704 0.05374036
-0.075583115 0.056870885 -0.018347122 0.051687934 -0.1306983 0.054488763 0.11621283 -0.11044543
0.06951513 -0.11910949 0.14530332 -0.0039261263 0.042199384 0.06959476 -0.07543518 0.056000378
-0.04728608 -0.0778565 0.013017441 -0.0072798086 -0.044437654 0.010296939 -0.12448121 -0.06840477
0.12108213 0.039907508 -0.115439236 0.1164099 0.020790616 0.005994959 -0.0647757 0.043921143
-0.07040271 -0.09127046 0.1267579 0.046950057 0.09949054 -0.1350847 -0.016288849 0.1007332
-0.090683155 0.045021467 0.02163631 0.14477754 -0.12462264 -0.10336124 -0.12864609 -0.010520093
0.027681548 -0.06935382 -0.069540024 -0.117817 0.1301065 -0.0014913724 -0.11241739 0.028435323
0.02961084 0.012919215 0.11349643 -0.028046373 -0.01142656 -0.12533782 0.06291419 0.003654096
0.060962483 0.07648587 0.13922806 -0.114694096 -0.04030557 0.05304983 -0.021958694 -0.05267932
-0.016461799 0.07926339 -0.07487339 0.08479751 -0.046961445 0.09837132 0.1338707 -0.051686514
0.13627887 -0.10717467 0.13441288 0.09796226 0.12989078 0.008735304 0.08314753 -0.13642569
0.11176988 -0.07661035 -0.036795367 0.08591184 -0.056997716 0.017112672 -0.12438386 -0.047473468
-0.042280428 -0.074168555 -0.119384766 -0.09228159 -0.068986446 -0.06594015 -0.10620365 0.047055643
-0.033723447 0.05714445 0.05405529 -0.11035797 0.012779186 -0.070603885 -0.03947468 -0.11067022
0.0054053483 -0.0935419 0.018584505 -0.12453304 -0.09125579 0.08497815 0.1354214 0.005993602
-0.09106218 0.029651506 0.089338735 0.07983112 0.12937227 -0.030958077 0.015366037 0.12935595
0.13495556 0.13948579 0.028254282 -0.06271062 0.03903295 0.0490751 -0.009085378 0.07640283
-0.07796659 0.07135778 0.08906615 -0.036065485 0.04368177 0.06421016 0.06872886 -0.10045467
-0.060554642 0.11776637 -0.12215713 0.08362151 0.096360296 0.041984968 -0.046671264 0.017604105

fc1.bias f4 [50]
00000000: b9e1 303c a80b 13bc 13c1 9cbd 52ad 05be
00000010: 77ff 60bc 820e c8bb 326d fa3d a09f f1bb
00000020: 68c4 133e a412 35bd e118 013e b1c7 04bc
00000030: 370b 42bb 1a4a 9d3d 0bfa f93d 1ade 2d3d
00000040: 0b59 0e3d 64af a63d 6eed eb3c c48b 0a3e
00000050: 76ab 9a3d daef 11be f59c abbd 2ace 88bd
00000060: 85b2 b53d 11f7 a43d 4669 0dbd c43c 3bbd
00000070: a998 f53d 9225 0d3e 30ef 6cbd 8884 79ba
00000080: dfd5 fe3d 92c1 253d 910f c4bc 291c c6bd
00000090: a9e8 0e3d 8b14 a8bd ca8f 1b3d 9b77 91bd
000000a0: 019a ed3d de01 10bd 83ae 883c 223a 28bd
000000b0: cef6 0c3e 61b6 ab3d 88b1 923c 3c9a f63c
000000c0: 8c50 ae3d ed00 c93d
0.010796004 -0.008974947 -0.076540135 -0.13054398 -0.013732783 -0.006105245 0.122278586 -0.007373765
0.14430392 -0.04420723 0.12607147 -0.008104251 -0.0029608735 0.076801494 0.12205895 0.04244814
0.034752887 0.08138922 0.028799739 0.13529879 0.07552235 -0.14251652 -0.083795466 -0.06679948
0.088719405 0.08054937 -0.034524225 -0.045712247 0.11992008 0.13783863 -0.057845294 -0.0009518345
0.124431364 0.040467806 -0.023933204 -0.0967334 0.03488985 -0.08207043 0.037978925 -0.07102891
0.116016395 -0.03515803 0.016684776 -0.041071065 0.13766024 0.083843954 0.01790692 0.030102842
0.08511457 0.0981463

fc2.weight f4 [50, 50]
00000000: 990e dabd 7c71 df3d 5db8 373d 41b6 10be
00000010: a84e bbbc 8eb2 83bd c538 18bc 96e2 c9bc
00000020: c457 023e f576 cd39 a9f4 dc3d a058 13bd
00000030: 499e 063e 50ba fe3d 9cf9 5bbd 6e90 9bbc
00000040: 342f 05be 0430 0cbd dc20 4b3d 3d69 aebd
00000050: 7719 33bd e58b 843d 9291 683d 1a39 d5bc
00000060: 114f a73d 7e54 37bd 56ac 253b 3a10 a13d
00000070: 63dd 99bd c4c9 083e 475b e23d cd7f 64bc
00000080: a897 15bd 709f 983d 9e14 123e d961 e53d
00000090: e015 433c ee5a c53d c9b2 883d 40f1 d1bc
000000a0: 4273 5f3d 583e f53c 069a babd 7e03 f6bd
000000b0: 9c23 2a3d 17fa 87bd 5405 0ebe 70a3 56bd
000000c0: f0a8 6dbd f254 1bbc cad6 0a3e e886 35bd
000000d0: 231b ddbd 418b c3bd d2b4 83bd 947f 5a3c
000000e0: 398b d73d 6051 3dbd ac2a 0bbe 4646 28bd
000000f0: 590b eabd 3d03 97bd bc88 283c cb0d 8a3d
00000100: 9e81 ba3d b00d 953c 6e54 f7bd 8140 0e3e
00000110: 2411 5d3d 1abb b9bd 1fd1 9cbd ffe6 9a3d
00000120: ed2c efbd 60ce 15bd 9532 9ebd a411 ec3d
00000130: e4b6 19bd 0318 17bc 10e6 cc3d bdca a4bd
00000140: 5157 4b3d f5ad c8bc 2d7d ec3d 648b eb3d
00000150: 4562 cabd 18d2 bf3c bf76 083e fae7 773d
00000160: f7c9 823d 0317 debc 28bc f03d f250 ee3d
00000170: 9757 28bd 9f69 eebd d32c 03be 4d94 5d3d
00000180: 3f8b 9c3d 8483 9bbc d8e8 f8bd beed 53bd
00000190: 4fc2 7bbd d177 7f3d 9086 ce3d 4a71 d63a
000001a0: 1407 283c 1070 6fbd 0681 c33d 3a7d c7bc
000001b0: e02e 10bd 1f0b 363d 359e 5b3b bbba c33d
000001c0: d191 833a 3cda 113c 4ec7 acbd f9fe 0a3e
000001d0: 1a3a a73d 5ab5 d0bd 6eb8 04bd ba4a bd3d
000001e0: d270 bebd 6217 09be 5d77 96bd 2b58 813c
000001f0: c899 943d c374 e4bd c9ee b23b d929 783d
00000200: 6faa 07be 7990 7fbc 2ddb d23d 4a97 0dbb
00000210: 95db a2bd f9ae abbd 4d4d 2d3c 6f3e d3bc
00000220: 6892 e5bb cda8 1abd b797 f83d 43f9 9fbd
00000230: b0e3 073e fdff 093e ea1f 8c3b 860f 23bd
00000240: 1552 10be 2201 a03b a7ce af3d b1da e43d
00000250: 70f1 d33d eb8e 3e3d 55b2 fbbd 5cd2 023e
00000260: 35ff 81bc d020 1ebc 43a4 b43d 79d4 9a3d
00000270: 57a8 fcbd 2a09 96bc 0d13 d7bd 3bf0 fd3d
00000280: f3b6 17bd b3d6 c03d 8232 80bd e872 5ebd
00000290: 9746 023e a4ea 8e3d 96c3 7f3c 0400 fa3d
000002a0: 3384 8a3c f0f2 c3bd fcba 9dbc fd9b 90bd
000002b0: 7ee4 c53d 881f c93d e4ed fa3d 038e 82bd
000002c0: 54a7 a03d dd15 d6bd 554e 25bd c5b8 f4bd
000002d0: 1237 d0bd 0387 8b3d cb9c 8c3d 67b3 bc3d
000002e0: afe0 6e3a 1047 15bd cc3e 8a3d 804f 8a3d
000002f0: b6a2 b1bc 5bda 8e3d 939f 083e 8ef2 853d
00000300: 6b22 bc3d 08a3 20bd 7356 c93d 10f8 59bd
00000310: ccb9 f33d be4f 333d 345e 03be 50e5 2bbc
00000320: f999 efbd 2073 e1bd 68ab e7bc 4de5 8bbd
00000330: 8168 c43b b5e1 543d 9c84 f0bd fbd4 753c
00000340: 6fa1 013e c968 b03d b05a bdbd 9886 a13d
00000350: 997a f33d ae7e c23d bafd 05be 6c96 03be
00000360: b67a 07be 2708 b03d d401 6b3d 03f3 833d
00000370: 6b76 00be 623c 0a3e a4e1 0d3e bbb1 83bd
00000380: 3651 ac3c 07e5 c53d ce93 9cbd adb8 07be
00000390: 47eb 113e e38d b8bd e6d7 bebc 0321 0fbe
000003a0: c9df 0c3e 69f5 4fbc 1ec8 b8bd 4494 ddbd
000003b0: 514b f33d 1fa4 09be 94a2 083e 6dd1 c33d
000003c0: 1a14 ef3d b648 babd d5c0 38bd 0323 043d
000003d0: 7886 97bd 5e42 f53d e252 b03c 6395 b9bc
000003e0: 16ca 8e3d 89c2 7abc c1a2 cbbd 0e1f ff3d
000003f0: ce46 40bd f431 443c 7417 c13d ba27 b73d
-0.106473155 0.10910317 0.044853557 -0.14132024 -0.022864655 -0.06430541 -0.009290879 -0.024644177
0.12728792 0.00039189277 0.10788853 -0.03597319 0.13146318 0.1243788 -0.053704843 -0.018989768
-0.13006288 -0.03422548 0.049591884 -0.08516166 -0.043725457 0.06471995 0.05677945 -0.026028205
0.081693776 -0.044758312 0.0025279722 0.07864423 -0.07512929 0.13358217 0.11052566 -0.013946486
-0.036521584 0.07452285 0.14265677 0.112003036 0.011907071 0.09636484 0.066747256 -0.025627732
0.054553278 0.029936954 -0.09111409 -0.12012385 0.041537866 -0.06639498 -0.1386922 -0.05240196
-0.05802244 -0.009480702 0.13558498 -0.04431811 -0.107961915 -0.09548045 -0.06430973 0.013336081
0.105246015 -0.046220183 -0.13590497 -0.041082643 -0.11427946 -0.073736645 0.010286506 0.06740912
0.09106754 0.018195003 -0.120766506 0.13891794 0.053971425 -0.0906889 -0.07657074 0.0756359
-0.11678491 -0.036573768 -0.077244915 0.11526802 -0.037527934 -0.009222033 0.100048184 -0.08046482
0.04964382 -0.024497012 0.11547313 0.11501196 -0.09882025 0.02341561 0.13326548 0.060523964
0.06386178 -0.027110582 0.11754638 0.11636533 -0.041099157 -0.116412394 -0.12810068 0.05409651
0.076437466 -0.01898361 -0.121537864 -0.0517404 -0.061464604 0.062370125 0.100842595 0.0016360667
0.010255594 -0.05845648 0.09546094 -0.024351705 -0.035200953 0.0444442 0.0033511047 0.095571004
0.0010037964 0.008902129 -0.08436452 0.13573827 0.08165379 -0.1019084 -0.03240245 0.092427686
-0.092988625 -0.13387826 -0.073469855 0.015789112 0.07255894 -0.11155083 0.0054605943 0.060586784
-0.13248609 -0.01559841 0.10295711 -0.0021605068 -0.07952038 -0.08382983 0.010577512 -0.025786607
-0.0070059784 -0.037758637 0.12138312 -0.07811215 0.1327045 0.13476558 0.0042762654 -0.039809726
-0.14093812 0.0048829475 0.08584338 0.111745246 0.10348785 0.046523016 -0.122898735 0.12775558
-0.015868763 -0.009651378 0.08820393 0.07560057 -0.12336796 -0.018314917 -0.105016805 0.12399336
-0.03703971 0.094159506 -0.062596336 -0.054308802 0.1272224 0.06978348 0.015610596 0.12207034
0.01690874 -0.09567821 -0.0192542 -0.070610024 0.09662722 0.09820467 0.12252405 -0.06374743
0.07844415 -0.10453389 -0.040357906 -0.119493045 -0.10166754 0.06812861 0.068658434 0.09213906
0.000911246 -0.036444724 0.06750259 0.06753445 -0.021684032 0.06975242 0.13342123 0.06540404
0.09186252 -0.03921798 0.09830942 -0.053215086 0.11900672 0.04377722 -0.12828904 -0.010491684
-0.1169929 -0.110082865 -0.028279975 -0.06830845 0.005993903 0.051973063 -0.11744043 0.015004392
0.12659238 0.08613736 -0.09245813 0.07887 0.11888618 0.094968185 -0.1308507 -0.1285035
-0.13230404 0.08595305 0.05737479 0.06442835 -0.12545173 0.13499597 0.13855606 -0.06430384
0.021034818 0.09662824 -0.07645379 -0.13254042 0.14249907 -0.09011438 -0.023296308 -0.13977437
0.13757242 -0.012692788 -0.09022544 -0.10819295 0.118796 -0.13441513 0.13343269 0.09561429
0.11673756 -0.090959 -0.045105774 0.032259952 -0.07398695 0.11975549 0.021523897 -0.022654241
0.069721386 -0.01530517 -0.09943152 0.12457095 -0.046942525 0.0119748 0.094283015 0.08943124

fc2.bias f4 [50]
00000000: eea3 9ebc d3b5 6cbd eb5f 10be d692 86bc
00000010: 7e26 193d 27ec c2bd 08a6 673d 69e8 3d3d
00000020: f971 2dbd 9544 e3bc e533 673d 1a86 cdbd
00000030: 49a7 2abd 1c47 84bd 38c5 0cbe 05c5 86bc
00000040: fce8 233d f155 75bd 31b4 e0bd a374 d5bc
00000050: 6258 053d 6951 e5bd f219 b2bd a0ae 5ebc
00000060: f91a 5f3d 9b8e 9f3b 5e15 07be 1f6f dc3d
00000070: 310a 11bb 02ed 1e3d 0514 cdbd 2be5 de3c
00000080: e4b1 953d f4c4 bc3c 6ad2 c9bd 1fcd 38bb
00000090: 5291 babc 2742 3d3b 7b4d 033e 0359 9dbd
000000a0: 4616 44bb d4b6 1f3d c5ac 193d f138 5dbd
000000b0: df88 b3bd 7f49 99bd 7705 9abd 1ab6 d9bd
000000c0: 1f43 8fbd ead7 a6bd
-0.019365277 -0.05779059 -0.1409909 -0.016427439 0.037390225 -0.09517699 0.056554824 0.04636422
-0.04234502 -0.027742663 0.056445975 -0.100353435 -0.04166344 -0.064588755 -0.13747108 -0.016451368
0.040017113 -0.059896413 -0.10971869 -0.026056593 0.03255499 -0.111971684 -0.08696355 -0.0135914385
0.054469083 0.004869295 -0.13191745 0.10763382 -0.0022131319 0.038800247 -0.10013584 0.027208885
0.073093206 0.023043133 -0.098545864 -0.0028198434 -0.022774372 0.0028878541 0.12822525 -0.07682993
-0.0029920503 0.038992718 0.03751828 -0.05400938 -0.087663405 -0.074847214 -0.075205736 -0.10630436
-0.06995224 -0.08146651

fc3.weight f4 [13, 50]
00000000: f8bf 00be 9755 cfbc 42e0 e53d cf3b bebc
00000010: 85e0 d13d 1938 cebc e1c1 b83d 187c 29bd
00000020: 9006 b13c ee3b ec3d d29c 15bd f478 f73d
00000030: 0a38 9a3c 78e1 0ebe eb74 d93d 5e66 e0bd
00000040: 3de8 6f3d 6d31 ca3c 6254 f33d ec52 0c3e
00000050: 5a6c 663d fa7f ba3d 88f9 653d 75bd 2ebd
00000060: 8219 5f3d 220b 7d3d db94 1ebd fb6c 983d
00000070: 7ff3 0f3d 6782 32bd 69b4 eebc 1b7b 943c
00000080: 0828 ba3d 8703 133d 03da e83d cf86 f1b9
00000090: 52ad 963d adec b53d d623 a6bd 35f1 a83d
000000a0: 0336 6bbd b254 26bc 7e09 293d 2a1a 283d
000000b0: 6519 3e3d 4a9b 5b3c f047 f93d 3af3 043e
000000c0: cb55 4d3d 1a4d ee3d bb2a 83bc be51 d5bd
000000d0: 3ee2 e3bd a3ad 153d 8c0d e6bd b1d5 19bd
000000e0: 2249 563c c1bd f13d a09e f53d 60e8 27bc
000000f0: 60a8 b2bb a64f d03c 2503 07be a109 aabd
00000100: e901 50bd decf 803d 8cee 063e 9ba4 0cbe
00000110: 417e 2a3d d2cc fabc ea30 a63c 928e 8dbd
00000120: 289c cfbd 1ce2 40bd 9257 b2bc 5023 4bbb
00000130: c759 003e 7e7f b3bd e7c8 933c 6469 c43d
00000140: f1a4 003e 0f91 da3b 0f06 12bc 08da bcbd
00000150: 7fea fdbd a2e1 b0bc a17e 55bd eaee bfbb
00000160: d904 a3bd 46e5 d73d 21d3 09be daf2 df3d
00000170: 5227 d7bd 7bf9 953d f837 ca3d 2ede fc3d
00000180: c126 03be 045d 90bd 2671 84bd dd72 033e
00000190: 6f88 db3d 7234 103d 827b c63d 936b bb3d
000001a0: c90e 643c b5a1 cabc db94 ce3d 876f 9c3d
000001b0: 5a2e 12bd 0146 063d f2e5 033e 4f52 8dbc
000001c0: cb32 22bd 043c 723d 3152 04be 88e2 203d
000001d0: 55e7 f83d 79fd dfbc 7814 ab3d 6b49 2c3d
000001e0: afd8 bb3d ae01 fbbd 90b2 293d 168f 6739
000001f0: fe0d 14bd ac3c 91bd cb09 023e 9ce3 93bd
00000200: f306 5c3d d163 62bd f1ff 72bd 0d0a 25bd
00000210: 6407 84bd 6e8f 963d a379 78bd cf43 9d3a
00000220: 39cc 1dbd 327d ffbd 782f de3d 98ee f8bd
00000230: f1e4 9dbd 67ad 3dbd ac36 02bd 44ab 14bd
00000240: 9663 1b3d efa4 873c 9bdb 2bbd a9a0 f5bd
00000250: 8f9d 733d 5055 b43d 06d5 fcbd 9e4e 67bb
00000260: c3fb 8f3d a3a3 b3bc 252b 3f3d e785 ae3d
00000270: 3a36 62bd 276d 0abe a43f 26bd f7f9 10bd
00000280: 2697 08be 415d 28bd c6e5 ebbc 9612 01be
00000290: 9aa3 033e d240 65bc b23a 863d 6ab0 5abc
000002a0: f186 c63d adf1 f83d 1476 febb b390 acbc
000002b0: e1ad 953d 2550 073e 6715 83bd ded1 a43d
000002c0: 9db7 edbd acad 5abd 1fba 4ebc 290c 073d
000002d0: e570 9ebd f712 b5bd a770 98bd 3c2d a03d
000002e0: 4e27 ee3b 8ba8 fa3d 53a4 03be 68f9 2abc
000002f0: 5c89 e33d 1028 17bd 7de8 09be 57b6 72bd
00000300: 0caa f53d fc2a f0bd 993f 923d b76d b2bd
00000310: ae4f 993d e271 09be ce52 c93d 9c8e ae3d
00000320: 8601 d6bd ab52 b9bd f321 a9bd d4e0 003e
00000330: 56ec f7bc fffa c5bd e493 773d 0ff5 c8bd
00000340: 5ac8 513d fc3e 3bbd 956c 883d b4de e73d
00000350: 5d33 fc3d c458 7bbd 5d99 0ebe 9a04 0abd
00000360: 2a81 debd e440 ebbd 8f15 bc3b 5937 dd3d
00000370: 92f7 4b3d 25d1 b5bd f7d7 d3bd a41c 713d
00000380: 359e 0ebe 9834 7ebd 347d 0b3e 49fd c3bd
00000390: c20e a8bd bb9e 083d 5ed4 893d 5664 6e3d
000003a0: d29b 94bd 0640 1bbd 67a7 003e 7682 14bd
000003b0: 8960 fbbd 07f5 fc3c 0785 c6bc 2ea0 cd3d
000003c0: a4e4 04be 4146 b03d a5a0 a33d d587 2fbd
000003d0: e1c4 6e3d 3d4a c1bd 0244 fabd eea2 3fbc
000003e0: 1e18 3cbb 7a74 dd3d 1e46 853c b97f 9fbc
000003f0: c71e d13d 7349 113e b251 093e a73b 8bbd
-0.1257323 -0.025309367 0.112244144 -0.023221878 0.10247902 -0.025173234 0.090213545 -0.04137811
0.021609575 0.11534868 -0.03652651 0.12083617 0.01882555 -0.13953197 0.106180035 -0.10957025
0.05857109 0.024681771 0.11881329 0.13703507 0.056255676 0.09106441 0.056146175 -0.04266115
0.054467686 0.061778195 -0.03871618 0.074426614 0.035144325 -0.043581393 -0.02913876 0.018125108
0.090896666 0.035892036 0.113697074 -0.00046067542 0.07357277 0.08883033 -0.08112304 0.082491316
-0.057424556 -0.010152029 0.041268818 0.041040577 0.046410937 0.013403723 0.12171924 0.12983409
0.050130647 0.116358 -0.016011586 -0.10415982 -0.11127137 0.036542546 -0.112330526 -0.037557308
0.01307896 0.11803771 0.11993146 -0.010248274 -0.005452201 0.025428604 -0.13184793 -0.08302618
-0.05078307 0.062896475 0.13176936 -0.13734667 0.04162431 -0.030615244 0.020286996 -0.06911959
-0.10137206 -0.047090635 -0.021770272 -0.003099639 0.12534247 -0.087645516 0.018040134 0.09590414
0.1256292 0.0066701244 -0.008912577 -0.09221274 -0.12398242 -0.021591965 -0.052122716 -0.005857338
-0.07959909 0.10541777 -0.13459446 0.10934992 -0.10505547 0.07322975 0.098739564 0.12347065
-0.12807752 -0.07048991 -0.06466894 0.12836786 0.10719382 0.035206266 0.09691526 0.091513775
0.013919541 -0.024735311 0.10086986 0.0763846 -0.035688736 0.032781605 0.12880686 -0.017251162
-0.03959922 0.059139267 -0.12921979 0.039278537 0.12153498 -0.027342545 0.083535135 0.042062204
0.091721885 -0.1225618 0.041430056 0.0002208318 -0.036146156 -0.0709165 0.12699048 -0.072211474
0.053717565 -0.055270974 -0.059326116 -0.04029279 -0.06446722 0.07351576 -0.060662877 0.0011998358
-0.03852484 -0.12475051 0.10848898 -0.12154883 -0.07709683 -0.046307947 -0.03179042 -0.036296144
0.03793677 0.016558139 -0.04195748 -0.11993534 0.05947643 0.088053346 -0.123453185 -0.0035294662
0.070304416 -0.021928614 0.046672005 0.085216336 -0.055227496 -0.13518201 -0.040588036 -0.035394635
-0.13338909 -0.04110456 -0.028796088 -0.12604746 0.12855378 -0.013992505 0.06554164 -0.013347724
0.09693707 0.12155471 -0.007765541 -0.021065092 0.073085554 0.13214166 -0.064005665 0.080478415
-0.11607287 -0.053388283 -0.012617617 0.03297058 -0.07736377 -0.08841508 -0.07443362 0.07821128
0.007267869 0.12239178 -0.12855653 -0.01043544 0.111101836 -0.03690344 -0.13467593 -0.059255924
0.119953245 -0.117269486 0.071410365 -0.08712333 0.07485901 -0.13422349 0.09830247 0.08523294
-0.10449509 -0.09048971 -0.082584284 0.12585765 -0.030264061 -0.09667014 0.060443774 -0.09812366
0.05121646 -0.045714363 0.066613354 0.11321774 0.12314484 -0.06136395 -0.13925691 -0.033695795
-0.1086448 -0.11486986 0.0057398747 0.10801572 0.04979665 -0.08877782 -0.103439264 0.058865204
-0.13927539 -0.062061876 0.1362198 -0.09569795 -0.0820594 0.033354502 0.06729959 0.058201157
-0.07256283 -0.037902854 0.12563859 -0.03625723 -0.12274272 0.030878557 -0.024233354 0.100403175
-0.12977844 0.0860715 0.07989625 -0.04285415 0.058293227 -0.09437988 -0.12220003 -0.01169656
-0.0028700898 0.10813232 0.016268786 -0.019470083 0.102109484 0.14188175 0.1341007 -0.06798487

fc3.bias f4 [13]
00000000: 910b 28bd 3405 2a3c 0d2e 83bb bccf a83b
00000010: b6c9 063d 2f84 013e d419 87bd 5ec5 b5bd
00000020: db8a 85bd f4c8 ffbb 94d3 9ebd 507d c23c
00000030: 04a7 bc3d
-0.041026656 0.010377217 -0.0040032924 0.005151717 0.03290721 0.1264808 -0.06596723 -0.088755354
-0.06520625 -0.007805938 -0.07755199 0.023741394 0.09211543
