TorchModels/DeepQtrader39.pt (torch, 25047 bytes, 6 tensors)

fc1.weight f4 [50, 50]
00000000: 094b 183d 4efa ba3d 4326 eb3c 188f 87bc
00000010: 7c13 edbd 02be bb3d 30c9 e4bd 7095 56bd
00000020: fbcd d1bd bc77 fb3d df52 00be c327 9dbd
00000030: d380 de3c 6ad4 e23d 5041 003e 86e6 d7bc
00000040: 1c43 f63d 6eca 28bc 1606 af3d d3b4 f13b
00000050: c91f 2abd 9a17 edbd 89e4 39bb 0615 a93d
00000060: 3fb8 25bc bec1 f43d a9bb 06bd 31ce 2b3d
00000070: ce61 0d3e 3674 cc3d abdd 723d e035 243c
00000080: 6d53 06be 4d49 fb3c df12 e1bd 66ea 93bd
00000090: 05a5 aebd f5e1 7b3d 0645 383c ff3a ecbd
000000a0: 2b65 2fbd dc2b febd 969a 083d f9c6 aabd
000000b0: 7422 abbd 5829 fbbd f817 fbbd 9150 e0bd
000000c0: e247 d4bd 96bf 4abd ab9a 80bd 6440 24bd
000000d0: 956d 9abd 52f0 ad3d de2e 29bc 88cd a03d
000000e0: 0e6e e0bd 377e 53bd 442b bf3d 30bd c03d
000000f0: 5211 cbbd ef20 99bd 8a0d 2b3d b422 0e3e
00000100: 6b90 c13d 2afd 843d 20a8 e1bd 2c45 993d
00000110: 120d 403d d7e0 c9bc 6a1f 023d ce66 a7bd
00000120: 1781 48bd fddf bc3d cc3e 85bc 2a3b 98bd
00000130: 477f e73d 1483 d93d f4bf 5dbd 662d 9bbd
00000140: 762c 803c 3fd9 98bc 5154 0abe 617e f93c
00000150: 260c ba3d 56c2 23bd 057e a83d 29b6 073e
00000160: 79da 8fbc cc97 61bc fccc 00be ecd9 45bd
00000170: 13c6 d93d 35aa d3bd 35b8 b4bd f997 f6bc
00000180: 0f81 bbbb 90ec afbb 8380 4f3d aa1d b43d
00000190: dc1a e83c cdf3 803d e5d4 413d 8963 d53d
000001a0: 8f75 36bc 4f6b 8c3b 9989 55bd fb80 793b
000001b0: 0dbd f33c 169c 6e3d c54d 063e 5629 bb3d
000001c0: c94a c63d d91f 0a3e e0ce 6b3d 499f 6a3d
000001d0: e444 0cbe 0b6b 4a3d e087 883d 616f 0d3d
000001e0: 4ecc ecbd 4a1e 11be e619 fc3d 3bc4 94bd
000001f0: f415 a5bd 543e 913c f2c1 b839 6b9a bcbd
00000200: d8e3 b0bd 57f0 7c3d 2ce1 babb 606b 8fbd
00000210: 0498 04be 47af 8ebd b308 903d c056 0e3d
00000220: 7a02 8abd 0510 9abd 1b58 f83d 1d5e 1cbd
00000230: aa79 d73d 3c74 4b3d 7253 0fbe 2204 cabc
00000240: 8946 61ba 007b 0d3b 2207 be3d 0e6a 073e
00000250: 9e7a 003e 40e2 c93d b4f2 7dbd bb29 f7bd
00000260: 0fd0 573d db4a 5dbc 8ad7 8e3d 07e1 cd3c
00000270: 8dd0 8dbc fbb1 b73c 1488 88bb 7ecf b8bd
00000280: e048 d03d f171 83bc 9413 20bd 05f1 b1bd
00000290: 8781 ee3d a3ad d0bd 31aa 533d 82e3 b73c
000002a0: aee0 3dbd 09f4 a93a 7da4 163d b93d 483d
000002b0: 112f aa3d abd4 923d cd05 b8bd 9b43 8b3d
000002c0: 09de 9a3d 3d27 e43d fb06 013e 195e 043e
000002d0: f103 28bd 71bd cd3c 5f66 8fbd 4f2f 273d
000002e0: 637d f33d 5a95 953d bf8e e33d 3ee7 08be
000002f0: a1da 903d d1b2 8f3d 8b99 693d e227 bd3c
00000300: 627f 113e fc27 ec3d 3c40 c6bd 4264 943d
00000310: d6c0 c8bc db53 f33d c747 79bc 5dbf 063e
00000320: 47c6 583d f5af adbd 58c0 8e3c 6a84 4ebd
00000330: 3cd1 e73d a126 e3bd 8433 223d eccf b6bc
00000340: 747b cb3d b126 8ebc f2a8 9e3d d906 a23d
00000350: bbaa a5bc f653 133e 83ff e3bd 234e 113e
00000360: 7e0b d3bd c7b1 123c 47be cd3d 5a65 dfbd
00000370: 5b7e d9bd 617f afbd 32bf 9dbd 317d a6bc
00000380: 4829 c7bd 8309 07bd 7db6 a1bc dd9e 7e3d
00000390: 83ba 483a 3e34 7d3d 9e14 e93d 2c2e d63b
000003a0: 9e5e 8e3d c513 a9bd 82e2 e63d 624a a6bc
000003b0: 33c1 e53d 7c5f 083e 7dcd 07be be5c 6c3d
000003c0: 5b86 d23c 864a 0b3d 844d 03be 5da0 06be
000003d0: 216c 02be 73d5 f83d 4a10 093e 2eed b7bc
000003e0: a685 b7bc c6f9 3cbd 3831 d53c 5ad9 04be
000003f0: 167d a5bd 24d2 39bd c140 79bd a5d6 3d3a
0.037180934 0.09129773 0.028704768 -0.016547725 -0.11575982 0.091671005 -0.11171186 -0.05238861
-0.10244366 0.12278697 -0.12531613 -0.076735996 0.027161038 0.11075671 0.12524915 -0.02635504
0.12024519 -0.010302169 0.08546083 0.0073762923 -0.04153422 -0.11576767 -0.0028364977 0.08255963
-0.0101147285 0.11951016 -0.03289381 0.041944686 0.13806841 0.09983103 0.05929343 0.01002261
-0.13117762 0.030674601 -0.109899275 -0.07222442 -0.08527569 0.061494786 0.011246925 -0.1153469
-0.04282109 -0.12410709 0.03335055 -0.08338732 -0.08356181 -0.12263745 -0.12260431 -0.10952867
-0.10365273 -0.049499117 -0.062795006 -0.04010047 -0.07540432 0.08493103 -0.010326115 0.07851702
-0.10958491 -0.05163404 0.09334424 0.09411085 -0.09915413 -0.07476985 0.04176096 0.13880426
0.09451374 0.064936 -0.110183954 0.074838966 0.046887465 -0.024643345 0.03176824 -0.08173905
-0.048951235 0.0922241 -0.016265295 -0.0743316 0.11303573 0.10620704 -0.05413814 -0.075770184
0.0156462 -0.018658279 -0.13508727 0.03045577 0.090843484 -0.039980255 0.08227161 0.13253082
-0.01756023 -0.013769101 -0.12578195 -0.04830353 0.10633483 -0.10335199 -0.08824197 -0.030101763
-0.005722172 -0.0053687766 0.050659668 0.087947205 0.02833312 0.06296501 0.047322173 0.104193754
-0.011136427 0.004285253 -0.052133176 0.0038071263 0.029753232 0.058254324 0.13115604 0.091387436
0.09682233 0.13488711 0.05757034 0.057280812 -0.13698155 0.04941849 0.06666541 0.034530047
-0.115624055 -0.1417171 0.12309627 -0.072639905 -0.08060828 0.017729916 0.00035239715 -0.092091404
-0.08637208 0.061752643 -0.005703112 -0.07002902 -0.12948614 -0.06967025 0.07032909 0.0347507
-0.067387536 -0.07522587 0.1212618 -0.03817569 0.105212525 0.049671397 -0.13996676 -0.024660174
-0.00085935794 0.0021588206 0.09278704 0.1322405 0.12546775 0.09857607 -0.061999038 -0.12068506
0.052688655 -0.0135066165 0.069747046 0.025131715 -0.017311359 0.022423735 -0.0041666124 -0.09023951
0.1017015 -0.016045542 -0.03908117 -0.08688549 0.11645799 -0.101893686 0.05167598 0.022447351
-0.04635685 0.0012966405 0.036777962 0.04888699 0.083097585 0.071694694 -0.089854814 0.06800004
0.07561881 0.111402966 0.12600319 0.1292652 -0.041019384 0.025114747 -0.070019476 0.0408166
0.1188915 0.07303877 0.11111211 -0.13369462 0.0707295 0.070165284 0.057031196 0.023090307
0.14208749 0.11531064 -0.096802205 0.07245685 -0.024506014 0.118812285 -0.015214867 0.13158937
0.052923467 -0.08480827 0.017425701 -0.05041925 0.11319205 -0.11091352 0.03959991 -0.022315942
0.09935656 -0.017352434 0.077470675 0.07911462 -0.020223012 0.14387497 -0.11132719 0.14189963
-0.10304926 0.008953518 0.10046058 -0.10908003 -0.106198035 -0.085692175 -0.07702483 -0.020323368
-0.09724671 -0.032968055 -0.019740338 0.062163223 0.0007657187 0.0618174 0.113808855 0.006536266
0.069516405 -0.08255724 0.11273672 -0.02029914 0.112184905 0.13317674 -0.13261981 0.057705633
0.025698831 0.034006618 -0.12822539 -0.13147111 -0.1273656 0.12150087 0.1338512 -0.022451963
-0.022402596 -0.04613664 0.026024446 -0.12973538 -0.08080499 -0.04536642 -0.06085277 0.00072417624

fc1.bias f4 [50]
00000000: ef71 e5bc 2578 fbbd 234e af3c a9a3 2cbd
00000010: 8e8c aebd 4065 003c 205a 68bd dfaf 563d
00000020: f040 203d 25e8 cb3d 6df5 fc3c a202 bcbd
00000030: a22c ab3d 6f09 863d 7744 e8bd b23f 27bc
00000040: 89a5 c23d 6489 cabd 7f9b d93d a2e6 893c
00000050: 8924 d03d c4a0 f93b 9e60 523d c2a8 4fbd
00000060: 54bf f9bb acc8 1ebd d347 fbbd 661c e33c
00000070: 503c 4fbc 7b8e 29bd 0d45 b13d 2d10 c73d
00000080: de02 d5bd 0a1e 85bc 8233 cd3c 3009 26bd
00000090: 5161 813c 1605 523c cb95 09be 4411 a23d
000000a0: b3d7 123e 4ca8 09be 8b4d debd 2d23 c13d
000000b0: 6cc5 243d 3a2c 01be c84f 003e a3f6 303d
000000c0: 2c9c eebd 1e48 893d
-0.02800843 -0.12278775 0.021399563 -0.042148266 -0.085229024 0.00783664 -0.056726575 0.052413817
0.03912443 0.099563874 0.030878747 -0.0918019 0.083581224 0.06544768 -0.11341184 -0.010208057
0.095042296 -0.098894864 0.10625362 0.016833607 0.101632185 0.0076180417 0.051361673 -0.05069805
-0.007621685 -0.038765594 -0.12269559 0.027723502 -0.012648657 -0.041395646 0.086557485 0.09719882
-0.104009375 -0.016249675 0.025048975 -0.040536106 0.015793474 0.012818595 -0.13436048 0.079134494
0.14340095 -0.13443106 -0.10854634 0.094305374 0.04022734 -0.12614527 0.12530434 0.04320396
-0.11650881 0.067032084

fc2.weight f4 [50, 50]
00000000: 212b c23d d8a4 f13c ea3b 7abd fe80 9abb
00000010: 05fd 1b3d 4c24 0fbd d5aa 92bd 845d cabd
00000020: 770d 8e3d bc44 583d a8b1 e23d 91d8 f5bd
00000030: 3f4a 12be ce4d 7cbd 5373 b53d ce31 f83d
00000040: 06ae d9bd baf6 da3d 2026 b2bd 7fc5 febd
00000050: acef 0dbe d686 01bd a46a d23d 909e a9bd
00000060: ae6c 053e d606 be3d f081 dcbd a98d 0fbe
00000070: 2009 f0bc 3e9b 0fbd 5f00 e63d 7880 0ebe
00000080: 202e a03c 94f7 96bd de95 2ebd a255 9fbd
00000090: ad11 0ebe 3452 df3d 4331 3abd ba3f 09be
000000a0: b8ea fdbd f08f 07be abf9 febd eee1 0ebe
000000b0: 3295 ccbd d647 60bd 2063 813d 1dc9 dbba
000000c0: 592c f9bd ce74 583d 4328 663d 2e87 0fbd
000000d0: df9d 943d fbcd 133d a745 bdbd 4082 0bbe
000000e0: b7b7 023e 7cd6 d7bc 3e62 56bd b988 073e
000000f0: 76aa 203d f469 39bd eeec fd3d 6066 b3bd
00000100: 58b5 c2bd 4841 883d 0b59 16bc 7e05 f1bb
00000110: a2aa eebd a94e 3b3d 45f6 cd3d b89f 153d
00000120: 1d7c b1bd f69e a33d 7c4b f9bd be39 10be
00000130: 4494 083e 774e e93d 3492 073d 1830 c93d
00000140: 4942 70bb 86bd d13d 6cb7 a03d ee7f 80bd
00000150: 7173 8e3d 092c e73c cb8a e13a 4c01 ac3d
00000160: 7d8f 35bc 1868 0cbc d95b 1e3b 8928 b2bd
00000170: 1f25 00be b23d fa3d 4f3a 003e 6654 80bd
00000180: 035b a33d dfe2 7e3d 5d27 ccbd 7035 99bd
00000190: 3428 f4bd e7fe a13d 7967 853d f8af fbbd
000001a0: 8a95 2a3c 01f2 72bd be22 a93d b684 d3bd
000001b0: 2c1b 9c3c 483e b93d 6deb a33d 9b13 003e
000001c0: f5a7 61bd 0d5e f13d ae8d 0f3e 1144 903c
000001d0: 45f5 01be a5c6 243d 6309 98bd fa55 4d3d
000001e0: 7e60 383d ee62 f73d 53b8 0c3e 2d7e 223d
000001f0: 1f01 a63d c8dc 95bd c730 79bc f043 cf3d
00000200: c6ad 81bd e440 3b3d c0aa 6dbd b215 b03d
00000210: d8c8 89bd eddc 253d af28 083e 7bde d1bd
00000220: 9c88 44bc 0849 5fbd 6f52 f33d b823 fa3d
00000230: adc6 0ebe 353b 05bd 62eb 03be 7110 003e
00000240: 7484 063e eb41 473d 36ad 3f3c 5472 7d3d
00000250: 2a17 00be 9f03 abbd a0d7 10be b9e8 993d
00000260: d628 063e 260f d83d 7910 883d a344 c93c
00000270: e799 e43d 4bbb f53d 2e06 dbbc 1f05 de3c
00000280: e778 4fbd ac35 a1bc d595 3e3d 7aa1 25bd
00000290: 39e7 27bc 3943 0bbd c886 a7bd c304 dcbd
000002a0: 431f fdbd 53a1 c33c 4cfb ecbd 1b32 a8bd
000002b0: 3b70 0e3e 45c1 933d ee89 7ebb 4d44 dd3d
000002c0: c2c7 84bd f12d 1e3d 4a60 a7bd 4f64 f03d
000002d0: 323e d53d a3e1 b13d 8767 eabd 1a14 ba3d
000002e0: 2524 b13d 78e6 e1bd 02c6 503d f7d9 8bbc
000002f0: 071b cb3d 4478 853d e84b 00bc fd33 9fbd
00000300: 0319 0e3e 5f51 03be b732 dabd dc8d c4bd
00000310: 1745 7ebd 7bef 8c3d a6b8 f9bd caa8 9ebd
00000320: c398 e6bd 7ede 3bbd 62e5 ef3c ffd7 91bd
00000330: 3f11 cb3d 4c14 9b3d e610 8c3d 6433 b73d
00000340: 9de2 6b3d d3b7 6b3b 4323 013e bf3f 0ebe
00000350: 29c5 d63d caf8 5a3d d2ff 123e 6544 d9bd
00000360: a5a7 b83c 3560 253d b862 b8bc 470a ea3d
00000370: f5f0 ce3d 7f69 5fbd 4c9a cb3a 7b75 4dbd
00000380: 84f2 353c 921e 5c3d f2a0 acbd 4b46 da3d
00000390: 997c c33d 49cc 4e3d efe0 08be d2fa e3bd
000003a0: 089c 6e3d 63f2 a93d 1066 923d 0879 8dbb
000003b0: 11a5 c6bd 267c 2e3d f299 81bd b90c e6bc
000003c0: 3bfd 933d 99a3 263d eeda f43d dd82 b63c
000003d0: 63e8 d9bd b694 3abd 38b3 b83d e29e 7abd
000003e0: a03f a4bd e778 dfbb c3a7 c63d c89e d33d
000003f0: b52b f73d 7ae8 033e 624f c7bc 3c21 c83c
0.094808824 0.029497549 -0.061092295 -0.004715084 0.038083095 -0.034946725 -0.0716149 -0.09881118
0.06936162 0.052799925 0.110690415 -0.120041974 -0.14286135 -0.061597638 0.08859887 0.121188745
-0.106288955 0.106915906 -0.08698678 -0.12440013 -0.13860959 -0.03162273 0.10274246 -0.082821965
0.1302974 0.092786476 -0.10766971 -0.14018883 -0.029301226 -0.03506016 0.112305395 -0.13916194
0.019553244 -0.073714405 -0.042623393 -0.07780005 -0.1387393 0.10904351 -0.045457136 -0.13403216
-0.12398285 -0.13238502 -0.12449964 -0.13953373 -0.09989394 -0.054756008 0.06317735 -0.001676831
-0.12166662 0.05284577 0.05619074 -0.035041027 0.07256674 0.03608511 -0.09241801 -0.13623905
0.12765394 -0.026347391 -0.052339785 0.1323575 0.039225064 -0.04526706 0.123987064 -0.08759761
-0.09507245 0.066530764 -0.009176503 -0.007355391 -0.116536394 0.045729313 0.10056738 0.036529273
-0.08666251 0.07989304 -0.121726006 -0.14084527 0.13337809 0.11391919 0.033098415 0.09823626
-0.0036660603 0.10241227 0.07847485 -0.06274401 0.069556125 0.02821924 0.0017207501 0.08398685
-0.011081574 -0.00856974 0.0024163632 -0.08699138 -0.1251416 0.12218799 0.12522243 -0.06266098
0.079763435 0.06222808 -0.099684455 -0.074808955 -0.11921731 0.07909947 0.065138765 -0.12289423
0.010411629 -0.059312824 0.0825858 -0.10328047 0.019055925 0.09045082 0.08003888 0.12507479
-0.055091817 0.11785517 0.1401889 0.017610582 -0.12691219 0.040228505 -0.074236654 0.05013082
0.045013897 0.12079416 0.13742189 0.03967111 0.081056826 -0.07317501 -0.015209383 0.1012038
-0.06331973 0.04571618 -0.058024168 0.08597888 -0.06727761 0.040493894 0.1329677 -0.10247513
-0.011995461 -0.054513007 0.11880957 0.12213844 -0.13942976 -0.032527167 -0.1288276 0.12506272
0.13136464 0.04864685 0.011699012 0.06187661 -0.12508836 -0.083503 -0.14144754 0.075150914
0.13101515 0.10549764 0.06643767 0.024568861 0.11162167 0.11998614 -0.026736345 0.027102051
-0.05065241 -0.019678913 0.04652961 -0.0404372 -0.010247999 -0.033999655 -0.08180004 -0.10743096
-0.12359478 0.023880636 -0.115713686 -0.08212682 0.1391 0.072145976 -0.0038839537 0.10804043
-0.06483413 0.038618032 -0.081726626 0.11737882 0.104122534 0.08685615 -0.114455275 0.09085865
0.08649472 -0.110302866 0.050970085 -0.017071707 0.099172644 0.065170795 -0.007830597 -0.07773588
0.13876729 -0.1282401 -0.10654204 -0.0959737 -0.062077608 0.06881615 -0.12193422 -0.07747038
-0.11259606 -0.045866482 0.029284183 -0.07121276 0.09915399 0.07572231 0.068391606 0.08945349
0.057589162 0.0035967722 0.12611108 -0.13891505 0.10486824 0.05345992 0.143554 -0.10608748
0.022540877 0.040374953 -0.02250801 0.114277415 0.10104553 -0.05454397 0.0015533655 -0.050160866
0.0111051835 0.05374009 -0.084291354 0.106579386 0.095452495 0.05048779 -0.13367055 -0.111318246
0.05825427 0.08298185 0.07148373 -0.0043174066 -0.09699453 0.042598866 -0.06328191 -0.028082239
0.07226034 0.040683363 0.1195582 0.022279197 -0.106400274 -0.045551978 0.09018558 -0.06118668
-0.08019948 -0.0068198326 0.09699967 0.103330195 0.12068883 0.12881652 -0.024329845 0.02442991

fc2.bias f4 [50]
00000000: 0e7b ff3d 8d25 9abc 6da7 323d b1cb 96bc
00000010: 9373 d93d 2a28 bf3c 6aad c8bb 611c f2bd
00000020: 0a98 b4bd c553 963d 7968 62bd 2468 eb3d
00000030: f96b fbbd 1dea febd 4967 e7bd a18c b73d
00000040: 32c0 c83c d2a9 39bc 6bd1 c9bd 3d69 00be
00000050: 78a0 6e3d 28fe 42bc b3bc d33c 5b24 ab3c
00000060: f578 8dbd ddd8 053b 5d58 2cbd 4b4b 6d3d
00000070: 3490 ca3d afa3 36bd 6b53 43bd e467 9a3d
00000080: 5227 aa3d 4e55 c33b d314 10bd 0a9d b6bc
00000090: b3c7 e7bd 82af 083e ae34 9abd 59b5 013e
000000a0: dd76 de3d 6d4b 313d 6245 ec3c 2112 593d
000000b0: e3c5 83bd b7dc 853d b640 833b ce99 8c3c
000000c0: 1e8f 9a3d 8c8e 9dbd
0.12474643 -0.018816734 0.0436167 -0.018407675 0.10617747 0.023334581 -0.006124188 -0.11821819
-0.08818062 0.073401965 -0.055275414 0.114944726 -0.122764535 -0.12446997 -0.11298997 0.0896237
0.024505708 -0.011331992 -0.098543964 -0.12540145 0.058258504 -0.011901416 0.025846815 0.02089136
-0.06907836 0.002042345 -0.042076457 0.057933133 0.09890786 -0.044589695 -0.047686975 0.07539347
0.08308281 0.005961097 -0.03517611 -0.022291679 -0.113173865 0.13348201 -0.07529579 0.12666835
0.10862515 0.043284822 0.028841678 0.052995805 -0.06434228 0.06536239 0.004005517 0.017163184
0.07546829 -0.07693204

fc3.weight f4 [13, 50]
00000000: 83ea 8bbd 1dac fabd 9c5e 09be fc42 0abe
00000010: 0ca5 bd3d f9c8 a5bc f591 f7bd d61a 9e3d
00000020: 9195 013c 9786 c53d 7f4d c43c 07ef 8dbd
00000030: 8d21 0cbe d2d2 60bc 5e56 0cbe 7083 843c
00000040: 7f03 543d 5deb dabc 1565 623d dc6f 0abd
00000050: 89b7 8c3c d7ce 2cbd b26b f1bd aecb 9e3d
00000060: b946 f6bd 7a05 0bbb d27e 893c 10b8 c8bd
00000070: d8a5 d9bc ad43 233c 9e1d 0dbd 12e1 c3bd
00000080: ef56 60bc 3d73 53bd 0ace 223d 168e e3bd
00000090: c727 a8bd 629d 93bd a23a 903d 6398 9c3d
000000a0: 35fb a83d 61d4 0abd 3ed9 4cbc 4a34 853d
000000b0: 4292 77bd 56f5 8ebc 31b8 d6bd 5c12 c8bc
000000c0: bb9f e1bd 680f 09bb 6e7c c4bd b00b 4ebd
000000d0: 307f 09be dd39 fe3d 9a0c febd d988 02be
000000e0: 1157 de3d e416 c2bd 3ab1 d7bd be18 a0bd
000000f0: a106 c53d 3861 1fbc 64d5 d7bd 0a6a 1e3d
00000100: 6363 e03d d36e b63d a446 fcbd 55ae 7bbd
00000110: f8d2 b03c 74a0 c4bd 0b28 3e3c 58fb 853c
00000120: 4f87 23be 435b d43d d370 443d 6d2f e73d
00000130: c48d fbbd 800d 04be 644f 093d 7ac3 8b3d
00000140: 43e9 13be a130 f8bd faa7 ee3d f53b 1cbc
00000150: 916f 9a3d 0f41 8fbd 433c 933c ee3c 81bd
00000160: 79ef 54bd 59a2 523d 6198 10be b696 d03c
00000170: 7d37 bdbd d056 d3bd 32da a0bd d1ab 703d
00000180: 7ef1 093e 55a0 81bd a271 00bc cae8 fa3d
00000190: 19d5 ca3d c9be d63d 7505 d2bd 92b1 4a3c
000001a0: a0db b0bd 7d4b 66bd b82c b83c 51db 0dbd
000001b0: 7bdd f1bd 7518 e03d 7c76 f5bd e1dc 1cbe
000001c0: d988 e83d 432d 4a3d a738 6a3d 283a 17bd
000001d0: a8d8 863d 9898 5a3c c8a7 7fbd 798c bfbd
000001e0: acde d4bd 6599 f2bd f064 1b3d 7826 9b3d
000001f0: bcf2 12be 5f1a b3bd b3f9 053e 41c1 8abc
00000200: be1a 9dbc c3aa 28bd 66e0 953d 0f9e c63d
00000210: 24b4 82bd 7353 8c3d 0252 03be 7663 073e
00000220: b67e 933d 4c41 01be 2235 05be 4b0a d0bd
00000230: 2ae0 3abd 55b4 d33b 7892 5d3d 6e87 dc3d
00000240: 595f bebd 16a3 a2bd 3df2 b33c ce27 a6bc
00000250: 93ec 09be d9cd fabd 8e93 0dbe 72d3 1cbd
00000260: 4a23 e3bd b77e 5dbd 813e d4bc 23a8 ce3d
00000270: 2ad8 d63c 3862 183c bdd3 28bc 1136 87bd
00000280: 5e20 cfbd 8019 6abc dd46 f6bd 0fd1 133d
00000290: d263 dfbd d46e 1cbc dd15 abbd e69f b33d
000002a0: abd7 9ebc 0aee 72bc 86f2 bd3d 65f8 c53c
000002b0: 0084 dd3d e52f aebd e943 cd3d 9471 013e
000002c0: 6b22 70bd d0a5 0a3b 9655 5b3d de86 89bc
000002d0: 2774 ec3d 2e89 0bbe e30b c53c 2aa7 e73d
000002e0: 00cd f2bd 6c34 a6bd 15a7 423d 9c01 653d
000002f0: 85b4 b53d 8f90 e63d b299 8dbd 84e7 f03d
00000300: 5732 c63d 527e 53bd 3f38 83bd 1725 a9bd
00000310: cd30 a93b 89fa d63d c461 f3bd a9d0 c3bd
00000320: 748f 0abe d8d9 0fbd 914b 0abe 3e33 d2bd
00000330: 2dcc 8fbd a4f0 0fbe 1669 063e 14b0 67bc
00000340: d4c6 c4bc dd8e 003e e86a d53d af8e e7bd
00000350: fcb0 023e 31d0 763c 7a96 eabd ba44 e53b
00000360: d397 ab3d ddbd a43d 3b44 863d 9a3d 8d3d
00000370: 7a1c ae3c 6717 ca3b d9bb a1bd 10c7 cdbd
00000380: 661f b13d ae30 053d 80eb 803d db5a 9fbd
00000390: 6dce 16bc 29d0 0bbe 105d a63d e03c 16bd
000003a0: bcbe d63d 2aab a7bd f05a fd3c 6eda 2cbd
000003b0: 26d3 10be fe81 86bd 9672 cdbd 0ef2 f6bd
000003c0: 59a0 9bbd 9e12 08be f656 ab3d eda0 1b3c
000003d0: b766 6cbd 708e 0dbd 31da e63d d6a7 0e3e
000003e0: 1118 12be 2d32 bb3d f08f 14bc 86de d93d
000003f0: 3602 8d3d a977 a43d 1fd1 e03d 6d00 553d
-0.06831839 -0.12239859 -0.13414997 -0.13502115 0.09259996 -0.020237433 -0.12088386 0.07719962
0.007909195 0.096448116 0.023962734 -0.069303565 -0.13684674 -0.0137221385 -0.13704821 0.016175956
0.051761147 -0.026723558 0.05527218 -0.033798084 0.01717736 -0.042189445 -0.117881194 0.077536926
-0.12025208 -0.002121298 0.016784105 -0.09800732 -0.026568338 0.009964866 -0.034452073 -0.09564413
-0.013692602 -0.05162357 0.039747275 -0.11111085 -0.08210712 -0.07207753 0.07042433 0.07646253
0.08251039 -0.033893947 -0.012502966 0.06504114 -0.060442217 -0.01745097 -0.104843505 -0.024422817
-0.11016794 -0.0020913724 -0.095940456 -0.050304115 -0.13427424 0.1241338 -0.12404747 -0.12747516
0.1085645 -0.09477022 -0.1053185 -0.07817219 0.09620405 -0.009727769 -0.10538748 0.038675345
0.109564565 0.08907857 -0.12318161 -0.061445553 0.021584973 -0.096009165 0.011606227 0.016355202
-0.15969585 0.10368969 0.04795916 0.112883426 -0.12282899 -0.12895775 0.03352298 0.068243936
-0.14444451 -0.1211865 0.11653133 -0.009535779 0.07540811 -0.06994831 0.017973071 -0.063104495
-0.05198619 0.051424358 -0.14120628 0.02546249 -0.09239099 -0.103192925 -0.078541175 0.058757607
0.13471028 -0.06329409 -0.007839592 0.12251432 0.099039264 0.10485608 -0.10254947 0.012371438
-0.0863564 -0.056224335 0.022482261 -0.034632985 -0.11809822 0.10942165 -0.1198549 -0.15318634
0.113542266 0.04935957 0.057182934 -0.036920696 0.06584293 0.013342045 -0.062415868 -0.09352965
-0.10394034 -0.11845664 0.03793806 0.07575697 -0.14350408 -0.08745264 0.13083534 -0.016937854
-0.01917779 -0.041178476 0.07318191 0.09698116 -0.06382015 0.06851854 -0.12824252 0.13221535
0.072019026 -0.12622565 -0.1300855 -0.10158213 -0.045623936 0.0064607062 0.05409476 0.10768019
-0.0929553 -0.079412624 0.021966094 -0.020282652 -0.13469152 -0.122462936 -0.13825819 -0.038287587
-0.11090715 -0.054075923 -0.02590871 0.10090663 0.026226122 0.009300761 -0.010304389 -0.06602109
-0.101135954 -0.014288306 -0.12025235 0.036088046 -0.10907711 -0.009547908 -0.083537795 0.087707326
-0.019389948 -0.014827261 0.09274773 0.024166295 0.108161926 -0.08505229 0.100227185 0.12640983
-0.058626574 0.002115596 0.053548418 -0.016787942 0.11545592 -0.13626549 0.02405352 0.11311181
-0.11855507 -0.081154674 0.047522623 0.055909738 0.08872322 0.11258041 -0.06914081 0.11762908
0.0967757 -0.05163414 -0.064072125 -0.082590275 0.005163288 0.104970045 -0.11883882 -0.09561283
-0.13531286 -0.03511986 -0.13505389 -0.1026368 -0.07021365 -0.14056641 0.13126025 -0.014141101
-0.02402059 0.12554498 0.104207814 -0.113065116 0.12762827 0.015064285 -0.114544824 0.0069967182
0.083785675 0.08044026 0.06555983 0.06896515 0.021253813 0.0061673406 -0.07897157 -0.10047734
0.08648567 0.032517128 0.06294918 -0.07781001 -0.009204489 -0.13653626 0.08123219 -0.03667915
0.104855984 -0.08186944 0.030927151 -0.0422005 -0.14143047 -0.06567763 -0.10031621 -0.12057887
-0.07598943 -0.13288352 0.08366196 0.009498817 -0.057715144 -0.034559667 0.112720855 0.13931212
-0.14266993 0.0914043 -0.0090675205 0.10638146 0.06885187 0.08030636 0.10977387 0.05200236

fc3.bias f4 [13]
00000000: 716d 6fbd 61a3 313d bbbe cc3d 9416 a0bd
00000010: bf59 313d 81ec 6638 5fb5 593d 06c1 b13d
00000020: 575e b33d 6735 bfbd 6ecd acbd e6a1 a0bc
00000030: f7fe fd3c
-0.05845398 0.0433687 0.099973164 -0.078168064 0.04329848 5.5056535e-05 0.053151485 0.086793944
0.08758228 -0.093363576 -0.0843762 -0.01960845 0.031005366
