TorchModels/DeepQtrader7.pt (torch, 25047 bytes, 6 tensors)

fc1.weight f4 [50, 50]
0	0x3de1c403	0.110237144
1	0x3de161ce	0.11004983
2	0x3de716e4	0.11283663
3	0xbdaeb799	-0.08531112
4	0xbddaec67	-0.106896214
5	0xbd3322f3	-0.043734502
6	0xbdeb7e75	-0.11498729
7	0x3dc7adb5	0.09749929
8	0x3d90428c	0.07043943
9	0xbd9ee3dd	-0.07758305
10	0xbe06e2e3	-0.13172488
11	0xbdfd873e	-0.12379311
12	0xbc17866d	-0.009248358
13	0xbe0974a8	-0.13423407
14	0x3da2afe9	0.079437084
15	0xbe074df4	-0.1321333
16	0xbda95f40	-0.082701206
17	0xbdf19d6a	-0.117976025
18	0xbdf0d635	-0.11759607
19	0x3e082aeb	0.13297622
20	0x3e00802b	0.12548892
21	0x3d3cd5ae	0.04610222
22	0xbe098f90	-0.13433671
23	0xbd37e306	-0.04489424
24	0x3e0ce0f4	0.13757688
25	0xbdbbc8dc	-0.0916917
26	0x3d521270	0.051287115
27	0xbc01d5c7	-0.007924504
28	0x3dca35c6	0.09873538
29	0xbde36276	-0.11102764
30	0xbe00c5c2	-0.12575439
31	0xbc0cceee	-0.008594258
32	0x3e0434fe	0.1291084
33	0x3ddeee2f	0.10885274
34	0x3be60a06	0.007020238
35	0xbdf2714d	-0.11838017
36	0x3c8e7adb	0.017392566
37	0xbdd682ef	-0.10474192
38	0xbc73f412	-0.014889734
39	0x3da0da36	0.078541204
40	0x3d73a9a8	0.05948797
41	0xbd3b16eb	-0.045676153
42	0x3dd4dcce	0.10393678
43	0x3d6631e9	0.05619994
44	0x3cbff39a	0.023431588
45	0xbdd10dc8	-0.10207707
46	0xbc031d81	-0.00800264
47	0xbb46bf04	-0.0030326257
48	0x3bf6d584	0.0075327773
49	0x3d80fff9	0.06298823
50	0x3ddb22a8	0.106999695
51	0xbc7467de	-0.014917342
52	0x3d9e2ed6	0.07723777
53	0x3de8635f	0.113470785
54	0x3d8ea026	0.0696414
55	0x3c091f6d	0.008369309
56	0xbdd1229d	-0.1021168
57	0xbd3a76ac	-0.04552333
58	0x3d0f0002	0.034912117
59	0x3d162c6f	0.03666347
60	0x3d30cd5d	0.0431646
61	0x3dda1aef	0.106496684
62	0x3dc1863e	0.09449433
63	0xbd7ebbe0	-0.06219089
64	0xbde68ba8	-0.11257106
65	0xbe11e8cf	-0.14248966
66	0xbd7c6002	-0.061614998
67	0xbdc7f1da	-0.097629264
68	0x3d752b2f	0.059855636
69	0x3e089e6f	0.13341688
70	0x3d515373	0.051104974
71	0x3dc9f792	0.098616734
72	0xbd10c01d	-0.035339464
73	0x3ccbf4a6	0.02489693
74	0xbdbfa38c	-0.09357366
75	0x3dcbb58a	0.09946735
76	0x3e08d6c2	0.13363174
77	0xbd7b83cf	-0.061405
78	0x3de9a3a0	0.11408162
79	0xbdfaf58b	-0.12253865
80	0xbdd8459c	-0.10560152
81	0xbdcca132	-0.09991683
82	0xbd348c4f	-0.04407912
83	0xbe0ffe4d	-0.14061852
84	0xbc08e434	-0.008355189
85	0x3c0a9f3b	0.008460815
86	0xbd486765	-0.04892673
87	0xbc330705	-0.010926967
88	0xbd1d33c2	-0.03837944
89	0x3cfbf404	0.030756004
90	0xbdf1c596	-0.11805265
91	0xbdbeead1	-0.093221314
92	0x3db11c2f	0.08647954
93	0xbd0743c5	-0.033023614
94	0xbda87836	-0.082260534
95	0xbdebe452	-0.11518158
96	0xbdae9e77	-0.085263185
97	0x3cea52ca	0.02860393
98	0xbdf900a3	-0.121583246
99	0xbdc7cf93	-0.097563885
100	0x3deedc73	0.11663141
101	0x3e0f004a	0.13964954
102	0x3cca8ecb	0.024726292
103	0xbde65044	-0.11245778
104	0xbdfe8e89	-0.1242953
105	0x3ddee071	0.108826526
106	0xbc32e4c7	-0.010918803
107	0x3d3dfd96	0.046384417
108	0xbd2c7783	-0.042106163
109	0xbc88e6f4	-0.01671169
110	0xbdfe22b6	-0.12408964
111	0xbce1705b	-0.027519396
112	0x3d8b345e	0.067970976
113	0x3d830fd0	0.063995
114	0x3da6eadd	0.08150265
115	0x3df2c342	0.11853649
116	0xbdb09dd8	-0.08623856
117	0x3de56096	0.11200063
118	0x3d9f66c4	0.07783273
119	0xbd4b0d42	-0.04957319
120	0x3db56448	0.08857018
121	0x3d17a2b7	0.03702041
122	0x3c4ea596	0.012612721
123	0x3cca88d6	0.024723452
124	0xbdecdf6d	-0.115660526
125	0x3d2dbf59	0.04241881
126	0xbdbbf84f	-0.091782205
127	0xbd27217e	-0.040803425
128	0x3e002476	0.12513909
129	0x3da781ad	0.081790306
130	0x3dd6f48f	0.104958646
131	0x3d94d7a9	0.072676964
132	0x3d352793	0.044227194
133	0xbd3930b5	-0.045212466
134	0x3d298e5c	0.04139553
135	0xbe009a2d	-0.12558813
136	0xbd7d7d83	-0.061887275
137	0xbd3ae20a	-0.045625724
138	0x3dea65e8	0.11445218
139	0x3dd7c809	0.105362006
140	0x3dbc13a3	0.09183433
141	0x3dc20b72	0.09474839
142	0xbe0935b5	-0.13399394
143	0xbdc77253	-0.097386025
144	0x39fc7e00	0.00048159063
145	0xbe01462f	-0.12624429
146	0xbcddc32e	-0.027070608
147	0xbd1d980e	-0.03847509
148	0xbd322e9b	-0.043501478
149	0x3db0d243	0.08633854
150	0xbcb81479	-0.0224707
151	0xbe03450f	-0.12819313
152	0xbc868d36	-0.016424756
153	0xbd96bd4b	-0.073603235
154	0x3dcdedca	0.1005512
155	0xbc3507a4	-0.011049185
156	0xbe0ed34b	-0.1394779
157	0xbc13369a	-0.008985186
158	0xbddce9a7	-0.10786753
159	0xbddd56da	-0.10807581
160	0x3d9446b5	0.07240049
161	0x3e04055b	0.12892668
162	0x3dafe2ef	0.08588206
163	0x3d0c7cfd	0.034298886
164	0xbe068092	-0.13134983
165	0x3dd50da1	0.1040299
166	0x3d35ccec	0.04438488
167	0x3ce35390	0.027749807
168	0xbd5e1846	-0.054222368
169	0x3dd124d6	0.10212104
170	0xbdeec636	-0.116588995
171	0xbd9f327c	-0.07773301
172	0x3dd2395e	0.10264848
173	0x3d17c8f4	0.03705688
174	0x3c11b709	0.008893737
175	0x3db71ed7	0.08941429
176	0x3d89d093	0.067292355
177	0xbd6cad52	-0.05778248
178	0x3cc69d4a	0.024244923
179	0x3c9a3779	0.01882528
180	0xbccf7a1d	-0.025326783
181	0xbdb0df07	-0.08636289
182	0x3d5d9a93	0.05410249
183	0x3d8cbddd	0.06872151
184	0x3cba35cb	0.022730729
185	0x3c39f04e	0.011348797
186	0x3dcefe85	0.101071395
187	0x3d92d9d5	0.071704544
188	0xbdee6cf1	-0.11641873
189	0xbd5b328e	-0.05351501
190	0x3cf04b54	0.029332794
191	0xbda71e2c	-0.08160052
192	0x3da19a7a	0.07890792
193	0x3da44819	0.08021564
194	0x3e0e27a9	0.13882317
195	0x3d1168fc	0.03550051
196	0xbd6ad0c5	-0.057328004
197	0xbd7c3fd7	-0.06158432
198	0xbdc7a2fd	-0.097478844
199	0x3d82434e	0.063604936
200	0x3df3e623	0.119091295
201	0x3dec4cd2	0.1153809
202	0x3d5d76a9	0.05406824
203	0xbde69eea	-0.11260779
204	0x3e04d6f7	0.12972628
205	0xbb955313	-0.0045570224
206	0xbdfc2ed1	-0.12313617
207	0xbd5c1077	-0.05372664
208	0x3abfefd7	0.0014643621
209	0x3df780e3	0.1208513
210	0x3cf4bee8	0.029876187
211	0xbc6c4ea9	-0.014423051
212	0xbd08910a	-0.033341445
213	0xbcad8b53	-0.021184599
214	0x3db00d91	0.085963376
215	0x3de20586	0.1103621
216	0x3d17c9f9	0.03705785
217	0xbd94d19d	-0.07266543
218	0x3e10b346	0.14130887
219	0x3cccfc4d	0.02502265
220	0xbcca766f	-0.024714677
221	0x3d010996	0.031503282
222	0xbdb2d628	-0.08732253
223	0x3aebdb12	0.0017994365
224	0x3d0c5f39	0.0342705
225	0xba129185	-0.0005591142
226	0xbdf46538	-0.119333684
227	0xbd980b20	-0.07423997
228	0x3d979fc8	0.07403523
229	0xbc1f2094	-0.009712357
230	0xbda8fb1a	-0.08251019
231	0xbbf5933d	-0.007494359
232	0x3bd165ff	0.0063903327
233	0xbd9f204f	-0.07769834
234	0x3dc6cb3f	0.09706735
235	0xbda9e0d6	-0.08294837
236	0x3e02ad60	0.1276145
237	0x3df52077	0.11969083
238	0xbda62677	-0.08112805
239	0x3df4a831	0.119461425
240	0x3ba42164	0.0050088633
241	0x3d458356	0.048220955
242	0x3b314612	0.0027049822
243	0x3c7d6a28	0.015467204
244	0x3d02b34e	0.03190928
245	0x3cd672d9	0.02617781
246	0x3d3b8413	0.045780253
247	0xbbff47eb	-0.0077905557
248	0xbd984eb6	-0.07436888
249	0xbdce1ea4	-0.10064438
250	0xbe0e4f8c	-0.13897532
251	0x3bd978a8	0.006636698
252	0x3d9862aa	0.07440694
253	0x3d01e493	0.031712126
254	0x3d540b17	0.05176839
255	0xbd719f22	-0.05898965

fc1.bias f4 [50]
0	0xbd789087	-0.060684707
1	0x3c143be5	0.009047483
2	0x3cb8c076	0.02255271
3	0xbb490435	-0.0030672674
4	0xbbc8add6	-0.0061242385
5	0x3d331c55	0.04372819
6	0xbca38d25	-0.019964764
7	0x3daf5684	0.085614234
8	0xbd16fc86	-0.03686192
9	0x3de62055	0.112366356
10	0x3dc7055a	0.097178176
11	0x3d03e42b	0.03220002
12	0xbe00a0af	-0.12561296
13	0x3d378ca3	0.044811856
14	0xbddcc3ea	-0.10779555
15	0x3e01993b	0.12656109
16	0x3d8e9498	0.06961936
17	0xbddbeb7b	-0.10738274
18	0x3cc9960b	0.024607679
19	0x3d057af8	0.032587975
20	0x3db2fa56	0.08739154
21	0xbe15a85c	-0.14615005
22	0xbd8923da	-0.06696291
23	0xbdd82db8	-0.10555595
24	0xbdee9a50	-0.116505265
25	0x3d5e9cf0	0.054348886
26	0x3d691d00	0.056912422
27	0xbbdc735c	-0.006727619
28	0x3da2bbff	0.07946014
29	0x3e03bae0	0.12864256
30	0xbe0b03be	-0.13575646
31	0xbd496ea4	-0.04917778
32	0x3d97c5b0	0.07410753
33	0x3dcdd93d	0.100512005
34	0xbd818afd	-0.06325338
35	0x3b069803	0.0020537383
36	0x3d7fe422	0.062473424
37	0xbd837f7f	-0.06420802
38	0xbdc2b9ec	-0.09508118
39	0x3d909887	0.07060342
40	0xbdd17fb8	-0.102294385
41	0xbdfbd3e1	-0.12296272
42	0xbe069431	-0.13142468
43	0xbcd61e85	-0.0261376
44	0x3e0bbe3f	0.13646792
45	0xbd9a6fc5	-0.075408496
46	0xbca071b3	-0.019585466
47	0x3e06a86b	0.13150184
48	0x3a9f71b9	0.0012164629
49	0x3d62eb41	0.055400137

fc2.weight f4 [50, 50]
0	0x3de48ec0	0.1116004
1	0xbd76abc4	-0.060222402
2	0x3dd6c3e4	0.10486582
3	0xbd29e23b	-0.041475516
4	0x3d664a97	0.05622348
5	0x3df3f242	0.119114414
6	0xbdec92b8	-0.11551422
7	0xbd446c07	-0.047954585
8	0xbdd31138	-0.103060186
9	0x3dbbd64c	0.09171733
10	0x3c6fb08b	0.0146294935
11	0xbdb90987	-0.0903502
12	0xbd3eae78	-0.046553105
13	0xbd38e837	-0.045143332
14	0x3e0f8fa9	0.14019646
15	0xbd68f6c8	-0.056875974
16	0x3c8f8fa3	0.017524546
17	0x3df1536c	0.117834896
18	0xbd031a85	-0.032007713
19	0x3d9e3310	0.07724583
20	0x3baebd74	0.005332643
21	0x3dc06330	0.093939185
22	0x3e018e74	0.12651998
23	0x3dafb3be	0.08579205
24	0x3d9ec86f	0.077530734
25	0xbd8abcee	-0.06774317
26	0xbcf09e58	-0.02937238
27	0x3d8a7e3a	0.06762357
28	0xbdca24c7	-0.09870296
29	0x3dfdecac	0.12398657
30	0x3bf24650	0.007393636
31	0x3de48b3e	0.11159371
32	0xbd72f9b2	-0.05932016
33	0xbcf1da73	-0.02952311
34	0x3e04b68b	0.1296026
35	0xbdc05a58	-0.09392232
36	0xbe013809	-0.12619032
37	0x3e000e87	0.12505542
38	0x3d83245d	0.0640342
39	0xbda3de84	-0.08001426
40	0xbd35fb9f	-0.044429418
41	0x3cdd0b95	0.026983062
42	0xbd871c8d	-0.065972425
43	0xbd6fdfec	-0.058563158
44	0xbda05ffe	-0.07830809
45	0x3da9434a	0.082647875
46	0xbd7c9199	-0.06166229
47	0x3dee7d8a	0.116450384
48	0x3e08ef3a	0.13372508
49	0x3c720212	0.014771001
50	0xbd3505a0	-0.044194818
51	0xbdb6759e	-0.089091524
52	0x3e03dba2	0.12876752
53	0x3de47289	0.11154658
54	0x3d014817	0.03156289
55	0x3d479979	0.048730347
56	0x3c7fc422	0.015610727
57	0xbcfa1725	-0.030528614
58	0x3cbe47a7	0.023227526
59	0xbdfc77c6	-0.123275325
60	0x3abf7a2d	0.0014608555
61	0x3dd00aeb	0.101583324
62	0xbaa862dc	-0.0012846845
63	0x3dde7894	0.10862842
64	0xbd8bde67	-0.06829529
65	0xbcde42ee	-0.027131524
66	0x3ddca525	0.10773686
67	0xbd9fde01	-0.07806016
68	0xbe0adf1e	-0.13561675
69	0xbe034ba1	-0.12821819
70	0x3d435c48	0.047695428
71	0xbd8da4df	-0.06916212
72	0x3d8e947e	0.069619164
73	0xbdf81994	-0.12114254
74	0xbd58492b	-0.052804153
75	0x3c4a114d	0.012333226
76	0x3df48e15	0.119411625
77	0x3bf0fb14	0.0073541496
78	0x3cc1d68b	0.023661872
79	0xbdfab9a2	-0.12242438
80	0x3d931192	0.07181086
81	0xbe02af6d	-0.12762232
82	0x3dfc7223	0.12326457
83	0x3ddb0319	0.1069395
84	0x3d6e69c4	0.058206335
85	0xbc0deec9	-0.008662888
86	0xbde9adec	-0.11410126
87	0xbdc71dc2	-0.09722473
88	0x3df78241	0.12085391
89	0xbda2fa9c	-0.07957956
90	0x3dfa64b9	0.122262426
91	0xbd8d0e9e	-0.06887554
92	0x3d46374a	0.04839257
93	0xbd216ef3	-0.03941245
94	0xbdb80a5f	-0.08986353
95	0xbd873d31	-0.06603468
96	0x3d66d48a	0.056355037
97	0xbd818378	-0.06323904
98	0x3da191b3	0.07889118
99	0xbe01139e	-0.1260514
100	0xbdae2a87	-0.08504205
101	0x3de9c4a5	0.1141446
102	0xbdf4ca48	-0.119526446
103	0x3d799a08	0.06093791
104	0xbd44c3c3	-0.048038255
105	0x3d680c6c	0.05665247
106	0x3de151b0	0.11001909
107	0xbd178d5f	-0.037000056
108	0x3df5c39c	0.120002
109	0x3ce0b43e	0.027429696
110	0x3d822242	0.063541904
111	0x3dbe26dc	0.092847556
112	0x3d2817a4	0.04103817
113	0x3d8620b4	0.065492064
114	0xbe021bfd	-0.12705989
115	0xbd6d82f2	-0.057986207
116	0xbde463cd	-0.11151848
117	0x3d976f1e	0.07394241
118	0x3aa92b0f	0.0012906509
119	0x3cee2dab	0.02907451
120	0x3c397f16	0.011321804
121	0x3cfd4141	0.030914905
122	0x3b80b224	0.003927486
123	0x3d07761b	0.03307162
124	0x3e059331	0.1304443
125	0x3c71f450	0.014767721
126	0xbdcd3aca	-0.10020979
127	0x3cd3b90d	0.025845075
128	0x3ca86f94	0.020561017
129	0x3d135a54	0.035974815
130	0xbcee7c31	-0.029111953
131	0x3dd01fff	0.10162353
132	0xbcf6c6bf	-0.030124066
133	0x3dc35729	0.09538109
134	0xbe0a2b18	-0.13493001
135	0xbdd4da43	-0.103931926
136	0xbde26a72	-0.11055459
137	0x3df4c1f7	0.11951058
138	0x3c484598	0.012223624
139	0xbdcd908e	-0.10037337
140	0xbd356444	-0.044285074
141	0xbdf0ac62	-0.117516294
142	0xbc86924b	-0.01642718
143	0xbd8e1f65	-0.06939582
144	0x3db0cdfd	0.08633039
145	0xbcf4a16c	-0.029862128
146	0xbde31b7f	-0.11089229
147	0x3d1423e8	0.036167055
148	0xbc8daf7d	-0.017295593
149	0x3d0fe4c3	0.035130274
150	0xbd29bf96	-0.041442476
151	0x3ddbee63	0.10738828
152	0x3a8d3829	0.0010774183
153	0x3d86ef20	0.06588578
154	0xbd2dd618	-0.042440504
155	0xbdbdf262	-0.092747465
156	0xbdde2090	-0.108460546
157	0x3c994d13	0.01871351
158	0x3de0e930	0.10981977
159	0xbdbb1344	-0.09134534
160	0xbe08ccf0	-0.13359427
161	0x3dba77eb	0.09104904
162	0x3ded699e	0.115924105
163	0xbd51f8f1	-0.0512628
164	0x3d72a6c0	0.059241056
165	0xbcccc83f	-0.024997829
166	0xbd63e62d	-0.055639435
167	0xbcbb5540	-0.022867799
168	0xbc4bedea	-0.01244686
169	0x3c903cf1	0.017607184
170	0xbde92797	-0.11384504
171	0xbda3910d	-0.079866506
172	0xbdf86133	-0.12127914
173	0xbe100628	-0.14064848
174	0xbaf04963	-0.0018332418
175	0x3d0f2d75	0.03495546
176	0x3de9827c	0.11401841
177	0xbdce14ca	-0.10062559
178	0xbdf4cb54	-0.11952844
179	0x3dfc99ca	0.123340204
180	0x3e0a4356	0.13502249
181	0xbe0295a1	-0.12752391
182	0xbded9531	-0.11600722
183	0x3e08cb96	0.13358912
184	0x3c56fed7	0.013122282
185	0xbe0e33b6	-0.13886914
186	0xbd727d9a	-0.059201814
187	0xbe060876	-0.13089165
188	0x3d865890	0.06559861
189	0xbd99dcdb	-0.07512828
190	0xbb7b2dbb	-0.0038326818
191	0xbd596fdc	-0.053085193
192	0xbcb65b51	-0.02226034
193	0x3da3126d	0.07962499
194	0xbd390994	-0.04517515
195	0xbcbd71fa	-0.023125637
196	0xbd476623	-0.04868139
197	0xbc5d6e3f	-0.013515054
198	0xbdf36f6b	-0.11886486
199	0xbd8319f9	-0.06401438
200	0x3d02cef6	0.031935655
201	0x3dade27a	0.084904626
202	0xbde4bf2b	-0.11169275
203	0xbdd3f828	-0.103500664
204	0xbcaa8284	-0.020814188
205	0xbcb30800	-0.0218544
206	0xbdca41d6	-0.098758385
207	0x3daf244f	0.08551847
208	0xbdaa228a	-0.08307369
209	0x3d2d7764	0.042350188
210	0x3df0e831	0.11763037
211	0x3d421493	0.047382902
212	0x3ddb7a4f	0.10716688
213	0xbd7c2a64	-0.061563864
214	0x3cc99744	0.024608262
215	0xbd022c94	-0.031780794
216	0xbe0f36cd	-0.13985749
217	0xbcdb62d2	-0.02678052
218	0xbc1a8928	-0.009432115
219	0xbc7b220d	-0.015327943
220	0x3bdc9e05	0.0067327046
221	0x3c6afc5b	0.014342393
222	0x3e1199bb	0.142188
223	0x3c8667dd	0.016406948
224	0xbd85771f	-0.06516861
225	0xbbc86b7c	-0.0061163288
226	0xbdb60916	-0.08888452
227	0x3c29c0c8	0.010360904
228	0xbde1e4ee	-0.11029993
229	0xbbf31e27	-0.007419366
230	0xbdf77bfb	-0.12084194
231	0x3ddf925c	0.10916588
232	0x3dbc4642	0.09193088
233	0x3d9bb68c	0.076031774
234	0x3e0773c3	0.13227753
235	0xbd170edc	-0.036879405
236	0x3c507069	0.012722113
237	0xbdd0b373	-0.10190477
238	0xbd972f3e	-0.073820576
239	0x3d9e13cb	0.07718619
240	0xbdfa5e7f	-0.12225055
241	0x3e086487	0.13319598
242	0xbdb042c9	-0.08606488
243	0xbde8bd89	-0.11364276
244	0x3dcb604e	0.09930478
245	0x3d907791	0.070540555
246	0x3db6c209	0.08923728
247	0xbcdf8af5	-0.02728794
248	0x3dd9c3c5	0.10633043
249	0xbc0b9270	-0.0085188
250	0xbcaacf10	-0.020850688
251	0x3d906e18	0.07052249
252	0xbdc724b0	-0.097237945
253	0xbda8ece5	-0.08248309
254	0x3d1f9239	0.03895781
255	0xbced6612	-0.028979335

fc2.bias f4 [50]
0	0xbcbe0d95	-0.023199836
1	0x39f1a0ad	0.00046086815
2	0x3c5a5c54	0.013327677
3	0xbdc7d229	-0.09756882
4	0x3db42da5	0.087977685
5	0xbd890a2c	-0.06691393
6	0x3df9fbb0	0.12206209
7	0x3da4146e	0.08011709
8	0xbdde5336	-0.10855715
9	0xbd7fceb8	-0.062453
10	0xbe0930d7	-0.13397537
11	0xbdcd936d	-0.10037885
12	0xbda2aa73	-0.07942667
13	0xbdbdae0b	-0.09261712
14	0x3d625ae9	0.05526248
15	0xbdf19727	-0.11796408
16	0xbdcaf20c	-0.09909448
17	0xbdf2ae1c	-0.11849615
18	0xbdd7844e	-0.10523282
19	0x3df581c8	0.119876444
20	0x3dcc43a4	0.09973839
21	0x3e0a21db	0.13489477
22	0xbd9023b6	-0.07038061
23	0xbdfa054c	-0.122080415
24	0x3c93994a	0.01801743
25	0xbdddb7d2	-0.108260766
26	0x3dba9da7	0.09112101
27	0xbdf6ca9c	-0.120503634
28	0xbd787988	-0.060662776
29	0x3a6a3200	0.0008933842
30	0x3dfd6385	0.123724975
31	0xbe101179	-0.14069165
32	0x3c63da3f	0.013907014
33	0x3ca03802	0.019557957
34	0xbda47cfb	-0.08031651
35	0x3db85aa3	0.090016626
36	0xbda9f08e	-0.08297835
37	0x3b9fae5e	0.004873081
38	0x3df2d575	0.1185712
39	0xbcee9d57	-0.02912776
40	0xbd0d8610	-0.03455168
41	0x3ddfa0da	0.10919352
42	0xbd560c15	-0.052257616
43	0x3e109785	0.141203
44	0x3c05ffad	0.008178634
45	0x3dc5c182	0.09656049
46	0x3de298b1	0.1106428
47	0xbd8b76fa	-0.06809802
48	0x3de5a365	0.11212806
49	0xbdf6506b	-0.12027057

fc3.weight f4 [13, 50]
0	0xbe0183c8	-0.12647927
1	0xbe01d695	-0.12679513
2	0xbd9da2f1	-0.07697094
3	0x3cdb32b3	0.026757574
4	0x3c185e4c	0.009299826
5	0xbd086b3d	-0.033305395
6	0x3db80f71	0.0898732
7	0x3becc9ec	0.0072262194
8	0x3dd9a790	0.10627663
9	0xbe108ee3	-0.14117007
10	0xbcbaf966	-0.022824
11	0x3d8e360c	0.069439024
12	0xbd477139	-0.048691962
13	0x3cb97dbd	0.022642964
14	0x3e014eda	0.12627736
15	0xbc82c690	-0.015963823
16	0x3d36385e	0.04448735
17	0xbc9c8be4	-0.019109674
18	0xbd5dd494	-0.05415781
19	0x3d7621be	0.060090773
20	0x3d361d37	0.044461455
21	0x3cc6ec9d	0.024282748
22	0xbdc164d2	-0.09443058
23	0x3e0817ef	0.1329038
24	0xbd61e53b	-0.05515025
25	0x3df42f3e	0.11923073
26	0xbdc5b44d	-0.0965353
27	0x3de337b2	0.110946074
28	0xbdbe313e	-0.09286736
29	0xbda894df	-0.0823152
30	0x3dbe0047	0.09277397
31	0x3c17a3b8	0.009255342
32	0x3d96dc48	0.07366234
33	0x3da085c2	0.07838012
34	0x3d493489	0.049122367
35	0x3dcb441a	0.09925099
36	0x3dcd94ef	0.100381725
37	0xbda7bbc0	-0.08190107
38	0x3d572aa6	0.052530907
39	0x3cd98508	0.026552692
40	0x3de36617	0.111034565
41	0x3d951e60	0.07281184
42	0xbd2afc92	-0.041744776
43	0x3de0b9f7	0.1097297
44	0x3d826215	0.06366364
45	0x3daedbd2	0.08538021
46	0xbe04431a	-0.12916222
47	0xbdb8fd9b	-0.090327464
48	0xbdb23c8a	-0.08702953
49	0xbdc8bf2c	-0.09802088
50	0xbdb66b7c	-0.0890722
51	0x3dd06f71	0.10177506
52	0xbd64c463	-0.05585135
53	0x3d457ee4	0.048216715
54	0xbd0e317f	-0.034715172
55	0x3d2db6a1	0.042410497
56	0xbdaa73b5	-0.083228506
57	0x3ddea77a	0.10871787
58	0x3bfe1953	0.0077544837
59	0xbd314df0	-0.043287218
60	0xbde1938c	-0.110144705
61	0x3da963b8	0.08270973
62	0xbdca82f8	-0.098882616
63	0xbdef4fe2	-0.11685158
64	0xbba57dd7	-0.0050504017
65	0x3d1d824f	0.03845435
66	0x3d1fef6f	0.0390467
67	0xbc4e4b6f	-0.012591227
68	0x3d89c1c8	0.06726414
69	0x3d446942	0.047951944
70	0xbd81f6f2	-0.06345929
71	0xbdc29ab5	-0.09502164
72	0xbde41709	-0.11137206
73	0x3e03a95a	0.12857571
74	0x3de5803d	0.112061
75	0x3e04a192	0.12952259
76	0x3ddc191d	0.107469775
77	0x3d555cda	0.052090503
78	0x3ddc99f9	0.107715555
79	0xbc7f8b70	-0.015597209
80	0xbde928c5	-0.11384729
81	0x3d7b15f4	0.061300233
82	0x3c9a0913	0.018803155
83	0xbd48c93b	-0.049020033
84	0x3d995562	0.074869886
85	0xbd36dc4e	-0.044643693
86	0x3d9c028d	0.07617674
87	0x3cbaee65	0.022818753
88	0xbc81d13f	-0.015846847
89	0x3db4f28a	0.08835323
90	0xbdf91985	-0.121630706
91	0x3d4a4a55	0.049387295
92	0xbc8f6715	-0.017505208
93	0xbcc6094d	-0.024174357
94	0x3d4e6594	0.05038984
95	0xbd312f9c	-0.043258294
96	0x3e06b503	0.13154988
97	0x3debef11	0.11520208
98	0xbd6a3f1a	-0.057189085
99	0x3e0eb12d	0.13934775
100	0x3dcf7871	0.10130394
101	0x3b6bfc5a	0.0036008568
102	0x3e16c471	0.14723374
103	0xbcc53ba8	-0.024076298
104	0xbd2e9d00	-0.042630196
105	0xbd96ebbf	-0.07369184
106	0x3d61d780	0.055137157
107	0x3d8c4616	0.06849305
108	0xbc73b171	-0.014873848
109	0x3e0adcfd	0.13560863
110	0xbd080817	-0.03321084
111	0xbc6dac46	-0.014506405
112	0x3dd56a63	0.10420682
113	0x3db46afa	0.08809467
114	0x3d98e8e1	0.07466293
115	0x3d005264	0.031328574
116	0x3dac8e3f	0.08425569
117	0x3df84f7e	0.12124537
118	0x3da8dd11	0.0824529
119	0xbcd8cc1d	-0.026464516
120	0x3de10861	0.10987926
121	0x3add90a4	0.0016904068
122	0xbbe991f0	-0.007127993
123	0x3abfc050	0.0014629457
124	0xbd000b18	-0.03126058
125	0xbc817a4b	-0.015805384
126	0xbd885bce	-0.06658135
127	0x3ddace0f	0.10683834
128	0x3e0c00d6	0.13672194
129	0xbd332996	-0.04374083
130	0x3dab6423	0.08368709
131	0xbdfa53ee	-0.122230396
132	0x3d20cce3	0.039257895
133	0x3cf47ec3	0.029845601
134	0x3c0400f6	0.00805687
135	0xbdbd4829	-0.09242279
136	0xbcd664d4	-0.026171125
137	0xbdf702e3	-0.120610975
138	0xbd014b1d	-0.031565774
139	0x3de5f494	0.1122829
140	0xbdb04789	-0.08607394
141	0xbd56c35a	-0.052432396
142	0xbdc2c69a	-0.095105365
143	0x3cad4794	0.021152295
144	0xbd1756f7	-0.03694817
145	0xbcd913cf	-0.026498703
146	0xbd224dc6	-0.03962495
147	0xbc86d28b	-0.016457817
148	0xbdcf2988	-0.10115343
149	0xbd08a8df	-0.033364173
150	0x3d5fe037	0.054657187
151	0xbdca33da	-0.09873171
152	0x3d0f1e20	0.03494084
153	0x3d01fc6a	0.03173486
154	0x3de4c14d	0.11169682
155	0x3ddcc207	0.10779195
156	0xbd8ef8d2	-0.069810525
157	0x3da98200	0.08276749
158	0xbe085a96	-0.13315806
159	0x3db5f993	0.08885493
160	0x3dda2ce6	0.10653095
161	0xbd563639	-0.052297805
162	0xbd6e7502	-0.058217056
163	0x3cb42fae	0.021995392
164	0xbd99ac9d	-0.075036265
165	0xbdbf1e3c	-0.093319386
166	0x3dce0eb7	0.100614004
167	0xbadab9ce	-0.0016687454
168	0xbdabd241	-0.08389712
169	0x3dbb1c7c	0.09136292
170	0x3e00ee4e	0.12590906
171	0xbdd8d041	-0.10586596
172	0xbc98dd59	-0.018660234
173	0xbde5726a	-0.112034634
174	0x3d2febb5	0.042949397
175	0x3d5d458b	0.0540214
176	0xbb94e71c	-0.004544152
177	0x3d84c31a	0.06482525
178	0xbc488d08	-0.012240656
179	0xbe0435ac	-0.12911099
180	0xbdf75ac7	-0.12077861
181	0x3c948081	0.018127682
182	0xbdad73a6	-0.08469324
183	0x3d2be980	0.04197073
184	0x3d0fe026	0.035125874
185	0xbdde6856	-0.10859744
186	0xbdae8ec2	-0.08523323
187	0x3e02a2bc	0.1275739
188	0xbcf4af8f	-0.02986887
189	0xbdefa8c2	-0.1170211
190	0x3dd8499d	0.105609156
191	0x3e04a671	0.12954117
192	0xbd5d9c41	-0.054104093
193	0xbb683db0	-0.003543716
194	0x3dca1451	0.09867156
195	0xbd2d9413	-0.042377543
196	0x3caba63d	0.020953292
197	0x3e072f56	0.13201651
198	0xbe0a2dc3	-0.13494019
199	0x3dad74db	0.08469554
200	0xbd38ffa7	-0.045165684
201	0x3db728d6	0.08943336
202	0xbcc76880	-0.024341822
203	0x3ddafa6b	0.10692295
204	0xbc9878a5	-0.018612215
205	0x3cd9fff8	0.026611313
206	0x3e0ff83e	0.1405954
207	0x3e001833	0.12509231
208	0x3d8a3715	0.06748787
209	0x3de322dc	0.11090633
210	0xbe0e65a1	-0.13905956
211	0xbe006991	-0.1254027
212	0xbc1e36b5	-0.009656598
213	0x3dc4f403	0.09616854
214	0xbdc84d87	-0.09780412
215	0xbd5125a4	-0.051061288
216	0x3dccd050	0.1000067
217	0xbdcd892a	-0.100359276
218	0x3e0b687d	0.13614078
219	0x3d13fa41	0.036127333
220	0xbe0b13d0	-0.13581777
221	0xbdf6929f	-0.120396845
222	0xbd6a899b	-0.057260137
223	0x3dc99ab2	0.09843959
224	0x3cea8798	0.02862911
225	0x3df614e6	0.12015705
226	0x3d80a324	0.062811166
227	0xbbc3d73f	-0.005976587
228	0x3deab2bc	0.11459872
229	0xbc91d745	-0.017802844
230	0x3db5c51c	0.08875486
231	0xbbfa8e79	-0.0076463786
232	0x3bcf085a	0.0063181343
233	0x3c58affd	0.013225553
234	0x3b587380	0.0033027828
235	0x3d9f6e48	0.07784706
236	0x3d21bb10	0.039485037
237	0x3dfd2a38	0.12361568
238	0xbdccb67c	-0.09995744
239	0x3da08dd5	0.07839552
240	0x3d11842b	0.035526436
241	0x3dfc5aaa	0.1232198
242	0x3ad432d3	0.0016189463
243	0x3d9b76a9	0.07590992
244	0x3c72a4a9	0.014809766
245	0xbc8efbb7	-0.017454011
246	0xbc5033cd	-0.012707663
247	0x3de75f51	0.11297477
248	0x3de6e949	0.11274964
249	0xbdaacce4	-0.08339861
250	0xbdf5c9c8	-0.12001377
251	0x3da09a65	0.078419484
252	0x3c84145e	0.016122993
253	0xbdd993f9	-0.10623927
254	0x3de32b88	0.11092287
255	0x3e0519a4	0.12998062

fc3.bias f4 [13]
0	0xbaadda8c	-0.0013263985
1	0xbda65786	-0.081221625
2	0x3c5a8a03	0.013338569
3	0xbcee1df1	-0.029067012
4	0x3dd3024c	0.103031725
5	0xbda8817c	-0.08227822
6	0x3de803e7	0.11328869
7	0xbd6446c5	-0.055731554
8	0x3e1711fd	0.14752956
9	0x3da75002	0.08169557
10	0x3dd375a4	0.103251725
11	0xbdb97354	-0.090552
12	0xbd5ef325	-0.0544311
