TorchModels/DeepQtrader14.pt (torch, 25047 bytes, 6 tensors)

fc1.weight f4 [50, 50]
000000 ad b6 02 be 21 e3 8d 3c 9c 56 f4 3d 01 10 09 3e
       -0.12764998 0.017320218 0.11930582 0.13385011
000010 ff 52 0b 3e f1 9b 15 bd 1f 66 12 be 39 ef 80 bd
       0.13605879 -0.03652567 -0.14296769 -0.06295628
000020 7a 68 ab 3d c9 5c 0c 3e 1a d2 9b 3d 00 6f 72 3d
       0.08369537 0.1370727 0.07608433 0.05918789
000030 12 a1 05 be ac e6 90 3c 49 26 0f 3d 63 17 33 bc
       -0.13049725 0.017688118 0.03494862 -0.010930869
000040 8b ae d3 3d 3a 20 13 be b9 c3 1e bd f5 35 09 be
       0.10336026 -0.14367762 -0.038760874 -0.13399489
000050 9a 96 3e 3c ed 58 04 bc 16 81 3f 3d ac 7a 9e 3d
       0.011632586 -0.008077842 0.046753965 0.077382416
000060 37 a4 01 bd 61 d0 25 3d b8 e8 42 3d e0 a0 48 3c
       -0.031650748 0.04048193 0.04758522 0.012245387
000070 2c 5c d1 bd 45 e1 0a bd 17 02 fa 3d a9 21 0d be
       -0.102226585 -0.03390624 0.1220743 -0.13782372
000080 f3 9c fd 3d b5 27 01 be 9e ef b6 3d f1 6e 53 3d
       0.12383451 -0.12612803 0.08932422 0.051619474
000090 6a 49 28 3a 01 8c 50 bd 4d 53 fd bd 83 ef 03 bd
       0.0006419631 -0.050914768 -0.12369404 -0.032210838
0000a0 e7 9e 3f 3d 1d 1a a5 3d f8 0b 16 3d c5 0c b4 3d
       0.0467824 0.08061621 0.036632508 0.08791498
0000b0 a3 2b f7 bc cd db 44 bd ff 7a cf bc c1 9e 65 bd
       -0.030172175 -0.04806118 -0.025327204 -0.056059603
0000c0 d5 b7 13 3c 50 0a 88 bd f5 55 83 bd 66 42 ca 3d
       0.009015997 -0.06642592 -0.064128794 0.09875946
0000d0 48 3d dd 3d 08 d4 57 3c 4b 88 b1 3d 39 48 1f bc
       0.10802704 0.013173111 0.08668574 -0.009721809
0000e0 4c 9a 2b 3c 3e f4 d2 3c 70 42 a8 bc 40 c6 7b bd
       0.010473799 0.02575123 -0.020539492 -0.061468363
0000f0 58 38 9f 3c 7b 9b 4a 3d d3 96 f1 bc 6c 8e e7 bd
       0.019436046 0.049464684 -0.029490864 -0.11306462
000100 15 6c c6 bd 95 31 f6 3d f9 37 6b 3d 4f 60 6c 3d
       -0.09688584 0.12021176 0.057426427 0.057709035
000110 4e 17 d4 bc b9 a5 d2 bc e3 50 8f 3d 85 60 b8 bc
       -0.025890019 -0.025713788 0.0699785 -0.022506962
000120 51 d0 d2 3d bb d5 02 be 60 30 ba ba 70 1b 03 3e
       0.102936395 -0.12776844 -0.0014205091 0.12803435
000130 3a 7c bd bd ec 14 16 bd bc ae b5 bd 83 89 42 bd
       -0.0925221 -0.036641046 -0.088712186 -0.047494423
000140 77 55 f0 3d 4f 2c 03 3e 12 94 5e 3d 5e ce 03 be
       0.11735051 0.12809871 0.05434043 -0.12871692
000150 a2 35 ef 3d bc e6 20 3c e4 c0 26 bb 51 75 1a 3d
       0.116801515 0.009820636 -0.0025444562 0.037709538
000160 63 7b 8a bd 42 cb 54 3d a5 bf 89 bd 24 5e 59 bd
       -0.067618154 0.051951654 -0.067260064 -0.053068295
000170 65 40 e5 3c 35 fc 9a 3d a0 d8 94 3d 9a fa 03 3e
       0.027984807 0.07567636 0.072678804 0.12888566
000180 93 ce f8 bc 56 1d 9c bc 07 35 b7 bd a6 ec 1e bd
       -0.03037194 -0.019056957 -0.08945661 -0.038799904
000190 63 cb 33 bd 09 ee 40 bc 30 7f f8 bd 39 54 a3 bd
       -0.043895137 -0.011775502 -0.12133634 -0.079750486
0001a0 39 8c 31 bd cc 5c 96 bd b7 15 01 3e 1a 18 99 bd
       -0.043346617 -0.07341918 0.1260594 -0.074753
0001b0 22 86 d4 3d b0 8d da bd 03 08 82 bd e4 e4 ad 3d
       0.10377146 -0.10671556 -0.06349184 0.08490923
0001c0 3f 3c 0e 3e f2 05 bf bb ed ff db 3d 9d 4a b2 3d
       0.1389017 -0.005829566 0.10742173 0.087056376
0001d0 b0 de 15 3e dd 39 ec bd 5b 18 04 3e 88 6c ea bb
       0.1463573 -0.11534474 0.12899916 -0.007154051
0001e0 90 77 08 3d 06 7a a7 bd 28 78 b9 3d 17 3d 1d bd
       0.03331715 -0.08177571 0.09056121 -0.038388338
0001f0 93 5f c6 3d d8 f9 6d 3d 13 60 c2 3b 54 74 82 bd
       0.09686198 0.058099598 0.005931863 -0.06369844
000200 2b 64 cd bc 6a e0 06 bd fb a8 7b bd 95 b3 c3 3d
       -0.025072178 -0.03292886 -0.06144045 0.09555737
000210 59 9f 00 3e 2b d1 c0 ba ed 89 91 3d 82 66 82 bd
       0.12560786 -0.0014710774 0.071063854 -0.06367208
000220 66 92 f6 bd f3 0a c2 bd 7c 46 a6 3c 26 97 bb bd
       -0.12039642 -0.09474745 0.020297281 -0.09159689
000230 2f 27 f8 bd 2d a8 19 bd fa 56 f1 3d 89 34 87 bd
       -0.12116849 -0.0375139 0.117841676 -0.06601817
000240 8d 24 12 bd 4e 70 76 bd bf 02 16 3e 75 31 9a bd
       -0.03567939 -0.060165696 0.14649485 -0.075289644
000250 88 ab 10 3e 6f e1 83 3c 35 89 18 3d fb 0f 13 be
       0.14127934 0.016098706 0.037240226 -0.14361565
000260 52 f8 23 3c 66 35 8e bd c9 27 e7 bd 08 81 f0 3c
       0.010007935 -0.06943779 -0.11286885 0.029358402
000270 b5 7c a9 3c 6c 6c 22 3d 5b 3c da 3a cd 62 00 be
       0.020689348 0.03965418 0.0016650067 -0.1253769
000280 10 ad 8b bc df a0 85 3d 2d a3 1c be e2 91 c6 bd
       -0.017050296 0.06524824 -0.15296622 -0.09695794
000290 63 c7 f0 bd 99 b3 8a 3b 6d 7b e4 bd 47 fd c2 3d
       -0.1175678 0.0042328355 -0.11156354 0.09520965
0002a0 7a a6 b9 bc 71 21 11 be 6c 6c d3 bc be 90 9f 3c
       -0.02266239 -0.14172913 -0.025808536 0.019478198
0002b0 7a 2c fb bd 46 03 0f bd f4 b2 f2 3d 83 67 06 3e
       -0.122643426 -0.03491523 0.11850539 0.13125424
0002c0 20 d4 a3 3d f4 fa a0 bd e1 59 92 bd 4b 36 86 3d
       0.07999444 -0.078603655 -0.07146049 0.06553324
0002d0 39 4d 08 bc 44 9f 96 bd dd 89 af 3d 29 96 d1 bd
       -0.008319193 -0.07354596 0.08571217 -0.10233719
0002e0 a9 d1 83 3d c4 c7 61 bc 1f 18 ec 3c 54 a8 4d 3d
       0.06436474 -0.013780538 0.028820096 0.05020936
0002f0 01 c3 09 3e 44 2e 8e bd 10 8a 5a 3d 99 01 86 3d
       0.13453294 -0.06942418 0.053354323 0.065432735
000300 e0 15 21 bd 0d 0d d5 bd 22 63 9e 3d fa 4f c4 bd
       -0.039327502 -0.1040288 0.07733752 -0.09585567
000310 78 39 ca 3d 5a c1 a0 bd e9 f9 55 3d 0f db e4 3d
       0.098742425 -0.07849379 0.052240286 0.111745946
000320 c2 4d d7 3b 05 6c d8 3d 35 f5 bd bd 88 7a cc 3d
       0.0065705488 0.10567478 -0.09275285 0.099843085
000330 9e 6b cd 3d 1a 8d a2 bc 5a 3b 66 3d 69 2f b2 bd
       0.10030292 -0.019842673 0.056208946 -0.08700449
000340 b1 30 37 3d 0c a4 03 be f0 35 42 3d 7d e5 57 3c
       0.04472417 -0.12855548 0.04741472 0.013177273
000350 d1 7f 42 bc 5c 8b 21 3d 08 b8 ab 3c 44 bb 6d bd
       -0.011871294 0.039439544 0.020961776 -0.05803992
000360 09 0c c1 3d 9d 61 89 3d 9f a8 13 3d 82 5c 8b bd
       0.09426124 0.067080714 0.03604948 -0.06804754
000370 02 6c 7e bc db 46 e0 3d fd 30 81 bd 1e e8 fc bd
       -0.015528681 0.109510146 -0.06308172 -0.1234896
000380 7d 2f 06 3b 41 ee 28 bd 17 dd e3 bc 8a f6 10 3e
       0.0020475083 -0.04124284 -0.027815385 0.14156547
000390 3f 6b 93 3c fb fd 04 3e e4 e5 4d bd b2 3a 58 3d
       0.017995475 0.12987511 -0.05026807 0.05279035
0003a0 a0 40 dc bd 0c f2 86 3d b6 45 ba bd 4d ad df 3c
       -0.10754514 0.065891355 -0.090953276 0.027304316
0003b0 af a4 0a 3d 93 4a 06 3e b9 41 16 3d d6 8e bd bb
       0.03384846 0.13114385 0.03668377 -0.0057848496
0003c0 9e b8 b6 3d 84 e7 9e bd 94 e5 6c 3d 47 f7 66 3c
       0.08921932 -0.07759002 0.05783613 0.014097041
0003d0 c8 73 ef bd ed a5 be 3d 6c 66 97 bd f1 78 0e bd
       -0.116920054 0.093089916 -0.07392582 -0.034783307
0003e0 ff 74 85 3c 62 97 c2 bd 7b fc 0d be a7 c1 de 3d
       0.01629114 -0.0950153 -0.13865845 0.1087678
0003f0 5d 09 9b 39 28 90 98 3b 47 f7 06 be 99 2c d8 3c
       0.0002957088 0.0046558566 -0.13180266 0.026388453

fc1.bias f4 [50]
000000 03 ae f9 3d ff 67 e1 bc 60 76 96 bd 8b 4e bf bd
       0.12191393 -0.02751541 -0.07346797 -0.09341153
000010 83 07 0b be 08 72 91 3d 07 16 13 3e 1c 22 89 3d
       -0.13577084 0.07101828 0.14363872 0.06695959
000020 ea 33 d2 bd ee 5a 43 bd eb ce 91 3d 3b 2a 9a 3d
       -0.10263808 -0.04769414 0.071195446 0.07527586
000030 1c 4a ba 3d 42 a6 cb 3c 3a bc 5b bc 27 14 28 bd
       0.090961665 0.024859551 -0.013411576 -0.041034844
000040 ec 17 b1 3b 4d 30 09 be 4c 04 17 bd 79 65 fc 3d
       0.005404463 -0.13397332 -0.036869332 0.12324042
000050 78 ef 3b bd 30 69 7b bc 7a 0b a3 3d 3f 22 79 3c
       -0.045882672 -0.015344903 0.07961173 0.015205919
000060 04 08 39 bd 35 8e 0b be f5 af b7 bd 3e 95 14 be
       -0.04517366 -0.13628466 -0.08969108 -0.14510056
000070 59 1f 91 bd 8d ec cb bb 11 cc 11 be 18 1f 3f 3d
       -0.07086057 -0.0062232674 -0.14238001 0.046660513
000080 bc 19 c4 bc 3b 14 26 3c f8 71 dd bd 3d c0 d0 bd
       -0.023938052 0.010136659 -0.108127534 -0.101929165
000090 39 f2 be 3d 53 97 48 3d 30 ed b9 3c 84 73 c5 3d
       0.09323544 0.04897244 0.022696108 0.096411735
0000a0 da 3e d8 bc 39 75 7a 3d 39 2b c0 ba 63 cf 73 bd
       -0.026397157 0.06114695 -0.0014661319 -0.05952395
0000b0 ed 19 b8 bd 21 fc 8c bd 0b 9f dc bc 2c 45 0b be
       -0.0898932 -0.06884027 -0.026931306 -0.13600606
0000c0 82 25 a3 3d 2a 7d c1 3c
       0.079661384 0.023619253

fc2.weight f4 [50, 50]
000000 38 2d 11 be 31 dc 72 3c 9e 88 c9 3d a4 79 1e 3e
       -0.14177406 0.014823006 0.09840511 0.1547609
000010 5a 6b 1b bb 72 8c 84 3d 1a 83 c9 3d 66 ba 01 bd
       -0.002371511 0.064721 0.09839459 -0.031671904
000020 b7 cb dc 3d 76 c0 14 be f2 95 58 3d 68 33 07 be
       0.10781043 -0.14526543 0.052877374 -0.13203204
000030 50 c5 f5 3d 9e a3 82 3d ac 44 c5 bd 4c bc 06 3e
       0.12000525 0.06378864 -0.09632239 0.13157767
000040 87 07 da bd 5b 98 d8 3d 13 58 9b bc b2 cf 8c bd
       -0.10645967 0.105759345 -0.018962895 -0.06875552
000050 c6 f1 44 3d 6c 52 02 bd b0 4a b3 bd ca 64 c0 bd
       0.048082136 -0.031816885 -0.0875448 -0.09394224
000060 ae 08 81 bd a0 0c bd 3d 5a 71 0a bd c7 ac 8b bd
       -0.06300484 0.09230924 -0.033799507 -0.06820064
000070 45 a8 f2 3d 14 9b c6 3d 70 06 55 3d f9 c4 33 3d
       0.11848501 0.096975476 0.052008092 0.04388902
000080 bc f3 a2 bd 1c 53 ac 3d 74 fd e9 bc 13 cc 2b bd
       -0.07956645 0.08414289 -0.028563239 -0.041942667
000090 0e 1b 1f 3c f6 35 05 bb 95 98 84 3d 71 ab 10 3e
       0.00971104 -0.0020326353 0.06474415 0.141279
0000a0 bf 6e 97 3d a4 5d 54 3d 9b 4e 2b 3d b2 9f b6 3d
       0.0739417 0.051847115 0.04182301 0.08917178
0000b0 62 76 91 3d e0 c9 0c 3e f9 06 0e bc d6 23 98 bd
       0.07102658 0.13748884 -0.008668655 -0.0742871
0000c0 14 06 03 be 0d e5 05 be 39 e4 05 3e bd 1d 64 bc
       -0.12795287 -0.13075657 0.13075341 -0.013923106
0000d0 f5 bc bd bc d2 34 9d bd 5a 37 be bd e9 63 12 be
       -0.02316139 -0.0767609 -0.09287901 -0.14295925
0000e0 01 de 0f bd de 08 86 3d 28 37 a7 bc 7f b8 9f bb
       -0.03512383 0.0654466 -0.020412043 -0.0048742886
0000f0 c1 02 06 3e 0f ec e1 bc 31 43 d0 3d 5b 35 51 bd
       0.13086988 -0.027578382 0.10169066 -0.051076274
000100 e2 15 82 bc f5 da 0c 3d 83 57 bc bd 84 af 82 bc
       -0.015879575 0.0343885 -0.09196379 -0.015952833
000110 a4 6f 17 bd 4f e3 70 bd ae 13 00 3e 74 21 c6 bd
       -0.036971703 -0.05881053 0.12507507 -0.096743494
000120 43 12 24 3d 13 7b ec bc 62 a9 bc 3d 7c bd 03 bc
       0.04005648 -0.02886728 0.09211995 -0.008040782
000130 02 59 85 3c f8 cb ea 3d e9 2a 0e 3e 4e 63 04 3e
       0.016277794 0.11464685 0.13883556 0.12928507
000140 11 2e a9 bd 44 b7 12 bd 2d 37 91 bd b0 ab 93 3d
       -0.082607396 -0.035819307 -0.07090602 0.07210481
000150 02 1a 01 be a1 d6 f0 3d 6b 61 6d bd 06 ca 26 3c
       -0.12607577 0.11759687 -0.057954233 0.010180002
000160 63 0a 3d 3d d0 a9 2d bd ff 97 91 bd ee 83 70 3b
       0.046152484 -0.042398274 -0.07109069 0.003669973
000170 bb d1 e3 3d 1f ab 11 bd 79 f3 3b bd 62 f7 e2 bd
       0.11123987 -0.035563584 -0.04588649 -0.11082341
000180 c5 c4 13 bb df a3 f6 bd 60 6b 04 3d 81 05 ae 3d
       -0.0022547704 -0.12042975 0.032328963 0.084971435
000190 58 a3 15 3e de fc 04 3e c7 c3 a8 bd eb 0b f3 bd
       0.14613092 0.12987086 -0.082404666 -0.118675075
0001a0 38 6e 01 3d f6 58 e9 bd b0 42 bf 3d cb ee fc 3d
       0.031599253 -0.11393921 0.093388915 0.12350234
0001b0 82 b0 fa 3d 0e dc a5 3a 39 14 a2 3d 81 de 75 3d
       0.122406974 0.0012654082 0.079140134 0.06002665
0001c0 0c 54 b6 bc 00 cf a4 bd 82 68 1a 3e d2 c5 17 3d
       -0.022256874 -0.080472946 0.15078929 0.03705389
0001d0 53 2f 93 3d 64 91 37 3d 80 b8 e8 bd c3 c5 d1 3c
       0.07186761 0.04481639 -0.113633156 0.025606995
0001e0 7f ba 75 bd 60 54 34 bd a1 5d 81 bd 57 ea 4b 3d
       -0.05999231 -0.04402578 -0.063166864 0.04978403
0001f0 8d 00 f4 bd e2 8c 6b 3d 20 b9 7a bc 57 54 e9 bc
       -0.119141676 0.057507403 -0.015302926 -0.0284826
000200 4b 7d cb 3d d3 3e 09 3e 74 ac b0 3d 38 80 00 be
       0.09936007 0.13402872 0.08626643 -0.12548912
000210 55 3b dd bd bc 3a b8 3d 69 6b 8d bd 01 79 c9 bd
       -0.10802332 0.08995578 -0.069052525 -0.09837533
000220 b8 88 cb bd 9c 55 4a bd 8e e8 7d 3d 1b d6 6e bd
       -0.099381864 -0.04939805 0.06198936 -0.058309656
000230 c3 ef 08 be 15 cc 24 3e 9d 04 bd bd 26 b6 93 bd
       -0.13372712 0.16093476 -0.092293955 -0.072124764
000240 20 93 b8 3c e4 11 b5 3d 84 3d 95 3d 48 4b fb 3d
       0.022531092 0.08841303 0.07287124 0.12270218
000250 b8 7a c8 3d 01 09 96 3b d4 33 25 3b 5d 6e 2f 3d
       0.09789032 0.00457871 0.0025207894 0.04282986
000260 8d 25 70 3d b2 8f 86 bd 47 23 35 bd 2c 9c 41 3d
       0.05862956 -0.065703765 -0.044223096 0.047268078
000270 78 ec e5 bd 4d a4 0f 3e e6 4d 4d bd 49 46 8e 3b
       -0.112267435 0.1402752 -0.050123118 0.0043418747
000280 57 2a da bd 61 8a a2 3d 2f 4a 39 bd e2 36 01 3e
       -0.10652607 0.0793655 -0.045236763 0.12618592
000290 d3 67 05 3e 22 c1 d3 3d 70 b8 d1 bd 72 cf c4 bd
       0.13027887 0.103395715 -0.10240257 -0.096098796
0002a0 f9 e2 fc bd 82 6d 2e 3d 0f b8 5b bd 77 a7 d8 3d
       -0.12347979 0.042584904 -0.05364233 0.105788164
0002b0 b0 5c 85 3d f5 05 ed bd fa 81 2d 3d 11 2e f3 3d
       0.06511819 -0.11573402 0.042360283 0.11874021
0002c0 c4 28 22 bd 26 e3 cc 3d 83 1b 51 3d be 0a 14 be
       -0.03958966 0.100042626 0.051051628 -0.14457223
0002d0 76 c4 a5 3d 5e 3a 7a 3d 55 72 7b bd cd 77 02 be
       0.080941126 0.06109082 -0.061388332 -0.12741013
0002e0 71 3e ce 3d 2f a2 28 3d b8 13 a4 3c f1 aa ee bd
       0.100705035 0.041170295 0.020028934 -0.11653698
0002f0 f1 c8 59 3d b9 ca 2a bd 8c 2f 2d 3d 4e 61 0a 3d
       0.05317015 -0.041697238 0.042281672 0.033784203
000300 b0 c6 04 3e 86 93 8b 3d c3 a3 b9 bd 96 f5 4f 3d
       0.12966418 0.06815247 -0.09064438 0.05077132
000310 79 e7 a1 3d 0c b5 08 3e 12 a2 ff bd 85 b9 75 bd
       0.07905478 0.13350314 -0.12482084 -0.05999138
000320 17 fe 5a 3c 78 83 a4 3c 49 ca 46 3d c5 2c b8 3d
       0.013366244 0.02008222 0.048532758 0.08992914
000330 33 c1 87 3d 5c 9e d1 3c a7 05 a8 3d 84 48 ad 3d
       0.06628647 0.025588207 0.08204203 0.08461097
000340 37 8e 11 3e 92 30 89 bd b5 39 83 3c 3c b1 a4 3d
       0.14214407 -0.06698717 0.016018728 0.08041617
000350 61 b1 31 3c c1 cc 46 bd 4d 5f 6c bc 46 99 bc 3d
       0.010845513 -0.048535112 -0.014427018 0.09208922
000360 f3 1d 1c bd de 5b db bd 25 d2 28 bd 33 48 86 3d
       -0.0381145 -0.10710882 -0.041216034 0.0655674
000370 cd 0b 0d 3e 85 d5 73 bc 4c be 24 3d f9 bc fa 3c
       0.13774033 -0.01488245 0.040220544 0.030607687
000380 3c ff a5 bc c2 89 ed bd 86 b9 68 3a 9c cd d8 3c
       -0.020263307 -0.11598541 0.0008877743 0.02646523
000390 52 b4 9a bd a6 25 dd 3c f4 6e 81 3d d9 46 09 be
       -0.075539246 0.026995491 0.06319991 -0.13405932
0003a0 55 88 82 bd c0 9e 6b 3d 1a 97 bb 3d bf 04 9e bd
       -0.063736595 0.057524443 0.0915968 -0.07715749
0003b0 62 8f eb bd 3c 21 d0 3c b1 fe 77 3d a0 42 49 bd
       -0.115019575 0.025406472 0.060545627 -0.049135804
0003c0 4d e0 d5 3d 06 44 96 bd 54 de a1 3d f3 68 d3 bd
       0.104431726 -0.07337193 0.07903734 -0.10322752
0003d0 6b 74 56 bc 37 1f 65 3d 5e 04 2c bd 68 6a 07 be
       -0.01308928 0.055937972 -0.041996352 -0.13224185
0003e0 63 4d 0a be b2 20 81 bc a3 54 01 be 6e 54 f4 3d
       -0.13506083 -0.01576266 -0.12629943 0.11930166
0003f0 b1 35 b4 3d 50 c1 c3 bc 3b cd 2c 3d 8b 94 ca 3c
       0.08799303 -0.02389589 0.04218791 0.024729034

fc2.bias f4 [50]
000000 2c 3a 81 3c a1 ce ba bd 16 b0 e6 3c c8 99 5b 38
       0.015774809 -0.091214426 0.028160136 5.235689e-05
000010 85 f4 72 3c e2 99 51 bd d3 48 66 bd fd 89 47 bd
       0.014828806 -0.051172145 -0.056221794 -0.04871558
000020 e1 ab 01 3e 01 2e 6e 3d 6f 86 17 3d 0f c9 3f 3d
       0.12663223 0.05814934 0.03699344 0.046822604
000030 c7 ac b5 bd a5 88 c7 bc 40 83 77 bd ab 15 ed 3d
       -0.08870845 -0.02435715 -0.060427904 0.115763985
000040 3c 96 c3 bc ba d5 c1 3b d8 2f 89 3d 10 42 db bd
       -0.023875348 0.005915371 0.066985786 -0.1070596
000050 2c 8d 2a 3c f2 34 61 bd b5 ab 76 3d 10 4f ba bd
       0.010409635 -0.054982133 0.060222346 -0.09097111
000060 f1 df be 3d 96 28 bd bd 3f 0e 10 be 15 85 57 3d
       0.09320057 -0.09236257 -0.14067934 0.05261715
000070 7e 52 6f 3b 0c 11 af 39 3a 57 cd bd 97 cb c5 3d
       0.0036517675 0.00033391302 -0.10026403 0.09657972
000080 34 df 10 3b 35 ac 01 3e 29 09 61 3d 53 63 f4 3d
       0.0022105696 0.12663348 0.054940376 0.11933007
000090 f9 fb e2 bd 89 66 c4 bd e5 ac 9e bb 7b 08 c4 bd
       -0.11083216 -0.095898695 -0.004842388 -0.0957193
0000a0 6a d0 73 bd af c1 55 bd 3c c5 d6 bc ec 22 a8 bd
       -0.05952493 -0.052186664 -0.026217096 -0.08209786
0000b0 e2 f0 4c bd 08 be 6a bb 52 7d 92 bd 83 f5 61 bd
       -0.05003441 -0.0035818834 -0.07152809 -0.05516578
0000c0 04 d2 91 bd 16 e5 6d 3c
       -0.071201354 0.01451995

fc3.weight f4 [13, 50]
000000 d9 c5 83 bd c2 93 79 3c 19 77 4c bd e8 a6 cd 3d
       -0.06434221 0.015232982 -0.049918268 0.100416005
000010 c3 91 07 bd 51 a7 07 be d3 51 0e be 41 cb 92 bd
       -0.033097994 -0.1324742 -0.13898401 -0.07167674
000020 c2 bc c3 bd 30 2f a2 bc d5 11 b1 3d c6 49 06 3e
       -0.09557487 -0.019797891 0.08645979 0.1311408
000030 13 de 4a bd c9 90 93 3d 0c 6f 01 3e 76 71 ef bb
       -0.049528193 0.0720535 0.12640017 -0.007307227
000040 11 a7 d2 3c 0b 56 0d be 08 8e bb bc e5 2b ed 3d
       0.02571443 -0.13802354 -0.022894874 0.11580638
000050 b2 d8 be 3d ad 09 a7 bc 50 b6 d0 3c b6 ae 0e 3e
       0.09318675 -0.020390356 0.025477558 0.13933834
000060 d9 ba 13 be 20 86 cf bd 6e 90 ca 3d c2 cd 0b bd
       -0.14426745 -0.10133004 0.09890829 -0.034131773
000070 c6 52 a9 bd e2 ee 07 3d bf b5 ea bd f0 05 9b 3d
       -0.08267741 0.0331868 -0.114604466 0.07569492
000080 d3 b1 71 3d 06 b5 bc bd cc d0 96 bd 81 fa dc 3d
       0.059007477 -0.09214215 -0.073640436 0.10789967
000090 37 d0 39 3d 42 cd 46 3d 73 64 c8 bc 2d 8a 90 3d
       0.045364585 0.048535593 -0.02446196 0.07057605
0000a0 5a 3e b0 3c 90 4f 50 bd 41 ee 51 3d b8 82 1b bd
       0.021514107 -0.050857127 0.051252607 -0.03796646
0000b0 a6 08 1c bd 28 7b bc 3d e0 ce 0d be ec f0 17 3e
       -0.038094185 0.09203178 -0.13848448 0.14837998
0000c0 05 dc 87 bd 39 a6 38 3d 34 7c c3 3d f0 0c 1d be
       -0.06633762 0.045080397 0.09545174 -0.15336967
0000d0 06 2b ca bd 39 76 e4 bd b3 6c 55 3d 16 64 95 3d
       -0.09871487 -0.11155362 0.052105617 0.072944805
0000e0 5a 02 c5 3d ef ce 86 bb c7 37 e2 3d a5 bf 23 bd
       0.09619589 -0.004114024 0.11045795 -0.03997769
0000f0 85 af 64 3c 09 72 8a 3d 20 b3 27 bd 8b d0 5e bd
       0.013957863 0.06760032 -0.04094231 -0.0543981
000100 cf c1 bb 3d 66 eb ef bd 77 5f 39 bd bf ba 89 bd
       0.091678254 -0.117148206 -0.045257058 -0.06725072
000110 65 b1 89 3d 4a 9b 1b 3e 9b 8e b1 bd 90 ff e9 3d
       0.067232884 0.15195957 -0.08669778 0.11425698
000120 fc 8c 5f bd ed 31 11 3e d1 fa ac 3d d9 50 a9 bd
       -0.054577813 0.14179201 0.08446277 -0.082673736
000130 c8 48 69 3c 99 55 a0 3d 6b 28 e5 3c cf d5 80 3d
       0.014238544 0.078288265 0.027973374 0.06290781
000140 b8 2a 49 3d 6d e2 31 3b 19 99 21 3d b4 53 e7 3d
       0.049113005 0.0027143017 0.039452646 0.11295262
000150 2f aa 15 3d ff ad a7 bd 57 dc 39 3d e1 59 dc bc
       0.036539253 -0.08187484 0.045376148 -0.026898326
000160 48 ca 80 ba b1 87 96 bc 5b 4c e3 3d 64 c7 30 3d
       -0.000982591 -0.01837525 0.11098548 0.043158904
000170 f6 88 24 bc 00 c5 b6 3c c5 b7 3b bd 39 53 1f 3d
       -0.01004242 0.022310734 -0.045829553 0.038897727
000180 10 93 92 3d 21 7f d7 3d 4c 85 bc 3d 14 3d a1 3d
       0.07156956 0.10522295 0.09205112 0.07872978
000190 ef 6b 6a 3d 88 c9 df bd c4 dc 0e be a5 43 b2 3d
       0.05723184 -0.10927111 -0.13951403 0.087043084
0001a0 94 d4 b7 39 a1 46 4c bd 7c 22 a2 3d fc 3b 39 bd
       0.00035062863 -0.049872044 0.079167336 -0.04522322
0001b0 dc b9 79 bd 72 b9 aa 3d 15 ea e5 bd 1a 87 71 3c
       -0.060968265 0.08336152 -0.11226288 0.014741683
0001c0 d7 b7 b4 bc 5d f3 c4 3d 0e e9 eb bc b5 23 cc bd
       -0.022060318 0.0961673 -0.028797653 -0.09967748
0001d0 c4 67 4b bb 14 f7 02 3e 37 77 83 3d 80 7f 89 b9
       -0.003103719 0.12789565 0.06419223 -0.0002622567
0001e0 88 91 59 bd ad c8 8c bd 3a d3 9c 3a 05 e8 04 3e
       -0.053117305 -0.06874213 0.0011964806 0.12979133
0001f0 18 cc e8 3d 7a 70 04 bd 43 af ab 3d c2 80 1d be
       0.11367053 -0.03233383 0.08383038 -0.15381148
000200 ec 08 0d be d3 d4 ab bd c5 ca 24 bd fc f8 14 3d
       -0.13772935 -0.083902024 -0.04023244 0.036370263
000210 5c 5a 37 bd 68 2d cb bb 26 32 d4 3a b1 18 8c 3d
       -0.044763908 -0.006200481 0.0016189262 0.06840647
000220 f8 c1 93 bd 83 d2 92 bd 35 db 00 bb 0f a8 a4 bd
       -0.07214731 -0.07169058 -0.0019661908 -0.08039867
000230 68 9b 28 3d c4 58 89 bc 65 c1 1a be d1 c1 27 bd
       0.041163832 -0.01676596 -0.15112837 -0.040956322
000240 7b 90 50 bd 44 13 4a bc a7 a6 f4 3d c6 fd f7 bb
       -0.050919037 -0.012333695 0.11945849 -0.007568094
000250 16 93 c6 bd 4e 6a 70 3d 86 88 82 bd 80 8f 4b 3d
       -0.09696023 0.05869513 -0.06373696 0.0496974
000260 64 51 8f 3c 98 70 15 3d 32 90 0b 3e 49 3e a2 bd
       0.017494865 0.03648433 0.13629225 -0.07922036
000270 87 ce 90 3d af a0 b9 3d 86 b9 4d bd 21 8f 6f bd
       0.07070642 0.09063851 -0.050225757 -0.058486108
000280 a4 3f a1 bd 38 bd 12 3c 0e 2e c8 3d ef 77 4d bd
       -0.078734666 0.008956246 0.09774409 -0.050163206
000290 e8 32 98 bd c8 54 0a be df 20 7d 3d fa fe ec bd
       -0.074315846 -0.13508904 0.061798926 -0.115720704
0002a0 43 03 42 bd 3c 08 f4 bc 7b c8 9d 3d 63 7f c4 3d
       -0.047366392 -0.029789083 0.07704254 0.095946096
0002b0 93 de 12 3e 4c d8 ad 3c a9 65 8e bd 5c 6d 19 3d
       0.14342718 0.021221302 -0.06952984 0.03745781
0002c0 8d 34 c7 bd c6 fc 0d be f8 08 d3 bd fe 5d 3b bd
       -0.0972682 -0.13865957 -0.10304445 -0.045743935
0002d0 d2 70 47 bd 91 9f c9 3d 76 5f 27 3d 78 89 00 3a
       -0.04869158 0.09844888 0.040862523 0.0004903297
0002e0 73 d7 07 bc c7 fa 1a bd a6 83 c4 bc 16 9e a8 3d
       -0.008291113 -0.037836816 -0.023988556 0.082332775
0002f0 b5 ca bf 3c 8e 37 c1 3d 95 3e d9 3d bf e7 e8 3c
       0.023412088 0.09434424 0.1060764 0.028430818
000300 a4 84 bb bc 43 96 04 3d 49 1b c6 bd 54 8e 82 3d
       -0.022890396 0.032369863 -0.09673173 0.06374803
000310 a9 55 85 bd ab 06 fc bc 7a 7e 12 be 1b 8f e7 3d
       -0.06510479 -0.030764898 -0.1430606 0.11306592
000320 87 68 ca 3d 72 25 a8 3c 12 f8 1f bd 8e 0f b0 3d
       0.09883218 0.020525668 -0.039054938 0.08596717
000330 f0 1c b3 bd f7 59 0f 3e 99 92 8f 3c f5 53 ba bc
       -0.08745754 0.13999163 0.017525958 -0.022745112
000340 95 9a e5 bd 44 8e 96 bc ba bf 92 bb 79 22 d5 3b
       -0.11211125 -0.018378384 -0.004478422 0.0065043536
000350 16 1d b6 3d 6c e1 62 bd ef 55 94 bc fa 7c 45 bd
       0.088922665 -0.05539076 -0.018107383 -0.04821489
000360 b4 61 09 be fc ed dd 3d a2 fd 06 3e 6a 6d 4e bc
       -0.13416177 0.108364075 0.1318269 -0.0125993285
000370 89 0d 15 3e d6 77 23 bd e1 e2 57 3d 5e 93 c4 3d
       0.14555945 -0.039909206 0.052706603 0.095984206
000380 46 3e 14 be cc 7e e5 3d 6c 49 bd 3d 09 48 02 bd
       -0.1447688 0.11205825 0.0924252 -0.03180698
000390 ab 86 3a bd fe 69 9a 3d fa 56 ef bc 9f 38 02 3c
       -0.045538586 0.07539748 -0.029216278 0.00794807
0003a0 06 bb d8 bd c0 ef 9b 3c 9c b3 21 3d c8 b8 45 bd
       -0.10582547 0.01903522 0.03947793 -0.048271924
0003b0 15 52 65 bd 37 1a d2 3d 3b 88 00 be 16 6d d4 3d
       -0.055986483 0.10258906 -0.12551968 0.10372369
0003c0 cb ba ce 3d 0d 7e 1e bb a4 4a 20 bc a4 ea eb 3d
       0.10094222 -0.002418402 -0.009783421 0.115193635
0003d0 af f1 43 3d 74 6e 0e bd df ed d6 bd b5 e2 9a bd
       0.04783791 -0.034773305 -0.10494589 -0.07562772
0003e0 59 66 03 be 10 3c a4 3d 1a f3 fd 3c f4 2b 4a bd
       -0.12832011 0.080192685 0.030999709 -0.049358323
0003f0 2c bf c6 3d 2d cb 8a 3d 47 cb 67 bd b6 77 9a 39
       0.09704432 0.06777034 -0.056590345 0.0002946236

fc3.bias f4 [13]
000000 26 50 9e bd 51 8c b3 3c 57 1d c9 bd 8b b8 9c 3d
       -0.07730131 0.021917494 -0.09820049 0.07652386
000010 38 30 55 3d 4d 57 ee 3d 69 ad 9b bb 9a 9c 02 3c
       0.052047938 0.11637745 -0.0047508967 0.007971907
000020 2e 8f d4 bc f3 1c 13 3e ce 95 90 bd 62 ef 63 3d
       -0.02594718 0.14366512 -0.07059823 0.055648215
000030 9a ed 4d bd
       -0.050275423
