TorchModels/DeepQtrader36.pt (torch, 25047 bytes, 6 tensors)

fc1.weight f4 [50, 50]
-0.058064092 -0.009834867 0.04790131 0.054395277 0.12152788 -0.10822506 0.12663116 -0.038390014
-0.05343833 0.07746639 0.0906239 -0.10903922 0.05940609 -0.026446681 0.10426549 0.026290897
0.03597823 0.090441756 -0.10578606 0.07026213 -0.11334419 0.12450453 0.09169086 0.07737976
-0.102157176 -0.104065 -0.1050162 -0.014479152 -0.1295976 -0.011420248 0.076920375 0.05928703
-0.07513826 -0.06033516 -0.1049708 0.10010715 -0.0735463 0.13736832 -0.012910873 -0.07805746
0.01859371 0.018302212 -0.028298073 0.014339932 0.1247588 -0.1385555 -0.042633325 0.075969465
0.09887443 0.03480076 -0.097441465 -0.08310681 -0.032539837 0.13145043 -0.0031378684 0.07357863
0.05778057 -0.10120223 0.0060700667 0.08223387 0.048140734 -0.13458681 0.13346839 0.108362794
-0.010698337 0.119793236 0.10077026 -0.085106306 0.071976624 0.0024966316 0.07569858 -0.07055637
-0.086116016 0.1134034 0.0896794 0.108074695 -0.13808681 0.082032084 0.0012232537 0.12037256
0.057054363 -0.03606244 0.031018157 -0.08867641 -0.13039096 -0.10611918 -0.078911886 -0.12991281
0.07666042 -0.105938666 0.07656044 0.098417304 -0.06282397 0.083403334 -0.011002188 -0.092410035
0.07562794 0.10362891 0.0045388737 0.07913119 -0.13487637 0.12300798 -0.017093912 0.003696824
0.031661913 0.007124118 0.025033018 0.07908514 0.032069847 -0.104939364 -0.1081096 0.1162943
-0.0423746 -0.0037615048 -0.086451374 0.046697166 -0.080640726 0.02952793 0.008823242 0.0825999
0.12338712 0.049300708 -0.13389699 0.072135255 0.032765776 0.074241504 -0.12256306 0.012212361
0.14159188 0.14047778 0.012528012 0.02139765 0.126516 -0.11202308 0.11748653 -0.018623838
0.019656153 0.11526613 -0.0074532386 -0.13259856 -0.13560876 0.10128413 -0.034499034 -0.007041045
-0.0058845067 0.060277496 0.037757814 0.08466213 0.034127176 -0.071587 0.010249026 -0.0042734533
-0.004269571 -0.009293068 0.044584364 0.09445616 0.115086176 0.084856756 -0.07977702 0.020568617
0.09546926 -0.105559014 -0.06467999 -0.0002703616 0.1203269 -0.013502832 -0.022177422 -0.11448219
-0.068627365 0.011508196 0.14081779 -0.07993473 0.037246518 -0.12922497 0.11334523 0.0358312
-0.100093976 0.072994195 0.11213411 -0.13997823 -0.10475772 -0.017705815 0.04124136 0.0038251665
-0.11039466 0.02704358 -0.058842547 -0.12322683 0.1015625 -0.032479197 0.059381217 -0.11247977
0.14036432 0.1074209 0.035993017 -0.0253184 0.0851768 -0.030386545 -0.063130535 0.09444859
-0.13486812 -0.13098435 -0.040127177 0.1311267 -0.1473242 0.040468805 -0.044266466 0.114944905
0.12310443 0.1145428 0.05803669 0.09561998 0.025835533 -0.06136483 0.13804726 0.10899058
-0.09583523 -0.09430407 -0.12912104 0.030161567 -0.05599615 -0.13131966 -0.07150556 0.06726129
0.09967427 0.08323064 0.09085527 -0.040905837 0.044727586 0.12618697 -0.031470794 0.13399145
-0.08115243 -0.098614976 0.021418784 0.063444436 -0.058050204 0.10231453 0.0050248657 -0.053544655
-0.15302736 -0.14678057 -0.13119592 -0.03810841 0.00073581276 0.01710841 -0.06369818 -0.106950134
0.104431316 -0.15857966 -0.11459232 0.034081392 -0.0798516 -0.0737342 0.0041002757 -0.0032043962
00000000: 9dd4 6dbd 6c22 21bc 2a34 443d 95cd 5e3d
00000010: 9ce3 f83d 1aa5 ddbd 99ab 013e d93e 1dbd
00000020: 26e2 5abd b3a6 9e3d 0699 b93d f44f dfbd
00000030: cd53 733d b6a6 d8bc 2589 d53d 0260 d73c
00000040: e95d 133d 8739 b93d 5da6 d8bd 97e5 8f3d
00000050: 0021 e8bd 3bfc fe3d 6bc8 bb3d 4879 9e3d
00000060: c837 d1bd 0820 d5bd bc12 d7bd f739 6dbc
00000070: 3cb5 04be fe1b 3bbc 6e88 9d3d f5d6 723d
00000080: 17e2 99bd 0022 77bd eefa d6bd fa04 cd3d
00000090: 719f 96bd 48aa 0c3e 2088 53bc 97dc 9fbd
000000a0: d651 983c 85ee 953c 5cd1 e7bc 09f2 6a3c
000000b0: 8b81 ff3d 7ee1 0dbe 48a0 2ebd e195 9b3d
000000c0: ad7e ca3d 3e8b 0e3d 648f c7bd e733 aabd
000000d0: 7e48 05bd f19a 063e b2a4 4dbb 65b0 963d
000000e0: 52ab 6c3d 1d43 cfbd 69e7 c63b 3b6a a83d
000000f0: 382f 453d 20d1 09be f0ab 083e 50ed dd3d
00000100: 1448 2fbc 2856 f53d a360 ce3d 374c aebd
00000110: 7b68 933d 879e 233b db07 9b3d dc7f 90bd
00000120: 985d b0bd 0b40 e83d d5a9 b73d 4456 dd3d
00000130: a166 0dbe 7000 a83d 9555 a03a e485 f63d
00000140: d6b1 693d 36b6 13bd ca19 fe3c fa9b b5bd
00000150: 3585 05be 0355 d9bd 8e9c a1bd dd07 05be
00000160: 2300 9d3d 5ff6 d8bd b8cb 9c3d 038f c93d
00000170: dba9 80bd 5ecf aa3d 8542 34bc 7941 bdbd
00000180: d2e2 9a3d 653b d43d d5ba 943b 890f a23d
00000190: 081d 0abe 9ceb fb3d 8808 8cbc 6a46 723b
000001a0: ecaf 013d 6f71 e93b 0b12 cd3c 64f7 a13d
000001b0: ac5b 033d 73ea d6bd 9168 ddbd b52b ee3d
000001c0: fd90 2dbd 9483 76bb 6b0d b1bd 8745 3f3d
000001d0: f726 a5bd 8fe4 f13c 5c8f 103c 232a a93d
000001e0: 63b2 fc3d 8aef 493d 4b1c 09be a6bb 933d
000001f0: 6835 063d ee0b 983d 5702 fbbd 5b16 483c
00000200: 76fd 103e 68d9 0f3e 4a42 4d3c 204a af3c
00000210: 698d 013e 5b6c e5bd c79c f03d 0591 98bc
00000220: f105 a13c a610 ec3d 4c3a f4bb ebc7 07be
00000230: 06dd 0abe 0e6e cf3d dc4e 0dbd 91b8 e6bb
00000240: d2d2 c0bb 89e5 763d f0a7 1a3d 5763 ad3d
00000250: f0c8 0b3d 349c 92bd 88eb 273c 5308 8cbb
00000260: c2e7 8bbb f441 18bc 189e 363d 3b72 c13d
00000270: 4db2 eb3d 61c9 ad3d 2262 a3bd 847f a83c
00000280: 6385 c33d 532f d8bd f176 84bd 52bf 8db9
00000290: f36d f63d fb3a 5dbc 6dad b5bc a375 eabd
000002a0: 818c 8cbd df8c 3c3c 8a32 103e d2b4 a3bd
000002b0: ce8f 183d 8d53 04be 8b21 e83d bdc3 123d
000002c0: 12fe ccbd fb7d 953d 91a6 e53d 7456 0fbe
000002d0: 378b d6bd c90b 91bc b3ec 283d a5af 7a3b
000002e0: 9816 e2bd 7f8a dd3c e204 71bd 595e fcbd
000002f0: 0000 d03d e808 05bd b839 733d cb5b e6bd
00000300: aabb 0f3e 7dff db3d 6a6d 133d 8868 cfbc
00000310: 2d71 ae3d 34ed f8bc 954a 81bd 436e c13d
00000320: de1a 0abe c320 06be 655c 24bd 1446 063e
00000330: 28dc 16be 9ec2 253d c150 35bd 3c68 eb3d
00000340: 2d1e fc3d 6a95 ea3d e1b7 6d3d 68d4 c33d
00000350: 0aa5 d33c b059 7bbd 435c 0d3e 7436 df3d
00000360: 4345 c4bd 7e22 c1bd 4e38 04be 6415 f73c
00000370: 385c 65bd a978 06be 8271 92bd 4ac0 893d
00000380: 0622 cc3d d374 aa3d 5412 ba3d e18c 27bd
00000390: 4634 373d 2837 013e 85e7 00bd 0e35 093e
000003a0: 3f33 a6bd a6f6 c9bd 7276 af3c 28ef 813d
000003b0: 0dc6 6dbd 488a d13d a1a7 a43b a451 5bbd
000003c0: 34b3 1cbe a54d 16be 3958 06be 9017 1cbd
000003d0: 8fe3 403a f026 8c3c 3174 82bd ac08 dbbd
000003e0: 16e0 d53d b562 22be 61af eabd ee98 0b3d
000003f0: 3c89 a3bd f501 97bd 9b5b 863b d900 52bb

fc1.bias f4 [50]
-0.13027924 -0.0076988344 -0.04163132 0.07891502 0.023427768 -0.0010794697 -0.009670878 -0.13972858
-0.001956408 0.1431357 -0.08452145 -0.04552198 -0.09763708 -0.037218746 -0.027516562 0.033077393
-0.05687837 0.08731016 -0.073596455 0.06602133 -0.035545606 -0.048859697 0.12270056 -0.1180706
0.13175017 0.16258462 0.01852899 -0.04003746 -0.01346465 -0.009689829 -0.009813136 -0.10999819
-0.108115025 -0.11514045 0.11209839 0.09426646 0.13221993 -0.0028242944 -0.01185064 -0.0806868
0.07893869 0.08972817 -0.030973814 -0.00095625885 -0.0400403 -0.04973987 0.0033799573 0.035523377
-0.06909078 -0.034463864
00000000: ec67 05be 8146 fcbb 9a85 2abd 339e a13d
00000010: 97eb bf3c fe7c 8dba 9a72 1ebc 0215 0fbe
00000020: 1437 00bb 2a92 123e 9519 adbd 4175 3abd
00000030: f3f5 c7bd af72 18bd 6a6a e1bc 297c 073d
00000040: 4bf9 68bd abcf b23d bdb9 96bd 3136 873d
00000050: 4598 11bd 1b21 48bd 6e4a fb3d 00cf f1bd
00000060: 84e9 063e 957c 263e 1cca 973c 52fe 23bd
00000070: d69a 5cbc 17c2 1ebc 47c7 20bc bb46 e1bd
00000080: 696b ddbd c2ce ebbd d793 e53d c60e c13d
00000090: a964 073e cc17 39bb 3029 42bc 1f3f a5bd
000000a0: 9caa a13d 67c3 b73d ccbc fdbc 72ad 7aba
000000b0: 4c01 24bd 09bc 4bbd 4682 5d3b f680 113d
000000c0: 787f 8dbd fb29 0dbd

fc2.weight f4 [50, 50]
0.00046888477 -0.07759292 0.111081325 -0.105662085 -0.095335886 0.11951081 0.051184565 0.117052265
-0.013540012 -0.1303755 -0.006793582 0.018352557 0.12600432 -0.08648407 -0.018575342 0.11753798
0.055703476 -0.10526449 -0.13197482 0.01703701 -0.064630195 -0.07422414 -0.059923004 -0.015062893
0.103865065 0.1244863 -0.111011595 -0.065214574 -0.119285904 -0.058453042 0.13990843 -0.092488214
-0.03938121 0.103321694 -0.017040204 0.124608636 -0.10067001 -0.06357421 -0.052490454 0.015494099
0.07176516 0.12967187 0.09180077 -0.09629256 0.078822374 -0.090389974 -0.015018892 -0.01371295
0.021692198 -0.10705025 0.0038469434 -0.09445923 0.040400278 0.032312304 0.1342964 0.12000359
0.08702067 0.081903964 -0.10084559 0.043823987 0.13295971 0.12123835 -0.100728415 0.1040775
0.020748973 0.020160768 0.082786806 -0.004534857 0.058491517 0.065848224 -0.10793303 -0.03924456
-0.13891517 -0.113345094 0.021614302 0.065552354 -0.021002801 0.11147798 -0.05338549 0.009533517
0.038184922 -0.07444751 -0.05518934 0.05449793 -0.0063561127 0.011690679 0.0023053861 0.124941684
0.06446055 -0.14027266 0.11770108 -0.008900369 -0.09176249 -0.1134994 0.10416988 -0.004102176
-0.06024553 -0.0664773 0.054295834 0.13337052 -0.082473785 -0.071658455 0.08603516 -0.13593163
0.11498583 -0.000115679795 -0.06800179 0.020698855 0.07831571 -0.048361022 0.08269744 -0.0043161907
0.07547667 -0.090454526 0.12124348 0.030830376 -0.075583786 0.013919075 -0.13838421 -0.11423933
-0.013395263 -0.027241215 0.029890362 -0.05821958 0.024816718 0.103479885 0.043804314 0.09417941
0.016645228 -0.046901524 0.083571635 -0.0082719615 0.059924826 -0.13278547 -0.10489538 0.05296201
0.07947005 0.1380509 -0.038371183 -0.07160435 -0.1399289 -0.098778546 0.09674062 0.0587374
-0.00067027565 -0.08847909 -0.008998429 -0.10638961 0.022736665 -0.098344944 0.007284666 -0.056616437
0.07143181 0.06751538 -0.04978278 -0.007689512 0.10299311 0.013512891 0.112791024 0.12116969
-0.11030782 0.14895025 0.010704909 0.11794524 0.08888754 -0.061647516 0.09616715 -0.10075054
-0.06373066 0.100998245 -0.070468724 -0.059978697 0.1455228 0.019827912 0.09043518 -0.056145027
0.0001875124 0.11724156 -0.054142162 -0.08324623 0.072204776 0.035352863 0.09987629 -0.0029717758
-0.043637786 0.1217521 -0.051984925 -0.034455657 -0.10498972 0.14944862 -0.12909018 -0.0065934677
-0.009513109 -0.073631324 -0.1370947 -0.016465044 0.07685641 0.09270583 -0.11903928 -0.03425893
0.13151683 -0.06930401 0.032070868 -0.118930735 0.121561475 -0.11902137 -0.11539187 -0.102968276
-0.12619664 0.031044863 -0.10042439 0.132257 -0.020135315 0.12562327 0.06756298 -0.12308409
0.14034213 0.053961985 0.032164253 0.03689051 -0.12929076 -0.04635779 0.064090386 0.016126832
0.051311787 -0.112664334 -0.0020932825 -0.0744726 -0.12573378 0.032288432 -0.08693897 -0.0895546
0.12760684 -0.116768904 0.13893422 0.041343715 0.003245771 0.114173345 0.106869385 0.13863078
0.0833188 0.029909171 0.11860108 0.11747137 0.039920244 -0.11607484 0.14160883 0.020597706
0.09454677 -0.058529906 0.08850076 0.035550024 -0.12266366 0.080904156 0.122590385 0.13914849
00000000: a6d4 f539 09e9 9ebd 9b7e e33d 5d65 d8bd
00000010: 763f c3bd 15c2 f43d e8a6 513d 19b9 ef3d
00000020: edd6 5dbc 2881 05be b29c debb 1a58 963c
00000030: 4707 013e 8f1e b1bd 512b 98bc c1b7 f03d
00000040: 5429 643d e994 d7bd 6824 07be 3391 8b3c
00000050: d65c 84bd d302 98bd d371 75bd 5aca 76bc
00000060: 35b7 d43d acf2 fe3d 0c5a e3bd 388f 85bd
00000070: 2b4c f4bd 756c 6fbd 2844 0f3e 766a bdbd
00000080: 314e 21bd 539a d33d e697 8bbc d032 ff3d
00000090: 142c cebd 3233 82bd 3b00 57bd f6da 7d3c
000000a0: 9df9 923d b4c8 043e 0b02 bc3d 0935 c5bd
000000b0: a06d a13d 611e b9bd cc11 76bc 48ac 60bc
000000c0: d6b3 b13c 293d dbbd 001d 7c3b d773 c1bd
000000d0: c37a 253d e859 043d ff84 093e 71c4 f53d
000000e0: e537 b23d 44bd a73d 2288 cebd c880 333d
000000f0: 9726 083e d04b f83d b34a cebd 9626 d53d
00000100: c0f9 a93c 3228 a53c 218c a93d 2399 94bb
00000110: cd94 6f3d 6fdb 863d fe0b ddbd e7be 20bd
00000120: c73f 0ebe 7921 e8bd 7a10 b13c 5040 863d
00000130: 110e acbc 914e e43d beaa 5abd 7832 1c3c
00000140: cb67 1c3d f077 98bd 380e 62bd 3939 5f3d
00000150: f046 d0bb 438a 3f3c f615 173b 6de1 ff3d
00000160: e503 843d a3a3 0fbe 440d f13d dad2 11bc
00000170: f9ed bbbd 6072 e8bd 0557 d53d 8c6b 86bb
00000180: 04c4 76bd 4025 88bd 4f65 5e3d 4892 083e
00000190: 04e8 a8bd abc1 92bd 3433 b03d a931 0bbe
000001a0: b17d eb3d 1e99 f2b8 8644 8bbd a590 a93c
000001b0: fd63 a03d 3516 46bd 475d a93d d56e 8dbb
000001c0: 8393 9a3d 3940 b9bd 804e f83d fc8f fc3c
000001d0: accb 9abd d50c 643c 97b4 0dbe 4ff6 e9bd
000001e0: ce77 5bbc f828 dfbc a2dc f43c a877 6ebd
000001f0: 6e4c cb3c 43ed d33d 276c 333d 22e1 c03d
00000200: 935b 883c d01b 40bd 9b27 ab3d 1f87 07bc
00000210: bc73 753d eaf8 07be 64d3 d6bd b1ee 583d
00000220: 32c1 a23d 375d 0d3e 1a2b 1dbd 4da5 92bd
00000230: 8649 0fbe 684c cabd f21f c63d a196 703d
00000240: 70b5 2fba 8634 b5bd 266e 13bc cce2 d9bd
00000250: 3e42 ba3c 1369 c9bd 35b4 ee3b a3e6 67bd
00000260: d74a 923d 8145 8a3d 07e9 4bbd 4df8 fbbb
00000270: 0dee d23d 2c65 5d3c fbfe e63d d027 f83d
00000280: 11e9 e1bd 6a86 183e a563 2f3c 468d f13d
00000290: ac0a b63d 1b82 7cbd 48f3 c43d 4d56 cebd
000002a0: 3885 82bd 2bd8 ce3d e851 90bd 39ac 75bd
000002b0: ee03 153e 256e a23c 1436 b93d 54f8 65bd
000002c0: fa9e 4439 581c f03d 2cc4 5dbd 007d aabd
000002d0: 19e0 933d 2ace 103d f18b cc3d 20c2 42bb
000002e0: 89bd 32bd 2a59 f93d 25ee 54bd 6021 0dbd
000002f0: da04 d7bd 0f09 193e 3730 04be 040e d8bb
00000300: dfdc 1bbc 05cc 96bd 8e62 0cbe b3e1 86bc
00000310: e566 9d3d 8edc bd3d deca f3bd 1753 0cbd
00000320: 59ac 063e 43ef 8dbd be5c 033d f591 f3bd
00000330: 39f5 f83d 7ac1 f3bd 9352 ecbd 08e1 d2bd
00000340: b139 01be cc51 fe3c 4dab cdbd 616e 073e
00000350: d1f2 a4bc 63a3 003e 765e 8a3d 8313 fcbd
00000360: d9b5 0f3e 3e07 5d3d aabe 033d 811a 173d
00000370: cc64 04be aae1 3dbd d241 833d 6b1c 843c
00000380: 4f2c 523d 8fbc e6bd 742f 09bb 1785 98bd
00000390: 5bc0 00be e040 043d 0f0d b2bd 6768 b7bd
000003a0: 5eab 023e 8924 efbd c644 0e3e 0758 293d
000003b0: 00b7 543b b7d3 e93d 56de da3d 3af5 0d3e
000003c0: 0ca3 aa3d 1404 f53c 1fe5 f23d d494 f03d
000003d0: 6983 233d a5b8 edbd e801 113e 85bc a83c
000003e0: bda1 c13d 0ebd 6fbd e33f b53d e79c 113d
000003f0: 1637 fbbd 14b1 a53d ab10 fb3d f17c 0e3e

fc2.bias f4 [50]
-0.114396036 0.002099129 -0.054220296 0.0956476 0.0668726 -0.055607777 0.004585807 0.10502674
-0.027172433 0.051393453 0.10160852 0.03580812 -0.0062314174 -0.073586114 0.08087325 -0.036726777
-0.12879996 -0.0052829795 0.1525361 0.077304006 0.12394742 -0.025413066 -0.08031142 0.15541352
0.10453901 -0.0799668 -0.031916164 0.014252926 -0.030604888 -0.087894 -0.08527781 0.0936687
-0.09537468 -0.11356563 -0.1001855 -0.043296777 -0.0456716 -0.062009312 -0.10308826 0.047918364
0.05251396 -0.054652788 0.13669005 -0.1059721 -0.010882794 -0.04861884 0.12615384 -0.091523476
-0.07525355 0.055167977
00000000: 7848 eabd 8a91 093b 1a16 5ebd e4e2 c33d
00000010: 80f4 883d fbc4 63bd 8a44 963b 4218 d73d
00000020: b998 debc f181 523d 2118 d03d 89ab 123d
00000030: eb30 ccbb 51b4 96bd e0a0 a53d d16e 16bd
00000040: 23e4 03be d81c adbb 6c32 1c3e 9051 9e3d
00000050: 25d8 fd3d 102f d0bc 507a a4bd b924 1f3e
00000060: 8c18 d63d a2c5 a3bd 86ba 02bd 1b85 693c
00000070: 1ab7 fabc c501 b4bd 22a6 aebd 60d5 bf3d
00000080: cd53 c3bd 1995 e8bd 0e2e cdbd f657 31bd
00000090: 2512 3bbd 7afd 7dbd f01f d3bd 0c46 443d
000000a0: e118 573d 9adb 5fbd 7af8 0b3e e607 d9bd
000000b0: bf4d 32bc 8c24 47bd 792e 013e a970 bbbd
000000c0: 891e 9abd d1f7 613d

fc3.weight f4 [13, 50]
-0.04087509 -0.09123895 0.07612375 -0.0127176605 0.0919825 0.018808367 0.13284452 0.005135856
-0.08407311 -0.02598879 0.0062678573 0.037718475 0.0128092645 0.046558563 -0.1544093 0.09285446
0.03615112 -0.08741028 0.03770442 -0.05212495 -0.1149592 0.079461664 0.00065725 -0.068496384
0.0051458743 -0.06387423 0.0684883 -0.11708041 -0.06958984 -0.0917113 -0.121838264 -0.13775232
0.053135905 -0.14169176 0.0060942336 0.12075771 -0.09417046 0.06316925 -0.08425458 0.006836028
-0.0937103 -0.037261862 -0.13998692 0.044319313 -0.024985075 -0.06572898 0.121731006 -0.10364539
0.109834425 0.0077957734 0.03655258 -0.08442119 -0.026385317 -0.0968395 -0.0016523674 0.12859426
-0.13046019 0.10644187 -0.09215911 0.0857023 -0.026218407 -0.006956403 -0.09388324 -0.10571444
-0.03885367 -0.10717258 -0.12121508 0.08474801 -0.08009676 0.10468325 0.050111447 -0.089536734
0.09635574 0.1106937 -0.011809197 -0.06561795 0.018439291 -0.13940735 0.06326234 0.016815832
0.047328774 0.008290033 0.1300991 -0.016193101 -0.12892736 -0.041412268 -0.06254202 0.040696133
-0.089278586 0.023709048 -0.015488969 0.0122224055 0.036678743 -0.027312005 -0.1293285 -0.054561142
-0.09155288 0.11276426 -0.01143135 -0.11397152 0.102712534 -0.009273083 0.0053170226 0.08241069
0.04718061 0.00095959543 0.13107136 -0.11211928 0.10077332 -0.086416066 -0.04059244 -0.06438064
-0.10410341 0.078307904 -0.10869573 0.09273453 -0.12861066 -0.12437438 -0.09546923 -0.070710205
0.09601175 -0.070354156 -0.14107506 0.00935333 -0.048951305 -0.060313176 -0.100960396 -0.06627544
0.06934599 0.10538713 -0.091105826 -0.13754214 0.012481826 0.0513045 0.13851431 0.022291541
0.116520725 -0.10262925 -0.05941685 -0.006872072 0.109008126 0.12746441 -0.016307428 -0.104105026
-0.06180731 -0.09093187 -0.006523177 0.0045884554 0.0137933185 0.07445489 -0.1433015 0.11176748
0.04273708 -0.019509401 -0.0477039 -0.13702077 -0.024628274 -0.01936922 -0.115338646 0.02246725
0.03350706 0.10061319 0.036382448 0.068352655 -0.08816451 0.051397573 0.11516559 -0.04307281
0.12843932 -0.12590028 0.07987383 -0.09144399 -0.07287702 -0.03198621 -0.024146905 -0.05705187
-0.050142847 -0.12220109 -0.042245116 -0.112834044 0.08935457 -0.07924269 0.024917977 0.03928893
0.025703574 -0.093302384 0.13529794 -0.079492904 0.03716106 -0.0442341 0.111781895 0.11852928
-0.014547555 0.09260229 0.121338926 -0.09839109 0.056015562 -0.01296338 0.0039404547 -0.00914817
0.0826388 -0.121885985 -0.13619806 -0.08960504 0.12503992 0.046936966 0.003739932 0.0013987838
-0.13666166 0.11221602 -0.006613469 0.057216357 -0.099722646 0.13400166 -0.056283068 0.010578495
0.13136382 -0.13570015 -0.036214255 0.04850624 -0.09986134 0.1394454 -0.08499308 0.008631298
0.10784812 -0.00587187 0.09035552 0.044606764 -0.05272092 0.05544194 0.030935356 -0.090354025
0.06476624 0.0931421 0.05982371 -0.11788147 -0.1310412 -0.15258862 -0.04865768 -0.11473027
0.0067914147 0.061248932 -0.10502135 0.08936371 -0.015600472 0.091252595 0.058999125 0.11521244
0.057884526 -0.060409885 0.13898258 0.059256937 0.014517644 0.031196695 -0.015873559 0.041800003
00000000: a36c 27bd 7ddb babd c5e6 9b3d bc5d 50bc
00000010: 5261 bc3d 0114 9a3c 6508 083e af4a a83b
00000020: 862e acbd 71e6 d4bc 9962 cd3b b07e 1a3d
00000030: f3dd 513c 31b4 3e3d 791d 1ebe 7b2a be3d
00000040: 3213 143d 2904 b3bd f36f 1a3d f980 55bd
00000050: bb6f ebbd ccbc a23d 4d4b 2c3a d547 8cbd
00000060: b99e a83b 7ed0 82bd 9843 8c3d dbc7 efbd
00000070: 1e85 8ebd 22d3 bbbd 5786 f9bd f20e 0dbe
00000080: 09a5 593d a517 11be 23b2 c73b d14f f73d
00000090: 71dc c0bd e15e 813d aa8d acbd c200 e03b
000000a0: 30eb bfbd e59f 18bd bb58 0fbe 2b88 353d
000000b0: 80ad ccbc ea9c 86bd 1b4e f93d 0944 d4bd
000000c0: dff0 e03d b073 ff3b 28b8 153d 04e5 acbd
000000d0: 0526 d8bc ca53 c6bd 4094 d8ba 37ae 033e
000000e0: 5b97 05be 32fe d93d eabd bcbd b084 af3d
000000f0: fcc7 d6bc 8af2 e3bb db45 c0bd d080 d8bd
00000100: 0725 1fbd 4c7d dbbd 9d3f f8bd 5d90 ad3d
00000110: c509 a4bd 2c64 d63d a941 4d3d 095f b7bd
00000120: 2956 c53d 61b3 e23d 5d7b 41bc b462 86bd
00000130: ff0d 973c cdc0 0ebe b08f 813d 5bc1 893c
00000140: d1db 413d ebd2 073c b338 053e 65a7 84bc
00000150: 8905 04be e99f 29bd 0816 80bd fdb0 263d
00000160: b1d7 b6bd 7a39 c23c 72c5 7dbc 7c40 483c
00000170: 733c 163d 6dbd dfbc b16e 04be 817b 5fbd
00000180: 1480 bbbd f3f0 e63d 8f4a 3bbc e669 e9bd
00000190: f35a d23d 21ee 17bc 6b3a ae3b f0c6 a83d
000001a0: 7540 413d 5c8d 7b3a 9237 063e cb9e e5bd
000001b0: 3e62 ce3d e8fa b0bd 4244 26bd ffd9 83bd
000001c0: 2b34 d5bd e55f a03d de9b debd 9aeb bd3d
000001d0: 83b2 03be ffb7 febd 5f85 c3bd 83d0 90bd
000001e0: cfa1 c43d d715 90bd fb75 10be b63e 193c
000001f0: 2a81 48bd f30a 77bd 53c4 cebd 6bbb 87bd
00000200: 4505 8e3d 35d5 d73d b195 babd d9d7 0cbe
00000210: 9380 4c3c ab24 523d b2d6 0d3e c09c b63c
00000220: 6ba2 ee3d 492f d2bd 155f 73bd 1e2f e1bb
00000230: a73f df3d 0886 023e 2897 85bc 0435 d5bd
00000240: a929 7dbd 7d3a babd 60c0 d5bb c15a 963b
00000250: 5ffd 613c ce7b 983d a1bd 12be 59e6 e43d
00000260: 140d 2f3d 2ed2 9fbc 2a65 43bd 2c4f 0cbe
00000270: 3cc1 c9bc 33ac 9ebc ab36 ecbd 3d0d b83c
00000280: b33e 093d 4a0e ce3d c305 153d 7afc 8b3d
00000290: 988f b4bd 4386 523d f0db eb3d 1d6d 30bd
000002a0: 9985 033e 01ec 00be e494 a33d fd46 bbbd
000002b0: 8c40 95bd f903 03bd bbcf c5bc 39af 69bd
000002c0: 9662 4dbd 9144 fabd 3709 2dbd 8915 e7bd
000002d0: 87ff b63d fe49 a2bd c920 cc3c 6eed 203d
000002e0: 4d90 d23c 5215 bfbd 8b8b 0a3e 2dcd a2bd
000002f0: 3236 183d d12e 35bd e8ed e43d 7bbf f23d
00000300: de58 6ebc 45a6 bd3d 8b80 f83d 4581 c9bd
00000310: 9370 653d 5b64 54bc ee1e 813b 35e2 15bc
00000320: 883e a93d 5c9f f9bd 8177 0bbe d982 b7bd
00000330: 770a 003e fa40 403d a619 753b 6557 b73a
00000340: 09f1 0bbe 83d1 e53d cdb5 d8bb b35b 6a3d
00000350: 633b ccbd bb37 093e 1389 66bd 6d51 2d3c
00000360: 3d84 063e fbf4 0abe 6655 14bd 7bae 463d
00000370: 1a84 ccbd c6ca 0e3e da10 aebd 4a6a 0d3c
00000380: 7adf dc3d d168 c0bb 510c b93d 95b5 363d
00000390: e4f1 57bd 1617 633d 256c fd3c 880b b9bd
000003a0: 2aa4 843d 49c1 be3d b509 753d d76b f1bd
000003b0: aa2f 06be 3140 1cbe 474d 47bd b4f7 eabd
000003c0: 848a de3b 29e0 7a3d 6f15 d7bd 5204 b73d
000003d0: 1f99 7fbc a4e2 ba3d 11a9 713d 80f4 eb3d
000003e0: 5318 6d3d 5b70 77bd 7351 0e3e 67b7 723d
000003f0: 6adb 6d3c 3690 ff3c 4409 82bc 7b36 2b3d

fc3.bias f4 [13]
0.037435085 -0.15078963 0.117522985 -0.016177498 -0.028127132 -0.03896325 0.035187658 -0.0922155
-0.09000004 0.07211219 -0.09703739 0.05813791 0.066736914
00000000: 8855 193d 9968 1abe e4af f03d ac86 84bc
00000010: df6a e6bc ee97 1fbd ef20 103d 7bdb bcbd
00000020: f151 b8bd 8eaf 933d 8abb c6bd 0422 6e3d
00000030: 5dad 883d
