TorchModels/DeepQtrader42.pt (torch, 25047 bytes, 6 tensors)

fc1.weight f4 [50, 50]
0	0xbdfe9777	-0.124312334
1	0xbe09dc25	-0.13462885
2	0xbde3bd12	-0.11120047
3	0x3c26b315	0.010174532
4	0x3c90a5e9	0.017657237
5	0xbe075a19	-0.13217963
6	0x3d05a60a	0.03262905
7	0x3d239159	0.039933536
8	0x3c84f3da	0.016229559
9	0x3d469608	0.048482925
10	0x3d5f23ea	0.05447761
11	0xbd3c47a2	-0.045966752
12	0x3cce5c7d	0.025190586
13	0xbdd05a13	-0.1017343
14	0x3dad7044	0.084686786
15	0x3c8187e7	0.015811874
16	0x3deaf1e4	0.11471918
17	0x3dcfb30d	0.10141573
18	0xbd495a10	-0.049158156
19	0xbe01b04a	-0.12664905
20	0xbd8d272d	-0.06892238
21	0xbd1ad081	-0.0377965
22	0xbdfd5e10	-0.123714566
23	0x3d9661cf	0.07342874
24	0xbdae3c49	-0.08507592
25	0xbdb1b2d1	-0.08676685
26	0xbdacfca2	-0.084466234
27	0x3df3a426	0.11896543
28	0xbd67649d	-0.056492437
29	0xbe0d9813	-0.13827543
30	0x3df80faf	0.121123664
31	0xbd89d2b5	-0.06729642
32	0x3da8a9b8	0.08235496
33	0xbc2d3778	-0.010572307
34	0xbdc5d640	-0.096600056
35	0xbd298b59	-0.041392658
36	0xbe0e30d7	-0.13885818
37	0x3da68350	0.081305146
38	0xbd39e6c8	-0.045386106
39	0xbd664571	-0.05621857
40	0xbdd1bbf1	-0.10240925
41	0x3d11a046	0.03555324
42	0xbe0c3715	-0.13692887
43	0xbdd093be	-0.101844296
44	0xbd122e83	-0.03568889
45	0x3d0992ba	0.033587195
46	0x3dba55a0	0.09098363
47	0x3ddc6123	0.10760715
48	0xbd11cfa1	-0.0355984
49	0xbd1d5c55	-0.038418133
50	0x3b713636	0.0036805994
51	0x3d91a3ce	0.071113214
52	0xbdb5089f	-0.08839535
53	0x3d1b73c9	0.03795222
54	0x3d4bd56d	0.049764086
55	0x3d3c5ed9	0.04598889
56	0xbdcaa818	-0.098953426
57	0xbdb85bbc	-0.09001872
58	0xbdc37fa1	-0.09545828
59	0x3d24940c	0.04018025
60	0x3ceb4851	0.028721007
61	0x3c6ef688	0.014585145
62	0x3dc759f9	0.09733958
63	0xbd5f2b12	-0.054484434
64	0xbd296dde	-0.041364543
65	0x3e0d8a8e	0.13822386
66	0xbe0c4557	-0.13698326
67	0xbd573f83	-0.052550804
68	0x3dc1d936	0.09465258
69	0xbde617fe	-0.11235045
70	0xbda887f6	-0.082290575
71	0x3db5f198	0.08883971
72	0xbd6b0e03	-0.05738641
73	0x3e0e3693	0.13888006
74	0x3de7d2cf	0.113195054
75	0xbcb179e0	-0.02166456
76	0xbd4b844e	-0.049686722
77	0x3e0f1234	0.13971788
78	0xbdf5cf3f	-0.1200242
79	0xbe0a0283	-0.1347752
80	0xbd606ed1	-0.054793183
81	0xbdc3a72e	-0.09553371
82	0x3cb6909a	0.022285748
83	0xbd751ebf	-0.059843775
84	0xbc6aac8b	-0.014323364
85	0x3e057109	0.130314
86	0xbdeec381	-0.11658383
87	0xbdaa94d8	-0.08329171
88	0x3ddf4c57	0.109032325
89	0x3e10dc54	0.14146549
90	0xbdbde455	-0.092720665
91	0x3ddc1d9f	0.10747837
92	0x39811d6f	0.00024626727
93	0xbdbaffd9	-0.0913083
94	0xbd1e9ed0	-0.038725674
95	0x3d3b6c39	0.045757506
96	0x3d442296	0.047884546
97	0x3e070ab9	0.13187684
98	0x3d5bb7e4	0.05364217
99	0x3dd5e19b	0.104434215
100	0xbc8af1fe	-0.016961094
101	0xbc3e93cd	-0.011631918
102	0x3e16267f	0.14663123
103	0xbdd2b600	-0.1028862
104	0xbd4a71de	-0.049425
105	0x3dc9e058	0.09857243
106	0x3b4bd176	0.003110019
107	0xbe07c776	-0.13259682
108	0x3e046417	0.12928806
109	0xbc6c70e0	-0.014431208
110	0xbdc5d99d	-0.09660647
111	0xbdc42a04	-0.09578326
112	0xbde6b865	-0.11265639
113	0x3dd9d602	0.10636522
114	0xbdb52af8	-0.08846086
115	0xbc377b76	-0.011198869
116	0xbaaf7b44	-0.0013388176
117	0xbda7a533	-0.08185806
118	0xbcb92a84	-0.02260328
119	0xbde225cc	-0.110423654
120	0xbd9bc2bb	-0.07605501
121	0x3db6ce5b	0.08926078
122	0x3dc85ff2	0.09783925
123	0xbe029c69	-0.12754978
124	0x3df80495	0.12110249
125	0x3dd938ff	0.10606574
126	0xbdef3d21	-0.11681581
127	0x3cc8ed34	0.02452717
128	0xbdf3e2a7	-0.11908465
129	0xbd8dc17a	-0.06921668
130	0xbdc5b0d9	-0.09652872
131	0x3ca09d7a	0.01960634
132	0x3d1e9c25	0.03872313
133	0x3dfa2499	0.12214012
134	0x3b9bd393	0.004755446
135	0xb996ee89	-0.00028787952
136	0x3d89bcae	0.06725441
137	0x3db2cc30	0.08730352
138	0xbd2f366e	-0.042776518
139	0x3df12fd5	0.11776701
140	0x3dd30617	0.10303896
141	0xbdf2da87	-0.11858087
142	0xbc94a8c2	-0.018146876
143	0xbdd180ac	-0.1022962
144	0x3e06b8cd	0.13156433
145	0x3e052059	0.13000621
146	0x3e0179b8	0.12644088
147	0x3cdc6470	0.026903361
148	0x3dab4df8	0.08364481
149	0xbb3931ff	-0.002825856
150	0x3d99b644	0.075054675
151	0xbd48667c	-0.04892586
152	0x3d9eb35f	0.07749056
153	0x3e0a8466	0.13527068
154	0xbe031dcd	-0.12804337
155	0x3dfe7d5f	0.124262564
156	0x3b9e9bd2	0.0048403526
157	0xbd4671ed	-0.04844849
158	0xbdf5f90e	-0.12010394
159	0x3daa4932	0.08314742
160	0xbdc8cfeb	-0.09805282
161	0x3bfe16d1	0.007754185
162	0x3dcc9307	0.09988981
163	0x3d631d11	0.05544764
164	0xbd50997b	-0.05092762
165	0xbb9d1aca	-0.0047944533
166	0x3d4e23e0	0.05032718
167	0xbdded713	-0.10880866
168	0xbd9773b4	-0.073951155
169	0xbbf14a84	-0.0073636193
170	0x3cf17334	0.029473878
171	0x3d5603e4	0.052249804
172	0x3d41b345	0.047290105
173	0x3b9c77d7	0.004775028
174	0xbcb6c1a2	-0.022309128
175	0x3d800a45	0.06251959
176	0xbdd58f7a	-0.104277566
177	0x3d32ff1f	0.043700334
178	0xbd983070	-0.07431114
179	0xbdcd0b17	-0.10011881
180	0x3dab97a9	0.08378536
181	0xbdce945a	-0.100868896
182	0xbd5e2d65	-0.05424251
183	0xbdc32e64	-0.09530333
184	0x3d1d2f66	0.03837528
185	0xbb9b52ff	-0.0047401185
186	0x3db588f1	0.0886401
187	0xbd788a32	-0.06067867
188	0xbd140407	-0.036136653
189	0xbdb25c51	-0.08709014
190	0x3c4c17e1	0.012456865
191	0xbe083dcd	-0.13304825
192	0xbe023ff7	-0.12719713
193	0xbd95ef08	-0.07320982
194	0x3d9587df	0.07301306
195	0x3cbd6d99	0.02312355
196	0xbd71bfbb	-0.05902074
197	0xbd5c3b03	-0.053767215
198	0x3da62368	0.08112222
199	0x3d8ba2d7	0.068181686
200	0xbc738af7	-0.014864675
201	0x3e01805f	0.12646626
202	0x3d9989d3	0.07496991
203	0x3dd060df	0.10174727
204	0x3df43374	0.119238764
205	0xbdc2c550	-0.095102906
206	0xbde36d6f	-0.11104857
207	0xbd7ae523	-0.061253678
208	0xbdf91f41	-0.12164164
209	0xbc818744	-0.01581157
210	0x3e073930	0.13205409
211	0xbe02b3c1	-0.12763883
212	0x3db4f67a	0.08836074
213	0xbd605e8b	-0.054777663
214	0x3c7bda8c	0.01537193
215	0x3d9badf5	0.07601539
216	0x3e1040ae	0.14087173
217	0xbd46a012	-0.0484925
218	0x3dcb2dc8	0.099208415
219	0x3d992f34	0.074797064
220	0x3d735956	0.05941137
221	0x3e006fb1	0.12542607
222	0x3d88665c	0.066601485
223	0xbde17e92	-0.110104695
224	0x3be5eed5	0.0070169964
225	0xbdd9667d	-0.10615251
226	0x3bbf7414	0.005842695
227	0xbdc6428d	-0.09680662
228	0xbd9648ba	-0.0733809
229	0x3d51e078	0.05123946
230	0x3c830a24	0.015996046
231	0x3b02e588	0.0019973237
232	0xbcc691f9	-0.024239527
233	0xbde65109	-0.11245925
234	0xbd8ab820	-0.067734
235	0xbdc1db6c	-0.094656795
236	0xbc036d10	-0.008021608
237	0xbd12065e	-0.035650603
238	0xbdfdaa79	-0.12386031
239	0x3d07dbf1	0.033168737
240	0xbd91590d	-0.07097063
241	0xbccc4359	-0.024934458
242	0xbe04c02d	-0.12963934
243	0xbcd94091	-0.026520045
244	0xbc9d322f	-0.019188968
245	0x3d238fe5	0.03993215
246	0xbd62bced	-0.055355955
247	0xbd828f07	-0.063749366
248	0x3a82d98b	0.0009983046
249	0x3d49e4ef	0.049290594
250	0x3dca2124	0.09869602
251	0x3da891d1	0.08230937
252	0x3db2a857	0.087235145
253	0xbd88349b	-0.06650659
254	0xbd3babef	-0.045818266
255	0x3d8fb2e6	0.07016544

fc1.bias f4 [50]
0	0xbd7f8ed8	-0.062392086
1	0xbdda8f78	-0.10671896
2	0x3da4541b	0.08023854
3	0x3dd4aa50	0.10384047
4	0x3db2cb38	0.08730167
5	0x3e01cf64	0.1267677
6	0x3dcfc20d	0.10144434
7	0xbe0b2e6d	-0.13591929
8	0xbdd6d590	-0.104899526
9	0xbc674eb6	-0.014117887
10	0x3e03bc81	0.12864877
11	0x3b7ffa71	0.0039059187
12	0xbc1589f2	-0.009127127
13	0x3da6dd8c	0.081477255
14	0x3e05f7db	0.1308283
15	0x3d12399b	0.035699468
16	0x3d4923c0	0.04910636
17	0x3e031375	0.12800391
18	0xbd05b590	-0.032643855
19	0xbd8139d3	-0.06309857
20	0x3dd5cfa0	0.10439992
21	0x3c89ed91	0.016836913
22	0xbdc9a978	-0.09846777
23	0xbded3445	-0.11582235
24	0xbcd96934	-0.026539423
25	0xbdd4d172	-0.10391511
26	0xbcc63e0d	-0.02419951
27	0x3d9f6e02	0.07784654
28	0x3c465e10	0.012107387
29	0xbd283698	-0.04106769
30	0x3dc8d493	0.0980617
31	0x3d070650	0.032965004
32	0xbb853a70	-0.004065804
33	0xbdaa37f8	-0.083114564
34	0xbdbe4a4a	-0.09291513
35	0x3c96d3c6	0.018411528
36	0x3d6c80b1	0.057739917
37	0x3da6b8cb	0.08140715
38	0xbd27071d	-0.040778268
39	0xbd6f2df2	-0.058393426
40	0xbd83eaf1	-0.06441296
41	0xbd0aa74a	-0.033850946
42	0xbd9dbf93	-0.077025555
43	0x3da8e735	0.08247224
44	0x3cfb724a	0.030694146
45	0xbe0d2d63	-0.13786845
46	0x3ca3b212	0.019982371
47	0x3d978444	0.073982745
48	0xbdfadfed	-0.12249742
49	0x3d8a8074	0.06762782

fc2.weight f4 [50, 50]
0	0xbd6a0bfd	-0.05714034
1	0xbbcd1e8d	-0.0062597455
2	0x3dab52d0	0.083654046
3	0xbdf23e43	-0.11828282
4	0xbdce13c8	-0.10062367
5	0xbce35b6c	-0.027753554
6	0xbdbe9293	-0.093053006
7	0xbde1373a	-0.10996862
8	0xbd0f4c7f	-0.03498506
9	0x3d47719d	0.048692334
10	0x3dcdfc04	0.10057834
11	0x3ccc00a1	0.024902644
12	0x3e0b6d21	0.13615848
13	0x3d20b6f8	0.039236993
14	0xbdee2086	-0.11627297
15	0xbdbb8138	-0.09155506
16	0xbdc25e66	-0.09490661
17	0xbd7e6d75	-0.062116105
18	0x3de903cb	0.113776766
19	0xbe0d8d02	-0.13823321
20	0xbd893ea4	-0.06701401
21	0x3d2ade5a	0.041715957
22	0xbc4e6cc2	-0.012599172
23	0xbdd4a1e8	-0.10382444
24	0xbdacfa05	-0.08446125
25	0x3dc1870b	0.094495855
26	0x3db0d160	0.08633685
27	0xbd94f89b	-0.0727398
28	0xbd833775	-0.06407062
29	0x3d9dd766	0.077070996
30	0x3bd8015c	0.006591959
31	0x3a8fe11e	0.0010977124
32	0x3da54b65	0.08071021
33	0xbdbcd1d2	-0.092197075
34	0xbce4fdb3	-0.027953004
35	0xbe02ed15	-0.12785752
36	0x3cfca8f5	0.030842284
37	0x3d03a2a1	0.032137517
38	0x3d0fdc7a	0.035122372
39	0x3dc6ac73	0.09700861
40	0xb9139858	-0.00014075765
41	0xbd98504e	-0.07437192
42	0xba1329b8	-0.00056138216
43	0xbd95b24c	-0.07309398
44	0x3e0f5d91	0.14000537
45	0xbc7bd9ad	-0.015371722
46	0xbb51f9e1	-0.0032039809
47	0x3d44d5e3	0.04805554
48	0x3d9f8368	0.07788736
49	0x3cd5ef64	0.026115127
50	0x3da72b14	0.081625134
51	0x3df725a8	0.12067729
52	0x3dd1c7d1	0.1024319
53	0xbde6ab30	-0.1126312
54	0x3c12797f	0.0089401
55	0xbe09e883	-0.13467602
56	0x3da3f0d1	0.080049165
57	0x3d781c26	0.06057372
58	0x3ce12516	0.027483504
59	0xbd5029f9	-0.05082128
60	0x3ddd51a7	0.108065896
61	0xbe0654d0	-0.13118291
62	0x3dbbf289	0.09177119
63	0x3dce2f70	0.10067642
64	0xbd8fc27a	-0.07019515
65	0xbcb64a0d	-0.022252107
66	0x3d928f78	0.07156271
67	0xbcada367	-0.02119608
68	0xbd8e44ed	-0.0694674
69	0x3ca403c6	0.02002133
70	0x3df316c4	0.118695766
71	0x3dadeadc	0.084920615
72	0x3df69736	0.1204056
73	0x3d048c61	0.03236044
74	0x3cc3777c	0.023860686
75	0xbe02b02c	-0.12762517
76	0xbdbf70ad	-0.09347663
77	0xbdef4039	-0.116821714
78	0x3cbda29b	0.023148825
79	0x3d859f7d	0.065245606
80	0x3ddd05e0	0.10792136
81	0xbe045374	-0.1292246
82	0x3db41c58	0.08794469
83	0xbcf20dc5	-0.029547581
84	0xbc78d4f4	-0.015187491
85	0xbd9ef644	-0.07761815
86	0x3d2f764f	0.042837437
87	0x3dda5cbe	0.106622204
88	0x3e04ce85	0.12969406
89	0x3df80498	0.12110251
90	0x3d84e8a5	0.06489686
91	0xbd2a0ec4	-0.041517988
92	0xbd922f23	-0.07137897
93	0xbe0eab6b	-0.13932578
94	0x3ce121cf	0.027481942
95	0xbe0f7f43	-0.1401339
96	0xba746d5e	-0.00093241583
97	0xbcbb4d23	-0.02286393
98	0x3dc77160	0.097384214
99	0x3d4508aa	0.048103966
100	0xbe0077d0	-0.12545705
101	0xbd9db599	-0.07700653
102	0xbcbb1a77	-0.022839768
103	0xbddf6598	-0.10908049
104	0xbd71bb9d	-0.059016813
105	0x3e0f09bd	0.13968559
106	0x3d7f94c2	0.062397726
107	0x3dbd8242	0.0925336
108	0xbd44792e	-0.04796713
109	0xbd9e2be3	-0.077232145
110	0xbc92b6fd	-0.017909521
111	0xbd93bbc5	-0.072135486
112	0x3e02b093	0.1276267
113	0x3d18fb8a	0.03734926
114	0x3a14a443	0.0005670229
115	0x3d698208	0.057008773
116	0x3d4a5a65	0.049402613
117	0xbdbdf536	-0.09275286
118	0x3c88f0f5	0.01671646
119	0xbc9f40ba	-0.019440044
120	0xbd7c0b79	-0.06153438
121	0xbe03a386	-0.12855348
122	0xbe0c3477	-0.13691889
123	0x3ddbf6ce	0.10740434
124	0xbdfbf2e2	-0.123021856
125	0xbdf0a5b5	-0.11750356
126	0xbdf7ebdb	-0.12105533
127	0x3d67b90e	0.056572966
128	0x3dc1e01d	0.09466574
129	0xbd5d679f	-0.0540539
130	0xbd5f5c1f	-0.054531213
131	0x3d4f6576	0.05063387
132	0xbd087200	-0.033311844
133	0x3dd3b1cc	0.103366464
134	0x3e0ed852	0.13949707
135	0x3d6ecfdc	0.0583037
136	0x3de0752e	0.1095985
137	0xbb91604e	-0.0044365292
138	0x3d918903	0.07106211
139	0xbe0f51e6	-0.13996086
140	0xbb7f1509	-0.003892245
141	0x3dd0f28e	0.10202514
142	0x3dd522c5	0.104070224
143	0xbc583a48	-0.013197489
144	0xbdd1eee2	-0.102506414
145	0x3de1a16a	0.110171154
146	0xbd8e1c78	-0.06939024
147	0x3dfa5349	0.12222917
148	0xbd7fa4da	-0.062413074
149	0x3dccd324	0.100012094
150	0x3d57d6fe	0.052695267
151	0x3dad4201	0.08459855
152	0xbc83bf8d	-0.01608255
153	0xbdfed209	-0.12442405
154	0x3d9c68ad	0.07637153
155	0x3e139396	0.14411768
156	0x3cd9e82c	0.026599966
157	0x3db91577	0.09037297
158	0xbd5453de	-0.051837794
159	0xbe0a6441	-0.13514806
160	0xbdb0b90c	-0.08629045
161	0x3ccd403b	0.025055042
162	0x3e11d136	0.14239964
163	0x3d2d056c	0.0422415
164	0x3d20fc7d	0.03930329
165	0xbcadf3d6	-0.021234434
166	0xbce07940	-0.027401567
167	0x3d3c2e4b	0.045942586
168	0x3dd7c426	0.10535459
169	0x3da0a2c4	0.07843545
170	0x3e126916	0.142979
171	0x3ce16f88	0.027519003
172	0x3dd7ca33	0.10536613
173	0xbd89328a	-0.06699093
174	0xbcab4ad7	-0.02090971
175	0x3cb1edb3	0.02171979
176	0x3cb192dd	0.021676475
177	0x3b6bbdfd	0.0035971396
178	0xbc00636c	-0.007836204
179	0x3cdd4bcb	0.02701368
180	0xbbc7244b	-0.0060773245
181	0x3cfd68c2	0.030933741
182	0xbb43746f	-0.0029824039
183	0xbd3a6b20	-0.04551232
184	0xbd84c48e	-0.06482802
185	0x3de2a46a	0.11066516
186	0xbdb7c3b1	-0.08972872
187	0xbd9352d9	-0.07193536
188	0x3d5b0628	0.053472668
189	0xbd3e4fdf	-0.04646289
190	0xbe10b795	-0.14132531
191	0xbdec5120	-0.11538911
192	0x3d778471	0.06042904
193	0x3e0973f1	0.13423134
194	0xbe036d4f	-0.12834667
195	0x3d8a3a79	0.06749434
196	0xbc25f5e7	-0.0101294285
197	0xbd03cf4f	-0.032180127
198	0x3c460384	0.012085799
199	0xbdfe5a68	-0.124195874
200	0xbda72d66	-0.08162956
201	0x3d0a35a9	0.03374258
202	0x3e099237	0.13434683
203	0x38c8bc0d	9.57177e-05
204	0x3dc2c40a	0.09510048
205	0x3e006df3	0.12541942
206	0xbd7b1428	-0.06129852
207	0x3ce7ce59	0.028296636
208	0x3cbadeca	0.022811312
209	0x3d5316d0	0.051535428
210	0xbbd41ec1	-0.0064733927
211	0x3deaf1d5	0.11471907
212	0x3d84472e	0.06458889
213	0xbd4eefa6	-0.050521515
214	0xbbe416a2	-0.006960706
215	0xbdec03e0	-0.115241766
216	0x3d241bf1	0.04006571
217	0x3d540c1c	0.05176936
218	0x3def7438	0.11692089
219	0xbe01be0e	-0.12670156
220	0xbd95201b	-0.07281514
221	0x3d002fad	0.031295467
222	0x3d81b514	0.06333366
223	0x3d4d7d87	0.05016854
224	0xbe1450c8	-0.1448394
225	0x3e0544e2	0.13014558
226	0xbd1d5bcd	-0.038417626
227	0xbded5f2b	-0.115904175
228	0xbdc42c00	-0.09578705
229	0xbe014c69	-0.12626804
230	0xbd114c60	-0.035473228
231	0xbd3e2c32	-0.046428867
232	0xbd134c83	-0.03596164
233	0xbc87a476	-0.016557913
234	0xbd672edd	-0.056441177
235	0xbda8decb	-0.082456194
236	0xbe087787	-0.13326846
237	0xbd65b569	-0.05608121
238	0x3ca1a985	0.019734154
239	0xbde257e5	-0.11051921
240	0xbdb27ca5	-0.0871518
241	0xbd2a95e5	-0.041646857
242	0xbd59f865	-0.053215403
243	0xbcb67199	-0.022270964
244	0x3d0a3de1	0.03375042
245	0x3de7289b	0.11287042
246	0x3dcf85bf	0.10132932
247	0x3df73ea1	0.120724924
248	0x3e00192f	0.12509607
249	0x3d7c404b	0.061584752
250	0x3d360a92	0.044443674
251	0x3ded1c4e	0.11577664
252	0xbe0c1165	-0.1367851
253	0x3daebb3f	0.08531808
254	0x3c83646f	0.016039101
255	0x3c1140b8	0.008865528

fc2.bias f4 [50]
0	0x3e086532	0.13319853
1	0xbd07e9b2	-0.033181854
2	0xbde1870c	-0.11012086
3	0xbce735ca	-0.02822389
4	0xbbc21a60	-0.0059235543
5	0xbd292c6e	-0.041302137
6	0x3d909eb4	0.0706152
7	0x3e007a39	0.12546624
8	0xbc7de8c8	-0.015497394
9	0xbdc1b231	-0.094578154
10	0xbe04a882	-0.12954906
11	0xbde40790	-0.11134255
12	0xbe090820	-0.13382006
13	0xbd838219	-0.064212985
14	0x3e00fc19	0.12596168
15	0x3d9a7e8b	0.075436674
16	0xbdd1b169	-0.102389164
17	0xbdc5f308	-0.09665495
18	0xbda87fde	-0.08227514
19	0xbdcdb7ac	-0.10044798
20	0xbd4542aa	-0.04815928
21	0xbe028a8a	-0.12748161
22	0xbdee2239	-0.11627621
23	0x3ce289b9	0.027653562
24	0x3d93c782	0.072157875
25	0xbdba0db9	-0.09084649
26	0x3df72f3c	0.12069556
27	0x3d9fe0ec	0.07806572
28	0xbd02e76b	-0.03195898
29	0x3ddc884b	0.10768183
30	0xbd9e3aa4	-0.077260286
31	0x3d80dfa9	0.0629266
32	0xbcda7c04	-0.026670463
33	0xbe064944	-0.13113886
34	0xbcd630be	-0.026146289
35	0xbd894c33	-0.06703987
36	0xbd88311f	-0.06649994
37	0x3d8434ab	0.06455358
38	0x3d6f9711	0.058493678
39	0xbdf25f3d	-0.118345715
40	0xbda19183	-0.07889082
41	0x3de2f6b8	0.11082214
42	0x3dc1486b	0.09437641
43	0x3d3f3255	0.04667886
44	0xbd8380de	-0.06421064
45	0x3c5ddc9e	0.013541369
46	0xbc9ac1f4	-0.018891312
47	0xbd625155	-0.055253346
48	0xbcf0df8b	-0.029403469
49	0x3daeb26c	0.08530125

fc3.weight f4 [13, 50]
0	0x3d10261a	0.035192586
1	0x3d3f3733	0.0466835
2	0xbde6f632	-0.11277427
3	0x3e030575	0.1279505
4	0x3dba327f	0.090916626
5	0x3dbc577e	0.09196375
6	0x3b3cb7ca	0.002879607
7	0xbdf9232c	-0.12164912
8	0xbdefa214	-0.11700836
9	0x3c61f15d	0.013790456
10	0x3dea3721	0.11436296
11	0x3dc44bba	0.09584756
12	0xbd3ab4c1	-0.045582537
13	0xbdfbbd5b	-0.12291976
14	0xbe0d103e	-0.13775727
15	0x3c2197bd	0.009862837
16	0x3e03bd00	0.12865067
17	0x3e0c63d5	0.13709958
18	0xbde874a6	-0.11350374
19	0xbd3a98e3	-0.04555596
20	0x3dbb9b2e	0.091604576
21	0xbb97dc85	-0.0046344423
22	0xbc84ab31	-0.016194912
23	0x3d61229e	0.054964654
24	0xbd6c467d	-0.05768441
25	0x3d96a434	0.07355538
26	0x3d3fe198	0.046846002
27	0xbdce93fe	-0.10086821
28	0xbddd2188	-0.10797411
29	0xbd347449	-0.04405621
30	0x3cc7ecea	0.024404962
31	0x3d13b478	0.03606078
32	0x3c478677	0.012178055
33	0x3b993a4b	0.0046761385
34	0xbd49ebd7	-0.04929718
35	0xbd54bb5d	-0.051936496
36	0x3d77bc3c	0.06048225
37	0x3ca1929b	0.019723227
38	0x3d5f3888	0.05449727
39	0x3d0d401c	0.034484968
40	0xbde494d8	-0.11161202
41	0xbdd0b10f	-0.10190021
42	0x3d577af7	0.052607503
43	0x3dc53db5	0.0963091
44	0x3dcbf153	0.09958138
45	0xbd5f905d	-0.054581035
46	0xbd92da5f	-0.07170557
47	0xbcefc548	-0.029268876
48	0xbd0ece95	-0.03486498
49	0x3de40214	0.11133209
50	0xbdea9841	-0.114548214
51	0x3da4fc31	0.08055914
52	0xbd95e7b7	-0.07319587
53	0x3e0b3606	0.13594827
54	0xbd328a15	-0.043588717
55	0xbdce37e9	-0.10069258
56	0x3d28cb30	0.0412094
57	0xbdfbf68d	-0.12302885
58	0xbced5f72	-0.028976176
59	0xbdd66720	-0.10468888
60	0x3d45f92e	0.04833334
61	0xbde86e85	-0.11349205
62	0x3d37c00e	0.044860892
63	0xbd83737c	-0.06418511
64	0xbdb4b569	-0.08823664
65	0xbd656882	-0.05600787
66	0x3dd58509	0.10425765
67	0xbba120c0	-0.004917234
68	0x3bf4adae	0.0074669933
69	0xbd4f6822	-0.05063642
70	0xbdd291b8	-0.102817
71	0x3e0a4463	0.1350265
72	0x3d6e1070	0.058121145
73	0xbb5c6692	-0.0033630473
74	0xbe044137	-0.12915502
75	0x3ca24484	0.019808061
76	0x3d49f34d	0.049304295
77	0x3de74171	0.11291779
78	0xbd475142	-0.048661478
79	0xbdd052b3	-0.101720236
80	0xbb485496	-0.0030567995
81	0xbbf4d6df	-0.0074719037
82	0x3df8965b	0.12138053
83	0x3e07d439	0.1326455
84	0xbc703074	-0.01465999
85	0xbc85270f	-0.016253976
86	0xbcf96a1c	-0.030446105
87	0xbd918133	-0.07104721
88	0x3e05ad76	0.13054451
89	0xbd27813c	-0.040894732
90	0xbd602dfb	-0.05473135
91	0xbc33bce1	-0.010970325
92	0x3e114db7	0.14189802
93	0xbd5d9d15	-0.054104883
94	0x3d7b0f96	0.06129416
95	0xbd84fa54	-0.06493059
96	0xbdb72bb5	-0.08943883
97	0xbda0de13	-0.07854857
98	0xbd891067	-0.066925816
99	0x3e02f9ac	0.12790555
100	0x3c3f85f2	0.01168965
101	0x3df2579d	0.11833117
102	0x3da41dbf	0.08013486
103	0x3dd0563c	0.10172698
104	0xbbd44a06	-0.006478551
105	0x3d3b6a9c	0.045755967
106	0xbcd31a15	-0.025769273
107	0xbd0acdfa	-0.03388784
108	0x3cab78c9	0.020931618
109	0x3dbd20e2	0.092347875
110	0x3dfc339e	0.12314533
111	0x3e0daa7c	0.13834566
112	0xbcbdc5ff	-0.023165701
113	0x3d0c9606	0.03432276
114	0xbd365ada	-0.044520237
115	0x3b95e0f4	0.0045739356
116	0xbdf0b6d6	-0.11753623
117	0xbc783ca0	-0.015151173
118	0xbdd8e5da	-0.10590716
119	0xbe000c23	-0.1250463
120	0xbcad52d2	-0.021157656
121	0xbde1aa57	-0.11018818
122	0xbe111629	-0.1416861
123	0x3d042a92	0.03226716
124	0x3d8a5dec	0.067561954
125	0x3dca105d	0.09866402
126	0x3d96cab8	0.07362884
127	0x3dd59244	0.104282886
128	0x3e09e3cd	0.13465805
129	0xbe00737f	-0.12544058
130	0xbdcd24b3	-0.100167654
131	0xbca1ff55	-0.019775072
132	0x3d5f6b0b	0.054545444
133	0xbd39eb65	-0.045390505
134	0x3ddf63a3	0.10907676
135	0xbdb1869d	-0.086682536
136	0xbdeb174f	-0.11479055
137	0xbde6227c	-0.11237046
138	0x3e09f22d	0.13471289
139	0xbdb803b3	-0.089850806
140	0xbdc6ff86	-0.09716706
141	0xbe1310b8	-0.14361846
142	0xbd3b7e60	-0.045774817
143	0xbdac19b4	-0.0840334
144	0x3dbbc39e	0.091681704
145	0xbdf104ad	-0.1176847
146	0xbd62a672	-0.055334516
147	0x3dd681fd	0.10474012
148	0xbd108828	-0.0352861
149	0x3c37580c	0.011190426
150	0x39f07ed1	0.00045870853
151	0xbdf72872	-0.12068261
152	0x3d6b8b58	0.057505935
153	0x3ccc5202	0.024941448
154	0xbdb20386	-0.08692078
155	0x3e0ea670	0.13930678
156	0x3d800f62	0.06252934
157	0x399fd262	0.0003048359
158	0x3dfed8b5	0.12443677
159	0x3d65c93c	0.056100115
160	0xbdd858de	-0.10563825
161	0x3d950717	0.07276743
162	0x3d881cd8	0.066461265
163	0x3e0b2a6a	0.13590398
164	0x3dcc7f24	0.09985188
165	0x3e0dd0e6	0.1384922
166	0x3e053bee	0.13011143
167	0x3e028cc9	0.12749018
168	0x3cb879bd	0.022518987
169	0x3cd92d45	0.026510844
170	0xbdf770d5	-0.12082068
171	0x3e00af3b	0.12566845
172	0x3d1b8f71	0.037978593
173	0x3e00b9c1	0.1257086
174	0xbdc5945a	-0.096474364
175	0x3d44cd5c	0.04804741
176	0x3d01ebb1	0.031718913
177	0xbd706862	-0.058693297
178	0x3e020d99	0.127005
179	0xbdf27860	-0.11839366
180	0xbddf54dc	-0.109048575
181	0xbe049c00	-0.12950134
182	0xbb970057	-0.004608195
183	0x3de14316	0.10999124
184	0xbcd050fb	-0.02542924
185	0x3b51845d	0.0031969764
186	0x3cda0314	0.026612796
187	0xbcb66d4b	-0.022268912
188	0xbdaf5e3a	-0.08562894
189	0xbc50a2ea	-0.012734154
190	0xbd822b60	-0.063559294
191	0x3cd8bada	0.026456285
192	0xbdea1dd5	-0.11431471
193	0x3d00956f	0.03139251
194	0x3d1f2e59	0.03886256
195	0xbca87e3d	-0.020568008
196	0x3dc0a59d	0.09406588
197	0xbc3a4b92	-0.011370556
198	0xbda2f973	-0.07957735
199	0xbd9799f2	-0.074024096
200	0xbd84abab	-0.064780556
201	0x3e10130c	0.14069766
202	0xbd793007	-0.060836818
203	0xbd30acea	-0.043133654
204	0xbd06ef58	-0.0329431
205	0x3cf2de52	0.029647026
206	0x3dcb9713	0.099409245
207	0xbd821bc5	-0.06352953
208	0xbd091dba	-0.033475615
209	0x3d4e889f	0.05042326
210	0xbe09f404	-0.13471991
211	0xbbfbb45a	-0.0076814117
212	0xbce7517f	-0.028237103
213	0xbe051500	-0.12996292
214	0x3e0110d3	0.12604074
215	0x3e0275cd	0.1274025
216	0xbdb464b0	-0.08808267
217	0x3e007d23	0.12547736
218	0xbd616ff3	-0.055038404
219	0xbbb2f852	-0.005461731
220	0x3c5a0222	0.013306173
221	0x3def880d	0.116958715
222	0x3e15b65d	0.14620347
223	0xbdbeef50	-0.09322989
224	0xbdfe3363	-0.12412145
225	0x3d51cb44	0.05121924
226	0xbd582b78	-0.05277583
227	0x3df3c74c	0.11903247
228	0xbcf9786a	-0.030452926
229	0xbd25a2e3	-0.040438544
230	0xbd9e969e	-0.07743572
231	0xbe03f9b5	-0.12888224
232	0xbd99f179	-0.075167604
233	0x3d2d358e	0.0422874
234	0x3e08b6b4	0.13350946
235	0xbdf01992	-0.11723627
236	0x3df607e6	0.12013225
237	0x3dbdb885	0.0926371
238	0xbd7da3f8	-0.06192395
239	0xbc9fc910	-0.019505054
240	0x3d2dc7e4	0.04242696
241	0x3ddda5d3	0.10822644
242	0xbda27d69	-0.07934076
243	0xbb448285	-0.0029985022
244	0x3ca3b6d0	0.019984633
245	0x3e06d635	0.13167651
246	0xbe0cfa67	-0.13767396
247	0xbe017e2d	-0.12645788
248	0x3d9c2c21	0.076256044
249	0xbc9068ba	-0.017628063
250	0x3d241857	0.040062275
251	0xbde475ee	-0.11155306
252	0x3b41a246	0.0029546185
253	0x3d9add0b	0.07561692
254	0x3dd58fd6	0.10427825
255	0xbd956623	-0.07294872

fc3.bias f4 [13]
0	0xbcba58c5	-0.022747407
1	0xbd855335	-0.06510011
2	0x3d54cc46	0.051952623
3	0xbdf46c1f	-0.11934685
4	0x3dcadfb3	0.099059485
5	0xbd2f6136	-0.042817317
6	0x3dc7ec72	0.09761895
7	0x3df4b450	0.119484544
8	0x3d94433c	0.072393864
9	0x3db6e847	0.08931022
10	0xbc23d3fc	-0.0099992715
11	0x3dbfbaf7	0.093618326
12	0xbdfe8d7c	-0.1242933
