TorchModels/DeepQtrader15.pt (torch, 25047 bytes, 6 tensors)

fc1.weight f4 [50, 50]
00000000: dd1a 80bc 0725 bf3d 7112 ab3d 2c54 cabc
00000010: fa38 993d cb5f b8bd eadb 973d 68bb ed3d
00000020: 9af8 ad3d 4e8e b93d 2089 02be 8f59 f8bd
00000030: 6124 b73d a28b 2fbd 8aed 603d 5561 06be
00000040: fd3f c83d fdf5 853d c5ab e2bb f0ba 6c3d
00000050: b5c7 bd3d da85 f8bc 6c10 463d 86aa 0b3e
00000060: 3814 e93d 3684 213d fbfd 9e3d 15be da3d
00000070: cb19 a2bd e246 373d b8a7 fd3d a386 52bc
00000080: 71e2 b73c e6bb cb3b ce30 acbd a121 083e
00000090: 44a7 00be 08f7 f73d 801e a5bd e6fd b2bb
000000a0: 2235 183d ed39 6e3b 9203 fe3a 9f06 d73c
000000b0: 6875 b5bd 9c04 703d 7e8d 6f3c e6fd 5e3d
000000c0: b36e 02be 403c 4f3d 1e39 0fbe ee81 ee3d
000000d0: fe1e df3d ab80 fd3d 10de 523d 744b 09be
000000e0: 650e 0dbd de8f f73d dfa4 223c 6ccb a0bd
000000f0: b232 b23d 81ae ac3b c5d4 5c3d 5771 42bd
00000100: 2d95 afbd b360 6bbd 0b31 f73b 6ac1 c13d
00000110: 269c 02be e810 cebd 2532 16bd ce5c d4bd
00000120: 414e 6bbd 34f8 dd3c 98a4 70bc b413 7dbc
00000130: 5d61 903d c027 e1bb 957d 983c e5b9 eabb
00000140: d93e 02bc bf8c bebd a47e 5bbd 610b c73d
00000150: 10ca 223d 09d9 573d 686f a33d a028 fe3d
00000160: ca30 d5bd 0fdf a33d 794c fe3d 4dde bc3c
00000170: 2c4d 73bb db22 ffbd d1fa 7fbd 0b16 dabb
00000180: 03cc 133c 6fa0 a2bc ba68 053c 5b16 94bd
00000190: b74e fa3b 2b0a 933c 4220 87bd d27b bf3d
000001a0: 39d1 b63d 2e2d 19be c231 6ebd ebe2 81bc
000001b0: fb73 7bbd 5daa fe3d 0fbe 21bd 3109 143a
000001c0: 7007 a3bc 4359 00be 0632 10be a17e 21bd
000001d0: 53f8 963b 400b b53d 27e1 843d 4c66 13be
000001e0: b6d3 c6bd 4a24 8a3d ebf7 2e3d c1ae 12be
000001f0: ff5d 8ebd c155 ce3d ef16 a13d 0943 11be
00000200: 3c05 aabd a631 2c3d 969b 543d 39dd d23c
00000210: 29fa 13bd b21d 91bd 40e6 663d 0707 86bd
00000220: 52ef 2dbd 5053 e5bd 24d2 f53d 3b1f 10be
00000230: 3cfe 6e3d eb14 4dbd a483 df3c 3c02 b93d
00000240: 2d46 bd3c 9dae 6abd 04bb 053e d8bc 2e3d
00000250: 8ff0 c3bb fd3c 833d 5771 98bd 950e 5dbd
00000260: 1a6d 29bd 99fe 9fbd f3a4 ddbc df83 36bd
00000270: a29d 553d 6561 03be ebba d5bd 7ffb c03d
00000280: 3074 0cbe 539b 733d ab27 e4bd f682 81bd
00000290: 3a91 94bc df4e eabd 9e7f 1cbc 80c2 b53d
000002a0: e8c4 8c3d b24b 04be 5af5 293d ab4f c4bd
000002b0: fa54 e4bd 3585 c13d 970e c8bd ee9d dabd
000002c0: cda8 5abb cc15 d43d bd1f 20bd 6785 b03d
000002d0: 7e35 22bd 5a17 04be 84a7 bf3d 7c3c ed3c
000002e0: 2cd6 f33d 7df5 cfbd 3852 61bc b984 ed3d
000002f0: 936c e7bd 7fc4 cabc 412f 9a3d 1440 85bd
00000300: d3fe 0cbe 8409 05be f066 02be 9332 febd
00000310: f23f 17be ff80 92bd 9e83 293d 490f ed3d
00000320: e3eb f83d c61b 083e 6ecf 2ebd 22b5 9b3d
00000330: 19e2 11be d3bf b43c bc34 84bd 9c6b 863d
00000340: 3826 dabc a45f a13d 45d0 b13b e2f5 983d
00000350: 0310 6d3d c803 873d 81a7 67bd 2762 22bd
00000360: 6202 d53d 33c0 aa3d c2cc d43c c269 0d3e
00000370: 51d5 4d3c 9d52 433d 4bb0 073e 7ceb 933d
00000380: e44b 673d 1604 113e eff8 093d 470c 57bd
00000390: 8c2f bd3d 8587 8f3d 046a cf3b 0d63 03be
000003a0: 86a0 9ebd 7a2c e13c 041f b63d e3ac 993c
000003b0: 820b cc3d 0fe2 ed3c d015 2ebd 68cc 46bc
000003c0: ae54 9bbd e883 123e 3100 2a3d eb4d 31bd
000003d0: 0d03 35bd 4d5b 993d cea1 e1bd 4b98 e8bd
000003e0: 9e72 ee3d 0036 0e3e 830e 0bbe 122e 0abe
000003f0: ee90 8bbc a053 4bbd 7ff0 a73d 1848 0fbe
-0.01563781 0.09333234 0.08353127 -0.02469834 0.074815705 -0.09002646 0.07414992 0.116080105
0.084946826 0.090603456 -0.12747622 -0.12126457 0.089424856 -0.042857774 0.054914035 -0.13123067
0.0977783 0.06541059 -0.006917449 0.057795465 0.09266607 -0.030337263 0.048355505 0.13639268
0.113808095 0.039432727 0.07763287 0.106807865 -0.07915076 0.044745333 0.123855054 -0.012849483
0.022446843 0.0062174676 -0.08407746 0.13294078 -0.12563807 0.12107664 -0.08062458 -0.005462396
0.037160046 0.0036350444 0.0019379726 0.026248274 -0.08860284 0.058598146 0.014621137 0.054441355
-0.12737541 0.05059457 -0.13986632 0.11645876 0.10894583 0.12378057 0.051481307 -0.1340769
-0.034437556 0.12087987 0.009927004 -0.078513 0.087010756 0.005269826 0.05391385 -0.04747137
-0.08573375 -0.057465266 0.007543688 0.09460719 -0.12754878 -0.10061818 -0.036668915 -0.103692636
-0.057447676 0.027095892 -0.01468768 -0.015446592 0.070498206 -0.0068711936 0.01861457 -0.0071632736
-0.007949554 -0.09304189 -0.05358757 0.09718967 0.039743483 0.052697215 0.079802334 0.12410092
-0.104096964 0.080015294 0.1241693 0.02305522 -0.0037124855 -0.1245782 -0.062495057 -0.0066554598
0.009020808 -0.019851891 0.008142645 -0.072308265 0.007638778 0.017949184 -0.065979496 0.09349789
0.08926625 -0.14958641 -0.05815292 -0.015855273 -0.061389904 0.12434838 -0.039487895 0.00056471216
-0.019901007 -0.1253405 -0.14081582 -0.039427403 0.0046072393 0.088400364 0.06488257 -0.14394492
-0.097083494 0.06745203 0.0427169 -0.14324476 -0.06951522 0.1007495 0.07865702 -0.14185728
-0.0830178 0.042039536 0.05190619 0.025740253 -0.036127243 -0.07085742 0.056371927 -0.06544309
-0.04246456 -0.11197531 0.12002972 -0.14074413 0.058347926 -0.050068777 0.02728445 0.09033629
0.023104751 -0.05729543 0.13059622 0.042660564 -0.0059796046 0.06408117 -0.07443493 -0.053968985
-0.041363813 -0.078122325 -0.027056193 -0.044559356 0.052152283 -0.12830122 -0.104360424 0.09422969
-0.13716197 0.0594743 -0.111403786 -0.06323807 -0.018135656 -0.11440825 -0.009551911 0.088749886
0.068734944 -0.129195 0.04149375 -0.09585508 -0.111490205 0.09449235 -0.09768408 -0.10674654
-0.0033364773 0.1035572 -0.039092768 0.086191945 -0.039601795 -0.12899533 0.09358123 0.028959505
0.119060844 -0.10154245 -0.013752513 0.115975805 -0.11300006 -0.0247519 0.07528544 -0.065063626
-0.13769083 -0.12991911 -0.1273458 -0.1241199 -0.14770487 -0.0715351 0.041385286 0.11575181
0.12154367 0.13291845 -0.04267829 0.07602908 -0.14246406 0.022064125 -0.06455371 0.065634936
-0.026629552 0.0787957 0.005426439 0.074687734 0.057876598 0.06592518 -0.05655623 -0.039644387
0.10400845 0.0833744 0.025976542 0.13809875 0.012563066 0.047686208 0.13250844 0.072226495
0.05646886 0.14161715 0.033684667 -0.052501943 0.092375845 0.0700827 0.0063297767 -0.12830754
-0.07745461 0.027487028 0.088926345 0.018759197 0.099631324 0.029038457 -0.04250127 -0.012133695
-0.07584511 0.1430813 0.04150409 -0.0432872 -0.044192363 0.07488117 -0.1101719 -0.113571726
0.11642955 0.13887787 -0.13579755 -0.13494137 -0.017036881 -0.049640298 0.08200168 -0.13992345

fc1.bias f4 [50]
00000000: e308 73bb 06f7 e9bd e485 9abd c4de bfbd
00000010: 1b48 5b3d f38c b43c b2f6 f7bd c08a ba3d
00000020: 3e07 a4bd 92fc d33d 03a6 0e3e 75b4 6f3c
00000030: 1ddd e13d 2ced 3dbc 48ec 1bbc e2be c7bd
00000040: ac2c f6bd 0277 b43d da68 9ebd e5aa c73d
00000050: 1eb5 163e cdae 9d3d 8c29 053e 11ab 913d
00000060: 9802 873d 64f5 663d 15f7 123e a55b 773d
00000070: c31b d9bd 126f 93bd e074 5a3d be5b 00bd
00000080: f01b debd 5194 dd3d 178a 94bd 2e9b cc3b
00000090: d14a 46bd f8ad 9b3d 7fe2 9bbd e620 e83d
000000a0: 1c56 c23c 38d0 5fbc fe49 843d 3302 e5b9
000000b0: e7be 153e cf78 953d c8b6 0ebe 34a1 523d
000000c0: dffe 253e 14db 07be
-0.0037084154 -0.11424069 -0.07545069 -0.09368661 0.053535562 0.022039866 -0.121076 0.09108496
-0.08009194 0.10350908 0.13930516 0.014630427 0.11028502 -0.011592191 -0.009516783 -0.09753205
-0.12020239 0.088117614 -0.077348426 0.097493924 0.14717528 0.07699356 0.1300413 0.071127065
0.065922916 0.056386366 0.14352067 0.060390133 -0.10600998 -0.07198919 0.053334117 -0.031337492
-0.108451724 0.10819305 -0.07252901 0.006244085 -0.048411194 0.07601541 -0.0761156 0.113344
0.0237227 -0.013660483 0.064594254 -0.00043679922 0.14623605 0.07298433 -0.13936913 0.051423267
0.16210507 -0.13267165

fc2.weight f4 [50, 50]
00000000: cd0d f33d 48fc b43d 0372 29bc a182 f3bd
00000010: 46ed 4dbd 6ac7 773d f7ce c63d 01f3 8b3d
00000020: 2068 38bd c795 f9bc 0e4f 133e 10bd 83bd
00000030: 187e ddbd 9e71 4b3d a504 3cbd 9d37 633c
00000040: f273 d03d e2de 2a3b 161a 833d 08b1 043d
00000050: a1fa f13d ecf1 c8bd 392a e53d 574c a63b
00000060: c29a d83c 84ab 8d3d ba48 363d e979 cc3d
00000070: 35ad 00be eb49 e83d 1dc8 fe3d 6f86 0a3d
00000080: 95d5 e1bd 5c91 08be 09d2 04be 7c02 47bd
00000090: 4b4c 083d 935a 7c3d 38ac 01bd 600c bfbd
000000a0: 7ff5 f2bd 0db8 513d dc84 3bbd 5564 08be
000000b0: 819d bdbd e4f1 063c eaa3 e53d 45a5 83bd
000000c0: a7ca f6bd c3e1 a4bd 998c d33d 6b44 663d
000000d0: 9aa2 da3c e249 d13d 5eda a23a 92a2 6f3c
000000e0: 8d84 e8bd b8f9 473d f40f f8bd 9cfe c4bd
000000f0: c143 9d3d 35d5 d7bd bbf7 0d3d bac2 023d
00000100: d8af 1c3d a019 1a3e 607c f83c 40c6 abbd
00000110: 461d d83d 2e1b bd3b f5f4 d93d 49a1 ef3d
00000120: 84ad 9cbd bf3c 123e 1da9 ef3b c78b b1bd
00000130: a8e9 b8bc 0500 a7bc c5dc dc3d e406 cf3b
00000140: 155f 393c ac29 1d3d d2b0 ea3d cf1d 06be
00000150: c6ca 423d f80c b23b c84c 513d 4b5a 0bbd
00000160: 5670 8cbd a910 a63d 21a2 873c 21f5 24bd
00000170: ee69 413d ffc3 96bd 2e39 b73d fdeb a33d
00000180: e4e0 99bd e4da c6bd aa60 af3d f196 ddbc
00000190: 99a8 0c3d 9c4d 23bd 0a65 9fbd f22d 973d
000001a0: 8703 b1bd 43e8 08be b6f8 d93d e85e f9bd
000001b0: 7793 3cbb 81c6 3bbd 015f 04be 06cb 1d3d
000001c0: 5adc 07be 74ce 02bd b4c7 0fba 76d8 083e
000001d0: 5a60 5bbd 7721 f9bd e1f2 923d 8182 5e3d
000001e0: 5ca2 cd3c 43a5 8ebd 0112 bfbd 9dcd 5bbd
000001f0: bc7c 813c 3a95 9abd a7e9 42bd 6b0e a73d
00000200: ede1 0b3e 150a bebd 3658 afbc 999b b53d
00000210: 7a1e 7e3c 3de7 f43d d395 3e3d 4303 c53d
00000220: ade1 413d 9b0d 393d 6b9c 9dbd 4380 793d
00000230: b3af ccbd c215 d23d c6c5 f6bb a24a 82bb
00000240: 7a99 d8bd 88c0 d9bd d12e 783d 17fd 173d
00000250: 28cc 8b3d 41c6 c2bd 03bf 6abd 41e4 0ebd
00000260: cc1f 59bd ed32 fe3d ddcc efbd 462a d5bd
00000270: 401f 253d 2f31 f53d edd4 b93d 6a53 343d
00000280: 0fa3 53bd dff5 e43c 61a3 c8bd 6467 b6bd
00000290: 5c11 e23d c1cf 903d 005d 05be f82a 123e
000002a0: 54d8 c3bc 4ec6 fabd bedd 13bd a023 3a3d
000002b0: 163d cabd d6df 0b3b 9867 a5bd af1d 793c
000002c0: 4995 ca39 2be3 f2bc 3a76 c23c ed01 07be
000002d0: e0b0 e33d c64b bb3c 4a0e 513d a280 75bd
000002e0: ce1b 193c 1ab4 03be 9670 a4bc dba1 d8bd
000002f0: 5f27 27bd 4399 b53d 61d2 08be b70d c9bd
00000300: 3222 34bd d0fe f6bd 9886 e6bd 8b69 013e
00000310: 4bf0 f6bc aab2 903d c1d2 a43d 88c2 e03c
00000320: d323 bcbd e37b f33d 6dd3 1e3d c0aa 763c
00000330: c5ed f63d 5a5f 9dbd 6dc5 d4bc cad6 713d
00000340: 6b15 23bd 75c3 173d e616 c13b fd86 1c3c
00000350: 0a94 ab3d a8e1 8a3d b2f3 a13c 6c0d 2cbd
00000360: cf62 6bbc e0d1 013e ae2f 82bd e09f 92bd
00000370: fcc0 e0bd 4e91 793d ffc0 f2bd afd2 c3bb
00000380: 5372 873d 980f bfbd 7e1e 7c3d 9fed febd
00000390: 5c1f 7cbd 3a71 493d f725 f4bd acc2 b7bd
000003a0: 0645 733d e7a7 e83d 90b8 b1bd db2f 753d
000003b0: fea5 c3bd f593 c7bd 27a7 de3d 82a5 aa3d
000003c0: fa60 1b3d 29ba a1ba 90de c2bd 8a62 353d
000003d0: cdb6 053d 7501 c0bd 2814 d3bd 7855 d73a
000003e0: be13 00be 9863 773d f711 91bc 7b80 88bd
000003f0: 2d30 e93c 99c5 063b b713 0c3e e3cf ce3d
0.11867867 0.08837181 -0.010342124 -0.1189015 -0.05027511 0.06049291 0.09707444 0.06833459
-0.045021176 -0.030466927 0.14385626 -0.06432545 -0.10815066 0.0496689 -0.045902867 0.01386824
0.10178365 0.002607279 0.0640146 0.032395393 0.11815382 -0.09811768 0.11189694 0.0050750184
0.026440982 0.0691748 0.04450295 0.0998419 -0.12566073 0.11342224 0.12440512 0.033819612
-0.11027066 -0.133367 -0.12970747 -0.048586354 0.033275884 0.061609816 -0.03165838 -0.09328532
-0.11863231 0.051200915 -0.045781 -0.13319524 -0.09258557 0.008236382 0.11212905 -0.06428007
-0.120503716 -0.08050873 0.10329551 0.056217592 0.026688863 0.1021917 0.0012424698 0.014626162
-0.11353407 0.048822135 -0.12112418 -0.096188754 0.07678939 -0.10538713 0.034660082 0.031923987
0.038253635 0.15048838 0.030332744 -0.083874226 0.105524585 0.0057710623 0.10642425 0.117006846
-0.07650283 0.14280985 0.007313861 -0.086692385 -0.022572353 -0.020385752 0.10784296 0.00631796
0.011314173 0.03836982 0.11459507 -0.13097309 0.04755666 0.005433675 0.051098615 -0.034021657
-0.06857364 0.081086464 0.016556801 -0.040272836 0.047220163 -0.07361602 0.08946453 0.080039956
-0.075135976 -0.09709719 0.08563359 -0.027049514 0.034340475 -0.039868936 -0.077829435 0.0738181
-0.08643251 -0.13369851 0.10643141 -0.12176305 -0.002877442 -0.045843605 -0.12926866 0.038523696
-0.13267651 -0.03193517 -0.0005484775 0.13363823 -0.053558685 -0.12164586 0.07175232 0.054323677
0.025101833 -0.06965115 -0.09329606 -0.053662885 0.015806548 -0.07547994 -0.04758611 0.08157047
0.13660403 -0.09279267 -0.021404367 0.088675685 0.015510196 0.11958168 0.046529602 0.09619763
0.04733436 0.04517899 -0.0769585 0.060913336 -0.099944495 0.10258056 -0.0075309006 -0.003976182
-0.10576148 -0.106324255 0.060591523 0.0371066 0.06826049 -0.0951047 -0.05731107 -0.03488565
-0.05300884 0.12412057 -0.117089964 -0.10408454 0.040313005 0.11972272 0.090738155 0.044024862
-0.051669177 0.027949272 -0.09796787 -0.08906439 0.11038467 0.07070876 -0.13023758 0.14274204
-0.023906864 -0.12244855 -0.03610014 0.04544413 -0.098749325 0.0021343133 -0.080763996 0.015204831
0.00038639668 -0.029649338 0.023738015 -0.13184328 0.111177206 0.02286328 0.051039018 -0.059937127
0.009345008 -0.12861672 -0.020073216 -0.105777465 -0.04080903 0.08867123 -0.13361503 -0.09817069
-0.043977924 -0.120603204 -0.112561405 0.12637918 -0.030143877 0.070653275 0.080480106 0.02743651
-0.091865204 0.11888864 0.03877585 0.015055358 0.1205707 -0.076842025 -0.025973046 0.05904273
-0.039815348 0.037051637 0.0058926223 0.009553668 0.083778456 0.06781322 0.019769523 -0.042004988
-0.0143668195 0.12677717 -0.063567504 -0.071594 -0.10974309 0.06092959 -0.11853217 -0.005976043
0.066136025 -0.09329146 0.061552517 -0.124476664 -0.061553344 0.049180247 -0.11921304 -0.089726776
0.059391998 0.1136015 -0.08677781 0.05986009 -0.09553145 -0.097450174 0.108717255 0.08332349
0.03793428 -0.0012338805 -0.09515107 0.044283427 0.032645036 -0.09375278 -0.10306579 0.001642867
-0.12507531 0.060397714 -0.017708762 -0.06665131 0.028465355 0.0020564555 0.13679396 0.10098245

fc2.bias f4 [50]
00000000: b3a2 683d bd59 81bd 9ecd 0d3c bf57 423d
00000010: 3cf9 f1bd 2248 763b 8996 3d3d cc4a 6c3d
00000020: 84d9 f23d 448a 22ba f0fa d3bd 4aeb 73bd
00000030: 7882 0abe fba5 0bbd 4edf aabd ba90 edbd
00000040: 7330 d43d 6156 49bd 8383 f33d 0cf9 133e
00000050: 494a 34bb 38c0 16be 9074 e83d 6f84 3cbd
00000060: 9286 d0bd c406 8e3c 3f0d 5f3d bd18 64bc
00000070: 5f4c 83bc 6e05 603d 1f55 183e 59a4 ecbd
00000080: aa9b bfbd ce28 d83d 9593 57bd ac9d afbd
00000090: 6090 023e 4f06 033e 0355 c8bd 3ec8 d4bd
000000a0: ac62 1ebd 82fd cabd 5545 1bbd d362 cfbd
000000b0: d1a4 013e dfca c1bc fece f3bd f183 bbbd
000000c0: 68c8 a9bd bb37 ddbd
0.056795787 -0.06315944 0.00865498 0.047446962 -0.11815116 0.0037579616 0.04628614 0.05768852
0.11857894 -0.0006200413 -0.10350597 -0.05955056 -0.13526332 -0.03409384 -0.08343373 -0.1159987
0.103608035 -0.049154643 0.11890318 0.14450473 -0.0027510098 -0.14721763 0.113503575 -0.046024736
-0.10181917 0.01733721 0.05445599 -0.013921914 -0.016027628 0.05469268 0.14876221 -0.11554784
-0.093558624 0.10554658 -0.05263098 -0.085749954 0.12750387 0.12795375 -0.0978184 -0.10389756
-0.03866832 -0.09911634 -0.037907917 -0.10126271 0.12660529 -0.023656307 -0.11904715 -0.09156025
-0.082901776 -0.10801645

fc3.weight f4 [13, 50]
00000000: eb62 6d3d 211f ee3d 2fb3 82bd cb7a a73d
00000010: 44af 753d 5965 fabd 97e7 c7bd db79 d83c
00000020: 858d 023e 5289 db3c 01e9 233e 132d f43d
00000030: 9210 efbc 7a0c 31bd f532 0a3d 0735 8abd
00000040: 04c8 3bbd d2d7 cd3d 7985 a9bc 7155 193e
00000050: 4a1a d6bd 9275 c0bd 7258 6e3d f8fc c6ba
00000060: aeac 173e 0621 273d c122 ddbd e6df d53d
00000070: f030 9e3d 988e 05be 6b9b fc3d 64b0 07be
00000080: 575f ccbd 808c fa3d de9e 58bc 9454 26bb
00000090: 9a71 f03d 4709 a4bc ae07 bfbc c10f 8b3c
000000a0: e531 c3bd ab4c f13d 09a6 943b cdd1 95bd
000000b0: 5889 02be 83a5 40bd d49a 93bc 0f62 55bc
000000c0: a8d8 ffbd 7743 64bc 8076 c4bd 1ee5 5cbd
000000d0: ef59 f9bc f080 d33d 26c2 6fbd 2994 a13d
000000e0: b4e9 b1bd 2274 033e 1c82 c0bd cf39 9ebd
000000f0: 6ab4 633d 446a 743d 3cb9 583d 4a6e b63d
00000100: 5901 c9bd 2c88 f5bd af5e 883c 4553 103e
00000110: 5b59 0d3d 649a 34bd d4f9 073e 9c4e 09be
00000120: eba0 7a3d 3661 b73d 3afa 153e 2231 2cbd
00000130: 0156 febd a296 bbbd 7d68 fb3c a258 07be
00000140: 9f8a e33d 0e09 8bbd 4a1f 1b3d 89f0 243e
00000150: 0665 95bd ee15 8bbc 9b63 78bd 1065 20bd
00000160: c597 2c3e c7af 5ebd df58 7f3c 457e fb3d
00000170: e79d d2bd c454 0abc 5002 253c 8a77 863d
00000180: 00ea 533d b493 193e a2c9 0d3d 5192 1dbd
00000190: c2de ecbd 2303 0a3e 8095 ef3d 0e53 413d
000001a0: 000f 733d 25b8 043e 7215 193e eebf c93d
000001b0: d1c0 1e3e 086a 53bd 9b3a 03bc f1c4 d5bd
000001c0: d026 c33c b36c e0bd fc00 073e 90f0 0ebd
000001d0: 8932 f03d 6fe2 e1bd ef5d b0bc 34a9 893d
000001e0: b982 2ebd 88bd a8bd 7717 4cbd 95c4 103e
000001f0: 6a68 6b3c 7ceb d8bd 1f2f 8fbd 6efb c03d
00000200: f2e7 ffbd 4383 bf3b 5913 debc d9d8 e73d
00000210: 212b 9f3c c770 173e a495 67bd 4e22 1b3e
00000220: 5c06 d9bd 2bce 213e 9bb3 6abd 74d9 d5bd
00000230: ae62 f13d 8f02 7c3d 37a2 213d 14f5 d7bd
00000240: 3d4a b63d 160d 66bd 3977 543d 295c 2a3c
00000250: 7a7f 0cbd 78eb 863c 090e 913d 64c9 babb
00000260: afdf 17bd a7b5 fdbd 305c a1bd 18cf d13c
00000270: 87c0 843c 3cc9 023d 8417 eb3d cb2c 3a3d
00000280: f08a 803b 5170 8c3d bffd d6bd cf14 1c3e
00000290: eeb5 903d 3734 1a3d 6026 e03b 6d44 b73c
000002a0: a2ed 96bd 3228 e93d 5b8b 393d 6cf0 b2bd
000002b0: 29d1 7c3d 96a1 203e 5a66 cb3c ace3 04be
000002c0: 369a 013e 6c89 803d 6698 c8bd 4215 5cbd
000002d0: 60db d7bd 581f f9bd 667c f83d a796 bf3d
000002e0: c913 9c3d 493d a93d 8f5d 063e 2e06 923d
000002f0: 779b 4ebd 617d 97bc 6ae5 523d ee33 e93d
00000300: d2a7 72bd 1258 3e3d 832f e1bd 0a52 cabd
00000310: a4bd 64bc 9e8d f83d ce3c 553d b7b8 adbd
00000320: 222a 463b 886f 9f3d b15e b53d dca4 983d
00000330: 37af 2bbd f062 f43d 92ee e93d d1d0 423c
00000340: 710f 86bc 043a 56bd 01cc c43d 0496 c0bc
00000350: 6a8c c63d 8a20 173e 53b4 ee3d 8244 003e
00000360: cae5 a3bd 4d59 bd3d 7035 80bd 65ae 1c3d
00000370: c0b0 c4bd 0eab f3bd 8c1f f63d f627 dd3d
00000380: 2364 853d 8145 873c ba85 81bd 5428 9f3d
00000390: 2a73 753d 5fd9 37bd cd19 ce3d 9c03 b4bd
000003a0: cbd6 aebc 77ed 60bd abd2 153e 9418 e53d
000003b0: 72cc 00bd 1fc6 903d adac e23d 7882 a0bd
000003c0: 12af 83bd a958 c4bd 5623 0e3e b0b5 f03d
000003d0: 68cb f0bd cef1 c83c 4d0c 773d 2f22 143e
000003e0: a872 a33d 4231 f73d 638b 073d 66d4 0e3e
000003f0: 5207 d83d 28c0 0abe c6b2 053d 7304 cb3d
0.057955664 0.11627031 -0.06381833 0.08177718 0.0599816 -0.12226362 -0.09760969 0.026425293
0.12749298 0.026798878 0.16006853 0.1192266 -0.029182706 -0.04322479 0.033740003 -0.067483954
-0.045845047 0.1005093 -0.020693528 0.14974 -0.10454233 -0.09397425 0.058189817 -0.0015181592
0.14811966 0.040802978 -0.107976444 0.10443096 0.07724178 -0.13042676 0.12334331 -0.13250881
-0.09979122 0.122338295 -0.013221471 -0.0025380002 0.11740418 -0.020023955 -0.023319092 0.016975285
-0.09531001 0.117822014 0.0045363945 -0.07315407 -0.12747705 -0.047032844 -0.018018164 -0.013023867
-0.12492496 -0.0139321005 -0.095929146 -0.05392944 -0.030438391 0.10327327 -0.058534764 0.078895874
-0.086871535 0.1283727 -0.093998164 -0.0772587 0.055591978 0.059671655 0.05291103 0.08907755
-0.0981471 -0.11988863 0.016646711 0.14094265 0.034509044 -0.04409255 0.13278896 -0.13408893
0.06118862 0.089540884 0.14646235 -0.042039044 -0.12418748 -0.0915959 0.030689472 -0.13217404
0.11110424 -0.067888364 0.037871636 0.16107382 -0.07294659 -0.01697823 -0.060641866 -0.03915888
0.1685477 -0.054366853 0.015585153 0.122799434 -0.10284024 -0.008443061 0.010071352 0.06565769
0.05173683 0.1499775 0.03461612 -0.038469616 -0.11565925 0.13477759 0.11698437 0.047198348
0.059340477 0.1296087 0.14949587 0.09851061 0.15503241 -0.05161479 -0.008009578 -0.10437954
0.023822218 -0.10958233 0.1318397 -0.034897387 0.11728389 -0.11029517 -0.021529166 0.06721726
-0.042605136 -0.08239275 -0.049827065 0.1413749 0.014368156 -0.1059179 -0.069914095 0.094229564
-0.12495412 0.005844505 -0.027108835 0.11320657 0.019429745 0.14789115 -0.056539193 0.15149805
-0.10596916 0.15801303 -0.05730019 -0.104418665 0.117864 0.061525878 0.03946134 -0.10544792
0.089008786 -0.056164823 0.051871512 0.010397949 -0.03430126 0.016469702 0.07082755 -0.005700277
-0.037078556 -0.12388163 -0.078789115 0.025611445 0.016205085 0.031930193 0.114790946 0.045452874
0.0039228126 0.0685736 -0.10497617 0.15242313 0.0706595 0.037647452 0.006840512 0.022371495
-0.073695436 0.1138462 0.045298915 -0.08737263 0.06172291 0.1568664 0.024829078 -0.12977475
0.12656483 0.06276211 -0.09794693 -0.05373121 -0.10539889 -0.121641815 0.12133102 0.093549065
0.07620961 0.08263642 0.13121627 0.07130085 -0.05044123 -0.018492403 0.051488318 0.11386858
-0.059242077 0.04647071 -0.1099539 -0.09878929 -0.0139612295 0.12136386 0.05205994 -0.08482497
0.0030237515 0.07784945 0.088559516 0.074533194 -0.041915145 0.11932933 0.11422457 0.011890606
-0.016364785 -0.05230142 0.09609223 -0.023509033 0.096947506 0.14758506 0.11655488 0.12526134
-0.08002813 0.092455484 -0.062601924 0.038252253 -0.09604025 -0.118978605 0.12017736 0.107986376
0.0651324 0.016512634 -0.063243344 0.07771364 0.059924282 -0.044885036 0.10063515 -0.08789751
-0.021342656 -0.054913964 0.14631145 0.111863285 -0.031444974 0.070690386 0.110680915 -0.07837385
-0.064298764 -0.09587223 0.13880667 0.11753404 -0.11757547 0.024529364 0.060314465 0.14466165
0.07980853 0.12069942 0.033091914 0.13948211 0.10548271 -0.13549864 0.032641195 0.09912958

fc3.bias f4 [13]
00000000: 6699 833d 0a31 94bd 80a4 073e c47d 4a3d
00000010: abfa bdbd 489b d3bd 3fb4 c9bd b245 1d3e
00000020: cb2d f73c 0cec a43d 9859 af3d 7e8d c83d
00000030: db29 683d
0.06425743 -0.07235916 0.13246346 0.049436346 -0.09276327 -0.10332352 -0.09848832 0.15358618
0.030173203 0.08052835 0.085620105 0.097926125 0.05668054
