TorchModels/DeepQtrader34.pt (torch, 25047 bytes, 6 tensors)

fc1.weight f4 [50, 50]
000000 70 98 eb bd 1b 68 fc 3d 9c 43 a3 3c 30 02 ef 3d
       -0.115036845 0.12324544 0.0199297 0.11670339
000010 78 c0 02 3e 78 70 12 be 89 5e cd 3d fe 94 0a 3e
       0.12768734 -0.14300716 0.10027797 0.13533399
000020 47 6b f8 3d c7 83 b8 bd 95 08 72 3d 37 4b 96 3d
       0.121298365 -0.090095095 0.059090216 0.07338565
000030 05 f4 e6 bd 70 d3 bd bc 30 89 de bb 5a 0b db 3d
       -0.11277012 -0.02317211 -0.0067912564 0.106955245
000040 90 f4 a1 3d a3 45 bf bd 3f 3d e9 3d 08 23 37 3c
       0.07907975 -0.09339454 0.11388635 0.011177786
000050 97 97 95 bd 35 ed 24 bc 8f 71 99 bb 79 52 ae bd
       -0.07304304 -0.01006632 -0.0046827267 -0.08511824
000060 28 b0 bf 3d 78 45 c6 bd bf 83 02 3e f5 84 83 bd
       0.09359771 -0.09681219 0.1274557 -0.06421844
000070 26 78 aa 3d 1d f6 65 3d 03 01 67 bd 03 6a 0e bd
       0.08323698 0.056142915 -0.05639745 -0.03476907
000080 c5 ab 0a be 0c d5 04 3e de 4e ac bd 6c cb a7 3d
       -0.13542087 0.12971896 -0.0841348 0.081930965
000090 cc 0b 6d ba 77 2f ed bd 7e d8 3d ba 19 96 e8 bc
       -0.00090425904 -0.11581319 -0.00072420377 -0.028391885
0000a0 bf b4 55 3d 13 59 6a bd a3 93 c4 bd b0 83 e9 3d
       0.052174326 -0.057213854 -0.09598472 0.114020705
0000b0 dd 30 0d 3e d0 b6 ec 3d 98 6b b2 3d 68 15 86 bb
       0.13788171 0.11558306 0.08711928 -0.0040919073
0000c0 35 ab 98 3d 8f 3a cd bc 30 a9 c1 bd e5 55 73 3d
       0.0745453 -0.025052337 -0.09456098 0.059408087
0000d0 4a 0e ca bd 7f 7b 58 bd a1 59 26 3c d8 a6 ba bd
       -0.09866007 -0.05285215 0.010153205 -0.09113854
0000e0 80 75 0c bd 96 f5 61 bd 0f d3 9e bc 99 13 21 3d
       -0.034291744 -0.05516585 -0.01938775 0.03932533
0000f0 34 7c af 3d b1 ad d8 3d 88 06 0a be 5b 76 79 bd
       0.08568612 0.10580004 -0.13479054 -0.06090389
000100 52 50 14 be 3b d3 0e 3d 5a da a2 bc ff d6 cb 3c
       -0.14483765 0.034869414 -0.019879509 0.024882792
000110 4a 81 73 bd 28 33 b9 bd 01 42 29 ba 90 d3 84 bd
       -0.05944947 -0.090429604 -0.0006456674 -0.06485665
000120 00 4f cf 3a 1d 49 62 3d 7c 41 1b bd b0 1c 5e 3d
       0.001581639 0.055245508 -0.037904248 0.054226577
000130 97 8a fe 3d 6c ba dc 3c 04 97 5a bc e9 89 2a bd
       0.12428778 0.026944362 -0.013341669 -0.041635428
000140 6c 04 16 be 1c 1a dc bd 7a ea 9c b6 ce a0 31 bd
       -0.14650124 -0.107471675 -4.676459e-06 -0.043366246
000150 11 2b b1 3d 62 3c 6a bc 62 67 66 bd a6 5e 4d 3d
       0.086507924 -0.014296623 -0.056250937 0.050139092
000160 07 68 41 bd 00 18 b8 bc 9a a1 01 3e 7b b2 43 bd
       -0.04721835 -0.022472382 0.12659302 -0.047777634
000170 31 82 65 bd 2f c7 b4 3d 17 e4 06 3e 66 9c 9c bd
       -0.056032363 0.08827054 0.13172947 -0.07647018
000180 fb d7 ae 3b c2 7c d3 bd ad e8 9c 3d ae 52 c7 3d
       0.0053358055 -0.1032653 0.07661567 0.09732567
000190 28 de 07 3d e7 f5 eb 3d cb 7a 89 3c 29 be 9e 3d
       0.03317085 0.115215115 0.016782185 0.07751114
0001a0 11 39 4f 3d be eb 05 bd e2 73 59 bd 8d 88 a3 3c
       0.050591532 -0.032695524 -0.05308903 0.019962573
0001b0 aa 36 ff 3d e5 34 02 3e 06 ca 0b 3e 95 f7 e8 3d
       0.12461598 0.1271549 0.13651285 0.113753475
0001c0 97 af 5a bc 22 4d 4e 3d 44 54 ab bc e5 f1 cc 3d
       -0.013347528 0.05036653 -0.020914204 0.10007075
0001d0 92 35 58 bd d0 ac 60 bc 72 1d de bd 36 0a a4 bd
       -0.052785464 -0.013713077 -0.1084546 -0.0800976
0001e0 3f 52 05 bd 85 81 c4 3c 12 e4 60 bd 4f 4a 7a ba
       -0.03254914 0.023987541 -0.054905005 -0.0009547816
0001f0 02 9f 00 3e dc 02 80 bd 74 d1 89 3d 51 d7 c7 bd
       0.12560657 -0.062505454 0.06729403 -0.09757865
000200 1a 6c ef bb 82 75 d1 3d da 64 02 be 1e b4 37 bd
       -0.007306588 0.10227491 -0.12733784 -0.044849508
000210 88 f9 00 be ce 5e fa bd 3f ca b0 3b 9d f2 c1 3c
       -0.12595189 -0.12225114 0.0053952034 0.023675257
000220 08 f8 bb 3b e6 65 b2 bd 3f 7f ea bc 8c df a6 bd
       0.0057363547 -0.08710842 -0.028625129 -0.08148107
000230 f1 a6 d3 3d 63 dc a9 bd 88 e6 ff bd 01 bd 07 3e
       0.10334576 -0.082939886 -0.12495142 0.13255693
000240 71 7a c8 3d 23 78 c5 3c e2 57 72 bd e2 72 82 3b
       0.09788979 0.024105137 -0.059165843 0.0039809803
000250 15 4e f5 bd 62 2d 89 bd 05 cb 6b bd 6b e6 60 bb
       -0.119777836 -0.06698109 -0.05756666 -0.0034317027
000260 56 f3 96 3d 67 00 a3 bd 3c 52 ac bd 40 e8 bc 3d
       0.073706314 -0.07959061 -0.084141225 0.09223986
000270 3f 54 6a bc 63 73 d4 3b 40 c0 98 bd 58 1c 92 3d
       -0.014302312 0.0064834817 -0.07458544 0.071343124
000280 f8 b2 f8 3d 4d 64 93 3c 82 ee 9f bd 19 7a c3 3d
       0.121435106 0.017992163 -0.07809164 0.09544773
000290 55 50 a7 bd 63 06 08 3e c6 65 e2 3d 7a ae 73 bd
       -0.08169619 0.13283686 0.11054568 -0.059492566
0002a0 4f cd 14 be d6 be 03 be 32 e2 c4 bd 29 a7 3e bd
       -0.14531444 -0.12865767 -0.09613456 -0.046546135
0002b0 b9 00 10 bd c9 95 d3 3d 33 92 c1 bc ee 86 8e bd
       -0.03515694 0.103313036 -0.023629284 -0.069593295
0002c0 c6 e6 56 bd 62 3b 00 3e 12 08 c8 bd 1b e8 00 3e
       -0.052466176 0.12522653 -0.09767164 0.12588541
0002d0 bf 45 ed bd d3 f9 c9 bb 74 3f a2 3d 50 7b 9c bd
       -0.11585569 -0.0061638146 0.07922259 -0.076407075
0002e0 2a ce 21 3d 8a ff 95 bd 83 15 24 3b 72 70 08 bd
       0.039503254 -0.07324131 0.0025037236 -0.03331036
0002f0 6a 5e a3 3c 5c ba c4 3b eb cf 82 bd c6 a8 8f 3d
       0.019942481 0.006003661 -0.063873135 0.07014613
000300 85 d3 a0 3d 73 d0 8a 3d 4a ec 9c bd 1f da 08 3e
       0.07852844 0.0677804 -0.07662256 0.13364457
000310 ad 4c 50 bc fe 9a dc bc 94 a8 43 3d 30 3d cc bd
       -0.012713593 -0.026929375 0.04776819 -0.09972608
000320 e7 df b6 bd 5b f6 96 bb 1b 45 ed 3d b8 ac ca 3d
       -0.08929425 -0.0046070046 0.115854464 0.09896225
000330 39 57 bd bd e7 86 92 3b 4a e1 89 3d 23 12 5b bc
       -0.09245152 0.004471648 0.067324236 -0.013371023
000340 14 54 b0 3b fc 45 9d 3d fc 7a 73 3d d6 fb c4 bd
       0.0053811166 0.07679364 0.05944346 -0.096183464
000350 2e 61 86 bd 59 74 0e be b6 4f 2d bc fc bd 8c 3c
       -0.06561504 -0.1391157 -0.010578087 0.017180435
000360 66 5a c6 bd f9 c6 bb bd 8e 7a 07 be 22 4a a0 3d
       -0.09685211 -0.091688104 -0.13230345 0.0782664
000370 23 c8 e3 3d 3a 3f 06 bd f7 e9 55 3d 46 a5 70 bd
       0.111221574 -0.03277514 0.05222508 -0.058751367
000380 e0 b9 f3 bd ff d7 3b 3b 8b b1 23 bd a3 a1 22 3d
       -0.11900687 0.002866268 -0.03996424 0.03970493
000390 58 2a ae 3b 9d 3a 05 3e ea cc e9 bd 3f 79 2e 3d
       0.0053151064 0.1301064 -0.114160374 0.042596098
0003a0 be 75 d7 3d ee 97 9c 3d 0d 8e 4c bb ad 99 be 3d
       0.105205044 0.07646166 -0.0031212599 0.09306655
0003b0 a5 0f c9 bd 53 3c 38 bd 38 4e a8 bd 24 d0 e3 3d
       -0.09817437 -0.044979405 -0.08218044 0.11123684
0003c0 07 8a 9b bd aa 2e 85 3d 03 24 87 bd b4 86 6a 3d
       -0.07594686 0.06503041 -0.065986656 0.05725737
0003d0 4b 65 e5 bc 1f 1d ba bd ae de c4 bd ee 4c 81 bb
       -0.028002402 -0.09087586 -0.09612785 -0.0039459383
0003e0 98 9a 52 bd ad 1d a6 bd ad 4d 78 3d 0a 52 0e 3e
       -0.051416963 -0.08111129 0.060620952 0.13898483
0003f0 8a 56 ca bd dc e0 f7 bd dc 52 c3 bc 0b b8 88 bd
       -0.09879787 -0.121034354 -0.023843221 -0.066757284

fc1.bias f4 [50]
000000 0f 44 4c 3d b5 92 31 3d fe 3c f4 bd 22 ca 52 3d
       0.049869593 0.0433528 -0.11925696 0.0514623
000010 f2 ce ef bd d5 61 23 3d 3a d8 86 bd 2d f5 06 be
       -0.117093936 0.03988822 -0.06584211 -0.13179465
000020 4d 8f 87 bd 43 e8 d7 bd 3f 19 74 3d c5 4d 03 3e
       -0.06619129 -0.10542347 0.05959439 0.12822635
000030 fd 9f cf 3d c2 45 ca 3c 3f 11 0c 3e 51 81 ac bd
       0.10137937 0.024691466 0.13678454 -0.08423103
000040 c0 a8 87 bd c6 34 a5 3d 6b 97 e8 3b ed 45 0a 3e
       -0.066239834 0.08066706 0.0070981286 0.13503237
000050 5e ce 7f 3c 3e e0 b9 3c 4c bd e2 3c d3 7c 0a be
       0.015613167 0.022689935 0.027678154 -0.13524179
000060 1a 2e d8 bc 78 90 bd 3d 37 39 db bd 88 eb a7 3d
       -0.02638917 0.09256071 -0.10704272 0.08199221
000070 2c 89 c4 3d 5f a6 12 be 9b da 48 bd f4 a8 04 be
       0.09596476 -0.14321278 -0.049036603 -0.12955076
000080 91 b9 6b 3b 09 2d 58 3b 23 55 19 3d ff f2 84 bc
       0.003596876 0.0032985827 0.03743471 -0.01622915
000090 c7 16 0d 3d 13 41 d9 bd 8e 76 f4 3d 6d 91 b0 39
       0.03444555 -0.10608115 0.11936675 0.00033677687
0000a0 94 3c 08 3e 47 5a 06 3e a6 1d 30 bd 12 76 b8 3d
       0.13304359 0.13120376 -0.042997025 0.09006895
0000b0 e0 f5 7f 3d b5 d0 01 3e 70 6f 06 be d4 ed 53 3c
       0.062490344 0.12677272 -0.13128448 0.012935121
0000c0 fa e7 13 3e 8d 49 51 bd
       0.14443961 -0.051095534

fc2.weight f4 [50, 50]
000000 a4 1c a4 3d 6f 98 20 bd 31 c8 e8 3d f0 7c a1 bd
       0.08013275 -0.039207872 0.113663085 -0.07885158
000010 f1 9b a2 bd 1f e8 86 3d 56 18 34 3d 6a f6 d4 bc
       -0.079399 0.06587242 0.04396852 -0.025996406
000020 58 9c 9c 3c 28 75 64 bd cd 77 fe 3d 3e 86 a8 3d
       0.01911752 -0.05577579 0.12425194 0.0822873
000030 a5 46 5f 3d 0a b4 b6 3d f2 c3 38 bd e6 c5 ad bd
       0.05451073 0.089210585 -0.045108743 -0.08485012
000040 26 8a c0 3d c4 70 9a 3d 74 1a 0b bd 21 b9 e6 bc
       0.0940135 0.075410396 -0.033960775 -0.028164448
000050 4f 62 c5 bd 46 8d 86 bd e1 ee 05 be a6 55 05 bc
       -0.096378915 -0.065699145 -0.13079406 -0.008138096
000060 f2 63 72 bd 67 fd b3 3c 08 f9 84 3d 49 bf a5 bc
       -0.059177347 0.021971418 0.064928114 -0.020232813
000070 3d 6a 94 3b e5 aa e9 bd 82 7f 36 bc 52 b3 eb 3c
       0.004529266 -0.11409549 -0.011138799 0.02877203
000080 d5 15 df bd fd df ca 3d 65 c4 0b 3d 8c 47 12 3c
       -0.10892836 0.099060036 0.034122843 0.008928191
000090 16 47 94 3b f3 01 e2 3d 1d c0 61 3c b9 bb f7 3d
       0.0045250757 0.11035528 0.0137787135 0.12096352
0000a0 d5 96 0f 3e e4 c0 52 3d 10 74 87 3d 1a 75 f5 3d
       0.14022382 0.051453486 0.06613934 0.11985226
0000b0 32 36 bb 3d 5c 3d 07 3e 99 f4 63 3d 7c 3b 25 bd
       0.09141196 0.13207 0.05565319 -0.04033993
0000c0 38 36 9b 3d 54 01 c4 3d ea d6 11 bb b0 5b 04 3e
       0.07578701 0.09570566 -0.0022253343 0.12925601
0000d0 12 75 bf bd 76 0a cb 3d cd a5 b8 bd fd e8 15 bc
       -0.09348501 0.09914105 -0.09015999 -0.009149787
0000e0 5d 53 c3 bd b8 81 de 3d 72 fd 64 3d 50 83 57 bd
       -0.09537385 0.10864586 0.055905767 -0.052615464
0000f0 c1 78 f4 3d ba 33 e7 bd 31 e0 de 3c 4d a3 0f 3e
       0.119370945 -0.11289163 0.027206512 0.14027138
000100 81 22 d0 bd 57 d0 22 bd ba 38 08 bd 7a 25 de 3d
       -0.10162831 -0.03974947 -0.033257224 0.10846992
000110 3d 1c d7 bc 53 f9 3a bd 44 81 13 bd 75 10 f9 bd
       -0.026258582 -0.04564793 -0.03601195 -0.12161342
000120 52 0a 9b bd 6f 00 89 bd ec 6c f6 bd f2 b9 60 bd
       -0.07570328 -0.06689536 -0.12032494 -0.05486483
000130 3e 4a 92 3d 85 23 97 3c e5 fe 03 be ee b9 53 3d
       0.07143067 0.018449554 -0.12890203 0.05169099
000140 51 ba 82 3d d0 9f e8 3d 81 eb ae 3d 82 02 b9 3d
       0.06383193 0.11358607 0.085410126 0.090336815
000150 55 28 64 3c de f7 ae 3b 90 55 98 3d f1 57 e0 3c
       0.0139256315 0.0053396067 0.07438195 0.027385684
000160 5d 7c 6d 3d 3f 98 69 bd a9 52 ae bc 74 9b b5 bd
       0.05797993 -0.05702996 -0.02127965 -0.08867541
000170 b5 b4 02 be d5 6b ff 3c 5d 5f 6c bb e9 0e f5 3c
       -0.12764247 0.031179348 -0.0036067583 0.029914336
000180 1b 16 fa 3d df e8 37 bd 2e 49 26 3c d6 88 8a bc
       0.122112475 -0.044899818 0.010149283 -0.016910952
000190 ac c5 06 3e ff 03 60 bd 1a e7 49 bd 17 b9 d0 3d
       0.13161343 -0.05469131 -0.04929266 0.10191553
0001a0 a6 81 79 bd d4 3a 03 3e cf 50 88 3d bc 18 fa bc
       -0.060914658 0.1281541 0.06656038 -0.030529372
0001b0 3a d5 71 bd 55 b2 69 3d 4c 0d 17 3d 79 74 f2 bd
       -0.05904124 0.057054836 0.036877915 -0.11838622
0001c0 66 f0 99 3c 18 28 0f be ae 63 9c bd 73 00 5a 3c
       0.018791389 -0.13980138 -0.076362 0.013305771
0001d0 19 35 dd 3d e7 82 98 3d 21 87 81 3d 4c cc 0b 3d
       0.10801143 0.07446843 0.06324602 0.03413038
0001e0 b0 2f a3 3c 69 a6 9f 3c af 16 86 bd c8 91 c8 bd
       0.0199202 0.01948853 -0.06547295 -0.097934306
0001f0 90 9f ad bd 54 87 00 3e 3f 91 b0 bd f8 c8 de 3d
       -0.084777 0.12551624 -0.086214535 0.108781755
000200 a8 f4 92 bc 42 9a b6 bd a3 6f fc bd d6 91 f3 bd
       -0.017938927 -0.08916141 -0.123259805 -0.118930504
000210 6d a9 c1 bd 32 85 0f be d4 46 01 3e 7b e7 60 bb
       -0.094561435 -0.14015654 0.12624675 -0.003431766
000220 bb 29 d4 3d 49 61 3a 3c bc 94 8f bc ce 50 cd bd
       0.10359522 0.011375734 -0.017526977 -0.10025178
000230 69 c3 70 bd 39 17 c0 3c 09 3a 05 be d5 42 f6 3c
       -0.058780108 0.023448573 -0.1301042 0.030061165
000240 dd 12 06 be 60 43 73 bc aa 8f ae 3d 3f 81 08 3d
       -0.13093133 -0.014847606 0.085234955 0.033326384
000250 48 61 8a bc 42 35 f8 bd af 6c d2 bd fd a8 df bd
       -0.01689209 -0.12119533 -0.10274636 -0.10920904
000260 b5 94 e1 3d db ee d4 bd 66 e9 af bd d8 c8 85 3d
       0.11014692 -0.103971206 -0.08589439 0.065324485
000270 39 87 fe bc 40 e9 5a 3d 2c 5b 58 3b 61 ff 05 3e
       -0.031070339 0.0534451 0.0033013327 0.130857
000280 5b ae 8c 3d 74 8a 5b bd c6 e4 f3 bd d6 db 8b bd
       0.06869193 -0.053598836 -0.119088694 -0.0682904
000290 58 2b e2 3d 13 32 35 bd 74 a2 1c bc f7 e7 c9 3d
       0.110434234 -0.044237208 -0.009560216 0.09858697
0002a0 6b c6 0d 3b e7 14 ef 3d 6d c6 c3 3b a2 3f 80 bd
       0.002163316 0.11673909 0.005974582 -0.06262137
0002b0 e0 cd be 3d 97 85 43 bd 86 49 4b bd 77 3f be 3c
       0.09316611 -0.047734823 -0.049630664 0.023223622
0002c0 b2 2d 54 bd 1e 4c a4 3d f1 76 9d bd 9c b0 92 bd
       -0.05180139 0.08022331 -0.07688702 -0.07162592
0002d0 95 15 26 3d 63 3e 07 be ca 11 07 3e 81 b6 d1 bd
       0.040547926 -0.13207392 0.1319038 -0.10239888
0002e0 19 25 cd bc f0 cb 41 3b 50 4c 3c 3c 27 be f5 bd
       -0.025042104 0.002957102 0.011492804 -0.11999159
0002f0 ae ec 05 3e 79 bf 9b 3b 48 d8 dc bb 19 8a 09 be
       0.13078567 0.00475305 -0.00673965 -0.13431586
000300 01 73 86 3d fc ff cc bd b9 aa f8 bd dc ef b4 bc
       0.06564904 -0.10009763 -0.12141938 -0.02208703
000310 e8 aa 79 3d 6d b1 aa 3d 7d 4a db bd 3e 19 9d bd
       0.060954005 0.083346225 -0.10707567 -0.0767083
000320 a2 e5 0f be 5a 81 c6 bc 62 ee 10 3d 50 bf 22 3d
       -0.14052442 -0.024231602 0.03538359 0.03973323
000330 ac 16 26 3d e1 15 9e 3d fa 0f c9 bd 31 37 85 3d
       0.040548965 0.07719017 -0.098175004 0.065046676
000340 7e 25 52 3d 7d 49 8a 3c 5f f2 d6 bd b1 10 e3 3d
       0.051305287 0.016880745 -0.10495447 0.11087168
000350 11 30 e1 bd 5e d3 b5 3b b3 6e c8 bc 90 83 90 3d
       -0.10995496 0.0055488786 -0.024466848 0.070563436
000360 02 42 08 be 44 fe be 3b 10 a7 81 3c e8 00 81 bd
       -0.1330643 0.0058286507 0.015826732 -0.06299001
000370 bc a0 65 3d 70 38 94 bd 80 62 36 bd 3b 92 d6 3d
       0.05606149 -0.07237327 -0.04452753 0.1047711
000380 a5 53 4c bd 8b 58 91 3d 45 55 e0 bd 2e 76 93 3c
       -0.049884457 0.07096966 -0.10953764 0.018000688
000390 74 2d 12 3e 6a 4b b2 bc d7 f3 87 3d 23 c6 d1 3c
       0.14275151 -0.021764476 0.06638306 0.025607174
0003a0 50 12 31 bd 4d 4b 0d be 2a 91 01 be 71 99 cd 3d
       -0.043230355 -0.13798256 -0.12653032 0.10039032
0003b0 95 d8 73 3c cc ba f6 3c 02 be b5 bd 46 e7 38 bd
       0.01488318 0.030118369 -0.08874132 -0.045142435
0003c0 28 c9 b5 3d 05 6c 01 3e b4 65 f0 bc fe 76 0a 3d
       0.08876258 0.12638862 -0.02934537 0.033804886
0003d0 cb 2c ad bd 8d f4 2d bd 3c 31 0c 3d 77 10 0f bd
       -0.08455809 -0.04246955 0.03422664 -0.03492781
0003e0 f8 99 22 bd ad bc 17 3d ae b0 7a 3d ac ff f8 bd
       -0.039697617 0.03704517 0.06120365 -0.121581405
0003f0 a9 17 b4 3d 37 48 8d bd ab d9 b2 3c e3 70 cb bd
       0.08793575 -0.068985395 0.021832308 -0.09933641

fc2.bias f4 [50]
000000 2c 93 f0 bd 4f 5f 9e bd 8d 7c 9c bd 96 3a 8c 3c
       -0.11746821 -0.077330224 -0.07640944 0.01711778
000010 df 6b 7b 3d 53 4e a0 bd e9 dd 0f 3e f2 e4 db 3a
       0.06138217 -0.07827439 0.14049496 0.0016776605
000020 2a 03 55 bd 00 80 76 bc 6b a3 aa bd 69 b5 10 be
       -0.05200497 -0.015045166 -0.08331951 -0.14131702
000030 f5 2a 77 3c 63 18 f2 3d 09 fa 02 3d d8 25 de 3d
       0.015085925 0.11821058 0.031976733 0.10847062
000040 c0 d7 52 3d 7d 88 2f bc 25 81 9e bd 19 ff 04 be
       0.051475286 -0.010713694 -0.07739476 -0.12987937
000050 b4 ff ad bd c0 7c 98 3d 73 e6 9a bd a0 70 b1 3d
       -0.08496037 0.07445669 -0.07563486 0.0866406
000060 af e7 b2 3d f5 23 0e be 73 63 0e 3d e6 85 dd bd
       0.087355964 -0.13880904 0.03476281 -0.10816555
000070 8c b8 31 bd c5 f1 dc bd 08 b6 05 3e 25 9d de 3b
       -0.04338889 -0.107883014 0.1305772 0.0067936354
000080 44 ba 45 bd 1e b2 eb bd a5 8f fa 3b 7d d0 3e bd
       -0.04827334 -0.115085825 0.0076465183 -0.04658555
000090 df 37 b3 bd e8 9a e8 3b 1f 7b b6 bd 63 07 1b bd
       -0.08750891 0.0070985444 -0.08910202 -0.03784884
0000a0 0a 1b 96 bd 70 c4 0e 3e a3 39 12 bd a0 4c b5 3d
       -0.07329376 0.13942122 -0.035699498 0.08852506
0000b0 7e 04 b7 bd e8 51 c5 bd a9 0c 2c 3d 2a f5 dc bd
       -0.08936404 -0.09634763 0.04200426 -0.10788949
0000c0 76 b7 30 bd ea 38 86 3c
       -0.043143712 0.01638456

fc3.weight f4 [13, 50]
000000 23 96 fe bd dd c7 63 3d 03 b3 d6 bd f9 28 cd 3d
       -0.1243098 0.055610526 -0.104833625 0.100175805
000010 34 a2 0e be d2 1c 8f 3d 8d da 21 bc dd da dc 3d
       -0.13929063 0.06987919 -0.009878767 0.10783932
000020 99 5b f4 3d b6 c2 d6 3d 75 64 0d 3e 12 99 4f 3d
       0.11931533 0.10486357 0.13807853 0.05068309
000030 6f 27 dd 3d c3 2c ea 3d 38 72 b3 bd 39 a8 cb bd
       0.10798537 0.11434319 -0.0876202 -0.09944195
000040 b5 4c ec bd 67 89 60 3d 62 62 46 38 4a aa ee 3d
       -0.11538068 0.054818537 4.7298505e-05 0.11653574
000050 e5 8f df 3c c9 fb 03 3e 6f ab fd 3d 42 47 92 3d
       0.027290294 0.12889017 0.12386214 0.071424976
000060 79 fb c7 bd 6e 85 60 bd 11 e8 fc 3d 5e ff 02 be
       -0.097647615 -0.05481475 0.12348951 -0.12792727
000070 d2 16 71 bd 86 39 fe bc 42 5d b4 bd 33 f6 0a be
       -0.058859654 -0.031033289 -0.0880685 -0.1357048
000080 af 62 25 bd 7e c4 c6 bd 4e c9 d9 bd 52 1a 7a 3d
       -0.040377315 -0.09705447 -0.10634099 0.061060257
000090 9a 8d 38 3d 7e 7d a7 3d 6b 0f 09 be 35 48 18 3b
       0.045056917 0.081782326 -0.13384788 0.0023236398
0000a0 ee 1d 78 3a bc 7e d6 bd a6 f0 fe bd 33 20 31 bd
       0.0009464909 -0.104733914 -0.12448244 -0.0432436
0000b0 61 94 e3 3c 1d 89 a2 3d a4 b6 c1 3d 76 59 ae 3b
       0.027780714 0.079363085 0.09458664 0.005320723
0000c0 08 3d 0c bd b8 27 ef 3c ae 41 de bd 75 5a b0 bc
       -0.03423789 0.029193744 -0.10852371 -0.021527508
0000d0 35 0b b3 bd 93 f7 c8 3d af 48 8d bd 0d 9d 2b bd
       -0.08742372 0.09812846 -0.06898629 -0.041897822
0000e0 44 ad 67 3d 3f eb bf 3d 53 3d 70 3d 81 90 8d bd
       0.056561723 0.093710415 0.058652233 -0.069123276
0000f0 99 bb ed bd cf f6 60 bd fe 0b 15 bd b4 d6 2e bd
       -0.11608047 -0.054922875 -0.03638839 -0.042685226
000100 86 c8 ec bd 12 93 d9 bd 2c fe d6 3d 9b 85 de ba
       -0.11561684 -0.106237546 0.10497698 -0.0016977073
000110 6a 6e 96 bd 46 5b f8 bd 7a 6d ce 3c 8c 70 05 be
       -0.073452786 -0.12126784 0.025198687 -0.13031214
000120 f7 f0 bb 3d a6 24 d2 bd 7b 4a b4 3d 43 40 51 bc
       0.0917682 -0.102608964 0.088032685 -0.012771669
000130 47 0c 94 bd 7b 5e 80 3d e9 43 e1 bb 88 7b ad 3d
       -0.07228904 0.06268021 -0.0068745506 0.08470827
000140 81 36 50 3d 49 41 36 3b 34 29 09 3e 39 c9 a8 bd
       0.05083323 0.002780991 0.13394624 -0.08241505
000150 48 b9 cd bd c4 c8 e2 3d e7 39 e3 bd 03 60 b6 3d
       -0.10045105 0.11073449 -0.11095028 0.089050315
000160 3a e0 fe 3b 55 8e 9a bc 53 1f 71 3c 47 d0 0a bc
       0.0077781947 -0.018866697 0.014716941 -0.008472509
000170 d5 d4 56 bb 25 37 c5 bd 4b 00 e6 bd 13 3a c2 3d
       -0.0032780666 -0.096296586 -0.11230525 0.09483733
000180 6d a9 84 3c e1 8a 0b 3d 68 70 e9 3d da 44 dc bd
       0.01619407 0.034067992 0.11398393 -0.1075532
000190 7e df 92 bd 28 c2 9d 3d fd fd b8 3c c6 d7 57 3c
       -0.07171534 0.07703048 0.022582049 0.013174003
0001a0 94 f4 fe bd 03 c1 72 bc 21 a7 67 bc 68 4e 9b bd
       -0.12448993 -0.014816525 -0.014138968 -0.07583314
0001b0 4d 76 0c 3d a2 b2 ad 3d e0 13 9c 3d 80 43 17 3c
       0.034292508 0.08481337 0.07620978 0.009232402
0001c0 66 26 0d 3e 58 17 0c bd d5 99 4c bd ef 78 8d 3d
       0.13784179 -0.03420195 -0.049951393 0.06907832
0001d0 9d 43 97 bd 36 d3 11 bd e6 e2 4f 3d 5f be 4f 3c
       -0.07385943 -0.035601817 0.050753497 0.012679665
0001e0 e9 55 e0 3d 82 60 4a bd cf 4e f2 3c 6c 57 9b 3c
       0.10953886 -0.049408443 0.029578594 0.018962584
0001f0 c4 13 c4 3d 57 ca 0b 3d 50 3c ee 3d fa a8 1d bd
       0.095740825 0.034128513 0.116325974 -0.038491227
000200 74 fd 92 3c c0 5b fd bc 32 28 75 bd fe c9 5a bc
       0.017943121 -0.030927539 -0.059852786 -0.013353823
000210 93 b5 ef 3d ea 8f 00 3e 1d a7 f7 3d d0 15 ec 3d
       0.117045544 0.12554899 0.12092421 0.11527598
000220 9a fb bb bd 87 3e 34 bd 71 b3 6d 3d 27 3f 19 3d
       -0.091788486 -0.044004943 0.058032457 0.037413742
000230 fd 4a 65 3d 05 6b 56 3d 41 be 8e bd e0 53 fb bd
       0.055979718 0.052348156 -0.06969882 -0.12271857
000240 ad c6 5a 3d 95 2e 09 be f5 bb e3 bc 73 bf 5d bc
       0.05341213 -0.13396676 -0.027799586 -0.013534415
000250 fe 67 3c 3d 4c d4 d2 bd d5 97 1d 3d b3 8d cd 3c
       0.045997612 -0.10294399 0.038474876 0.025091982
000260 36 1b eb bd 08 60 a8 3d 75 ff 4e bc f2 66 cc 3c
       -0.114797994 0.082214415 -0.012634148 0.024951432
000270 4a 5b 93 3d 6d 7e 67 bd 3a 88 fa bd 2a d4 f4 3d
       0.071951464 -0.056517053 -0.122330144 0.119545296
000280 2e ef d0 bd ea 69 a1 3d 4e ec bc bd 77 7d 95 3d
       -0.1020187 0.0788153 -0.09224759 0.07299321
000290 ff 40 01 be 53 58 de bd 68 28 bb 3a f2 92 46 3b
       -0.1262245 -0.1085669 0.001427901 0.0030299989
0002a0 37 7b 14 bd a9 76 65 bd a8 ac cf 3d 83 65 96 bc
       -0.03625032 -0.056021366 0.101403534 -0.018358951
0002b0 dc bf 0d 3e 95 5c a1 bd 97 bd fc ba eb 17 b8 3c
       0.1384272 -0.07878987 -0.0019282576 0.022472342
0002c0 e2 21 4d 3d b5 f7 99 3b 73 67 f5 bd 3e 75 07 be
       0.05008114 0.0046987184 -0.11982622 -0.13228318
0002d0 8a 67 7a 3d f7 db ec bd 0f 9f 3a 3c 9b f3 56 bd
       0.0611339 -0.115653925 0.011390462 -0.052478414
0002e0 77 8d 11 bd 55 15 9a bc a0 68 0b be 81 d2 02 be
       -0.035535302 -0.018809 -0.1361413 -0.12775613
0002f0 b4 f0 d2 bd 52 00 bd 3d b4 bb df bd e4 47 34 bd
       -0.10299817 0.09228577 -0.109244734 -0.044013873
000300 95 5f 00 be ec 39 a7 3d 83 bc e9 bd db 6d 0e bd
       -0.12536462 0.081653446 -0.11412909 -0.034772735
000310 f6 a1 17 bd 23 23 3a 3d 26 f4 75 bc e2 e0 ce 3d
       -0.037019692 0.045443665 -0.015011823 0.10101487
000320 1d 60 d6 bd e7 79 01 be 02 d3 fa bd d7 c3 ae bd
       -0.10467551 -0.12644158 -0.12247278 -0.08533447
000330 db d2 90 3d 76 66 b8 bd 8f 6c 5c 3d 77 eb ee 3d
       0.070714675 -0.09003918 0.053814467 0.11666005
000340 8a 3a 5e 3d aa 2a e0 3d 6d af 4c 3d 69 7c 30 3d
       0.054255046 0.109456375 0.049971987 0.043087397
000350 86 1a e9 3d 08 74 8d bd 1c 05 35 bd 79 92 ef bd
       0.11382012 -0.06906897 -0.044194326 -0.11697859
000360 22 e4 62 bb a8 34 e7 bd 25 03 8e bd cd b1 9f bd
       -0.003462084 -0.1128934 -0.069341935 -0.07797585
000370 73 7c 9c bd a1 45 c7 3d 66 25 b1 bc 96 e1 12 bd
       -0.07640924 0.097300775 -0.021624278 -0.035859667
000380 99 c8 49 3d 61 e7 25 3c b7 cd e7 3d a1 a2 02 3d
       0.04926357 0.010125966 0.11318534 0.031893376
000390 d2 20 64 3d 02 d4 06 be c3 9b 0d bd 57 dd dd bd
       0.055695362 -0.13166812 -0.034572374 -0.10833233
0003a0 ac e7 a9 bd 33 a6 1e 3d 2e ae 08 3e f7 ad be bd
       -0.08296141 0.03873272 0.13347694 -0.09310525
0003b0 b8 a0 06 be 39 50 0d be 5a 85 e4 3c b8 0a b3 bd
       -0.13147247 -0.13800134 0.027895618 -0.08742279
0003c0 49 1b 2c bd 8a 26 45 3b 5d 3c 1e bd 00 44 c8 bd
       -0.04201821 0.0030082786 -0.038631786 -0.09778595
0003d0 67 c6 f8 3d 36 d2 93 3d 5c b8 48 3c 03 6a 4d 3d
       0.12147217 0.07217829 0.012250986 0.05014993
0003e0 5a 5c e4 bc 9f d3 03 3e c6 49 82 bc 26 d8 a4 bd
       -0.027876068 0.12873696 -0.015904319 -0.080490395
0003f0 95 b6 fa bc ac e1 97 bc c2 9d 5b bc 0e c5 7d 3d
       -0.03060464 -0.018540226 -0.013404312 0.061955504

fc3.bias f4 [13]
000000 d4 58 4a 3d 66 9d 07 3e 24 df d3 bd 95 fb ed bd
       0.04940112 0.13243636 -0.10345295 -0.11620251
000010 5f f8 b0 3c 68 86 f8 3d 9d 42 d0 3c 9b e0 bb bb
       0.021602808 0.12135011 0.025422389 -0.005733562
000020 4f eb ca bd 19 61 e9 3d fe 4d 8b 3d a2 8c ea bd
       -0.09908163 0.11395473 0.06801985 -0.11452605
000030 46 a6 21 3d
       0.03946521
