TorchModels/DeepQtrader16.pt (torch, 25047 bytes, 6 tensors)

fc1.weight f4 [50, 50]
000000 be 1a 26 3c 00 7e 7d 3d a4 45 98 3d cd 12 a3 3d
       0.010138212 0.06188774 0.07435158 0.0796257
000010 16 93 71 bd 2a ca 30 bd 1c 5d 96 3d cc 01 26 bd
       -0.058978163 -0.04316155 0.07341978 -0.040529057
000020 ba ed c5 3d d4 d6 37 bd ad 6f 5f 3d dc 1b 08 be
       0.09664483 -0.04488261 0.05454986 -0.13291878
000030 bf 5a c2 3d 5d 5b 15 bd 09 70 54 bd 8c b8 31 bd
       0.09489965 -0.036464084 -0.051864658 -0.04338889
000040 ac eb f6 bd c1 05 26 3c 63 0d 88 3d 95 60 01 be
       -0.120566696 0.010133208 0.06643178 -0.126345
000050 64 d1 93 3d fb 75 00 be 2e 6a 0a bd 54 a2 eb 3a
       0.072176725 -0.12545006 -0.033792667 0.0017977455
000060 e5 4c bc bd d5 20 3f 3d 63 e2 c3 3d 86 b6 cf bb
       -0.09194354 0.04666217 0.09564664 -0.006338897
000070 09 92 10 be be 9a 21 3d a0 c2 b5 bc b7 5d b8 bd
       -0.14118208 0.039454214 -0.022187531 -0.0900225
000080 00 62 0c be 7b 33 99 bd 6f 40 a3 3d 9b 5f 12 be
       -0.13709259 -0.07480522 0.07971274 -0.14294283
000090 b5 d6 df 3d 11 e4 ea 3d ad 01 0a be 79 1a ca bd
       0.10929624 0.114692815 -0.13477202 -0.098683305
0000a0 2d 72 d6 bc 65 9d 6e 3d 5a 8e 2f bd 4f c0 10 be
       -0.02617749 0.058255572 -0.042860366 -0.1413586
0000b0 c4 a5 ed bd e8 18 9f 3d 8f aa ae 3d 56 57 c4 3c
       -0.11603883 0.07768422 0.08528625 0.023967426
0000c0 91 58 f4 3c 4f dd 07 be 39 10 c1 3d 3a 36 a6 3d
       0.029827388 -0.13268016 0.09426922 0.08115812
0000d0 3a 31 52 3d 45 c8 03 bd b5 8b 8e bd ea e3 7c 3d
       0.051316477 -0.032173414 -0.06960241 0.061740793
0000e0 8e c6 f4 3d df e5 29 3d 83 41 11 3d 8f 52 00 bc
       0.11951934 0.041478988 0.035462867 -0.0078321835
0000f0 a5 c9 6b 3d 0a 32 50 3d 5e 77 c6 bd e3 17 c6 3d
       0.05756535 0.05082897 -0.09690736 0.09672525
000100 d8 aa a2 3c 06 24 a1 bd f8 20 91 3d a6 24 e2 bc
       0.019856855 -0.07868199 0.070863664 -0.027605366
000110 d2 24 01 3d 7d 28 5b 3d 8b 9d fc 3a 28 5b 0f be
       0.031529255 0.05350541 0.0019273026 -0.13999617
000120 21 1a d1 bd 72 76 d7 bd eb b0 d1 3d 5e 7f be bd
       -0.10210062 -0.105206385 0.102388225 -0.09301637
000130 7a 65 08 3c de 5c f2 bd 6f 92 a7 3d 33 03 f4 3d
       0.008324975 -0.11834119 0.08182227 0.11914673
000140 29 29 19 3c c5 61 cb bd 82 de c0 bd a5 7b 69 bd
       0.009348192 -0.099307574 -0.0941744 -0.057002682
000150 44 3d 5d bd 5e 99 0c be 5b c2 0b be 4a b3 58 bd
       -0.054013506 -0.1373038 -0.1364836 -0.05290536
000160 8a 8d 0c be ac 03 00 be b0 9e c6 bb 96 28 25 3d
       -0.13725868 -0.125014 -0.0060613975 0.04032191
000170 97 26 20 3d c6 f4 1a 3d dd 41 f4 bd 7a 0b b3 3d
       0.039099302 0.03783109 -0.11926625 0.08742423
000180 1d 53 01 be 2a cc ef bd d9 06 1c be 03 cd 6f bc
       -0.12629361 -0.11708863 -0.15236987 -0.014636281
000190 42 11 21 bc b9 b5 09 bd ae d6 ad bb b4 70 af 3d
       -0.009830775 -0.03362057 -0.005305133 0.08566418
0001a0 ba 29 b8 3d f9 2d 2f 3d 83 e6 b5 3d dd be b9 bd
       0.08992334 0.042768452 0.08881857 -0.090696074
0001b0 1e 2b a3 3d 9b a4 57 bd 73 d3 cc 3c e9 32 53 bc
       0.07967208 -0.052647214 0.02500317 -0.012890556
0001c0 61 19 8d 3d ec d2 54 3d 87 3f 0d be 04 a7 20 3d
       0.06889606 0.051958963 -0.13793765 0.03922178
0001d0 1a fd 4d 3d 94 df cb 3d 2c 25 81 bd 0b 74 01 3e
       0.050290205 0.099547535 -0.06305918 0.12641923
0001e0 5c c1 b3 3d 02 58 a6 bd d8 ef 75 bd 60 24 0e 3e
       0.08777115 -0.08122255 -0.060043186 0.13881063
0001f0 2d 1f e3 bc 88 0a 52 3d 7e ae c0 bd 3a d4 7d bd
       -0.027724827 0.051279575 -0.09408282 -0.061969973
000200 54 1d e4 3d e2 4e 95 3c 52 d4 a1 3d 2a f3 f1 3d
       0.111384064 0.01822609 0.07901825 0.11813958
000210 cf 99 b0 bc e9 40 88 bb 66 1a d8 3d 26 db 74 bc
       -0.021557717 -0.0041581285 0.1055191 -0.014944827
000220 5c 58 0b 3e 46 3d b8 bd fb e6 0f be e5 12 9d bd
       0.13607925 -0.08996062 -0.14052956 -0.076696195
000230 e7 e1 ab 3d ad 4c d7 bd 8b 8d 98 3d 02 fc c7 bd
       0.08392697 -0.105126716 0.07448872 -0.097648636
000240 d5 4d c9 3d a8 0f 0e 3c 72 49 36 3c a3 7e 47 3d
       0.098292984 0.008670725 0.011125909 0.048704755
000250 42 9d 12 3d fa c1 9c 3d 29 a6 f4 bd b4 a5 a4 bc
       0.035794504 0.076541856 -0.11945755 -0.020098545
000260 ce 27 d7 3d ec 8a 56 3d 52 0a fc 3b 98 67 c0 bd
       0.10505639 0.05237858 0.00769166 -0.09394759
000270 42 e4 db 3d ba 78 ae bd fc 3f 97 bc 5e 18 ef bd
       0.10736896 -0.085191205 -0.018463127 -0.116745695
000280 97 af 03 3e 63 1c e1 bd e2 6f a2 bc c9 f1 ee 3d
       0.12859951 -0.109917425 -0.01982874 0.116672106
000290 d1 7c 2b bd 98 f2 13 bd 5e 37 fe 3d f2 4b 02 3d
       -0.04186708 -0.036120027 0.12412904 0.03181071
0002a0 76 20 66 3c 4c 3a 96 3d 9f 14 54 3c fe f1 bd bd
       0.014045825 0.07335338 0.01294437 -0.09274672
0002b0 01 55 57 bd 86 84 28 bd d2 5e fb bd ca 4a c3 3d
       -0.0525713 -0.04114201 -0.12273945 0.09535749
0002c0 79 2f e4 3d 8a d2 08 3e d9 93 09 be e1 a1 75 bc
       0.11141867 0.13361564 -0.13435306 -0.014992208
0002d0 27 75 d9 3d c0 dd 9a bd dc db c8 3d 86 2a 89 3d
       0.10618048 -0.07561827 0.0980756 0.06697564
0002e0 71 55 b7 3d 48 1c a0 3d fb a9 26 bd 9c 9c 42 3d
       0.089518435 0.07817894 -0.04068945 0.047512636
0002f0 7c 7a b7 3d 83 81 89 3c 79 92 dc bb 4f 66 35 3d
       0.08958909 0.016785389 -0.006731328 0.044287022
000300 20 73 14 bd ba 64 c4 bd ca e2 f4 bd 89 55 13 be
       -0.036242604 -0.095895246 -0.11957319 -0.14388098
000310 36 51 8a 3c 95 bd 54 3d 16 e7 fc bd f1 36 97 bd
       0.016884428 0.051938612 -0.12348764 -0.07383526
000320 1f 7d c8 bd 16 d5 d3 3d 00 13 b0 bc 43 16 05 be
       -0.0978949 0.10343377 -0.021493435 -0.12996773
000330 7d f2 c4 bd c7 35 31 bc 59 b1 24 3c c7 b3 34 3d
       -0.096165635 -0.010816044 0.010052049 0.04411676
000340 3a d9 87 3c 95 8f 83 bd 70 1f a9 bd 41 b1 13 bd
       0.016583074 -0.064238705 -0.08257949 -0.036057714
000350 97 0c fb bd 26 fc 36 3d f2 25 98 bd dd 4b c2 bc
       -0.12258261 0.04467406 -0.074291125 -0.023717815
000360 dd a7 7b bd 5f 72 d0 3b ed 9b dd 3d 23 7f f7 3c
       -0.061439384 0.0063612903 0.10820756 0.03021199
000370 ed cf 4e 3d b7 05 c9 bd 57 9c 1a bd 8d f9 06 bd
       0.050491262 -0.09815543 -0.037746754 -0.032952834
000380 f1 fa 76 3d d3 37 50 bd 16 11 1a bd c5 49 b3 bc
       0.06029791 -0.050834488 -0.03761395 -0.021885762
000390 94 a1 51 3d 39 54 86 bd 10 c8 f7 3d ee 9c 47 bd
       0.051179484 -0.06559033 0.12098706 -0.048733644
0003a0 7b 56 52 bd ac ab b0 bd 91 8e 93 3d a9 a6 09 be
       -0.051352005 -0.08626494 0.07204927 -0.13442482
0003b0 be 00 e3 3d 32 d7 1b 3d c1 65 4f bc 54 3c 94 bd
       0.11084126 0.038047023 -0.012658537 -0.07238069
0003c0 0a 25 25 3d 73 1c 66 3d b3 00 bd bd ad ca d3 3d
       0.040318526 0.056179475 -0.09228649 0.10341392
0003d0 cc f3 8e bd 79 36 d6 3d 2f ac cf 3d 6b 64 b8 bd
       -0.06980094 0.104596086 0.10140263 -0.09003528
0003e0 a7 7f 06 bc 2c 33 19 3d cd 8d 28 bd 15 28 a4 bc
       -0.008209146 0.037402317 -0.041150857 -0.020038644
0003f0 f3 cf 0f bd f1 50 a4 bd ba a1 70 bd b1 78 f1 3d
       -0.035110425 -0.08023251 -0.058747984 0.11790598

fc1.bias f4 [50]
000000 c4 41 e1 bc 18 ce 1f 3e b9 76 26 3d ad 66 0d 3e
       -0.02749718 0.15605962 0.040640566 0.13808699
000010 2e 51 8d bd 92 8c 4f bd c1 06 d2 3d d0 a2 95 3c
       -0.069002494 -0.050671168 0.102551945 0.018266112
000020 f7 f7 2d 3d e3 a9 1c be f2 4d 8e bd 79 fb 02 be
       0.042472806 -0.15299182 -0.06948461 -0.12791242
000030 79 18 47 3c 2d e0 1b 3e a7 7f 05 3e 71 42 a1 3d
       0.012151831 0.15222235 0.13036977 0.07874001
000040 3e 58 96 bb 3a 62 04 be e1 4a da bd 70 65 f4 bc
       -0.004588156 -0.12928095 -0.10658813 -0.029833525
000050 8c 12 aa 3c b5 50 b7 3d ef 8d ea 3c cb 0d ab 3d
       0.020760797 0.089509405 0.028632132 0.0835224
000060 f0 eb 53 3d f7 17 c7 bd 68 2a ae 3c 33 1e 06 be
       0.05173868 -0.09721368 0.021260455 -0.13097458
000070 f7 b4 fd bd e5 aa a8 3d 89 61 05 be 73 55 3d 3d
       -0.12388032 0.082357205 -0.13025488 0.04622407
000080 5f dd d7 3d 37 86 cd 3d 5d b0 df bd b9 5b 19 bc
       0.1054027 0.10035365 -0.109223105 -0.009360247
000090 82 33 5c 3d 49 69 d3 bc 3a dc 8f bd f8 80 a2 3d
       0.05376006 -0.02580704 -0.07024427 0.07934755
0000a0 3e 24 f4 bd b1 f2 d6 bd 1f cd 12 3e 3d 53 0d 3e
       -0.11920975 -0.104955085 0.1433606 0.13801284
0000b0 5d da 2f 3d ec 32 31 3c f2 96 18 be a5 b2 d0 bc
       0.042932857 0.010815363 -0.14901331 -0.02547581
0000c0 dc 62 b0 3d 05 3b 96 3d
       0.08612606 0.07335476

fc2.weight f4 [50, 50]
000000 28 b8 02 be d0 94 94 3b 16 96 1a 3d bf e9 be bd
       -0.12765563 0.0045343414 0.03774079 -0.09321927
000010 2b 6c 4e 3d ef 91 e1 3d 01 4e 83 3d 35 e7 9d bb
       0.050396126 0.11014163 0.064113624 -0.004818822
000020 00 76 a4 bd 8d 74 8e bd 26 64 34 3d 51 cb b8 3d
       -0.08030319 -0.06955824 0.04404082 0.090231545
000030 9d 96 75 bb e7 50 0f 3e 4d 09 0f 3e 49 d6 9c bd
       -0.0037473806 0.13995706 0.13968392 -0.07658059
000040 5d 60 d0 bd 72 2b a5 bd 5e 50 a9 bd 42 df b8 bd
       -0.1017463 -0.08064927 -0.08267282 -0.09026958
000050 76 21 03 be e8 c4 5a bd 24 0f eb bd 0d 12 dc 3d
       -0.12805733 -0.05341044 -0.11477497 0.107456304
000060 38 e7 d4 bd 05 4c ad bc 5a ad 98 3d 3e 99 d0 3b
       -0.10395664 -0.021154413 0.07454939 0.006365924
000070 1b d9 0b be f1 0e a6 bb 30 15 fc 3d 07 c4 ee 3d
       -0.13657038 -0.005067699 0.12308729 0.11658483
000080 85 e6 05 be 2a 9e e1 3c 92 c9 1c 3d 50 f8 e8 3d
       -0.13076217 0.027541239 0.03827817 0.11375487
000090 ff 87 f5 bb e2 9e ec bc f6 39 0d be c5 48 b8 3d
       -0.0074930186 -0.028884355 -0.13791642 0.08998255
0000a0 c7 d7 bd 3d 1f 21 80 bd cd 9b 01 3e 82 f4 00 3e
       0.09269672 -0.06256317 0.1265709 0.12593272
0000b0 83 04 28 bd 25 9f 70 3d fe 23 ce 3d aa 41 ba bd
       -0.041019928 0.058745522 0.10065459 -0.09094556
0000c0 1e 38 08 3e 96 6e 28 3d 21 e7 91 3d 83 e8 44 bd
       0.13302657 0.041121088 0.071241625 -0.048073303
0000d0 e9 ed ba bd f8 61 ce 3d 1d 19 16 3d 31 e3 5f bd
       -0.09127409 0.1007728 0.036645044 -0.054660026
0000e0 13 ed 49 bd 34 a8 22 3d 8f 99 b4 bc 3e d6 f5 bc
       -0.049298357 0.039711192 -0.022045879 -0.030009385
0000f0 15 e0 05 3e 75 01 36 3c cb b0 6a 3d 9e a0 a8 bd
       0.13073762 0.011108746 0.05729751 -0.0823376
000100 ca e8 fa 3d bd 3a fd bd f3 45 ea bd 53 25 eb bd
       0.12251432 -0.12364719 -0.11439123 -0.114817284
000110 41 dc 5e bc a1 8b 1a bd 44 a7 9c bd 98 30 ca bd
       -0.013602317 -0.037730817 -0.07649091 -0.0987255
000120 3f 61 1b bd 53 8c 0d be dd 2a cb 3d cf 29 be bb
       -0.037934538 -0.1382306 0.09920285 -0.005803324
000130 33 f1 c6 3c c4 ce e5 bd 0c fb 7b bd fc af a9 bd
       0.024284935 -0.11221078 -0.061518714 -0.082855195
000140 07 71 8a 3d 76 72 f3 3c 95 1b 99 3d f1 6f 87 bd
       0.067598395 0.029717665 0.07475964 -0.06613148
000150 9e be 4c 3d 4a f5 ca 3d a8 aa 02 bc 83 25 d2 bd
       0.049986474 0.099100664 -0.007975258 -0.10261061
000160 53 2e 65 bd a5 17 07 bc 7d 41 ab 3d 00 4e 51 3d
       -0.05595238 -0.008245383 0.083621 0.051099777
000170 5b 2f ec 3d d6 d3 07 3e 9c 27 0e 3d 9b 41 ef bd
       0.1153247 0.13264403 0.034705743 -0.11682435
000180 c5 71 c0 bd 93 84 06 be b7 9e 8d 3d 44 02 85 bd
       -0.093967 -0.1313651 0.06915038 -0.06494573
000190 2b 61 5f 3d 8d 93 c4 bc ec bd ba 3c 75 65 d1 3d
       0.054536026 -0.023996139 0.02279564 0.102244295
0001a0 dd 90 83 3b 72 fa 06 3d 4b 0c 2d 3d b2 e1 a4 bc
       0.004015072 0.032953687 0.04224805 -0.020127151
0001b0 b7 18 b6 bd 04 54 56 bd f3 13 06 3e 45 6d e3 bd
       -0.08891433 -0.052326217 0.13093548 -0.11104826
0001c0 84 e8 60 3d 14 1e c3 bd 18 11 e2 bd 11 d7 65 3d
       0.054909244 -0.09527221 -0.110384166 0.056113306
0001d0 d2 41 86 bd 8e d4 a0 3d 38 b0 05 3e 53 8f e6 3d
       -0.06555523 0.078530416 0.13055503 0.11257806
0001e0 c2 39 06 3c 1c 44 dd 3d 14 b4 98 bc 73 1c cf bd
       0.0081924815 0.108040065 -0.018640555 -0.10112848
0001f0 0f e8 10 3e 6b f2 16 bc 6f b3 d8 3d 9f 60 5a 3d
       0.14151023 -0.00921307 0.10581099 0.0533148
000200 4e 25 57 bc d3 75 07 be dc c5 e8 bd ff b1 7b bd
       -0.013131453 -0.1322854 -0.11365864 -0.061449047
000210 26 df 03 be 15 e0 e7 bd 23 5d 89 3d 16 a5 b6 3d
       -0.12878093 -0.11322037 0.067072175 0.089182064
000220 c4 c1 98 3c ba d9 60 3c b4 4e 80 3d 8f bc ae bd
       0.018647082 0.013723785 0.062650114 -0.085320584
000230 14 73 09 be 0b 11 cb bd 6e 47 04 bb 91 99 34 bd
       -0.13422805 -0.0991536 -0.0020184177 -0.044091765
000240 50 fb ee 3d 19 02 00 3e b4 23 5c bc 89 ab e3 3d
       0.11669028 0.125008 -0.013436247 0.11116702
000250 43 fc df 3b 5b 54 5f 3d a8 3a d3 3d 31 37 f1 3c
       0.006835492 0.054523807 0.10313922 0.029445263
000260 d7 e8 08 be 97 e2 0b 3c ac 89 d7 3d a4 10 f4 3d
       -0.13370071 0.00853791 0.10524306 0.119172364
000270 98 28 c4 bd 4f a4 0b 3d 5b ae c4 3d 49 7f 7b bd
       -0.09578055 0.034092244 0.09603568 -0.061400685
000280 1e 34 84 bd 38 07 5e 3c 23 26 e4 bb ac 04 13 bd
       -0.06455253 0.013551526 -0.006962554 -0.035893127
000290 18 dc bb 3d 65 16 b5 bd ed 3d 0a be a5 05 ac 3d
       0.09172839 -0.08842162 -0.13500185 0.08399514
0002a0 b4 c3 ab 3c a2 e9 0e be b3 b4 f1 3d 9e 4e 00 be
       0.020967342 -0.13956311 0.11802044 -0.1252999
0002b0 da c0 d1 3d bd d2 02 bd 73 77 ee bd 89 e1 ac 3d
       0.10241862 -0.031939257 -0.11643877 0.08441455
0002c0 c4 da ed bd 63 61 48 3d 44 82 41 bd eb 7d c9 bd
       -0.11613992 0.048921 -0.04724337 -0.0983847
0002d0 5d 66 2e 3d c2 ed b8 3d d3 cf 92 bd 98 50 b5 3d
       0.04257809 0.09029724 -0.071685456 0.08853263
0002e0 36 ba 70 bc ba e3 9b 3c 99 47 cb bd 65 ce ce bd
       -0.014692834 0.019029487 -0.099257655 -0.100979604
0002f0 3c a4 ca bd 45 e0 c5 3d e6 4e c9 3c b1 11 f8 bd
       -0.098946065 0.09661917 0.024573755 -0.12112749
000300 f5 6f ca 3d 6d 60 6b 3d 8a 08 b8 bc ba 1c ef bc
       0.09884635 0.057465006 -0.02246501 -0.029188503
000310 2d d9 46 bd 66 b0 e8 bd 41 29 0c be 21 7d 7d 3d
       -0.04854696 -0.1136177 -0.13687612 0.06188691
000320 ad 10 08 3e 28 7e 06 3d 5b 04 15 3d 7c db 00 3d
       0.13287611 0.032835156 0.036381107 0.031459317
000330 3e 6d 56 bd 2f ef 9b 3d cb f5 01 3a 71 d4 c7 bd
       -0.052350275 0.0761398 0.00049575855 -0.09757317
000340 08 cc c1 bd 78 9c 9f bd 6a 63 ea 3d f1 5f ba bd
       -0.09462744 -0.07793516 0.11444743 -0.091003306
000350 c7 f3 da 3d 71 ce cf bc 33 27 d7 3d 17 42 3b bc
       0.10691028 -0.025366994 0.105055235 -0.011429331
000360 d8 1c 5d bd 19 7b 8a bd 1e 0a e5 3d 80 8e c0 3d
       -0.053982586 -0.0676176 0.1118357 0.0940218
000370 30 12 e5 bd de a1 cb 3d 3c 46 e1 3d 9f 06 f5 bd
       -0.111851096 0.09942983 0.10999724 -0.119641535
000380 c5 03 92 3d 5f c9 b4 bd 06 7d 06 3e a3 2a de bc
       0.07129625 -0.08827471 0.1313363 -0.02711994
000390 11 9f 23 bd 20 4f 71 3d 83 64 02 bd 20 c2 d7 3d
       -0.03994662 0.05891335 -0.031834137 0.10535073
0003a0 0f 6d ec 3d e1 f4 fc 3b cd 77 b8 bd 85 e3 d1 bc
       0.11544239 0.0077196215 -0.09007225 -0.025621185
0003b0 b7 0e 56 bd 73 bf 1d bd fc 17 88 3d 6c 6a 92 3d
       -0.052260127 -0.03851266 0.066452 0.071492046
0003c0 b9 7e 82 bc 5d f7 19 3e d3 d4 1a 3e 8a 6d 03 be
       -0.015929567 0.15035768 0.15120248 -0.12834755
0003d0 87 cc f6 bd b1 0b 80 3d 14 8c a0 bd ca a8 27 3d
       -0.12050729 0.0625223 -0.07839218 0.040932454
0003e0 74 4a fb bd 03 86 9d bd d2 df ab bd 35 57 d0 3d
       -0.1227006 -0.07691576 -0.083923 0.101728834
0003f0 4b 60 ec 3c a9 7f 12 3e bf 5b 2e 3d cb 22 6f bd
       0.02885451 0.14306511 0.042567965 -0.05838279

fc2.bias f4 [50]
000000 79 8d 38 3d 83 0f 2a bd 07 a6 98 3d 1e 11 fe 3d
       0.045056794 -0.0415187 0.07453542 0.124056086
000010 94 e1 96 3d 43 34 7a bd b4 f2 44 3d d8 e4 a2 bd
       0.07367244 -0.061084997 0.048083022 -0.07953805
000020 7f f6 d8 3d c1 a9 98 3c 33 83 e8 bb 28 f3 bb 3d
       0.105938904 0.018635632 -0.0070957183 0.09177238
000030 64 9c b9 3d 4a ce e1 ba db 14 95 bd 3f 48 d5 bd
       0.09063032 -0.0017227617 -0.072793685 -0.104141705
000040 17 51 bb bd ab 42 d5 3d 41 31 ac bd ba 10 98 bd
       -0.09146326 0.104131065 -0.08407832 -0.07425065
000050 bc 8a 01 bc 74 d6 e4 bd 52 14 cb 3d d1 11 56 3d
       -0.007906612 -0.11173716 0.09915985 0.052263085
000060 ab c5 17 be 63 d1 67 bb 81 20 0f be 82 bb a6 bd
       -0.14821498 -0.0035372607 -0.13977243 -0.08141233
000070 e4 1a 01 3d 2f 0c 25 3d 9c 37 0d 3e 75 c2 18 3d
       0.031519786 0.040294822 0.13790745 0.037294824
000080 55 c5 13 3e 6d 3c a2 3d b0 7c ee bd 01 b2 a9 bc
       0.14430745 0.079216816 -0.11644876 -0.020714762
000090 22 89 bd bd 83 18 c7 3d 8a a1 f8 bd f1 0f 99 3b
       -0.09254672 0.09721472 -0.12140186 0.00467109
0000a0 c8 64 95 3d 30 b0 51 bc 75 ec ee 3d 99 8b 08 3e
       0.07294613 -0.012798354 0.11666194 0.13334502
0000b0 e6 48 a9 3d e6 ef 94 3d b0 cd e6 bd 0f ee 45 bd
       0.082658574 0.072723195 -0.112697005 -0.048322733
0000c0 d6 c1 04 be 26 16 e2 bc
       -0.12964568 -0.027598452

fc3.weight f4 [13, 50]
000000 a8 00 10 bd 3a ce ad 3d 05 0a cc 3d f5 9d 48 3c
       -0.035156876 0.084866 0.099628486 0.012244691
000010 b3 50 b2 bd 4c 25 8d 3b 85 92 be 3d e3 45 36 bd
       -0.087067984 0.0043074246 0.0930529 -0.044500243
000020 15 35 bc 3c 2f 86 da 3d 3a 9d 1c be ad f9 d9 bb
       0.02297453 0.10670125 -0.15294352 -0.006652078
000030 7d bb 65 bb cc 74 fd 3d 1e f9 f8 bd 88 a2 75 bd
       -0.0035054379 0.12375793 -0.1215689 -0.059969455
000040 c4 63 c6 bd 82 6c bb 3d b9 6e 38 3c 7d 41 a3 bc
       -0.096869975 0.091515556 0.011256867 -0.019928688
000050 d2 a4 de 3d 77 a5 82 bd 43 e5 99 bc ed eb 0d 3c
       0.10871281 -0.06379216 -0.018786078 0.008662206
000060 5a 12 e9 bc 8c 93 eb bc b4 b8 d3 3d c2 3f fa 3d
       -0.028451134 -0.02875688 0.10337964 0.12219192
000070 d1 6a c0 3d 4f ff d8 bc 4d 91 a3 bd 00 17 01 3d
       0.093953736 -0.026488928 -0.07986698 0.031516075
000080 82 76 e6 bd 16 c4 e4 3d 7c 22 0e be 74 92 86 bd
       -0.11253072 0.11170213 -0.13880342 -0.065709025
000090 15 16 ef bd 33 a0 15 3d 8e b2 db 3c 00 cd 1c bd
       -0.11674134 0.03652973 0.02681854 -0.03828144
0000a0 42 63 c0 3d 1b 7f 2e 3d 67 f1 80 bd d7 12 11 be
       0.09393932 0.042601686 -0.06296044 -0.14167343
0000b0 a9 d3 a5 bd 84 b8 3f 3c 45 07 9f bd dc 77 2e bd
       -0.080970116 0.011701707 -0.077650584 -0.042594776
0000c0 5e d4 0d 3d 05 0c f7 3d 71 82 87 3d 0c 4b 6d bd
       0.034626357 0.120628394 0.066166766 -0.0579329
0000d0 d5 5b 21 3a 9f 35 df bd 7b 0c 2f bb 56 50 a4 bd
       0.00061553466 -0.10898899 -0.002671032 -0.08023135
0000e0 7c 55 84 3c 89 ed ff 3d e5 12 b5 bd 2d 95 aa 3b
       0.016154043 0.12496478 -0.088414945 0.0052057714
0000f0 c1 94 e7 bd c5 84 aa 3d ef 7b c3 bd 66 89 a8 bb
       -0.113076694 0.08326105 -0.09545123 -0.0051433323
000100 aa 24 27 3c 02 d3 b3 bd 35 05 da bd dd 31 8b bd
       0.0102016125 -0.08780481 -0.106455244 -0.0679662
000110 ed 32 80 3c e3 d1 bc 3d fc 21 09 be 0b 81 a5 ba
       0.015649283 0.0921972 -0.1339187 -0.0012626959
000120 77 7e 06 be f3 0e af 3d 40 a8 c4 3d fd 64 0e be
       -0.1313418 0.08547773 0.09602404 -0.13905711
000130 fb c5 ac 3d 34 11 50 3d d3 3e 6f bd 4a 6c 50 bd
       0.08436199 0.050797656 -0.058409523 -0.050884522
000140 21 95 be 3c 5a 85 3d bd 4d 44 d4 bd a6 28 cf 3d
       0.02326447 -0.046269752 -0.1036459 0.10115175
000150 54 88 ba 3d f9 4c de 3d 24 87 a1 3c 2c 78 22 bc
       0.09108034 0.10854525 0.01971776 -0.0099163465
000160 5f 02 88 3d 72 dd d9 3c 43 5f f3 3b 2c ef ac bd
       0.06641077 0.026594851 0.0074271276 -0.08444056
000170 c9 f8 13 bd a7 a8 66 3d 15 ce b2 bc 95 a7 b3 3d
       -0.036125932 0.056313183 -0.021826783 0.08772198
000180 68 49 cc bd 36 2c 84 3c f0 0d db 3d c0 45 ac bd
       -0.09974939 0.016134363 0.10696018 -0.08411741
000190 69 58 b8 bd d9 f1 49 3d 14 bd d3 bd ff b8 8a 3c
       -0.09001238 0.04930291 -0.10338798 0.016933916
0001a0 cf 82 21 be b9 27 23 ba a7 9d fd bd a1 fc 05 3e
       -0.15772556 -0.00062238757 -0.123835854 0.13084652
0001b0 27 30 45 bd 49 aa c0 bd b5 dc 09 be 21 03 26 bc
       -0.048141625 -0.09407479 -0.134631 -0.010132582
0001c0 84 ef f2 bc dc 47 ae bd dc d8 9a 3d 4a 79 1b be
       -0.029655226 -0.085098 0.07560894 -0.15182987
0001d0 2d 26 c4 3d ca 9d 57 3d 9a 80 ad 3c 4d af 1c be
       0.09577594 0.052640714 0.021179486 -0.15301247
0001e0 c0 92 71 bd 81 e5 73 3d 8a c1 f9 bc 08 e0 0e be
       -0.058977842 0.059545044 -0.030487794 -0.13952649
0001f0 03 7c 62 bd fd 82 b2 3d 6c 6c e0 3a 05 8b 2f bd
       -0.055294048 0.0871639 0.0017122156 -0.04285719
000200 1c 64 f2 bc aa ad cf 3d d2 51 f2 bc 41 e4 7a 3d
       -0.029588751 0.10140546 -0.02958003 0.061252836
000210 90 5d b5 bd 73 33 cd bd fd a1 7b bc b9 76 18 3d
       -0.08855736 -0.10019579 -0.015358445 0.037222598
000220 88 d8 bd 3d 5b 1a 2d 3d a8 78 c5 3c 81 4a d6 bd
       0.09269816 0.042261463 0.024105385 -0.10463429
000230 b8 12 8a 3d 85 cc 04 be f4 4a 11 3b 60 2c 5c 3d
       0.067418516 -0.12968643 0.002216992 0.053753257
000240 62 eb 90 3c cb bf 9d 3d 31 ff a4 bc bc 98 94 bd
       0.017690364 0.07702597 -0.020141216 -0.07255694
000250 a2 61 cf bd c7 7a 0a bd 69 c6 f7 bd 66 16 87 3b
       -0.10126044 -0.033808496 -0.120983906 0.004122543
000260 d9 cc 11 be 32 5d 9d 3d 7a cd e0 3d 57 03 8d bd
       -0.142383 0.07683791 0.109766915 -0.06885403
000270 3c 1c 95 bd fc 4d 95 bd f3 98 bf 3d f2 f8 63 3d
       -0.07280776 -0.07290265 0.093553446 0.055657335
000280 c7 c7 91 3d 97 17 e7 3a 6b 0d 70 3c 1a 0d b0 3d
       0.07118183 0.0017630932 0.014651637 0.08596249
000290 ba 21 0b be 75 cc 14 be 1a a1 e4 bc 20 9a 82 3c
       -0.13587084 -0.14531119 -0.02790885 0.015942633
0002a0 b9 d1 84 bb a4 f1 dc 3d 62 f4 c6 bd 02 95 43 bd
       -0.004053321 0.10788277 -0.09714581 -0.047749527
0002b0 43 fd 92 3c 08 b0 80 bd 14 24 73 3d fb e2 57 bd
       0.01794303 -0.06283575 0.05936058 -0.0527067
0002c0 d0 9b 2b 3d 46 37 e9 3c ed f1 64 3d a6 0d 31 3c
       0.04189664 0.02846874 0.05589478 0.010806477
0002d0 b7 47 1f bd 58 67 9a bd d9 0b ae 3d 50 9a 40 bd
       -0.038886752 -0.075392425 0.084983535 -0.047022164
0002e0 79 15 a2 3d 59 1d b6 bd cc ff 5d bd cc 99 a5 bd
       0.07914252 -0.08892316 -0.054199025 -0.08085975
0002f0 f0 1b e3 bd 09 49 06 bd f0 97 57 3d 22 f3 a3 bd
       -0.11089313 -0.032784496 0.052635133 -0.08005358
000300 6d d8 a1 bd c3 31 a7 bd c4 e2 14 be 09 1f 99 3c
       -0.07902608 -0.08163788 -0.14539629 0.018691557
000310 98 34 c8 bd 90 fb 08 3e f4 45 09 be 01 8c f6 bd
       -0.097756565 0.13377213 -0.13405591 -0.120384224
000320 51 31 a5 3d a1 ef 01 3d 33 7b e5 bd dc 46 97 bd
       0.08066047 0.03172267 -0.11205139 -0.07386562
000330 ec 16 b7 bd 43 70 10 be 28 f9 12 be f6 de fe bd
       -0.08939919 -0.14105324 -0.14352858 -0.1244487
000340 94 54 cf 3d 25 6f df 3d 5e 76 06 be 8f fb db bd
       0.10123554 0.10909871 -0.13131091 -0.1074134
000350 09 79 91 bc 30 a2 08 be fa 3f 3b 3d 99 6d b4 3c
       -0.01775791 -0.1334312 0.04571531 0.022024916
000360 ea 8e 24 bb 7f c3 8d bd 32 1c 0e be 47 c4 ae 3d
       -0.0025109597 -0.069220535 -0.13877943 0.08533531
000370 4c 92 cc 3d 25 ed e9 bc 2e ae 00 bd e0 d7 f6 3c
       0.099888414 -0.028555462 -0.03141611 0.030132234
000380 60 07 e6 bc 0f 89 c1 3c 75 73 e2 3d ac ea 03 be
       -0.028079689 0.023624925 0.11057178 -0.12882489
000390 b9 f3 7b 3c 00 34 f4 bd 0f 45 aa bd 40 60 06 3d
       0.015377932 -0.11923981 -0.08313953 0.032806635
0003a0 75 40 19 3d ef bf 88 bd a3 34 ce 3d d2 5c 4f 3c
       0.037414987 -0.066772334 0.100686334 0.012656407
0003b0 f4 76 7f 3d 60 39 dc bc 1c a8 aa 3c 94 ca 86 bd
       0.062369302 -0.026882827 0.020832114 -0.065816075
0003c0 04 eb 0b be bf 0c dd b8 d7 6b 9b 3d 65 c7 00 bc
       -0.1366387 -0.00010540475 0.07588928 -0.007860039
0003d0 57 02 41 bd cf 45 90 3d da f8 03 be b9 a4 da bd
       -0.047121372 0.07044565 -0.12887898 -0.106759496
0003e0 ed 3d 98 bd 98 fb c9 bd 78 d4 48 bd 45 22 d7 3d
       -0.074336864 -0.09862441 -0.04903075 0.10504583
0003f0 42 49 fb bd fa 30 a7 3d d6 19 8b bd b2 35 0f be
       -0.12269832 0.081636384 -0.06792037 -0.13985327

fc3.bias f4 [13]
000000 70 52 84 3d 5e 25 f2 bd 25 b2 87 3d d5 1d 9a bb
       0.06461036 -0.118235335 0.06625775 -0.0047032633
000010 21 f0 3d bd 01 ff 8b 3c 2b 35 a7 bc 75 68 85 bc
       -0.046371583 0.017089369 -0.020411095 -0.01628516
000020 ff fe 01 3e bd b7 18 be 40 1a 77 3d c6 12 42 3d
       0.1269493 -0.1491384 0.06032777 0.047381185
000030 ff 3a 0e 3d
       0.03472423
