TorchModels/DeepQtrader45.pt (torch, 25047 bytes, 6 tensors)

fc1.weight f4 [50, 50]
-0.05998159 -0.10180119 0.09319094 -0.086971276 0.11953233 -0.12592916 -0.10568904 -0.06384576
-0.0034316084 -0.10335531 0.074731104 -0.023218947 0.032763727 0.1204298 -0.08321438 0.08017807
0.121430576 -0.008813845 0.0067822114 -0.056136724 0.05755293 0.11695848 0.13890003 -0.014820557
0.04841745 0.09504355 -0.08683669 0.07330953 -0.08001257 0.04260294 -0.011122331 -0.08324403
-0.024923623 -0.056275025 0.12569828 -0.034474306 0.02665703 -0.0030185513 0.016732562 0.107988514
0.029637864 0.060235888 0.09989554 0.016947614 -0.059260022 0.018633174 -0.007498266 -0.08328806
0.052322295 -0.010030558 0.110362336 0.12335813 0.061368927 0.036500424 -0.0687329 -0.0072930013
0.030860424 0.014098535 -0.060596317 -0.05531769 -0.03766201 -0.01957327 0.014951809 -0.071984194
-0.013473674 0.07626911 -0.0730157 -0.10139633 0.115729295 -0.026253104 -0.03239858 -0.09761463
-0.013171871 -0.09141149 0.12192868 -0.023235928 -0.05390017 0.12107595 -0.062100433 -0.11634286
0.006981726 -0.14337216 0.018225381 0.12220262 0.1144884 0.05513963 -0.013837843 -0.010774495
0.072294734 -0.06242073 -0.1068762 -0.009965322 -0.054528162 -0.072582394 -0.02361631 -0.076918215
0.11590983 0.08811675 -0.10372974 -0.10396388 0.061350815 -0.028869675 -0.1251501 0.08987989
-0.10900006 -0.123063706 0.077124104 -0.017776564 -0.06172039 -0.046555467 0.13867019 -0.12261308
-0.04440599 -0.11271585 -0.07656048 0.08455283 -0.1154213 0.010572343 0.031422112 0.09419812
-0.040470153 -0.06559557 -0.018712314 0.011911715 0.034671936 -0.114575714 0.048463278 -0.08334601
-0.03448763 -0.067172155 0.121969365 0.059177157 0.0983198 -0.016278442 -0.06555184 0.01701118
-0.11067284 -0.03197207 0.023557337 -0.025441235 -0.028465744 0.0759635 -0.0040472215 0.008523792
-0.0020636579 -0.019362578 -0.021871848 -0.022187812 -0.012222327 0.0063201864 -0.046315145 -0.080099344
-0.04038472 -0.035512283 0.10092137 0.1076207 0.055890907 0.04450876 0.07380282 0.027676474
-0.009938626 0.07915541 0.07224467 -0.011229033 -0.047334634 0.042397868 0.13011687 0.0028650796
-0.08790866 0.0075669074 -0.07555634 -0.07412063 -0.09269981 0.07203726 0.083082564 0.057666216
-0.02203988 -0.063331164 0.0694408 0.11753604 -0.10489103 -0.048627455 -0.09217504 0.050384257
-0.046228077 0.061329987 -0.0059106527 0.13392241 0.13641545 -0.07905297 0.0022972669 0.052301265
0.08198604 0.04859041 -0.10347212 0.029095257 0.14282946 -0.0155224055 -0.099002 -0.049907126
0.016435994 -0.046746854 -0.02384178 0.100070655 -0.011352864 0.09296511 0.031566028 0.09659768
0.1092262 -0.1225345 0.03376444 -0.12433868 -0.017488562 -0.11661311 -0.008638592 0.053445105
0.0852669 -0.05308882 -0.07883404 -0.13815738 -0.091242954 0.08251724 0.13027827 -0.01688206
-0.12618092 0.012271545 -0.06082714 -0.04253421 0.029669298 0.079671174 0.12652153 -0.059992276
-0.10134315 -0.046855006 0.06936305 -0.020290151 -0.09406199 0.11062602 0.09337035 0.10176567
-0.11301106 -0.12282539 0.045200292 0.069916576 -0.12520166 0.11986772 -0.07635154 0.038010627
-0.0884557 -0.053838648 0.11552066 -0.062467165 0.012869554 0.11344596 -0.011835934 0.006729491
00000000: 41af 75bd 247d d0bd e4da be3d ff1d b2bd
00000010: 5ecd f43d 93f3 00be 7f73 d8bd 91c1 82bd
00000020: d6e4 60bb f3ab d3bd 9f0c 993d a935 bebc
00000030: 4233 063d e6a3 f63d 4d6c aabd 6634 a43d
00000040: 98b0 f83d f267 10bc 503d de3b 9fef 65bd
00000050: 9fbc 6b3d ed87 ef3d cf3b 0e3e ecd1 72bc
00000060: 6051 463d 31a6 c23d 6fd7 b1bd 4f23 963d
00000070: a1dd a3bd 6c80 2e3d 703a 36bc d97b aabd
00000080: a02c ccbc a480 66bd 0db7 003e ee34 0dbd
00000090: d85f da3c e3d2 45bb ba12 893c 1529 dd3d
000000a0: 1bcb f23c e8b9 763d 0896 cc3d b9d5 8a3c
000000b0: a3ba 72bd 99a4 983c 04b4 f5bb ee92 aabd
000000c0: e74f 563d 3657 24bc a605 e23d 30a3 fc3d
000000d0: fc5d 7b3d 7881 153d d6c3 8cbd 21fa eebb
000000e0: 00cf fc3c 8bfd 663c d833 78bd cd94 62bd
000000f0: 7b43 1abd 1f58 a0bc 6ff8 743c 736c 93bd
00000100: afc0 5cbc fb32 9c3d 4189 95bd e1a8 cfbd
00000110: 7b03 ed3d c010 d7bc 60b4 04bd 2eea c7bd
00000120: d5ce 57bc f335 bbbd beb5 f93d 4659 bebc
00000130: 6dc6 5cbd abf6 f73d 065d 7ebd 2a45 eebd
00000140: f6c6 e43b 27d0 12be 654d 953c 5e45 fa3d
00000150: e578 ea3d 18da 613d 1fb8 62bc 8287 30bc
00000160: 430f 943d e1ac 7fbd e9e1 dabd 9745 23bc
00000170: ec58 5fbd 14a6 94bd fe76 c1bc 4c87 9dbd
00000180: 2262 ed3d 8e76 b43d 4270 d4bd 04eb d4bd
00000190: fe4a 7b3d 1980 ecbc 5927 00be f312 b83d
000001a0: 6c3b dfbd d308 fcbd 3ef3 9d3d 28a0 91bc
000001b0: 85ce 7cbd f2b0 3ebd 8fff 0d3e 911c fbbd
000001c0: 0ee3 35bd 91d7 e6bd becb 9cbd 092a ad3d
000001d0: 0162 ecbd 9f37 2d3c 79b4 003d f2ea c03d
000001e0: 08c4 25bd f856 86bd 914a 99bc 5b29 433c
000001f0: 2904 0e3d aca6 eabd 6e81 463d 50b1 aabd
00000200: e742 0dbd 8e91 89bd 13cb f93d bf63 723d
00000210: e45b c93d 5e5a 85bc 0b40 86bd 085b 8b3c
00000220: 71a8 e2bd 25f5 02bd 51fb c03c 236a d0bc
00000230: fe30 e9bc c092 9b3d 8e9e 84bb 60a7 0b3c
00000240: 6f3e 07bb 459e 9ebc 972c b3bc 37c3 b5bc
00000250: 2840 48bc 9119 cf3b f3b4 3dbd 200b a4bd
00000260: 736a 25bd 5475 11bd ddaf ce3d 3e68 dc3d
00000270: dded 643d d14e 363d ef25 973d c6b9 e23c
00000280: 9ed5 22bc 3b1c a23d 03f5 933d faf9 37bc
00000290: f6e1 41bd 63a9 2d3d 5b3d 053e 0fc4 3b3b
000002a0: 7509 b4bd d2f3 f73b 48bd 9abd 8fcc 97bd
000002b0: 66d9 bdbd 4588 933d 3127 aa3d 6933 6c3d
000002c0: fa8c b4bc c5b3 81bd fa36 8e3d bcb6 f03d
000002d0: 1cd1 d6bd 952d 47bd 44c6 bcbd b95f 4e3d
000002e0: a759 3dbd 2735 7b3d 26ae c1bb f522 093e
000002f0: 7eb0 0b3e 86e6 a1bd be8d 163b da39 563d
00000300: 4ce8 a73d bd06 473d 31e9 d3bd 2d59 ee3c
00000310: e341 123e b051 7ebc 90c1 cabd 6a6b 4cbd
00000320: c7a4 863c a179 3fbd d64f c3bc d8f1 cc3d
00000330: 5d01 3abc 7e64 be3d 614b 013d 01d5 c53d
00000340: fcb1 df3d 5ef3 fabd 954c 0a3d 47a5 febd
00000350: 2c44 8fbc dbd2 eebd e288 0dbc 41e9 5a3d
00000360: 6aa0 ae3d aa73 59bd be73 a1bd 2179 0dbe
00000370: 96dd babd ccfe a83d ab67 053e 3f4c 8abc
00000380: 9235 01be 970e 493c e125 79bd 5a38 2ebd
00000390: 070d f33c a42a a33d dc8e 013e 76ba 75bd
000003a0: ff8c cfbd 09eb 3fbd 370e 8e3d 8837 a6bc
000003b0: 93a3 c0bd e58f e23d f438 bf3d 856a d03d
000003c0: 5872 e7bd e18b fbbd f123 393d 6c30 8f3d
000003d0: dd34 00be 357d f53d 325e 9cbd 08b1 1b3d
000003e0: 4328 b5bd ea85 5cbd 1996 ec3d 92dd 7fbd
000003f0: d2da 523c 5b56 e83d 81eb 41bc 1083 dc3b

fc1.bias f4 [50]
0.027425619 -0.057218738 -0.122861296 0.115642495 -0.05769684 0.098768316 -0.0324168 0.12140423
-0.050317198 0.027115004 -0.08603791 0.12938821 -0.06173689 0.013850546 0.050232586 -0.06372576
0.085495524 -0.09704942 0.1342053 -0.053977083 -0.063482486 -0.04418424 -0.09909649 0.056717686
0.10369784 -0.02992281 -0.092293814 0.0747411 0.11308739 0.1164347 0.080477595 0.052007154
0.13786139 0.1239356 0.09901648 0.048880775 0.12780496 0.024790173 -0.029896684 0.021073107
-0.123930186 -0.068605505 -0.11168271 0.12221359 -0.12494255 0.033885285 0.13010955 -0.03923444
0.05443437 -0.13227034
00000000: b1ab e03c 325e 6abd b49e fbbd f9d5 ec3d
00000010: 8653 6cbd 0b47 ca3d 7ac7 04bd c8a2 f83d
00000020: 6819 4ebd 4920 de3c a534 b0bd 587e 043e
00000030: d2df 7cbd 67ed 623c afc0 4d3d a782 82bd
00000040: 4718 af3d d9c1 c6bd 1d6d 093e 1317 5dbd
00000050: 1b03 82bd 89fa 34bd 1af3 cabd ce50 683d
00000060: 885f d43d ae20 f5bc 8a04 bdbd dd11 993d
00000070: 5d9a e73d 5175 ee3d 70d1 a43d 7405 553d
00000080: 892b 0d3e f3d1 fd3d 27c9 ca3d 3537 483d
00000090: 4edf 023e c314 cb3c e4e9 f4bc 82a1 ac3c
000000a0: 1ccf fdbd 0b81 8cbd e8b9 e4bd 1e4b fa3d
000000b0: e1e1 ffbd 4ccb 0a3d 703b 053e 4bb4 20bd
000000c0: 93f6 5e3d e071 07be

fc2.weight f4 [50, 50]
0.046289355 -0.097668074 -0.030863209 0.12091542 0.07551614 -0.13697532 0.017417267 0.04227265
-0.07511267 0.108950526 0.118201524 0.12286837 -0.011638651 -0.0726585 -0.1231342 0.05963454
-0.06505997 -0.10624989 -0.043753795 -0.03411979 0.018072769 -0.13824446 -0.084337875 0.010912557
0.090673365 0.023899263 -0.09729471 -0.008042921 0.048623405 0.083956935 0.12997618 -0.035150014
-0.08955042 0.100218095 -0.10955481 -0.0531318 -0.06404063 0.00600082 0.08462665 -0.040542077
0.074171126 0.1336938 -0.079449415 -0.0063297106 -0.028269948 0.09002384 -0.08597307 -0.11856929
0.07515415 -0.090399206 0.057719547 0.14176512 0.05018021 -0.11587046 0.08716921 -0.13820282
0.041351665 0.011943336 0.046951193 -0.117996514 0.024075856 -0.11667439 0.029598637 0.093889914
0.14260818 0.060347497 -0.14117989 0.08375226 0.13069288 0.05404464 -0.13514988 -0.043774918
0.0110357255 -0.06701443 -0.057651114 -0.033982765 0.05530746 -0.017941168 0.039600838 0.10657881
-0.14018488 -0.10154762 -0.025990918 -0.046985928 0.028393093 0.047720637 -0.07791685 0.0015970623
0.096369244 -0.02193202 -0.022855408 -0.10801874 -0.08337493 -0.021876274 0.012706532 0.05065705
-0.11665151 -0.00044938602 -0.054795846 0.027798906 -0.05061618 0.046237495 -0.017533189 0.13666174
0.012573501 0.018324781 -0.102855206 -0.031010844 0.052634142 -0.016166141 0.07110099 -0.118916266
-0.017007465 0.048898738 -0.006868888 0.12599245 0.08624364 -0.12061629 0.06875441 -0.1366947
-0.08478503 0.019867193 -0.09165483 -0.11933939 -0.08575157 0.050271098 0.00309573 0.0621497
0.11238795 -0.08823797 0.10764633 -0.03801346 -0.045525208 -0.08747401 0.008485747 -0.11255668
-0.12545586 -0.116178796 -0.046600256 0.1387022 -0.09950452 -0.029760245 -0.08821523 -0.072813556
-0.006443112 -0.056421004 0.07396261 -0.036627572 0.12342141 0.09432786 0.08226947 0.03853266
0.037035175 0.08727756 0.0334766 -0.08395117 -0.12319794 -0.026406694 -0.07567692 -0.100456335
-0.11950283 0.050283402 0.12427522 -0.06335119 0.04370587 -0.07213129 -0.031882882 0.1207109
0.11807474 -0.07292566 0.096579686 0.13586186 0.009685869 -0.10642047 -0.089879215 -0.042041454
0.1159578 0.03783133 -0.012986603 -0.1419945 -0.12087355 0.07286469 -0.049317736 0.05185325
-0.11176311 -0.052993186 -0.10421832 0.040903013 0.056076568 0.12992029 -0.103919476 -0.13324618
0.044845838 -0.05904668 0.036033932 0.019664126 -0.13215357 0.10021546 0.060050603 -0.06393598
0.02371899 -0.021629667 -0.06546317 0.010546811 -0.027337056 -0.12665598 0.036365457 -0.08177028
0.028250063 0.13394421 0.008810944 -0.008756297 0.07274906 -0.10071871 -0.11439823 -0.08935921
-0.0774332 0.09707984 0.050585523 0.0031141364 0.13897645 0.10768276 -0.036413018 -0.10141355
-0.018213866 0.07164031 0.101481326 -0.07425131 0.08793014 0.063266836 0.13462898 -0.058257822
0.11942876 0.040335502 0.034150545 0.1205881 0.0633715 0.10565144 0.1371914 0.10381584
-0.09490259 0.067572385 0.07524697 -0.12318204 -0.061373215 0.06514951 0.1043625 -0.021770822
0.053894185 0.1183143 -0.1287519 -0.013568433 -0.07305403 -0.054848146 0.12590677 -0.08539306
00000000: e899 3d3d 3306 c8bd d7d4 fcbc 81a2 f73d
00000010: 35a8 9a3d 4243 0cbe a8ae 8e3c 1626 2d3d
00000020: acd4 99bd 7421 df3d a413 f23d 69a2 fb3d
00000030: 0ab0 3ebc fbcd 94bd c92d fcbd 5943 743d
00000040: 293e 85bd 8b99 d9bd 2e37 33bd 31c1 0bbd
00000050: 580d 943c f58f 0dbe 56b9 acbd 95ca 323c
00000060: f5b2 b93d 63c8 c33c 7342 c7bd 75c6 03bc
00000070: 5629 473d 9df1 ab3d 7a18 053e 76f9 0fbd
00000080: 3666 b7bd 253f cd3d 465e e0bd bba0 59bd
00000090: bc27 83bd 87a2 c43b bd50 ad3d 730f 26bd
000000a0: 08e7 973d 07e7 083e 60b6 a2bd 7669 cfbb
000000b0: 6196 e7bc 6b5e b83d a612 b0bd 75d4 f2bd
000000c0: 6bea 993d 3823 b9bd 556b 6c3d e02a 113e
000000d0: c489 4d3d 7e4d edbd c585 b23d 0a85 0dbe
000000e0: 5d60 293d fbad 433c e54f 403d 28a8 f1bd
000000f0: bb3a c53c fcf2 eebd d778 f23c 5b49 c03d
00000100: e107 123e f02e 773d 7691 10be 4e86 ab3d
00000110: 5bd4 053e ea5d 5d3d bb64 0abe 544d 33bd
00000120: 30cf 343c dd3e 89bd 9323 6cbd 8331 0bbd
00000130: 138a 623d 5bf9 92bc 7d34 223d fe45 da3d
00000140: a08c 0fbe 33f8 cfbd e8ea d4bc 5174 40bd
00000150: a298 e83c b776 433d df92 9fbd 8554 d13a
00000160: 3d5d c53d c8aa b3bc 443b bbbc ee38 ddbd
00000170: 7ac0 aabd df35 b3bc 0f2f 503c c47d 4f3d
00000180: fde6 eebd 929b ebb9 9c71 60bd 88ba e33c
00000190: e952 4fbd 8763 3d3d c3a1 8fbc 0ef1 0b3e
000001a0: 1601 4e3c da1d 963c c0a5 d2bd 740a febc
000001b0: e696 573d db6e 84bc 659d 913d 5f8a f3bd
000001c0: 3d53 8bbc 0b4a 483d 6914 e1bb 2a04 013e
000001d0: 81a0 b03d ac05 f7bd 1dcf 8c3d b2f9 0bbe
000001e0: c6a3 adbd 86c0 a23c 87b5 bbbd 3668 f4bd
000001f0: 859e afbd 11e9 4d3d bbe1 4a3b af90 7e3d
00000200: a72b e63d 1cb6 b4bd ae75 dc3d 00b4 1bbd
00000210: a478 3abd 9325 b3bd cd07 0b3c 1e84 e6bd
00000220: 8077 00be 26ef edbd e9df 3ebd f307 0e3e
00000230: 07c9 cbbd c2cb f3bc 30aa b4bd 461f 95bd
00000240: be20 d3bb b619 67bd b579 973d cb06 16bd
00000250: 5dc4 fc3d f72e c13d e57c a83d 6cd4 1d3d
00000260: 32b2 173d 94be b23d c21e 093d 97ee abbd
00000270: 344f fcbd da52 d8bc 80fc 9abd 0dbc cdbd
00000280: e6bd f4bd f8f5 4d3d 0284 fe3d 45be 81bd
00000290: ed04 333d 92b9 93bd a097 02bd 4737 f73d
000002a0: 2bd1 f13d 0c5a 95bd 92cb c53d 5f1f 0b3e
000002b0: 7bb1 1e3c faf2 d9bd 9812 b8bd a933 2cbd
000002c0: 487b ed3d 06f5 1a3d c3c5 54bc 0267 11be
000002d0: 8d8c f7bd 153a 953d 6501 4abd 1364 543d
000002e0: 0fe4 e4bd 620f 59bd 6a70 d5bd eb89 273d
000002f0: 8bb0 653d d309 053e bcd3 d4bd b071 08be
00000300: 45b0 373d eeda 71bd 5198 133d a916 a13c
00000310: 4453 07be c33d cd3d 9ff7 753d def0 82bd
00000320: 544e c23c b330 b1bc 8e11 86bd 88cc 2c3c
00000330: f6f1 dfbc 1bb2 01be f2f3 143d 2d77 a7bd
00000340: ad6c e73c ac28 093e c75b 103c 9276 0fbc
00000350: 76fd 943d 9c45 cebd 9f49 eabd f601 b7bd
00000360: 4c95 9ebd ccd1 c63d c432 4f3d 8a16 4c3b
00000370: d84f 0e3e c788 dc3d d125 15bd e8b1 cfbd
00000380: 3f35 95bc 28b8 923d 71d5 cf3d 1211 98bd
00000390: b814 b43d 0b92 813d 2edc 093e c19f 6ebd
000003a0: 1197 f43d d736 253d 71e1 0b3d e5f6 f63d
000003b0: ebc8 813d c85f d83d e77b 0c3e 669d d43d
000003c0: 4a5c c2bd 6463 8a3d 151b 9a3d de46 fcbd
000003d0: 7b62 7bbd 1b6d 853d 02bc d53d b958 b2bc
000003e0: 26c0 5c3d c54e f23d 8ad7 03be 224e 5ebc
000003f0: 5a9d 95bd 73a8 60bd b4ed 003e 8fe2 aebd

fc2.bias f4 [50]
0.10670179 0.08333294 0.07309363 -0.023610957 0.061601005 -0.046816166 0.0249492 -0.09073675
0.007787608 -0.12269175 -0.04574931 0.0979057 -0.0079802135 -0.016673114 0.07338754 0.04221572
-0.07580357 -0.0947312 -0.05881619 0.01231136 0.008797221 -0.087347634 0.06542341 -0.05853949
-0.039477907 -0.05850553 -0.13808542 -0.007534036 -0.12228871 -0.029742043 -0.059494723 -0.07589701
0.09646171 -0.036214218 0.0039566406 -0.030419046 0.065033674 0.043887004 0.12711273 -0.06223096
-0.054753795 -0.12950811 -0.032275118 0.14279522 -0.074568264 0.026795564 -0.04132567 0.13952273
-0.08924922 -0.086418174
00000000: 7886 da3d 76aa aa3d 1db2 953d c46b c1bc
00000010: 5651 7c3d 4fc2 3fbd 4462 cc3c 30d4 b9bd
00000020: 312f ff3b d045 fbbd a163 3bbd c982 c83d
00000030: 71bf 02bc 0e96 88bc 354c 963d 64ea 2c3d
00000040: e73e 9bbd 6e02 c2bd 3fe9 70bd 96b5 493c
00000050: 3822 103c 51e3 b2bd b5fc 853d 1bc7 6fbd
00000060: 96b3 21bd 7fa3 6fbd 4466 0dbe 13e0 f6bb
00000070: 8172 fabd 96a5 f3bc bdb0 73bd e46f 9bbd
00000080: b88d c53d 5c55 14bd b5a6 813b 5d31 f9bc
00000090: 6030 853d dcc2 333d d729 023e e4e5 7ebd
000000a0: 8445 60bd c69d 04be ea32 04bd e938 123e
000000b0: 3fb7 98bd 5f82 db3c 1b45 29bd 0cdf 0e3e
000000c0: 4cc8 b6bd 03fc b0bd

fc3.weight f4 [13, 50]
0.10623721 0.1241747 0.049645185 0.042224426 -0.07995692 0.07877854 0.11041534 0.0046318173
0.097613804 0.10200968 0.11909456 0.090821266 0.035099007 0.061834767 0.04400949 0.054590583
0.057445418 0.118636526 0.0626921 -0.118451945 -0.05985564 0.038905058 0.115708746 -0.1142385
-0.1307361 0.09619047 -0.019319434 -0.019014947 0.028054295 -0.022207847 -0.09352413 -0.017298881
-0.09249566 -0.13219221 -0.08464148 0.12693372 0.003254696 -0.08477684 0.03655284 -0.11683747
-0.09886217 0.07837608 0.123232946 -0.043195177 -0.090319246 0.1159999 -0.083104424 -0.10268149
0.04271764 0.022046382 -0.0642121 0.13436764 0.02363865 0.062243346 0.038274523 -0.10062502
-0.104160175 -0.010751915 0.084369816 -0.12759517 0.10903843 0.06149255 -0.11304846 0.07075222
-0.02087289 -0.113111615 0.12751232 -0.13203627 0.10137369 0.030791579 0.097382635 -0.123289175
-0.05292198 0.03207074 -0.09694846 0.07928353 0.110711746 0.09947541 -0.114608064 -0.016801076
-0.055423506 -0.10871929 -0.008598081 -0.055492595 -0.10859077 -0.12330934 -0.12030717 -0.09699568
0.14088583 0.07728595 -0.12507372 -0.023820348 -0.09842475 -0.07365525 0.14928685 0.117576875
0.001623451 0.115374796 -0.015896378 0.011978455 -0.0062669455 -0.13446146 -0.06075003 -0.00068837637
-0.090768814 0.119618095 -0.02279306 -0.073760405 0.045283075 0.06876826 0.061124235 -0.10730044
0.03017864 0.0050953976 0.10610856 -0.07273276 -0.028257286 0.048886087 -0.014286307 -0.13381271
-0.1259168 -0.09178507 0.09969699 0.014499438 -0.030839985 -0.099461496 -0.052016087 0.12142503
-0.043023445 -0.09761566 -0.10484115 -0.13277686 0.11591844 -0.062338877 0.09761714 0.1276737
0.12648849 0.074644 0.1127173 -0.09538977 -0.104979664 -0.065544136 -0.003090565 -0.104311384
0.08548799 0.13830972 0.071343474 0.10947614 0.13638848 -0.11118478 -0.11369866 -0.11597749
0.13889351 -0.02468391 0.099840745 0.02798054 -0.054092076 -0.08388996 -0.07221673 0.10150528
-0.007313022 0.004903715 -0.09625169 0.11064997 -0.0014457542 -0.13721737 0.064583264 -0.031035773
0.12040721 -0.11741996 0.04235494 0.02493194 -0.021435397 -0.08185053 0.028259933 0.019001696
-0.07564815 -0.066471696 -0.07567098 0.027088983 0.011501131 -0.0865195 0.035067134 -0.09536754
0.11339311 0.03452511 -0.033093534 0.034806386 0.102819055 -0.038734596 -0.14067164 0.02835284
-0.10996435 0.052058984 -0.027699593 -0.07434619 0.116009586 0.06498961 0.07077972 -0.066377155
-0.06707781 0.04547271 0.058881205 0.11547509 -0.062102277 0.10348781 0.10345157 0.14055389
0.0490667 -0.079847 0.037100807 -0.058929875 -0.07342542 -0.09538482 0.10431652 -0.0035594364
-0.11816991 -0.015540676 0.007341905 -0.045844942 0.10868561 -0.12917477 0.10585531 -0.13302465
0.062633544 0.10922143 -0.09562916 -0.12284084 -0.09424409 -0.10122808 -0.0068447287 0.093743
0.07366151 0.013453378 0.13992879 -0.081820145 -0.10971636 -0.11007785 -0.10246985 0.05703466
-0.068174236 0.08753735 0.025834473 -0.08888932 -0.010451539 -0.07687244 -0.022709612 0.06825965
-0.12933016 -0.0090815 0.058252066 -0.10215277 -0.100789286 0.12823212 0.07197533 0.0978167
00000000: e592 d93d 4e4f fe3d c058 4b3d 85f3 2c3d
00000010: 74c0 a3bd a556 a13d 7021 e23d 80c6 973b
00000020: bfe9 c73d 73ea d03d d9e7 f33d 8000 ba3d
00000030: fac3 0f3d 7446 7d3d 4c43 343d 609a 5f3d
00000040: e34b 6b3d b5f7 f23d b764 803d ef96 f2bd
00000050: 302b 75bd e95a 1f3d b5f8 ec3d e0f5 e9bd
00000060: afdf 05be 82ff c43d ca43 9ebc 3cc5 9bbc
00000070: 1fd2 e53c 3bed b5bc 9489 bfbd 62b6 8dbc
00000080: 5d6e bdbd 655d 07be 8358 adbd eafa 013e
00000090: bd4c 553b 7b9f adbd 6eb8 153d 7c48 efbd
000000a0: 4078 cabd a383 a03d 8e61 fc3d 6ded 30bd
000000b0: 4cf9 b8bd 5b91 ed3d a732 aabd ac4a d2bd
000000c0: b1f8 2e3d 9d9a b43c a281 83bd ac97 093e
000000d0: d8a5 c13c e1f2 7e3d bfc5 1c3d 7e14 cebd
000000e0: ee51 d5bd cd28 30bc 15ca ac3d 4fa8 02be
000000f0: 8a4f df3d 9ddf 7b3d f385 e7bd 8ae6 903d
00000100: 9ffd aabc 10a7 e7bd 9792 023e 8434 07be
00000110: 029d cf3d 9f3e fc3c 8c70 c73d 097f fcbd
00000120: b8c4 58bd 9c5c 033d ea8c c6bd 675f a23d
00000130: d7bc e23d c4b9 cb3d a2b7 eabd 69a2 89bc
00000140: c203 63bd 38a8 debd f7de 0cbc 344c 63bd
00000150: d664 debd 9b89 fcbd 9b63 f6bd aca5 c6bd
00000160: 6044 103e 1948 9e3d 5313 00be e422 c3bc
00000170: ea92 c9bd 90d8 96bd a7de 183e 25cc f03d
00000180: fac9 d43a 9f49 ec3d 1f39 82bc 4841 443c
00000190: f35a cdbb 44b0 09be 06d5 78bd 2874 34ba
000001a0: 00e5 b9bd 55fa f43d 83b8 babc b20f 97bd
000001b0: bf7a 393d 60d6 8c3d 685d 7a3d 55c0 dbbd
000001c0: 3239 f73c 4bf7 a63b 724f d93d eaf4 94bd
000001d0: d37b e7bc c73c 483d 1d11 6abc 3306 09be
000001e0: 55f0 00be d0f9 bbbd ef2d cc3d 0d8f 6d3c
000001f0: 23a4 fcbc 78b2 cbbd d20e 55bd b0ad f83d
00000200: 5a39 30bd b8ea c7bd f5b6 d6bd a8f6 07be
00000210: a666 ed3d 0d57 7fbd 7feb c73d e5bc 023e
00000220: 3386 013e f4de 983d 54d8 e63d b65b c3bd
00000230: 94ff d6bd 013c 86bd 148b 4abb 35a1 d5bd
00000240: 5414 af3d 10a1 0d3e 871c 923d 0735 e03d
00000250: 6ca9 0b3e d9b4 e3bd d8da e8bd 9b85 edbd
00000260: 1a3a 0e3e e935 cabc 4e79 cc3d 7237 e53c
00000270: a78f 5dbd 80ce abbd 5de6 93bd 00e2 cf3d
00000280: 13a2 efbb 58af a03b 9b1f c5bd 749c e23d
00000290: 767f bdba b682 0cbe 3b44 843d bc3e febc
000002a0: 0e98 f63d e079 f0bd 607c 2d3d 113e cc3c
000002b0: 4999 afbc 40a1 a7bd 6081 e73c 72a9 9b3c
000002c0: 6bed 9abd 5022 88bd 63f9 9abd b7e9 dd3c
000002d0: 3d6f 3c3c 2331 b1bd 8ea2 0f3d 0f50 c3bd
000002e0: a63a e83d 346a 0d3d 168d 07bd 2491 0e3d
000002f0: cc92 d23d 2ba8 1ebd 3a0c 10be 3744 e83c
00000300: fd34 e1bd cd3b 553d 42ea e2bc d142 98bd
00000310: 6f96 ed3d 4619 853d f5f4 903d bff0 87bd
00000320: 1760 89bd 9841 3a3d 6b2d 713d 347e ec3d
00000330: f55e 7ebd 6bf1 d33d 6bde d33d 5ced 0f3e
00000340: 2afa 483d d386 a3bd 04f7 173d 7460 71bd
00000350: 1160 96bd 1e59 c3bd e6a3 d53d 6f45 69bb
00000360: 1103 f2bd 529e 7ebc 5d94 f03b e8c7 3bbd
00000370: 9096 de3d 6446 04be abca d83d 9d37 08be
00000380: 0446 803d 7caf df3d 39d9 c3bd fa93 fbbd
00000390: 0c03 c1bd ab50 cfbd bf49 e0bb 54fc bf3d
000003a0: d9db 963d 8f6b 5c3c 7e49 0f3e 5291 a7bd
000003b0: f9b2 e0bd 7f70 e1bd b6db d1bd 2d9d 693d
000003c0: ef9e 8bbd c846 b33d d1a2 d33c 9b0b b6bd
000003d0: ef3c 2bbc 4c6f 9dbd 8209 babc b7cb 8b3d
000003e0: 206f 04be 92ca 14bc b899 6e3d 7935 d1bd
000003f0: 9d6a cebd 484f 033e cd67 933d 1f54 c83d

fc3.bias f4 [13]
-0.053801887 -0.11740659 0.028710315 0.14328305 0.08025358 0.00798976 0.08091901 -0.0678368
0.12927628 0.1152578 0.14883223 0.033008438 0.053042218
00000000: 5e5f 5cbd de72 f0bd e531 eb3c cbb8 123e
00000010: fd5b a43d 7be7 023c deb8 a53d 05ee 8abd
00000020: 0061 043e 480c ec3d 7a67 183e db33 073d
00000030: cc42 593d
