TorchModels/DeepQtrader29.pt (torch, 25047 bytes, 6 tensors)

fc1.weight f4 [50, 50]
-0.06498181 0.12071622 -0.061181623 0.0280909 -0.08817463 0.09797803 0.13521728 -0.014392085
0.066721775 -0.13157828 0.03549221 0.07586165 -0.08391143 -0.05338328 -0.017761236 -0.1250528
0.019060517 0.03612245 0.12543204 0.041021544 -0.09303364 -0.07602449 0.006219511 0.11251043
0.045554984 -0.014699773 0.08631659 0.0629899 0.02054253 0.13279897 -0.07050794 -0.011002116
-0.116779275 0.0054325 -0.061377764 0.028911244 0.048486084 0.06626855 0.06786912 -0.051196538
0.07782353 0.11666416 0.056985818 0.0072704772 -0.016402695 0.03249965 0.12154766 0.10627982
-0.11580835 -0.097053915 0.023176948 0.09772912 -0.1276105 0.039876994 0.100232035 0.05861338
-0.0032832387 -0.10302475 -0.084005505 0.060339727 -0.12474285 -0.005952889 -0.03786547 0.030081652
-0.023476223 -0.037665162 -0.11091357 0.05332872 0.06641547 -0.053555183 -0.11730114 -0.034097493
-0.10218125 0.011904529 -0.13160783 0.094773576 0.13358147 0.09528554 0.13318166 0.058749486
-0.086886965 0.09918857 0.053632963 -0.0985276 -0.12673743 -0.099490285 0.12859353 -0.0787421
-0.071330614 0.104651846 0.015079934 0.025961597 0.11649401 -0.12805569 -0.12819958 -0.08449703
-0.09665 0.115912214 0.11440369 -0.015982127 0.14303786 0.08556194 0.02444277 0.085067645
-0.054566342 0.08982891 0.07034478 -0.07719239 -0.06979978 0.14286855 0.08040537 0.12397412
-0.10317442 0.011942441 -0.0016353484 0.10828546 -0.05487633 0.02135439 0.01075552 -0.09461011
-0.1068648 -0.10044917 0.10056756 -0.13412522 -0.031442888 -0.046260964 -0.10716794 0.06293948
0.07845879 0.013229838 -0.1018191 -0.08492055 0.122491464 0.10478595 -0.062804446 -0.10302087
-0.04778091 -0.09186965 -0.028865688 0.080202684 0.13175724 0.13724346 -0.070264995 0.037394702
-0.08229888 0.05674034 0.07718998 0.10376091 -0.03184883 0.06112005 -0.028691465 -0.07806709
0.1012179 0.047952306 -0.04643183 -0.097003944 -0.04201358 0.012207975 -0.119115636 -0.059842188
0.12858723 0.01657749 0.10934977 0.104383394 -0.0567259 0.021860212 -0.12868612 -0.068248115
-0.038848683 0.01414342 -0.019305317 -0.07374917 0.0742731 0.070327505 0.10884324 0.13192931
0.12520422 -0.12047261 -0.097384065 -0.01324276 -0.057333205 0.059193697 -0.13462926 -0.09738597
0.029554576 0.06403299 -0.13275638 0.0034664448 -0.11895983 -0.041334186 0.07506401 -0.000606375
-0.08969138 -0.12594166 -0.08688084 -0.03187665 -0.049485963 0.06963041 0.02167029 -0.13644949
0.024839334 0.041495077 0.08380894 -0.11701264 -0.028374303 -0.12517549 -0.06323073 0.06149127
0.1341675 0.07613185 0.09078025 0.073461615 -0.091077454 -0.11615047 0.088527605 -0.08814166
0.052414376 0.103937835 0.14983828 -0.08563179 -0.04814189 -0.08730726 -0.053296972 -0.13009915
-0.106526904 0.0015613822 0.0025695052 0.041429363 -0.075412944 0.095838964 0.05263062 -0.065427355
0.037026953 0.045175064 -0.13205513 -0.01156656 0.027908549 0.053373408 -0.06436111 -0.08640131
0.11627041 0.008244309 -0.02681196 -0.015871353 -0.058112506 0.122647315 0.056600653 0.09922701
-0.09286781 0.08279095 -0.04128025 -0.14643472 -0.055884216 0.12676218 0.10426937 -0.036008257
00000000: 2f15 85bd 113a f73d 9599 7abd e31e e63c
00000010: e794 b4bd b5a8 c83d 6676 0a3e c8cc 6bbc
00000020: 6da5 883d 75bc 06be 4860 113d 5a5d 9b3d
00000030: c1d9 abbd 6da8 5abd 0380 91bc d70d 00be
00000040: cd24 9c3c 22f5 133d 4271 003e 3506 283d
00000050: 6c88 bebd bab2 9bbd 0acd cb3b de6b e63d
00000060: dd97 3a3d 51d7 70bc c1c6 b03d d900 813d
00000070: cf48 a83c 74fc 073e 7866 90bd 3842 34bc
00000080: f929 efbd 1d03 b23b 4067 7bbd 46d7 ec3c
00000090: 5899 463d ceb7 873d f7fe 8a3d 76b3 51bd
000000a0: f161 9f3d 9eed ee3d f669 693d 2f3d ee3b
000000b0: f25e 86bc 5a1e 053d fbed f83d 3ca9 d93d
000000c0: ee2c edbd 34c4 c6bd 95dd bd3c 3426 c83d
000000d0: 54ac 02be 0f56 233d 7446 cd3d 9514 703d
000000e0: 9b2b 57bb a4fe d2bd 140b acbd ca26 773d
000000f0: 2e79 ffbd 7410 c3bb d318 1bbd cc6d f63c
00000100: 3551 c0bc c946 1abd a726 e3bd 376f 5a3d
00000110: d504 883d ae5c 5bbd 953b f0bd d0a9 0bbd
00000120: 6744 d1bd 370b 433c 34c4 06be a618 c23d
00000130: 95c9 083e 1125 c33d c660 083e 4da3 703d
00000140: cbf1 b1bd 6123 cb3d 3dae 5b3d d7c8 c9bd
00000150: 75c7 01be 90c1 cbbd 06ae 033e 8a43 a1bd
00000160: c915 92bd b553 d63d d411 773c 6aad d43c
00000170: 6994 ee3d 0821 03be c046 03be c70c adbd
00000180: 6ff0 c5bd 6263 ed3d 7b4c ea3d f3ec 82bc
00000190: 8478 123e 193b af3d 343c c83c f237 ae3d
000001a0: f580 5fbd 38f8 b73d ed10 903d 0b17 9ebd
000001b0: 30f3 8ebd 224c 123e 92ab a43d 25e6 fd3d
000001c0: 1c4d d3bd 3aaa 433c 3059 d6ba c4c4 dd3d
000001d0: 01c6 60bd 67ef ae3c ec37 303c f2c2 c1bd
000001e0: efdb dabd 4bb8 cdbd 5df6 cd3d 1f58 09be
000001f0: 42ca 00bd 237c 3dbd dd7a dbbd 6ae6 803d
00000200: 01af a03d f6c1 583c 8886 d0bd d3ea adbd
00000210: cedc fa3d 049a d63d 9e9f 80bd 9bfc d2bd
00000220: eab5 43bd 2826 bcbd bc77 ecbc 4e41 a43d
00000230: 5feb 063e 8d89 0c3e 18e7 8fbd 302b 193d
00000240: 518c a8bd 8f68 683d c815 9e3d 9a80 d43d
00000250: eb73 02bd 0459 7a3d 5d0a ebbc a3e1 9fbd
00000260: 554b cf3d a369 443d 4d2f 3ebd 01aa c6bd
00000270: 6f16 2cbd f503 483c e6f2 f3bd 151d 75bd
00000280: 5fac 033e 84cd 873c c6f2 df3d f6c6 d53d
00000290: 6b59 68bd 3014 b33c 4bc6 03be abc5 8bbd
000002a0: cc1f 1fbd ceb9 673c 2f26 9ebc ce09 97bd
000002b0: 7f1c 983d de07 903d 34e9 de3d 7a18 073e
000002c0: 8935 003e 58ba f6bd 4c71 c7bd 29f8 58bc
000002d0: 39d6 6abd 1775 723d 41dc 09be 4c72 c7bd
000002e0: 701c f23c ba23 833d 4af1 07be 4b2d 633b
000002f0: 36a1 f3bd 094e 29bd 29bb 993d 23f5 1eba
00000300: 1db0 b7bd daf6 00be 95ee b1bd 1791 02bd
00000310: cbb1 4abd 639a 8e3d e485 b13c 6ab9 0bbe
00000320: dc7b cb3c bef6 293d 06a4 ab3d 53a4 efbd
00000330: 3a71 e8bc 012e 00be 1d7f 81bd 45de 7b3d
00000340: 3563 093e 04eb 9b3d ffea b93d 0b73 963d
00000350: d186 babd 4ce0 edbd f64d b53d 9d83 b4bd
00000360: 75b0 563d 5cdd d43d 356f 193e b85f afbd
00000370: 6e30 45bd 26ce b2bd ed4d 5abd b638 05be
00000380: c72a dabd 4ba7 cc3a 2565 283b d6b1 293d
00000390: 1a72 9abd 3847 c43d 3493 573d c7fe 85bd
000003a0: 93a9 173d 7d09 393d 7639 07be ab81 3dbc
000003b0: 78a0 e43c 139e 5a3d c2cf 83bd 2cf3 b0bd
000003c0: 2e1f ee3d 2313 073c c1a4 dbbc a404 82bc
000003d0: 6107 6ebd 842e fb3d 16d6 673d 8837 cb3d
000003e0: 7a31 bebd 4d8e a93d 7b15 29bd fcf2 15be
000003f0: d9e6 64bd f2cd 013e 2e8b d53d 657d 13bd

fc1.bias f4 [50]
-0.030625807 0.09405094 -0.09686093 -0.08250125 0.06462679 -0.13958317 -0.06897169 -0.038419943
0.09055853 0.08406189 0.09698491 0.044364195 -0.13763405 0.12683578 0.05479323 0.029575739
0.10341193 -0.05699412 0.012696943 -0.11853864 -0.11345673 -0.12481371 0.13539042 0.04610447
0.05959934 -0.051767327 0.098140486 -0.12835318 0.010983823 0.088041954 0.118741244 0.013982342
0.10308868 -0.055179052 0.101565726 0.0106486045 0.030994343 0.092365846 -0.008471557 -0.12072784
-0.008193466 -0.08023248 -0.032174107 0.003047459 0.10581062 0.033054728 0.035318773 -0.042781245
0.010333868 0.12779212
00000000: f9e2 fabc c79d c03d 065f c6bd 6af6 a8bd
00000010: 0d5b 843d e4ee 0ebe 0841 8dbd 3b5e 1dbd
00000020: c076 b93d a428 ac3d 06a0 c63d 3bb7 353d
00000030: f1ef 0cbe 3de1 013e de6e 603d d248 f23c
00000040: a2c9 d33d ab72 69bd d706 503c 63c4 f2bd
00000050: 015c e8bd 559e ffbd c9a3 0a3e 0ad8 3c3d
00000060: 701e 743d fa09 54bd e1fd c83d 046f 03be
00000070: 7ef5 333c 574f b43d 9c2e f33d 3116 653c
00000080: 2820 d33d 6e03 62bd b101 d03d 7c77 2e3c
00000090: d9e7 fd3c 4e2a bd3d 49cc 0abc 2840 f7bd
000000a0: e33d 06bc ed50 a4bd ffc8 03bd e1b7 473b
000000b0: 3db3 d83d 6564 073d 6baa 103d 633b 2fbd
000000c0: 624f 293c f0db 023e

fc2.weight f4 [50, 50]
-0.058328036 -0.077004 -0.10478271 0.040621158 -0.076034494 -0.061696682 0.0628935 0.058079164
0.054357376 0.040543437 -0.06631991 0.015085677 -0.0997045 -0.02514859 0.0029972643 -0.046410907
-0.07355491 -0.031616308 0.13476296 0.054687653 -0.07155672 -0.029345322 -0.005942231 -0.13391002
0.08430262 0.01028229 -0.0014523707 0.12415859 0.10608426 0.031353693 -0.034498055 0.08815387
-0.015394979 -0.11732874 0.07438502 0.10694023 0.02289328 -0.06743483 -0.0061212727 0.025455823
0.101903304 0.117252566 0.030012075 -0.119588345 -0.07861692 -0.12818724 0.005537839 0.08484899
-0.03160511 -0.11879517 -0.025434626 0.10925825 0.008567803 -0.014030818 0.048685502 -0.008918542
0.008469425 -0.027867926 0.1426279 0.07858626 0.055314492 -0.11243327 -0.08977649 -0.017180812
0.11246857 -0.02185346 0.04758634 0.09028483 0.15230614 -0.12613131 0.11155378 0.042152517
-0.02382416 -0.13280953 0.10838275 -0.097380415 0.1098224 -0.14473028 0.07646313 -0.064767376
-0.05876226 -0.050916262 -0.058457702 -0.04870595 0.14162558 0.06110602 0.0031357857 -0.09724597
0.07022157 0.13056098 0.080064446 -0.10530694 -0.10260893 0.048781566 0.04760272 -0.03977214
-0.09445116 0.1453455 -0.077324554 0.15511605 0.12179681 -0.12872486 -0.008968902 -0.08664611
0.070595786 0.03853273 0.02458389 -0.08176604 0.058231574 0.008507783 -0.10047766 -0.014587029
0.06838121 -0.09206747 -0.059805572 -0.08729219 0.06567458 0.1141159 -0.08583408 0.1265431
-0.031068146 0.1305683 0.13773966 0.018661464 0.115421444 -0.12714843 -0.080536336 -0.034229144
0.090762034 0.13487697 -0.062215343 -0.06369647 -0.008178432 0.09445278 -0.10419298 0.06425225
0.025799107 0.029402815 0.029810484 -0.079122566 -0.048881907 -0.14219527 -0.029610394 0.023397243
0.13117106 0.08214696 -0.095764965 0.045467418 -0.0063109314 0.07000746 -0.043175038 0.12713225
0.06489491 0.071094856 0.14655797 -0.08379847 0.08034177 0.122444786 -0.025447305 -0.12727362
0.12478145 0.11258609 0.012200161 -0.036227543 -0.053765755 0.014051142 0.014321211 -0.10971875
-0.09022036 0.1271657 0.0657476 -0.069890246 0.030299246 -0.14384241 -0.10770899 -0.0689801
-0.12890391 0.057959452 0.02435832 0.043091174 0.020291794 -0.029753227 -0.10919954 0.057619046
-0.07944225 0.077304 0.0735315 0.11031583 -0.005834063 -0.07760567 -0.000969964 0.11729311
-0.11350546 0.050048158 0.02411321 0.07374756 0.084739365 0.06203335 0.065635525 -0.117374726
0.0831641 -0.068849586 -0.088917755 -0.0018469545 0.0047297827 -0.010232909 -0.08460591 0.111861035
0.11813891 -0.079232365 -0.07433554 0.059423413 -0.06613559 0.0057593654 -0.15790886 0.06493228
0.054960337 0.047116198 0.14651309 -0.09937458 -0.080664486 0.065252885 -0.09006375 0.0911323
0.09102304 -0.11398686 -0.037331305 0.026182232 0.073868066 0.0063654524 -0.13997816 0.044233855
0.06631035 -0.0370628 -0.0969243 -0.113940276 0.0393698 -0.045074657 0.021962505 0.0037290938
0.0527095 -0.09983033 -0.05811732 0.05451077 0.024521897 0.13914303 -0.09382627 -0.025534125
-0.048833486 -0.034560524 0.05021884 0.11216869 -0.006932808 0.124373324 0.10586984 0.040603362
00000000: 61e9 6ebd 46b4 9dbd 5198 d6bd 5f62 263d
00000010: f9b7 9bbd a9b5 7cbd 4fce 803d 6be4 6d3d
00000020: d7a5 5e3d e010 263d bcd2 87bd ea29 773c
00000030: df31 ccbd 6a04 cebc c06d 443b 5d19 3ebd
00000040: f5a3 96bd 1a80 01bd 4dff 093e 2900 603d
00000050: 548c 92bd 9a65 f0bc 0cb7 c2bb b51f 09be
00000060: daa6 ac3d 0d77 283c 795d beba dc46 fe3d
00000070: b442 d93d bb6c 003d d54d 0dbd 048a b43d
00000080: 393b 7cbc 0d4a f0bd 2c57 983d 7b03 db3d
00000090: b08a bb3c 461b 8abd f594 c8bb bb88 d03c
000000a0: aeb2 d03d 1d22 f03d e2db f53c bcea f4bd
000000b0: e801 a1bd 8443 03be c376 b53b 4fc5 ad3d
000000c0: 5c74 01bd e24a f3bd 475c d0bc cac2 df3d
000000d0: f85f 0c3c 84e1 65bc 736a 473d 141f 12bc
000000e0: 58c3 0a3c 474b e4bc 0c0d 123e d5f1 a03d
000000f0: 7391 623d 6a43 e6bd bddc b7bd c6be 8cbc
00000100: ec55 e63d 0706 b3bc e5e9 423d 41e7 b83d
00000110: 24f6 1b3e 9128 01be 4f76 e43d 1ea8 2c3d
00000120: e32a c3bc 39ff 07be c6f7 dd3d 626f c7bd
00000130: 91ea e03d 2d34 14be b498 9c3d c2a4 84bd
00000140: b2b0 70bd 928d 50bd 5871 6fbd e47f 47bd
00000150: 4c06 113e 4e4a 7a3d c181 4d3b e528 c7bd
00000160: 54d0 8f3d c7b1 053e d4f8 a33d 2aab d7bd
00000170: a124 d2bd 2ecf 473d 12fb 423d 1de8 22bd
00000180: 9c6f c1bd 73d5 143e 565c 9ebd bed6 1e3e
00000190: 9b70 f93d 73d0 03be 4df2 12bc 8473 b1bd
000001a0: 8694 903d 7fd4 1d3d 2764 c93c f474 a7bd
000001b0: 3b84 6e3d 3a64 0b3c 3bc7 cdbd 6ffe 6ebc
000001c0: 730b 8c3d df8d bcbd b0f6 74bd 3fc6 b2bd
000001d0: 6580 863d 99b5 e93d c7c9 afbd 8494 013e
000001e0: a082 febc b2b3 053e a00b 0d3e eddf 983c
000001f0: 1462 ec3d 3333 02be 3cf0 a4bd dc33 0cbd
00000200: 72e1 b93d 301d 0a3e 84d5 7ebd 4b73 82bd
00000210: d4fe 05bc 7670 c13d 2163 d5bd af96 833d
00000220: a658 d33c 2cde f03c 1e35 f43c 030b a2bd
00000230: 6538 48bd a39b 11be 7f91 f2bc 93ab bf3c
00000240: b551 063e aa3c a83d 6c20 c4bd 0b3c 3a3d
00000250: eecb cebb 1260 8f3d 4fd8 30bd f52e 023e
00000260: 9fe7 843d 2e9a 913d 4b13 163e 889e abbd
00000270: 3a8a a43d 55c4 fa3d de76 d0bc 0454 02be
00000280: 6b8d ff3d 8993 e63d 2fe3 473c 5563 14bd
00000290: 7b39 5cbd c336 663c 83a3 6a3c 39b4 e0bd
000002a0: 74c5 b8bd ba37 023e ada6 863d 9e22 8fbd
000002b0: 2036 f83c 6d4b 13be 8896 dcbd 7045 8dbd
000002c0: 63ff 03be e466 6d3d 198b c73c 5f80 303d
000002d0: fa3a a63c 0abd f3bc 02a4 dfbd f301 6c3d
000002e0: 9eb2 a2bd 8f51 9e3d af97 963d 44ed e13d
000002f0: ab2b bfbb b9ef 9ebd 2f45 7eba 5f37 f03d
00000300: 8d75 e8bd 4cff 4c3d 1189 c53c f608 973d
00000310: d58b ad3d af16 7e3d eb6b 863d 2962 f0bd
00000320: f151 aa3d 0301 8dbd 831a b6bd 8215 f2ba
00000330: 4bfc 9a3b eea7 27bc dd45 adbd 6617 e53d
00000340: d0f2 f13d 9444 a2bd 3b3d 98bd f765 733d
00000350: 1972 87bd 0fb9 bc3b dcb2 21be 37fb 843d
00000360: 171e 613d eafc 403d 8707 163e e684 cbbd
00000370: 6c33 a5bd 4ea3 853d 5873 b8bd 92a3 ba3d
00000380: 4a6a ba3d f171 e9bd b6e8 18bd 1f7c d63c
00000390: 2448 973d 4995 d03b 6f56 0fbe 8f2e 353d
000003a0: b9cd 873d 2acf 17bd 3f80 c6bd 8559 e9bd
000003b0: 3a42 213d 34a0 38bd b6ea b33c d063 743b
000003c0: ebe5 573d d873 ccbd 6d0c 6ebd af46 5f3d
000003d0: 25e2 c83c 837b 0e3e fd27 c0bd f12c d1bc
000003e0: 9f05 48bd 568f 0dbd 45b2 4d3d b3b8 e53d
000003f0: 9c2c e3bb 71b7 fe3d 49d2 d83d b64f 263d

fc2.bias f4 [50]
-0.019174602 -0.065775014 -0.034345362 -0.074505396 -0.11586736 0.095336266 0.11669271 0.05201169
-0.050550204 -0.06633976 0.10178545 -0.105728894 0.0367247 -0.0238877 -0.14731966 0.036348335
0.010088147 -0.07560052 0.107458204 -0.06747513 0.07617874 0.074541755 0.036170375 0.072487
-0.10805247 -0.05262111 -0.053413123 -0.107291855 0.07560955 0.042067345 0.123403564 0.056577556
0.030117705 0.05345014 0.074354075 0.06629785 0.07128974 -0.09478079 0.058802947 -0.066709615
0.073184446 -0.00245702 0.0033684869 -0.120462924 -0.07165971 0.0020743406 0.10866789 -0.034477826
-0.048004217 0.05851294
00000000: 0e14 9dbc 0db5 86bd b9ad 0cbd 4996 98bd
00000010: de4b edbd a93f c33d 96fc ee3d 360a 553d
00000020: bb0d 4fbd 24dd 87bd e474 d03d 6488 d8bd
00000030: a46c 163d 23b0 c3bc f7da 16be fee1 143d
00000040: c148 253c 72d4 9abd 0c13 dc3d 6730 8abd
00000050: 9903 9c3d 59a9 983d 6327 143d 1074 943d
00000060: 9d4a ddbd 3c89 57bd b8c7 5abd d5bb dbbd
00000070: 2ed9 9a3d cf4e 2c3d 02bb fc3d debd 673d
00000080: 68b9 f63c 89ee 5a3d f346 983d 2bc7 873d
00000090: 5b00 923d 6e1c c2bd 5cdb 703d 0d9f 88bd
000000a0: bae1 953d f505 21bb d5c1 5c3b 44b5 f6bd
000000b0: 53c2 92bd a9f1 073b 458d de3d 9f38 0dbd
000000c0: 12a0 44bd 44ab 6f3d

fc3.weight f4 [13, 50]
-0.056547824 -0.10083826 -0.14471512 -0.097928 0.0027931058 0.07617246 0.02146689 -0.12262058
0.10183593 -0.07722995 0.04642201 0.059665266 0.13004969 0.13380596 0.104542814 0.102347076
0.051763825 0.05454854 -0.061790287 -0.012134365 -0.081248365 0.05337856 -0.009891514 -0.12999651
0.11690528 0.11668576 0.10498146 -0.116779156 0.13463722 0.04986456 0.08305688 0.033196725
-0.12866114 -0.10668663 0.044072475 0.12341042 -0.106606 -0.08309651 -0.039393015 -0.12800802
-0.093151435 -0.12482187 0.12156734 -0.13720258 -0.13867384 0.059272666 -0.08368947 0.06841655
0.031173259 -0.053840898 0.014840452 -0.14189142 0.0029713719 -0.10005001 -0.016720599 0.0044287676
0.029016238 -0.12619038 0.104721755 -0.14917648 0.09394679 -0.06782326 -0.1018945 0.029272147
-0.056052916 0.11583471 -0.07913796 0.09575818 0.08980879 -0.10283931 -0.061540462 -0.10151698
0.021261439 0.14864111 0.08312577 0.13359499 0.12904997 0.11534324 0.07348033 0.0916533
-0.07930243 0.005300612 -0.11757342 -0.10622049 0.1251373 -0.12273444 -0.031373516 0.021159388
-0.111839786 -0.07479273 -0.11395853 -0.0019684199 -0.02567627 0.08724482 -0.12594879 0.03956426
0.028300295 0.08270516 0.058956295 0.060511976 0.04958941 0.07139316 0.078214586 0.0012462302
-0.13451739 -0.043985665 0.12953372 -0.06966206 -0.018516442 -0.036933593 -0.034629196 -0.029885247
0.11220768 0.12184406 0.037875704 0.054406874 -0.09608544 0.0774422 0.03675197 0.102429785
0.07421482 0.0052838516 0.019173075 0.00076721143 0.07302183 -0.0659733 0.076313175 0.015306438
-0.04234631 0.07660671 -0.07453629 -0.04607594 -0.12841147 -0.0363157 -0.065594226 0.14518888
0.059915796 -0.021185722 0.071879596 0.10956756 0.06301147 0.019111209 0.14325285 0.064994335
-0.100678906 -0.0633973 0.052101225 0.04921256 -0.01186939 0.07732347 -0.0063411267 -0.13810173
0.017825406 -0.11297723 -0.02133681 0.07709109 -0.0075601954 -0.019784575 0.13645841 -0.099695325
0.06004841 0.08149811 -0.01368656 0.12154668 0.021019459 0.01916047 -0.15846883 -0.14081667
0.1012375 0.04497894 -0.09345853 0.089083865 -0.10868713 0.11410205 -0.030433252 -0.11743555
-0.03834064 0.11483051 0.009791071 0.050632372 -0.067393206 0.12758243 0.13595502 0.026384449
0.05855772 -0.068813995 0.015264924 -0.037285257 0.094888836 -0.09920805 -0.0766493 -0.14965396
0.07157436 -0.009595102 -0.056691654 -0.046811733 0.098393664 0.12384153 -0.10948121 0.11935462
-0.09478723 -0.12632361 -0.062556565 -0.07335993 0.0288172 -0.08150613 0.0072612655 0.08211228
-0.12628159 -0.090712234 -0.06555971 -0.13156305 -0.022677282 -0.029550701 -0.1131479 0.08335122
-0.13408394 0.011016578 -0.029647272 0.036975805 0.13794304 0.0078465 -0.1468217 0.14500424
0.03448423 -0.096502 -0.045730855 0.042041946 -0.021282773 -0.120727055 0.07840725 -0.0064333896
0.12639 -0.043376315 -0.03857367 0.07753106 -0.103180096 -0.027729817 -0.03448225 -0.056477934
0.1166191 0.02359569 -0.048113786 0.060294162 0.09390705 -0.0038082479 0.056785624 -0.13805129
-0.007262316 0.09574056 -0.07415315 0.07414417 -0.14873104 -0.020104023 0.09228557 -0.017385341
00000000: b19e 67bd 4a84 cebd 3330 14be 7a8e c8bd
00000010: 8a0c 373b 4f00 9c3d 55db af3c 8020 fbbd
00000020: 5b8f d03d bc2a 9ebd 0125 3e3d 9163 743d
00000030: bf2b 053e 6e04 093e 8b1a d63d 589b d13d
00000040: 4e06 543d 4a6e 5f3d d017 7dbd 37cf 46bc
00000050: 8b65 a6bd 7aa3 5a3d 0410 22bc ce1d 05be
00000060: 096c ef3d f2f8 ee3d 8500 d73d e929 efbd
00000070: 57de 093e c83e 4c3d ba19 aa3d 4af9 073d
00000080: bfbf 03be 857e dabd 5785 343d 9abe fc3d
00000090: 3f54 dabd 812e aabd 925a 21bd 8914 03be
000000a0: 2ec6 bebd 9ca2 ffbd 4cf8 f83d d57e 0cbe
000000b0: 8400 0ebe e5c7 723d 6365 abbd fa1d 8c3d
000000c0: 105f ff3c 4688 5cbd 5e25 733c fc4b 11be
000000d0: 59bb 423b 05e7 ccbd a3f9 88bc 321f 913b
000000e0: 76b3 ed3c 0d38 01be 5c78 d63d b8c1 18be
000000f0: 2d67 c03d ece6 8abd 10ae d0bd 24cc ef3c
00000100: be97 65bd c03a ed3d 1513 a2bd dd1c c43d
00000110: aced b73d 6b9d d2bd da11 7cbd 22e8 cfbd
00000120: 782c ae3c 6035 183e d83d aa3d 20cd 083e
00000130: ad25 043e 1439 ec3d db7c 963d bab4 bb3d
00000140: 5069 a2bd c2b0 ad3b 55ca f0bd 218a d9bd
00000150: fe23 003e 325c fbbd 8481 00bd 7456 ad3c
00000160: 420c e5bd ee2c 99bd 1763 e9bd 9b00 01bb
00000170: 0a57 d2bc 6aad b23d b8f8 00be 220e 223d
00000180: 05d6 e73c 5361 a93d 287c 713d 68db 773d
00000190: 441e 4b3d 9436 923d f82e a03d 8c58 a33a
000001a0: edbe 09be 502a 34bd 7da4 043e fbaa 8ebd
000001b0: cbaf 97bc ae47 17bd 58d7 0dbd e8d1 f4bc
000001c0: 24cd e53d 6189 f93d 8e23 1b3d bed9 5e3d
000001d0: 71c8 c4bd 049a 9e3d 3c89 163d b5c6 d13d
000001e0: f1fd 973d 2924 ad3b da10 9d3c b01e 493a
000001f0: 788c 953d 021d 87bd 154a 9c3d dbc7 7a3c
00000200: 5373 2dbd fbe3 9c3d 7ba6 98bd 20ba 3cbd
00000210: 4c7e 03be c5bf 14bd 4456 86bd 65ac 143e
00000220: 446a 753d ae8d adbc 9c35 933d f564 e03d
00000230: 280c 813d 1c8f 9c3c e0b0 123e c01b 853d
00000240: be30 cebd 72d6 81bd 1868 553d 1c93 493d
00000250: d477 42bc c45b 9e3d 3ac9 cfbb 8a6a 0dbe
00000260: 9606 923c 9b60 e7bd 89ca aebc efe1 9d3d
00000270: 84bb f7bb 4313 a2bc c1bb 0b3e 102d ccbd
00000280: 52f5 753d 7be8 a63d 983d 60bc 77ed f83d
00000290: 0031 ac3c 6bf6 9c3c a745 22be 3f32 10be
000002a0: 9b55 cf3d d63b 383d 3067 bfbd 9a71 b63d
000002b0: 5c97 debd 56ae e93d 284f f9bc 0d82 f0bd
000002c0: 130b 1dbd 422c eb3d ba6a 203c e463 4f3d
000002d0: 7305 8abd f8a4 023e cb37 0b3e 3324 d83c
000002e0: 38da 6f3d 5aee 8cbd bb19 7a3c 6db8 18bd
000002f0: 1455 c23d 972d cbbd 4ffa 9cbd e33e 19be
00000300: 9495 923d c634 1dbc 8235 68bd a9bd 3fbd
00000310: 9e82 c93d a1a0 fd3d af37 e0bd 3270 f43d
00000320: cf1f c2bd fa5a 01be a81d 80bd bb3d 96bd
00000330: 0c12 ec3c b0ec a6bd e9ef ed3b 7c2a a83d
00000340: f64f 01be 56c7 b9bd 2b44 86bd 77b8 06be
00000350: b5c5 b9bc 5014 f2bc 16ba e7bd 0bb4 aa3d
00000360: 4d4d 09be e17e 343c d6de f2bc f173 173d
00000370: f140 0d3e 9b8e 003c 6d58 16be fe7b 143e
00000380: 563f 0d3d d7a2 c5bd 4750 3bbd 2d34 2c3d
00000390: 3659 aebc bf3f f7bd fb93 a03d 2fcf d2bb
000003a0: 616c 013e 5dab 31bd 6dff 1dbd 9bc8 9e3d
000003b0: 1650 d3bd a429 e3bc 433d 0dbd 6855 67bd
000003c0: ffd5 ee3d c04b c13c f612 45bd 03f7 763d
000003d0: 5752 c03d cc93 79bb 0b98 683d 515d 0dbe
000003e0: b9f8 edbb a013 c43d 9bdd 97bd e6d8 973d
000003f0: f34c 18be 31b1 a4bc 3800 bd3d b46b 8ebc

fc3.bias f4 [13]
-0.052409798 -0.10955211 0.13500015 -0.056021802 0.13344263 -0.047559403 -0.046748646 0.13788201
-0.14043702 0.11089162 0.102756366 0.015822485 0.020824585
00000000: a8ab 56bd db5c e0bd 7b3d 0a3e 1e77 65bd
00000010: 2fa5 083e a6cd 42bd 827b 3fbd f130 0d3e
00000020: b9ce 0fbe 251b e33d ee71 d23d 289e 813c
00000030: 5298 aa3c
