TorchModels/RLtrader45.pt (torch, 22871 bytes, 6 tensors)

fc1.weight f4 [50, 50]
0.025647007 0.018699331 -0.044457547 0.124529675 -0.112755686 0.13620482 -0.08117931 0.1179267
-0.12357121 -0.113829486 0.07828971 0.114383556 0.1333099 0.09869072 0.020084916 -0.13240264
0.0069673616 -0.10925269 -0.03237177 0.12315403 0.01663334 0.13508248 0.012486739 -0.087035835
0.13686329 -0.08478225 -0.102933094 0.026827225 -0.017230831 0.014201449 -0.06522218 -0.004473193
-0.07873313 -0.02418597 -0.0050934358 0.0995954 -0.07712264 -0.0609154 0.09775737 -0.05368614
0.08589288 -0.0495423 -0.11902736 0.13379993 -0.09986967 0.12873301 -0.06674008 -0.13691652
0.0229325 -0.019101743 0.07300339 -0.04682474 -0.06910412 -0.004789121 0.07550795 0.019185869
-0.031722017 0.0007210807 0.04445868 -0.11325342 0.049103793 0.052139383 0.036003966 0.049553752
0.11757153 0.010385278 0.07853074 -0.06970974 -0.02557312 -0.06532218 0.116713464 -0.07200714
-0.031954076 0.13873325 -0.07686879 -0.085399464 0.09498802 0.103832096 -0.01226954 0.08129027
-0.017052628 0.086870715 0.11275428 -0.06760653 0.0033955795 0.00802374 0.0032943813 -0.124751985
-0.0020152447 -0.11609132 -0.024807319 0.035154413 -0.05392009 0.061718956 0.09670538 0.049376566
0.07924302 -0.10290821 0.0015862862 -0.0561991 -0.042496648 0.11132237 -0.0009091302 -0.08558727
0.049270116 0.042056356 -0.007950727 -0.042034604 0.014912647 -0.13042146 -0.10339039 0.03710712
-0.09339163 -0.054876413 -0.054263167 0.06779056 -0.0039455825 -0.08054284 0.13370655 0.08560566
0.07124196 -0.102027476 0.022526544 0.1368741 0.07766464 0.11271162 0.01857738 0.115602
-0.10300077 0.07151592 -0.077354334 -0.14128056 0.08741444 0.082465224 0.13101399 0.049998432
-0.12000094 0.12763713 -0.067329474 -0.06077205 -0.061103124 0.11247337 -0.11243271 -0.12371451
-0.055952482 0.009272025 0.041561723 0.092949465 0.13462092 -0.09615317 -0.13343498 0.006064823
0.046989657 0.024121242 -0.13603054 -0.068314515 -0.065736674 0.01363398 0.021601193 0.020709984
-0.09706237 -0.13431625 0.013022615 0.11295292 -0.082282916 -0.021045301 -0.122794494 -0.03540235
-0.08679197 0.018370865 0.11547651 0.113192625 0.12136032 0.08830471 0.015389019 -0.07482105
0.08207429 -0.018288158 0.1400778 -0.11893081 -0.039825905 -0.023514548 -0.032563 0.032759022
-0.13525671 0.13510908 -0.046628572 -0.040908564 -0.009502478 0.11757849 0.06324935 -0.084766716
0.0006094299 -0.040784173 0.03972744 -0.13252753 -0.05023618 0.08098081 0.02407877 0.045111425
0.096168876 0.07450559 -0.06832561 -0.028855406 0.06375847 0.13252045 0.093413286 0.07220255
0.03684677 0.07776601 0.14222144 0.049714718 0.11594873 -0.07713657 -0.0026621253 -0.08083508
0.068776704 0.05735452 -0.010383396 -0.032970306 0.06538498 -0.108517304 -0.083484136 0.06869937
0.13402697 0.07947772 -0.009238856 0.0073729623 -0.061990045 -0.12900424 -0.07285343 -0.0073385057
-0.038598172 0.06972973 0.1267096 0.0370854 -0.11282175 -0.027717495 0.04737185 0.0049840305
0.12162041 0.10715027 0.048729014 -0.037592918 -0.054902803 -0.08052822 0.045615457 0.07869406
-0.074913464 -0.12753388 -0.10350812 0.10728081 -0.026688421 0.003979778 -0.030250989 0.032136075
00000000: ac19 d23c 572f 993c 1e19 36bd 6a09 ff3d
00000010: 74ec e6bd 4779 0b3e 5741 a6bd 8e83 f13d
00000020: e712 fdbd 6f1f e9bd 5b56 a03d ed41 ea3d
00000030: 6482 083e 5c1e ca3d 1f89 a43c 8f94 07be
00000040: 774e e43b e0bf dfbd 4398 04bd 2e38 fc3d
00000050: a442 883c 1053 0a3e 2e95 4c3c d83f b2bd
00000060: e425 0c3e 51a2 adbd 96ce d2bd c5c4 db3c
00000070: ac27 8dbc 32ad 683c 3593 85bd dd93 92bb
00000080: d63e a1bd a821 c6bc d6e6 a6bb acf8 cb3d
00000090: 7af2 9dbd 6d82 79bd 0435 c83d ffe5 5bbd
000000a0: 9be8 af3d deec 4abd 9ec4 f3bd d902 093e
000000b0: 7888 ccbd 96d2 033e 06af 88bd d833 0cbe
000000c0: f0dc bb3c 427b 9cbc cd82 953d 4ccb 3fbd
000000d0: 7686 8dbd 0fee 9cbb e9a3 9a3d af2b 9d3c
000000e0: f2ee 01bd e806 3d3a 4e1a 363d 69f1 e7bd
000000f0: 0f21 493d 1b90 553d e578 133d e0f8 4a3d
00000100: 58c9 f03d 0327 2a3c bad4 a03d fbc3 8ebd
00000110: b87e d1bc a3c7 85bd 7807 ef3d 7b78 93bd
00000120: 47e2 02bd 1710 0e3e 626d 9dbd eae5 aebd
00000130: 1489 c23d eca5 d43d 2e06 49bc 837b a63d
00000140: f4b1 8bbc 46e9 b13d b7eb e63d 4b75 8abd
00000150: 5f88 5e3b 0176 033c 8ce6 573b f87d ffbd
00000160: 3212 04bb 49c1 edbd b838 cbbc 13fe 0f3d
00000170: 50db 5cbd 04cd 7c3d 780d c63d 153f 4a3d
00000180: 2a4a a23d 8ac1 d2bd efea cf3a 0731 66bd
00000190: f710 2ebd fcfc e33d b252 6eba 6148 afbd
000001a0: 76cf 493d 4943 2c3d c443 02bc 7a2c 2cbd
000001b0: 2d54 743c 348d 05be 57be d3bd a3fd 173d
000001c0: 1c44 bfbd 17c6 60bd 0e43 5ebd c7d5 8a3d
000001d0: f249 81bb a5f3 a4bd 5fea 083e 0552 af3d
000001e0: 4ee7 913d c8f3 d0bd 9689 b83c b928 0c3e
000001f0: a40e 9f3d 5ad5 e63d 972f 983c bec0 ec3d
00000200: 11f2 d2bd f076 923d f36b 9ebd daab 10be
00000210: 5806 b33d 87e3 a83d 8828 063e 28cb 4c3d
00000220: 0ec3 f5bd 4fb3 023e 09e4 89bd 1dec 78bd
00000230: 4547 7abd 7058 e63d 1f43 e6bd 085e fdbd
00000240: 6e2e 65bd b1e9 173c a03c 2a3d 4a5c be3d
00000250: 11da 093e f4eb c4bd 2ea3 08be 6cbb c63b
00000260: 3a78 403d e999 c53c 974b 0bbe 7be8 8bbd
00000270: f3a0 86bd 0f61 5f3c fcf4 b03c fca7 a93c
00000280: a3c8 c6bd 338a 09be ce5c 553c dc53 e73d
00000290: f283 a8bd 3267 acbc ae7b fbbd 0e02 11bd
000002a0: fdbf b1bd 7f7e 963c f37e ec3d 89d1 e73d
000002b0: c28b f83d 1ad9 b43d 3922 7c3c c73b 99bd
000002c0: 9116 a83d 0cd1 95bc 8e70 0f3e ff91 f3bd
000002d0: 7d20 23bd 95a1 c0bc c860 05bd 532e 063d
000002e0: bc80 0abe 095a 0a3e 9afd 3ebd bd8f 27bd
000002f0: 48b0 1bbc fecc f03d e088 813d 2c9a adbd
00000300: 26c2 1f3a 4e0d 27bd 3db9 223d 4cb5 07be
00000310: 74c4 4dbd 44d9 a53d d740 c53c c2c6 383d
00000320: 30f4 c43d 6396 983d 4cee 8bbd 2c62 ecbc
00000330: cd93 823d 71b3 073e 774f bf3d eede 933d
00000340: a4ec 163d c943 9f3d 7fa2 113e a9a1 4b3d
00000350: 8776 ed3d c7f9 9dbd 0d77 2ebb dd8c a5bd
00000360: cdda 8c3d 93ec 6a3d 1f1f 2abc df0b 07bd
00000370: 8fe8 853d 523e debd bbf9 aabd 41b2 8c3d
00000380: 5e3e 093e 37c5 a23d 925e 17bc e498 f13b
00000390: 46e9 7dbd b019 04be 2e34 95bd d977 f0bb
000003a0: 1e19 1ebd 76ce 8e3d 29c0 013e dce6 173d
000003b0: 170f e7bd cd0f e3bc fc08 423d 1451 a33b
000003c0: 1f14 f93d 9a71 db3d 1398 473d 08fb 19bd
000003d0: c3e1 60bd fbeb a4bd 46d7 3a3d 5a2a a13d
000003e0: 3b6c 99bd 3e98 02be 11fc d3bd 0bb6 db3d
000003f0: ada1 dabc cc68 823b ecd0 f7bc 1ea1 033d

fc1.bias f4 [50]
-0.03133536 -0.024732754 -0.00863086 -0.05283074 -0.12814371 0.095162414 -0.107255846 0.12936531
-0.008936939 0.08878933 0.0021680729 -0.037477303 -0.08935245 0.09900959 0.0994487 -0.06815681
-0.07393219 -0.043801647 -0.13758825 -0.08637577 -0.081210144 -0.02928535 0.121127985 -0.015784264
0.06941638 0.0935484 -0.09681157 -0.09810786 0.0013661431 0.13504454 0.061189044 -0.13915332
0.043983564 0.12477663 -0.07270721 -0.125021 0.07381636 -0.021898217 0.000571068 -0.00400881
-0.055771135 -0.09625387 -0.050888952 0.045639 0.0032258541 -0.062376644 -0.12399112 0.027598392
-0.11186232 -0.00941729
00000000: 8259 00bd 589c cabc 7368 0dbc 0c65 58bd
00000010: 1b38 03be 83e4 c23d f4a8 dbbd 5778 043e
00000020: 3d6c 12bc 2ed7 b53d 3a16 0e3b cd81 19bd
00000030: 6bfe b6bd 8ac5 ca3d c3ab cb3d cc95 8bbd
00000040: c369 97bd 5b69 33bd efe3 0cbe c8e5 b0bd
00000050: 8151 a6bd d5e7 efbc f311 f83d 004e 81bc
00000060: 2d2a 8e3d 4e96 bf3d 2545 c6bd c6ec c8bd
00000070: 2810 b33a 1e49 0a3e 5da1 7a3d 357e 0ebe
00000080: 1c28 343d e48a ff3d 85e7 94bd 8105 00be
00000090: 082d 973d e463 b3bc bab3 153a 565c 83bb
000000a0: 4670 64bd c020 c5bd ef70 50bd f6ef 3a3d
000000b0: da68 533b a77e 7fbd 0eef fdbd 0616 e23c
000000c0: 1218 e5bd fa4a 1abc

fc2.weight f4 [50, 50]
-0.1334844 0.10316445 0.033142436 -0.049576238 -0.1149761 -0.010794452 0.10301165 0.07606757
0.07747695 -0.12494561 -0.03943505 -0.04610189 -0.09386097 -0.12226031 0.12111354 0.018003453
-0.09724858 -0.1386565 -0.06357705 -0.027454175 0.031058174 -0.037975363 0.13292292 0.01873359
-0.07804804 0.022358848 -0.051516384 -0.13841242 -0.05200767 -0.018968763 -0.107276924 0.06919494
0.057879366 0.12998964 -0.03704031 -0.086957455 -0.046686273 -0.018167289 0.06846073 0.069006935
-0.06280246 -0.03291564 0.054413725 -0.037805323 0.022131996 -0.008573081 -0.008566942 -0.070325084
0.06063041 -0.031171333 0.023653673 0.09730461 0.008118278 0.063213006 0.12096966 -0.043087248
0.0029353811 0.09649263 -0.08748455 0.00061556674 -0.1409921 -0.06536756 0.02565333 -0.030329954
-0.1100276 -0.13340797 -0.06987731 -0.06405615 0.08194842 -0.101985686 0.05559356 -0.07674131
0.08339421 0.0006389891 -0.07737935 -0.005055532 0.056408152 -0.12854497 0.02384374 0.041597378
0.03484398 0.036223065 -0.13337009 0.057096954 0.05180776 -0.07997425 0.009257454 0.048702795
-0.05886277 0.07642739 0.06625497 -0.1402436 0.027130326 -0.07202106 -0.07345325 0.052847527
-0.053897627 -0.0597378 0.019851172 0.11827381 -0.008377014 0.04220558 -0.011853444 -0.02025709
-0.10706231 0.07293634 0.07669359 0.022016872 0.046589963 -0.08345105 0.13896742 0.11492416
-0.1119985 -0.121825576 -0.12207509 -0.11036325 0.011051125 0.063368 -0.07816677 0.068929724
0.07613948 0.13222425 -0.014948109 0.10394429 0.11958099 -0.09809775 -0.13200754 0.05518301
-0.049097966 -0.023836184 -0.0035949715 -0.10520321 0.109323844 -0.11849605 -0.1302086 0.012426558
0.08397692 0.106264554 -0.092669606 0.037974965 0.12636213 -0.10782496 -0.11055417 -0.09839761
-0.109099135 0.11904056 0.03608873 0.09018797 -0.046276502 -0.06433134 -0.0053046653 0.08964593
-0.0836323 0.10292826 -0.123179466 0.033486 -0.12742184 0.12928247 -0.07683129 0.09559849
-0.13181235 0.047962014 0.10797512 0.027856516 0.10599734 0.08222974 -0.121890746 -0.017401982
-0.11520607 -0.12774943 0.14188036 -0.009970765 0.02427571 0.12330698 -0.06224633 0.038147848
0.12142031 -0.08559705 0.12706633 0.04455309 0.13956895 -0.008485233 -0.017439771 0.033967245
-0.00035446684 -0.013807305 -0.1296655 -0.08478369 -0.046935 0.12558813 -0.06485752 -0.068198815
0.07576048 -0.005030776 0.07128024 0.054809436 -0.09088635 0.014608333 0.02779805 -0.023993194
-0.04917291 0.114784956 0.075437814 -0.10866661 0.061972786 0.09738111 -0.12927622 -0.11512766
0.12651162 -0.007516733 0.012371212 0.09574184 -0.006786572 0.028136052 -0.11833942 0.021555945
0.02598008 0.01748195 0.123391695 -0.075330764 -0.10140329 -0.062365495 -0.055332255 0.061543353
0.1044181 0.031966023 0.078462176 -0.12879822 0.0042867083 0.09895484 -0.111560486 0.09171769
0.08685327 0.055059396 -0.04927276 0.08132745 -0.12687792 -0.06122426 -0.0050597633 -0.06618252
-0.106318794 0.109296784 0.12552115 -0.02096977 0.050528105 -0.050364792 0.010540637 -0.082854256
-0.0822548 0.03765605 0.080213755 0.0022030775 -0.07988303 0.019257136 -0.09224068 0.1043729
00000000: 22b0 08be e247 d33d 5dc0 073d 7410 4bbd
00000010: 9778 ebbd 37db 30bc c6f7 d23d 50c9 9b3d
00000020: 3cac 9e3d 7ce3 ffbd a686 21bd 56d5 3cbd
00000030: 2e3a c0bd 9d63 fabd 600a f83d fa7b 933c
00000040: 432a c7bd f8fb 0dbe af34 82bd 94e7 e0bc
00000050: b66d fe3c 0e8c 1bbd f21c 083e 3077 993c
00000060: a7d7 9fbd e729 b73c d802 53bd fcbb 0dbe
00000070: ff05 55bd 6164 9bbc 01b4 dbbd 14b6 8d3d
00000080: ea12 6d3d 011c 053e 95b7 17bd c016 b2bd
00000090: 1b3a 3fbd 91d3 94bc 2435 8c3d 8253 8d3d
000000a0: 939e 80bd 8dd2 06bd ede0 5e3d c1d9 1abd
000000b0: 294e b53c 1c76 0cbc 5c5c 0cbc 9906 90bd
000000c0: 9857 783d 065b ffbc 59c5 c13c a447 c73d
000000d0: 8702 053c d275 813d f1be f73d 417c 30bd
000000e0: 865f 403b ee9d c53d 1a2b b3bd fc5d 213a
000000f0: 3c60 10be 6ddf 85bd ef26 d23c 8676 f8bc
00000100: 2656 e1bd 199c 08be d61b 8fbd df2f 83bd
00000110: 93d4 a73d dfdd d0bd 13b6 633d 8c2a 9dbd
00000120: 95ca aa3d d581 273a 1179 9ebd e0a8 a5bb
00000130: 3c0c 673d 4ba1 03be f253 c33c 0362 2a3d
00000140: 90b8 0e3d a35e 143d 2b92 08be 7fde 693d
00000150: 6034 543d 8ac9 a3bd 94ac 173c 957c 473d
00000160: 171a 71bd f785 9c3d b0b0 873d 059c 0fbe
00000170: 6b40 de3c c77f 93bd a86e 96bd a676 583d
00000180: c2c3 5cbd a0af 74bd ed9e a23c 8a39 f23d
00000190: be3f 09bc c2df 2c3d f334 42bc 32f2 a5bc
000001a0: 7c43 dbbd a65f 953d 8711 9d3d ba5c b43c
000001b0: 1ed5 3e3d 62e8 aabd 7a4d 0e3e 5c5d eb3d
000001c0: 785f e5bd b07f f9bd 8102 fabd 2106 e2bd
000001d0: c70f 353c 15c7 813d e615 a0bd 072b 8d3d
000001e0: 04ef 9b3d cb65 073e eae8 74bc bee0 d43d
000001f0: e1e6 f43d 79e7 c8bd fc2c 07be 9407 623d
00000200: f31a 49bd 1a44 c3bc 9d99 6bbb c874 d7bd
00000210: 2ee5 df3d 0fae f2bd 6755 05be c398 4b3c
00000220: 17fc ab3d 3ba1 d93d 90c9 bdbd a38b 1b3d
00000230: 1365 013e 55d3 dcbd 3a6a e2bd b084 c9bd
00000240: 5e6f dfbd 8acb f33d c7d1 133d 78b4 b83d
00000250: 6e8c 3dbd 26c0 83bd c2d2 adbb 4998 b73d
00000260: 6947 abbd 0dcc d23d 8445 fcbd 9e28 093d
00000270: df7a 02be a062 043e b959 9dbd 24c9 c33d
00000280: d1f9 06be d173 443d 0f22 dd3d 5933 e43c
00000290: 2215 d93d 1168 a83d dba1 f9bd 9a8e 8ebc
000002a0: 29f1 ebbd bfd0 02be 1649 113e 6b5c 23bc
000002b0: dbdd c63c 5f88 fc3d 02f6 7ebd eb40 1c3d
000002c0: 36ab f83d 824d afbd ad1d 023e 4d7d 363d
000002d0: 2aeb 0e3e a605 0bbc dadd 8ebc 3d21 0b3d
000002e0: bcd7 b9b9 0938 62bc 08c7 04be 12a3 adbd
000002f0: ea3e 40bd 2d9a 003e 05d4 84bd d2ab 8bbd
00000300: 4f28 9b3d 35d9 a4bb 60fb 913d dc7f 603d
00000310: 9f22 babd ca57 6f3c bcb8 e33c 608d c4bc
00000320: 8969 49bd 6014 eb3d 247f 9a3d 9a8c debd
00000330: 2dd7 7d3d bf6f c73d fc60 04be 0dc8 ebbd
00000340: 438c 013e ed4e f6bb a0b0 4a3c 4c14 c43d
00000350: e461 debb 947d e63c f05b f2bd 1896 b03c
00000360: 2dd4 d43c 4e36 8f3c c9b4 fc3d 0447 9abd
00000370: 87ac cfbd f672 7fbd 13a4 62bd e214 7c3d
00000380: 28d9 d53d ceee 023d c7b0 a03d aee3 03be
00000390: 8477 8c3b d6a8 ca3d d379 e4bd 7cd6 bb3d
000003a0: 21e0 b13d f685 613d 3cd2 49bd 028f a63d
000003b0: 49ec 01be 4ac6 7abd 5fcc a5bb b38a 87bd
000003c0: abbd d9bd fed6 df3d 9e88 003e ccc8 abbc
000003d0: 8ff6 4e3d 504b 4ebd a3b2 2c3c 7eaf a9bd
000003e0: 3475 a8bd 3b3d 1a3d 1c47 a43d 8261 103b
000003f0: b799 a3bd 24c1 9d3c aee8 bcbd 76c1 d53d

fc2.bias f4 [50]
0.10487678 -0.10441176 0.09318099 0.082315795 0.059112333 0.09193205 0.020058764 -0.06069478
0.107585736 0.10589002 -0.053374663 -0.11393598 -0.026821708 -0.014445436 0.063153975 0.13951746
0.13049245 -0.06575904 0.13674696 -0.07343799 0.078661986 0.10113185 -0.13032772 0.032644283
0.11677408 0.021599423 -0.064674586 0.011373799 -0.082386434 -0.024674091 0.034734268 -0.020738477
0.13870324 0.13208613 -0.10678425 -0.1288104 0.08798602 0.093071125 -0.045398153 -0.11692308
0.01941805 -0.10062918 0.1377091 -0.0052865506 -0.1395822 -0.06680629 0.11916105 -0.11205929
-0.11966939 0.058143437
00000000: a3c9 d63d d5d5 d5bd add5 be3d 2f95 a83d
00000010: c61f 723d df46 bc3d 4752 a43c 179b 78bd
00000020: e955 dc3d dedc d83d 649f 5abd 4457 e9bd
00000030: 33b9 dbbc 8dac 6cbc df56 813d aadd 0e3e
00000040: d09f 053e adac 86bd 6507 0c3e a866 96bd
00000050: 8919 a13d 371e cf3d a174 05be 03b6 053d
00000060: 4027 ef3d 46f1 b03c 1c74 84bd 2c59 3a3c
00000070: 38ba a8bd 5221 cabc 8545 0e3d bde3 a9bc
00000080: 3908 0e3e 9641 073e b3b1 dabd e0e6 03be
00000090: 0432 b43d 139c be3d 6af3 39bd 5e75 efbd
000000a0: 9a12 9f3c ac16 cebd 9d03 0d3e cd3a adbb
000000b0: a3ee 0ebe bcd1 88bd b50a f43d 577f e5bd
000000c0: 3a15 f5bd d027 6e3d

fc3.weight f4 [2, 50]
0.09757793 0.08429845 -0.097591564 0.034194004 -0.0086663645 0.05998728 -0.011450467 -0.11798473
0.044651024 -0.10070783 0.065951966 -0.016463427 -0.11154398 0.021909665 -0.06823414 0.03470479
0.078474976 -0.09823573 0.050117653 0.13934515 -0.050272144 -0.019430393 0.0421557 -0.061131693
-0.020590069 -0.032850947 0.0014558396 0.022623474 -0.13223752 0.039271064 -0.05890678 -0.030058393
-0.11902823 -0.1284192 -0.0722743 0.03935897 -0.09294984 0.07159025 -0.047566213 0.022050228
-0.0406292 0.013148437 0.0070139454 -0.07104001 -0.036301713 0.0895075 0.13351713 -0.07678457
0.07088038 -0.12471763 -0.04245258 0.09278415 0.053753465 -0.05924903 0.1335256 0.08559316
0.0896337 0.0030970206 -0.015286661 0.1317778 0.049496762 -0.06970808 0.08173629 -0.08641523
0.088376045 0.12852274 0.053118117 -0.08224173 -0.07746124 -0.023983585 0.06776933 0.07714557
0.05772415 -0.09576061 -0.016907843 -0.079293095 0.13215691 0.026706828 -0.05116703 -0.12077337
-0.0004778749 0.09202742 0.14125997 -0.07154083 0.111418866 -0.11190351 -0.009513183 -0.06844278
0.12358096 -0.080676176 0.090032965 0.07416994 -0.00079828943 -0.14039508 -0.0428088 -0.082527585
0.085336804 -0.13232087 0.10452758 -0.028267108
00000000: f0d6 c73d aaa4 ac3d 16de c7bd 030f 0c3d
00000010: 5efd 0dbc 39b5 753d bd9a 3bbc faa1 f1bd
00000020: fee3 363d e83f cebd d311 873d 4fde 86bc
00000030: 2c71 e4bd e67b b33c 57be 8bbd 9c26 0e3d
00000040: 7db7 a03d d02f c9bd 2b48 4d3d 7fb0 0e3e
00000050: 2aea 4dbd 7d2c 9fbc 75ab 2c3d 3a65 7abd
00000060: 81ac a8bc b78e 06bd dfd1 be3a dd54 b93c
00000070: 4669 07be b2da 203d 3c48 71bd 053d f6bc
00000080: 13c5 f3bd 5380 03be 8c04 94bd df36 213d
00000090: 7c5c bebd e99d 923d cad4 42bd aea2 b43c
000000a0: ce6a 26bd 8b6c 573c 3dd5 e53b 6d7d 91bd
000000b0: 1bb1 14bd b54f b73d b7b8 083e 3b41 9dbd
000000c0: bc29 913d f56b ffbd c2e2 2dbd 9e05 be3d
000000d0: 982c 5c3d 1caf 72bd efba 083e 774b af3d
000000e0: e091 b73d 62f7 4a3b e774 7abc c2f0 063e
000000f0: 1ebd 4a3d 1cc3 8ebd 5b65 a73d 78fa b0bd
00000100: 80fe b43d 779b 033e 6292 593d 5a6e a8bd
00000110: 00a4 9ebd 3979 c4bc a6ca 8a3d 7ffe 9d3d
00000120: 2970 6c3d 241e c4bd 5182 8abc 6b64 a2bd
00000130: 2454 073e 47c8 da3c 8594 51bd 0758 f7bd
00000140: 498b fab9 df78 bc3d 74a6 103e 0084 92bd
00000150: 932f e43d ab2d e5bd 2edd 1bbc ba2b 8cbd
00000160: 0418 fd3d 8d39 a5bd 3463 b83d 69e6 973d
00000170: 4c44 51ba bac3 0fbe 4858 2fbd 3904 a9bd
00000180: 10c5 ae3d 1f7f 07be 8e12 d63d 6c90 e7bc

fc3.bias f4 [2]
-0.010735205 0.1054233
00000000: b7e2 2fbc 2ce8 d73d
