TorchModels/RLtrader25.pt (torch, 22871 bytes, 6 tensors)

fc1.weight f4 [50, 50]
0.110025056 0.074122384 0.07580749 -0.01864025 0.10376709 0.058630347 -0.13136756 -0.120798156
-0.050435986 0.009572006 0.1065493 -0.07110828 -0.040410496 -0.032168258 0.051501058 0.040787365
-0.02532138 0.019926934 -0.1320115 0.08639872 -0.082024485 -0.12100412 -0.05898992 0.05874837
-0.09364708 0.032015037 -0.108512156 0.056686413 -0.1278204 -0.03831555 0.040451866 -0.12131211
0.12834772 -0.09906638 -0.09009284 0.016837316 -0.030323632 0.045209218 -0.013435088 0.066457905
-0.12036309 -0.039099313 0.116547816 0.015706379 0.05036674 -0.046377294 -0.0015915394 0.11028544
-0.043305285 -0.115199074 0.123752356 -0.064552 -0.12268007 0.041792464 0.085186 0.07208321
-0.014556408 -0.023217715 0.049277667 -0.084788136 0.059068166 0.021792464 0.123456515 -0.07387303
-0.12498293 -0.041203845 -0.10527248 -0.12409125 0.13281499 0.09653189 -0.054819196 -0.077985145
0.13352644 -0.051703274 0.001667776 0.11835895 0.13287325 -0.08994411 0.103610195 0.11450769
-0.037156872 -0.09993028 -0.08231245 -0.052780934 0.009872209 -0.1189701 -0.09875126 0.029942965
-0.085864276 -0.1356456 0.104888156 0.021113137 -0.028926931 0.05958677 -0.13054085 0.13525394
-0.0019724497 0.07557343 -0.027702384 0.026539244 -0.080400184 0.03754732 -0.06321917 -0.07863411
-0.115319274 0.068474345 0.12895896 -0.03778893 -0.08478081 0.042151485 0.06547377 -0.0760914
-0.07859936 0.092247345 -0.0102438275 0.059971455 0.06464943 0.077523805 -0.1377184 0.09398672
-0.02090413 0.13137403 -0.08782449 -0.0732287 0.016166586 0.025000917 -0.016690824 0.08933623
-0.14013496 -0.10595312 -0.03904963 0.09277045 0.021953119 -0.011961902 0.051310163 -0.0023247506
-0.094232 -0.017601188 0.051820517 0.09416008 0.065543056 0.08381552 0.13220921 -0.13469799
0.025285305 0.098214604 0.055778965 0.10555618 -0.055198133 0.015077652 0.014151952 -0.12079039
-0.0013116116 -0.09043917 0.06831071 0.09360156 -0.122205585 0.10824761 -0.017636202 -0.10592302
0.042627078 -0.04182427 0.06976629 -0.13063525 0.0766195 -0.05125333 0.074223906 -0.022732943
-0.0037679442 0.040786624 -0.019790487 -0.11789154 0.0049547995 -0.08697035 -0.0790042 0.12020315
0.022252211 -0.09113298 -0.07805535 -0.03030134 -0.1193369 -0.107017 -0.005296504 0.035251718
0.002307952 0.016987666 -0.109915614 -0.04855861 0.10590131 -0.08820009 0.10029066 -0.026578693
0.0075736474 0.13995768 -0.09107747 0.071972534 -0.028701724 -0.013326364 0.1035062 -0.09731357
-0.0028565896 0.07182594 0.061195027 0.010245222 0.090056695 -0.1419373 -0.11771682 -0.04521487
0.093304604 0.09210532 -0.043277822 0.017489925 0.05183853 -0.07761707 0.055375077 0.04870326
0.109606095 0.009217747 0.041299466 0.06731239 -0.02058553 -0.13209504 0.08663643 0.047946114
-0.06553596 0.04964835 -0.04217472 0.106890686 0.06211613 0.010900211 0.04772582 -0.0037751747
-0.085203744 -0.0809393 0.071985185 -0.053943884 0.09799478 0.09225138 -0.09208145 0.090692125
-0.062217616 0.12018624 -0.11773664 -0.13577704 0.00056830794 0.058122117 0.053703595 0.03662429
0.11021073 0.08519896 -0.055743583 -0.050220534 0.11504502 0.09476277 -0.059243366 -0.09471075
00000000: d154 e13d 7acd 973d f540 9b3d 70b3 98bc
00000010: d783 d43d 6026 703d 3885 06be 0665 f7bd
00000020: f795 4ebd e7d3 1c3c 8536 da3d 38a1 91bd
00000030: 7a85 25bd ddc2 03bd c6f2 523d a710 273d
00000040: c86e cfbc cf3d a33c 062e 07be d0f1 b03d
00000050: 74fc a7bd 02d1 f7bd 6a9f 71bd 21a2 703d
00000060: 0aca bfbd 3322 033d 9f3b debd 0330 683d
00000070: 5ae3 02be c4f0 1cbd dbb0 253d 7c72 f8bd
00000080: 966d 033e 50e3 cabd 9882 b8bd 69ee 893c
00000090: 4469 f8bc 4d2d 393d d81e 5cbc 151b 883d
000000a0: ec80 f6bd 9a26 20bd 9fb0 ee3d aaaa 803c
000000b0: 5b4d 4e3d 1ef6 3dbd 339b d0ba 55dd e13d
000000c0: e260 31bd 7eed ebbd e071 fd3d d733 84bd
000000d0: b03f fbbd 932e 2b3d ff75 ae3d 5da0 933d
000000e0: 007e 6ebc 1433 bebc 61d7 493d 67a5 adbd
000000f0: 76f1 713d 1c86 b23c c5d6 fc3d be4a 97bd
00000100: 0df7 ffbd 5dc5 28bd 1999 d7bd 8e23 febd
00000110: a700 083e 83b2 c53d 188a 60bd adb6 9fbd
00000120: 28bb 083e d0c6 53bd 4799 da3a 2d66 f23d
00000130: ed0f 083e 9e34 b8bd 9531 d43d 0283 ea3d
00000140: ce31 18bd 3fa8 ccbd 6e93 a8bd d230 58bd
00000150: 0cbf 213c 99a6 f3bd 1a3e cabd f34a f53c
00000160: 9cd9 afbd aee6 0abe 9acf d63d 75f5 ac3c
00000170: 2cf8 ecbc 4211 743d 80ac 05be 0280 0a3e
00000180: 3744 01bb 3ec6 9a3d 1cf0 e2bc d468 d93c
00000190: daa8 a4bd 38cb 193d 0d79 81bd ec0a a1bd
000001a0: 832c ecbd 473c 8c3d d10d 043e 91c8 1abd
000001b0: 90a1 adbd 09a7 2c3d 1d17 863d cfd5 9bbd
000001c0: b4f8 a0bd 2dec bc3d bad5 27bc a1a4 753d
000001d0: ec66 843d cdc4 9e3d 0d06 0dbe 1c7c c03d
000001e0: 233f abbc ea86 063e 54dd b3bd eef8 95bd
000001f0: ca6f 843c b9ce cc3c 32bb 88bc eaf5 b63d
00000200: 8a7f 0fbe f3fd d8bd 81f2 1fbd 6ffe bd3d
00000210: 07d7 b33c dafb 43bc 9b2a 523d d85a 18bb
00000220: b5fc c0bd 5e30 90bc c041 543d 00d7 c03d
00000230: 703b 863d 79a7 ab3d da61 073e 45ee 09be
00000240: 2123 cf3c bd24 c93d 7c78 643d d72d d83d
00000250: 7017 62bd 4208 773c 97dd 673c f460 f7bd
00000260: 62ea abba 2c38 b9bd 7ce6 8b3d 2db2 bf3d
00000270: ec46 fabd ecb0 dd3d cc79 90bc 2bee d8bd
00000280: bb99 2e3d ed4f 2bbd a1e1 8e3d 3fc5 05be
00000290: afea 9c3d 03ef 51bd b402 983d 703a babc
000002a0: 9def 76bb e00f 273d a91f a2bc 1f71 f1bd
000002b0: df5b a23b 831d b2bd f4cc a1bd 122d f63d
000002c0: 454a b63c eea3 babd 7cdb 9fbd 843a f8bc
000002d0: e866 f4bd bb2b dbbd 4c8e adbb 1b64 103d
000002e0: 0241 173b b829 8b3c 701b e1bd 65e5 46bd
000002f0: c9e2 d83d 40a2 b4bd 3165 cd3d 8fbb d9bc
00000300: 5c2c f83b 1151 0f3e d386 babd 5666 933d
00000310: e11f ebbc d256 5abc 0ffb d33d 564c c7bd
00000320: 9f35 3bbb 7a19 933d a3a7 7a3d 93db 273c
00000330: a56f b83d 0358 11be 8415 f1bd 3a33 39bd
00000340: 7c16 bf3d b7a1 bc3d 1644 31bd 0847 8f3c
00000350: a354 543d b3f5 9ebd fad0 623d 127d 473d
00000360: 2979 e03d 0806 173c a129 293d 14db 893d
00000370: fca2 a8bc ec43 07be 716e b13d 2563 443d
00000380: b837 86bd 115c 4b3d 66bf 2cbd 81e9 da3d
00000390: 7c6d 7e3d cc96 323c 267c 433d ec68 77bb
000003a0: 4d7f aebd 81c3 a5bd f86c 933d 43f4 5cbd
000003b0: 7db1 c83d 4bee bc3d 3395 bcbd cbbc b93d
000003c0: e6d7 7ebd 3424 f63d e81f f1bd 2309 0bbe
000003d0: 80fa 143a 7511 6e3d 4df8 5b3d 5a03 163d
000003e0: 2ab6 e13d cb7c ae3d 6253 64bd 0cb4 4dbd
000003f0: b99c eb3d fc12 c23d 2ca9 72bd b6f7 c1bd

fc1.bias f4 [50]
0.009700514 0.07674775 -0.020551646 0.08532692 0.003883825 0.10142043 0.0011692216 -0.015011035
-0.09296352 -0.110531986 0.052441463 0.040907916 -0.13461056 0.013327514 -0.009949984 -0.13261428
0.024523864 0.006633317 0.10381894 0.071624026 -0.027168501 0.10444269 -0.10006832 -0.09592464
-0.08965922 0.076696135 -0.0029343267 -0.09067856 0.11264933 -0.048840392 -0.12600699 -0.08151385
0.072533414 -0.05781356 -0.048963822 -0.13517915 -0.0024421113 -0.014065525 0.0009358216 0.07069491
0.0023611975 -0.14151248 -0.028177015 -0.060274888 -0.13757816 0.044554185 -0.040485207 0.13939968
-0.07773112 0.052155625
00000000: e8ee 1e3c ed2d 9d3d ed5b a8bc e1bf ae3d
00000010: c587 7e3b 84b5 cf3d 9140 993a d8f0 75bc
00000020: a863 bebd 985e e2bd dccc 563d 0f8f 273d
00000030: 5ad7 09be a55b 5a3c 4205 23bc 0acc 07be
00000040: 45e6 c83c 4c5c d93b 069f d43d 9eaf 923d
00000050: 7a90 debc 0de6 d53d 9ff0 ccbd 2374 c4bd
00000060: 419f b7bd dd12 9d3d d54d 40bb aeb5 b9bd
00000070: b1b4 e63d dd0c 48bd fa07 01be bcf0 a6bd
00000080: 668c 943d e9cd 6cbd 4a8e 48bd 676c 0abe
00000090: d40b 20bb 1673 66bc ed51 753a 7ec8 903d
000000a0: 52be 1a3b a6e8 10be 7cd3 e6bc cde2 76bd
000000b0: 4ae1 0cbe 737e 363d d1d3 25bd cabe 0e3e
000000c0: 7e31 9fbd 23a1 553d

fc2.weight f4 [50, 50]
-0.11971907 -0.1024463 -0.017711261 -0.127257 -0.06572688 0.13777527 0.035212416 -0.08119581
-0.1128806 0.020842467 -0.011076428 0.13017716 -0.08425297 -0.07821459 0.026488053 0.058395613
0.112126775 -0.080115855 0.035329707 0.087442964 -0.10633939 0.13075075 0.023206247 -0.02994396
0.08636679 0.09228833 0.0075261462 0.11185952 -0.0033962508 0.04835862 0.024653433 0.12113218
-0.09124878 -0.086690605 0.05013185 0.11048194 -0.037780978 0.044690408 -0.11226649 0.01764198
-0.03976034 0.10396683 0.09034169 0.093607426 -0.040324662 -0.0037113721 0.04161681 0.11763533
0.13287906 0.13780992 -0.066231154 0.021018183 -0.026124908 0.09721174 0.06921956 -0.04061659
0.09326469 0.08812057 -0.13339604 0.09654094 -0.07438426 -0.06534218 0.11440953 0.14130019
0.012034929 0.0027756882 -0.10098989 -0.06396559 0.05056977 -0.06976817 -0.08095163 -0.0128310565
-0.12072733 -0.08081094 0.035814196 0.10675443 -0.05533997 0.10423278 -0.12769766 0.0670385
0.014526406 -0.12446756 -0.12524456 0.12433657 0.13017698 0.053088322 0.007450933 -0.13023627
-0.015310726 -0.03087848 -0.04644608 0.13180117 0.0041549425 0.038635638 0.0045581097 -0.100425296
0.016928742 0.03927967 -0.118230514 0.13703544 0.08472888 -0.11082062 0.080618985 0.098837204
0.068552695 0.08003465 0.01731099 -0.14100274 0.06441323 0.01917503 0.07144237 0.04384297
0.05523238 0.06090551 -0.0706871 0.1298219 -0.016661664 -0.057823982 0.0957026 -0.12419054
0.09212062 -0.01872859 0.066447586 0.035060376 -0.08416207 -0.1352029 -0.051563114 0.13358241
-0.06651335 -0.037335273 -0.028382244 -0.109198414 0.06417614 0.09024305 -0.070752196 0.07422981
0.023764228 0.061380833 -0.013561182 0.13320798 0.14135778 -0.058026273 -0.06408174 0.12504883
-0.041919183 -0.039314155 0.1146305 -0.120652035 0.044821266 -0.13326469 0.13671567 0.075411096
-0.11036304 -0.07163864 -0.06395641 -0.030645922 -0.08991232 0.04973318 -0.0773639 0.06258824
-0.100035414 0.100980796 -0.037538618 0.13405687 -0.0132169295 0.014971391 -0.10881558 -0.07092157
-0.12842846 -0.005140462 0.13142712 -0.08914764 -0.0015528034 -0.08514502 0.01356176 0.04218316
-0.06435542 0.09909375 0.0020701787 0.002672777 -0.026563816 -0.116211675 -0.046400454 -0.08725087
-0.013533499 0.012339944 -0.037108168 -0.11314151 0.012904212 0.02031823 0.01933473 -0.011488489
0.0001746663 -0.12146225 0.0025727248 0.08953967 -0.023639634 0.084752165 0.019099973 -0.10094696
-0.08120437 0.09951697 -0.06556834 0.1408414 0.027430326 -0.12852892 0.039611846 -0.12915818
0.10024044 -0.023877196 0.008485729 -0.03021456 0.017731003 0.12344539 0.072119996 0.01865537
0.12635246 0.084169164 -0.13264266 0.011344893 0.03246292 -0.05223954 0.027382137 0.034694538
-0.09536105 0.10042048 -0.13070208 -0.113133945 0.12882994 0.063642815 0.05792791 0.062578805
0.13887699 -0.027539914 -0.0827715 -0.09992859 0.113413855 0.10729005 0.08883175 0.012033492
0.13516925 0.12275036 0.1075312 -0.0470771 -0.013444842 0.077366024 -0.11777719 0.07942786
-0.11758719 0.13449413 0.049760092 -0.03460818 0.054021433 0.00019216894 -0.13375475 0.07650742
00000000: 462f f5bd 5ecf d1bd 3517 91bc a94f 02be
00000010: d19b 86bd f614 0d3e e53a 103d fd49 a6bd
00000020: f22d e7bd d2bd aa3c e879 35bc 294d 053e
00000030: d28c acbd f92e a0bd 79fd d83c 3d30 6f3d
00000040: b9a2 e53d c813 a4bd e2b5 103d 4c15 b33d
00000050: 77c8 d9bd 86e3 053e 071b be3c 094d f5bc
00000060: 12e1 b03d aa01 bd3d e49d f63b 9b16 e53d
00000070: a293 5ebb b013 463d fff5 c93c 2614 f83d
00000080: a4e0 babd d88a b1bd 0e57 4d3d 5b44 e23d
00000090: 3ac0 1abd 4a0d 373d f9eb e5bd ea85 903c
000000a0: bddb 22bd 90ec d43d 1005 b93d 40b5 bf3d
000000b0: 792b 25bd 7e3a 73bb 6376 2a3d cbea f03d
000000c0: 7311 083e 0b1e 0d3e 33a4 87bd 532e ac3c
000000d0: e703 d6bc f316 c73d fcc2 8d3d 955d 26bd
000000e0: 8f01 bf3d 8f78 b43d f998 08be 42b7 c53d
000000f0: c656 98bd 1fd2 85bd 8b4f ea3d ffb0 103e
00000100: 272e 453c 52e8 353b cad3 cebd 6400 83bd
00000110: 3f22 4f3d 9de2 8ebd f8c9 a5bd 5a39 52bc
00000120: e43f f7bd 3580 a5bd e8b1 123d 11a2 da3d
00000130: 2aac 62bd ff77 d53d 2dc3 02be 7b4b 893d
00000140: 2a00 6e3c d9e8 febd 1c40 00be 2ca4 fe3d
00000150: 1d4d 053e 2473 593d f526 f43b a85c 05be
00000160: d7d9 7abc def4 fcbc 3f3e 3ebd e3f6 063e
00000170: 2f26 883b 6740 1e3d 325c 953b c7ab cdbd
00000180: 25ae 8a3c b8e3 203d d722 f2bd 0553 0c3e
00000190: 5686 ad3d ecf5 e2bd 911b a53d 296b ca3d
000001a0: 5b65 8c3d 35e9 a33d c7cf 8d3c 0663 10be
000001b0: 15eb 833d f414 9d3c 6150 923d b094 333d
000001c0: 593b 623d 0e78 793d 66c4 90bd 08f0 043e
000001d0: 0b7e 88bc d7d8 6cbd baff c33d 9c57 febd
000001e0: bca9 bc3d b36c 99bc ac15 883d 789b 0f3d
000001f0: 2a5d acbd a172 0abe d833 53bd d4c9 083e
00000200: 2738 88bd dfec 18bd e181 e8bc 6ba3 dfbd
00000210: c86e 833d 59d1 b83d 87e6 90bd cc05 983d
00000220: 33ad c23c 786a 7b3d b82f 5ebc ac67 083e
00000230: 18c0 103e f5ac 6dbd 4a3d 83bd cd0c 003e
00000240: 73b3 2bbd e107 21bd 65c3 ea3d 6a18 f7bd
00000250: 8196 373d 8a76 08be 31ff 0b3e 2271 9a3d
00000260: 0406 e2bd 47b7 92bd 94fb 82bd 280d fbbc
00000270: f323 b8bd 05b5 4b3d f770 9ebd 432e 803d
00000280: 5edf ccbd 05cf ce3d 18c2 19bd 3446 093e
00000290: d28b 58bc 914a 753c b4da debd 543f 91bd
000002a0: c082 03be 5271 a8bb d594 063e 0a93 b6bd
000002b0: 7087 cbba 8360 aebd 2532 5e3c 40c8 2c3d
000002c0: c6cc 83bd aaf1 ca3d d6ab 073b c229 2f3b
000002d0: 5c9c d9bc 6300 eebd 670e 3ebd 96b0 b2bd
000002e0: 9cbb 5dbc 7a2d 4a3c bcfe 17bd bcb6 e7bd
000002f0: 306c 533c 6b72 a63c de63 9e3c 373a 3cbc
00000300: a126 3739 33c1 f8bd 299b 283b 9360 b73d
00000310: e8a7 c1bc 8b92 ad3d 8c77 9c3c 48bd cebd
00000320: 7a4e a6bd 8ecf cb3d b248 86bd ba38 103e
00000330: 90b5 e03c 169d 03be 0840 223d 0b42 04be
00000340: dc4a cd3d 1c9a c3bc ba07 0b3c 8684 f7bc
00000350: 9c40 913c f0d0 fc3d a6b3 933d 26d3 983c
00000360: 8a62 013e e260 ac3d 7ad3 07be eedf 393c
00000370: d7f7 043d 21f9 55bd 8150 e03c dc1b 0e3d
00000380: a74c c3bd 41a9 cd3d c4d6 05be c5b2 e7bd
00000390: ffeb 033e 2a57 823d d145 6d3d 5129 803d
000003a0: c535 0e3e 639b e1bc 1b84 a9bd 5ca7 ccbd
000003b0: 8645 e83d e3ba db3d 6ced b53d 2028 453c
000003c0: cf69 0a3e 8a64 fb3d 5139 dc3d ebd3 40bd
000003d0: c147 5cbc 1472 9e3d 2b35 f1bd 13ab a23d
000003e0: 8dd1 f0bd d4b8 093e 3dd1 4b3d 4fc1 0dbd
000003f0: 9445 5d3d f580 4939 01f7 08be ecaf 9c3d

fc2.bias f4 [50]
-0.084052026 -0.020239221 0.07130981 0.0291309 0.022744803 0.08105527 -0.089119755 0.0035743772
-0.037746094 0.12040604 0.05158566 -0.0736659 -0.13973172 -0.10338659 0.08120475 -0.05422088
-0.13951358 -0.12535572 -0.024297232 -0.044130433 -0.1084398 -0.08581207 0.029060008 0.090601556
-0.011251387 0.0033230365 0.08365163 -0.12625563 -0.12959029 -0.099771865 -0.09146122 0.114376135
-0.097597584 0.012023756 0.10685466 0.01632509 0.121708564 -0.06775862 -0.08306429 0.03371772
-0.12428411 -0.07459274 0.076975845 0.011539059 -0.10875753 0.0409002 -0.1278579 -0.04997736
-0.02817029 0.028530156
00000000: 7823 acbd b9cc a5bc e10a 923d eda3 ee3c
00000010: 4f53 ba3c 4e00 a63d 6b84 b6bd 1940 6a3b
00000020: a69b 1abd 7197 f63d 7c4b 533d 26de 96bd
00000030: d515 0fbe 59bc d3bd ad4e a63d b716 5ebd
00000040: a6dc 0ebe 405d 00be fd0a c7bc 1dc2 34bd
00000050: b015 debd 3dbe afbd 410f ee3c 4f8d b93d
00000060: bd57 38bc 4dc7 593b 8c51 ab3d 2849 01be
00000070: 51b3 04be 3155 ccbd 0550 bbbd 093e ea3d
00000080: 3ee1 c7bd 4aff 443c 9ed6 da3d 32bc 853c
00000090: 5742 f93d 08c5 8abd 9c1d aabd 981b 0a3d
000000a0: ab88 febd 14c4 98bd 83a5 9d3d 520e 3d3c
000000b0: 45bc debd f886 273d 2eed 02be 0fb5 4cbd
000000c0: 61c5 e6bc 13b8 e93c

fc3.weight f4 [2, 50]
-0.0896261 0.12523296 0.13500325 0.10128134 0.09896814 -0.06012976 -0.05824548 -0.094847605
0.013082956 -0.014263724 -0.114743374 -0.070641905 0.08822945 -0.08656002 0.045776207 0.109929174
0.043934893 0.024818677 0.09095838 0.097602144 0.02588701 -0.06559269 -0.06658689 0.13235022
-0.01828944 0.063183956 0.04329816 -0.0040270505 -0.06401786 0.0998176 -0.06493737 -0.040203094
-0.13679674 -0.013616237 -0.105924726 -0.058458656 0.02297114 -0.053104322 -0.12215645 0.10128326
0.12632531 0.091691606 0.02618977 -0.12738535 0.09764555 0.07106691 -0.02905181 -0.083304964
0.07073411 -0.028750276 0.01187939 -0.04288076 -0.12452451 -0.09630105 0.11479372 -0.122923225
0.06389533 -0.12847956 0.022145288 -0.04828328 0.10320279 -0.017882468 0.04196778 -0.07637072
0.0149060385 -0.11198328 -0.035103973 -0.0325439 0.13599381 -0.04111401 0.06654441 0.03193844
0.13961457 -0.12122882 0.11211756 -0.07109486 0.0010632055 -0.020566203 -0.08003663 -0.13225752
0.13625187 0.097103536 -0.104876466 -0.024140198 0.0680248 -0.1210625 0.09274457 0.07759308
0.027354628 0.05470052 0.013033619 0.016012698 -0.03562818 -0.08096154 -0.0056463196 0.038990855
-0.10206728 0.11003035 -0.09703771 0.12555665
00000000: e48d b7bd 123d 003e 4b3e 0a3e 976c cf3d
00000010: cfaf ca3d a04a 76bd d092 6ebd 763f c2bd
00000020: e559 563c 65b2 69bc 93fe eabd b4ac 90bd
00000030: a4b1 b43d 6146 b1bd d57f 3b3d 8c22 e13d
00000040: 13f5 333d 8a50 cb3c 6348 ba3d a2e3 c73d
00000050: ff10 d43c 7655 86bd b55e 88bd d186 073e
00000060: bcd3 95bc 9766 813d 6959 313d 59f5 83bb
00000070: cc1b 83bd 2b6d cc3d e2fd 84bd 00ac 24bd
00000080: 7214 0cbe a316 5fbc 10ef d8bd 5872 6fbd
00000090: f92d bc3c eb83 59bd 292d fabd 996d cf3d
000000a0: 6c5b 013e cfc8 bb3d ee8b d63c 4e71 02be
000000b0: 64fa c73d 878b 913d 10fe edbc cb9b aabd
000000c0: 0cdd 903d b385 ebbc c6a1 423c bca3 2fbd
000000d0: b506 ffbd 7c39 c5bd f818 eb3d 2cbf fbbd
000000e0: 8edb 823d 2590 03be 096a b53c b0c4 45bd
000000f0: fc5b d33d 417e 92bc 68e6 2b3d 4168 9cbd
00000100: 7538 743c 7d57 e5bd 2fc9 0fbd c14c 05bd
00000110: f641 0b3e 2a67 28bd 7048 883d e2d1 023d
00000120: 1ff7 0e3e d146 f8bd e49d e53d 2f9a 91bd
00000130: 425b 8b3a 747a a8bc 3fea a3bd 846e 07be
00000140: 9c85 0b3e 38de c63d 79c9 d6bd aac1 c5bc
00000150: 9650 8b3d 9eef f7bd ddf0 bd3d 1fe9 9e3d
00000160: d016 e03c a70d 603d f68a 553c 102d 833c
00000170: dbee 11bd 2acf a5bd c304 b9bb e0b4 1f3d
00000180: a608 d1bd 9857 e13d b5bb c6bd ec91 003e

fc3.bias f4 [2]
-0.06194828 -0.050044753
00000000: 7bbd 7dbd bafb 4cbd
