TorchModels/RLtrader36.pt (torch, 22871 bytes, 6 tensors)

fc1.weight f4 [50, 50]
0	0xbd3f287e	-0.046669476
1	0xbc3b6e4e	-0.011439873
2	0xbe030f00	-0.12798691
3	0x3dd34938	0.103167
4	0xbc42bdd8	-0.011886083
5	0x3b7eb841	0.0038867148
6	0xbce98ea7	-0.028510405
7	0xbe0ececd	-0.13946076
8	0xbdf6b054	-0.12045351
9	0xbd7d5e8a	-0.061857738
10	0xbddb74d4	-0.107156426
11	0xbd9a0035	-0.07519571
12	0x3be15bd5	0.0068774023
13	0xbdc0a6f6	-0.09406845
14	0x3cf343e8	0.029695466
15	0xbdc582b7	-0.096440725
16	0xbc0cfe9a	-0.008605624
17	0xbc61b71a	-0.013776565
18	0xbe105ffc	-0.14099115
19	0x3d9d9c81	0.076958664
20	0xbd245d66	-0.040128134
21	0xbd8ba714	-0.06818977
22	0xbdba7c07	-0.091056876
23	0xbe0f64f5	-0.14003356
24	0xbdccbd36	-0.099970266
25	0x3d2f4911	0.04279429
26	0x3d7144ba	0.058903433
27	0xbc8b22e1	-0.016984405
28	0x3bb78231	0.005600237
29	0x3dcccfa7	0.10000544
30	0x3d9f83bc	0.07788798
31	0x3cd96d7c	0.026541464
32	0xbdd0feab	-0.10204824
33	0xbcc4b009	-0.024009721
34	0xbda2a54a	-0.07941683
35	0xbdaae9d6	-0.08345382
36	0xbdce04b1	-0.100594886
37	0x3dc1b5ff	0.09458541
38	0x3c33db12	0.010977523
39	0xbda686aa	-0.08131154
40	0x3dbe9b0a	0.09306915
41	0xbd0cc8bf	-0.034371134
42	0xbdef36c0	-0.116803646
43	0x3d3f1b0e	0.04665666
44	0x3d21d7dd	0.039512504
45	0xbd78db90	-0.060756266
46	0xbdf81fc4	-0.12115434
47	0xbcb07a47	-0.021542681
48	0x3e079963	0.13242106
49	0x3dd487ae	0.10377441
50	0xbdf401fb	-0.1191444
51	0xbd0a1838	-0.033714503
52	0xbddcd05f	-0.10781931
53	0xbaee0627	-0.0018159793
54	0x3daac058	0.08337468
55	0x3dc5d9eb	0.09660705
56	0xbcbbf8ca	-0.02294578
57	0x3df1284e	0.11775266
58	0x3d685fea	0.056732096
59	0x3dbf6836	0.093460485
60	0xbd64562d	-0.055746246
61	0xbcef1a9f	-0.029187499
62	0x3d87f727	0.066389374
63	0x3c9e1d0a	0.019300956
64	0x3dcf93f9	0.101356454
65	0xbe054b2c	-0.13016957
66	0xbdc4260e	-0.09577571
67	0xbc14b460	-0.009076208
68	0x3dd8c746	0.105848834
69	0x3e00d717	0.1258205
70	0xbd94ca77	-0.072651796
71	0x3d9e9199	0.07742614
72	0x3e0401f4	0.1289137
73	0x3d8ef15b	0.06979629
74	0xbd30da21	-0.043176774
75	0x3dc9dad7	0.098561935
76	0x3d7855a9	0.060628567
77	0xbd027e7c	-0.031858906
78	0xbdfa1ae7	-0.122121625
79	0x3cdb6d63	0.026785558
80	0xbd97fa28	-0.074207604
81	0xbda05e23	-0.07830455
82	0x3dac67a0	0.084182024
83	0xbc0e1208	-0.008671291
84	0xbdd9311b	-0.10605069
85	0xbde3d2bf	-0.11124181
86	0x3de14457	0.10999363
87	0x3dd32b46	0.10310988
88	0xbde7ee16	-0.11324708
89	0x3dbfb1c6	0.093600795
90	0x3d96e3ff	0.073677056
91	0xbd8a6b8d	-0.06758795
92	0xbd8102d6	-0.06299369
93	0x3ca63de5	0.020293185
94	0xbda4a846	-0.08039908
95	0x3dbdb9f2	0.09263982
96	0x3df6e52e	0.12055431
97	0xbe0d49fb	-0.13797753
98	0x3d841984	0.06450179
99	0xbdd67011	-0.10470594
100	0xbd0a3220	-0.03373921
101	0xbcd3e4db	-0.025865963
102	0x3de313d8	0.11087769
103	0xbdd64c98	-0.10463828
104	0x3b8e3342	0.0043396065
105	0xbdb1860b	-0.08668145
106	0x3d8ef0e9	0.06979544
107	0xbd705312	-0.058672972
108	0x3d20949e	0.039204232
109	0x3d36e7b6	0.04465457
110	0xbe0dda7f	-0.13852881
111	0x3c3f5a93	0.011679309
112	0x3de565f5	0.112010874
113	0xbde156dd	-0.11002896
114	0xbd03fd9e	-0.03222429
115	0xbdb251b0	-0.08706987
116	0x3cf577e2	0.029964391
117	0xbc2ee591	-0.01067485
118	0xbe0f007e	-0.13965032
119	0xbde734ca	-0.112893656
120	0x3d88a502	0.06672098
121	0xbdf80c20	-0.12111688
122	0x3dfe28f3	0.12410154
123	0xbd92a40a	-0.07160194
124	0x3d25a761	0.040442828
125	0xbdf6126e	-0.12015234
126	0x3b5d0a4f	0.0033728068
127	0xbdade3d9	-0.08490724
128	0x3dbdab74	0.09261218
129	0xbd52cb71	-0.051463548
130	0xbd1a9444	-0.037739053
131	0xbd734475	-0.059391458
132	0xbd84ce2c	-0.06484637
133	0xbc45c6ac	-0.012071293
134	0xbb61268a	-0.0034355246
135	0xbbb60895	-0.0055552223
136	0x3d7af812	0.061271735
137	0x3c4ccd3f	0.012500106
138	0x3e00fd11	0.12596537
139	0x3d0396c6	0.03212621
140	0xbdecbc2b	-0.11559328
141	0x3cca9624	0.024729796
142	0xbdcb3f23	-0.09924152
143	0xbd637ad4	-0.05553706
144	0xbcfbabc5	-0.030721555
145	0xbda1c4bb	-0.078988515
146	0xbdb37c34	-0.08763924
147	0x3d9fcd54	0.07802835
148	0x3ca0b6ce	0.019618418
149	0x3de465ed	0.11152253
150	0xbe11151b	-0.14168207
151	0x3dc00eac	0.093777984
152	0x3e06248b	0.13099878
153	0xbd8fa16b	-0.0701321
154	0x3dac1643	0.084026836
155	0xbda96daf	-0.082728736
156	0x3d8eb098	0.06967276
157	0x3d4ccaf1	0.049998228
158	0xbd2dcddb	-0.042432647
159	0xbdc266f3	-0.09492292
160	0x3e00dc46	0.12584028
161	0xbc0b4ecc	-0.008502673
162	0x3df7be46	0.12096839
163	0xbda3c9ef	-0.079975
164	0xbe056a22	-0.13028768
165	0x3e0aab29	0.13541855
166	0xbd2bf76f	-0.041984018
167	0x3d04f42d	0.032459427
168	0xbe000a90	-0.1250403
169	0xbda66ba2	-0.08125998
170	0x3dd9c808	0.10633856
171	0xbc6070af	-0.013698741
172	0x3dd7ee4a	0.10543497
173	0xbb9aa498	-0.004719328
174	0x3d0c90a4	0.034317628
175	0x3dac6f37	0.0841965
176	0xbdb530bb	-0.08847185
177	0xbdf6b2fc	-0.12045857
178	0xbd985a7e	-0.07439135
179	0xbbfd1108	-0.0077229775
180	0x3cc4ab1d	0.024007374
181	0xb90cf08c	-0.00013441051
182	0xbda373c9	-0.07981069
183	0x3dd113fc	0.1020889
184	0x3ca775c5	0.0204419
185	0xbda35042	-0.07974292
186	0x3d12f804	0.035881057
187	0x3dffc862	0.12489392
188	0x3e03004a	0.12793079
189	0xbd41e631	-0.04733867
190	0xbcc0caed	-0.023534263
191	0xbd859df1	-0.065242656
192	0x3cc476d4	0.023982443
193	0xbe04b1eb	-0.12958495
194	0x3d90bdc0	0.07067442
195	0x3d5c83e3	0.053836714
196	0xbde915a9	-0.113810845
197	0xbd1726b3	-0.03690214
198	0xbd3d275e	-0.04618012
199	0x3d9c41c5	0.07629732
200	0xbbd03d6d	-0.006354979
201	0x3d498a65	0.04920425
202	0x3c4972d4	0.012295444
203	0x3df4b110	0.119478345
204	0xbca96663	-0.020678705
205	0xbda7f211	-0.082004674
206	0xbda35c09	-0.07976539
207	0xbdfa31d5	-0.12216536
208	0xbc95b7f2	-0.018276189
209	0x3dd1e6bd	0.10249088
210	0x3ddf58df	0.10905623
211	0x3cad3064	0.021141239
212	0x3da1b1d2	0.07895245
213	0x3c43b75e	0.011945574
214	0xbd7db717	-0.061942186
215	0x3deb5256	0.11490314
216	0x3ceccc8b	0.028906127
217	0xbd0faee1	-0.035078887
218	0xbd512a49	-0.051065717
219	0xbe0f13a7	-0.1397234
220	0xbc96f695	-0.018428126
221	0x3db18711	0.0866834
222	0xbbcb7b83	-0.006209792
223	0x3dceb9f1	0.10094059
224	0x3ddf67fb	0.109085046
225	0xbdb1fd65	-0.08690909
226	0xbdc2bf8f	-0.09509193
227	0xbd50da7a	-0.050989605
228	0x3afd5192	0.0019326678
229	0xbcc741f4	-0.024323441
230	0x3c303662	0.010755153
231	0xbdeba525	-0.11506108
232	0x3e0626b3	0.131007
233	0x3de2ffe7	0.11083966
234	0xbcf827cb	-0.030292412
235	0xbc268f91	-0.010166065
236	0xbc5f92c6	-0.013645833
237	0x3e0eadd9	0.13933505
238	0x3dd2036b	0.10254558
239	0xbd908466	-0.07056503
240	0x3db7f110	0.08981526
241	0x3dfd7744	0.12376264
242	0xbc974a40	-0.018468022
243	0xbde8482e	-0.11341892
244	0x3da6aa94	0.08138004
245	0x3d292bc9	0.041301522
246	0x3d19a44e	0.03751021
247	0xbd40a6e6	-0.047034167
248	0x3df3ea2f	0.11909901
249	0xbdfd52b5	-0.12369291
250	0x3da273ba	0.07932229
251	0x3deb809a	0.11499138
252	0x3db97b5c	0.09056732
253	0x3cfc6d6c	0.030813895
254	0x3d987813	0.07444777
255	0xbdef73b5	-0.11691991

fc1.bias f4 [50]
0	0xbb6ad8f3	-0.0035834878
1	0xbda2f209	-0.07956321
2	0xbda1bb23	-0.078970216
3	0xbc9e99bb	-0.019360414
4	0x3deccbb7	0.11562293
5	0xbe02b9af	-0.12766145
6	0xbd6228bf	-0.05521464
7	0xbdde1fdd	-0.10845921
8	0xbdbccec5	-0.09219126
9	0xbd8279c9	-0.06370885
10	0xbde29ca1	-0.11065031
11	0xbcfa9f10	-0.030593425
12	0x3de57ce1	0.112054594
13	0x3dca0e0d	0.09865961
14	0xbdc13a75	-0.09434978
15	0xbd9cff85	-0.07665924
16	0xbc8edd6f	-0.017439572
17	0xbd03f715	-0.032218058
18	0x3c552d4d	0.013011289
19	0xbdf64994	-0.12025753
20	0xbd76a861	-0.060219172
21	0xbda17d54	-0.078852326
22	0xbd948df1	-0.07253636
23	0x3c949800	0.018138885
24	0x3d8eb205	0.06967548
25	0xbcd948be	-0.026523944
26	0x3d1731a8	0.03691259
27	0xbcdc6ec0	-0.026908278
28	0x3d960406	0.07324986
29	0x3c98fd89	0.018675582
30	0x3cf7cfb7	0.030250413
31	0xbe0924d8	-0.13392961
32	0xbcb1c833	-0.021701908
33	0xbda3b011	-0.079925664
34	0xbcedbe5d	-0.029021436
35	0xbd1331ac	-0.035936043
36	0x3e09ff2d	0.13476248
37	0xbdd0f33a	-0.10202642
38	0xbccb640a	-0.024827976
39	0x3d15008a	0.036377467
40	0xbd93c4c5	-0.07215265
41	0xbd4a5f20	-0.049407125
42	0x3d80c978	0.06288427
43	0x3ded7447	0.11594444
44	0x3cdde409	0.027086275
45	0xbd6001db	-0.05468927
46	0x3d63861c	0.05554782
47	0xbe02d507	-0.12776576
48	0xbdff3cc5	-0.12462763
49	0x3c2472cf	0.010037138

fc2.weight f4 [50, 50]
0	0xbe00d07b	-0.12579529
1	0xbda8a744	-0.082350284
2	0xbd8410b7	-0.064485006
3	0x3dc51c6b	0.09624561
4	0xbdfcacb5	-0.12337629
5	0x3d4a02f8	0.049319237
6	0xbdbe8ca5	-0.093041696
7	0x3d074c9f	0.033032056
8	0x3e01a1c8	0.12659371
9	0xbe016e1c	-0.1263966
10	0xbd8e42a7	-0.06946307
11	0xbc876b62	-0.016530696
12	0xbd00f317	-0.03148183
13	0xbd372d86	-0.04472115
14	0x3d9398df	0.07206892
15	0x3e0efca8	0.13963568
16	0x3db7e433	0.089790724
17	0xbd9650e2	-0.07339646
18	0xbd89c254	-0.06726518
19	0xbd0cb14b	-0.034348767
20	0xbdc76e55	-0.09737841
21	0xbc73fd98	-0.014892004
22	0xbd98549a	-0.074380115
23	0xbde83410	-0.11338055
24	0xbde37616	-0.111065075
25	0xbd869283	-0.06570914
26	0xbc1d1072	-0.00958644
27	0xbd1f2d01	-0.03886128
28	0x3d9be1e5	0.07611445
29	0x3def1c39	0.11675305
30	0x3cbbd9d0	0.02293101
31	0x3c3e6775	0.011621346
32	0x3db7d47a	0.089760736
33	0xbe04d9f5	-0.12973769
34	0xbd655686	-0.05599072
35	0x3aeedd26	0.0018223866
36	0xbd263768	-0.040580183
37	0x3d7d6d9b	0.061872106
38	0x3d413563	0.047170054
39	0x3d78fba2	0.06078685
40	0xbd0dd650	-0.034628212
41	0xbdacc59e	-0.0843613
42	0x3b228206	0.0024796738
43	0xbbb77fa1	-0.0055999313
44	0xbd267d04	-0.040646568
45	0xbde9813e	-0.11401604
46	0x3b11a2e2	0.002222233
47	0x3e0e0f02	0.13872913
48	0x3bb76cb3	0.0055976748
49	0xbc93b1bb	-0.018029084
50	0x3d447edf	0.047972556
51	0x3dfb5cf6	0.1227359
52	0x3e0e4a4d	0.13895531
53	0x3d46a280	0.048494816
54	0x3dca0558	0.098643005
55	0xbc6224a9	-0.013802686
56	0x3d923982	0.07139875
57	0xbd954af7	-0.07289689
58	0xbdbb4202	-0.09143449
59	0xbd54bd08	-0.051938087
60	0xbcfefde0	-0.031126916
61	0x3c183dde	0.009292094
62	0xbccda17b	-0.025101414
63	0x3db98fba	0.09060617
64	0x3da16aaf	0.078816764
65	0x3bbcdfff	0.005764007
66	0x3d6c5976	0.057702504
67	0xbd5cd567	-0.053914454
68	0x3e0cc1fe	0.13745877
69	0x3d11b69d	0.035574544
70	0x3dd2bb18	0.102895916
71	0x3d9131c1	0.07089568
72	0x3d85b13f	0.06527948
73	0xbe0623e9	-0.13099636
74	0x3dc966bd	0.09834049
75	0xbd0f2d09	-0.03495506
76	0x3d404a2a	0.04694573
77	0x3c84ce65	0.016211698
78	0xbd01995b	-0.03164039
79	0xbdd73ca7	-0.105096154
80	0xbd6d792a	-0.05797688
81	0x3d27118e	0.040788226
82	0xbdd42537	-0.10358661
83	0x3db9563f	0.09049653
84	0xbd67d20d	-0.056596804
85	0x3caf0ab4	0.021367408
86	0x3e0935ec	0.13399476
87	0x3ddd18cc	0.10795745
88	0xbd870f5e	-0.06594728
89	0x3e1353e4	0.1438747
90	0xbd209619	-0.039205644
91	0x3dfceddf	0.12350058
92	0xbdc23034	-0.0948185
93	0xbdb4d97e	-0.08830546
94	0xbe0a6b03	-0.13517384
95	0xbc9fe990	-0.019520551
96	0xbe082660	-0.13295889
97	0xbd98d6b7	-0.074628286
98	0xbb9302fd	-0.00448644
99	0x3dc3a424	0.09552792
100	0x3d8dabfe	0.069175705
101	0xbd43fea6	-0.047850274
102	0x3db9125a	0.090367034
103	0x3dec58d8	0.11540383
104	0x3d0d5c25	0.034511704
105	0x3db8e1e5	0.09027461
106	0x3b7fa2da	0.003900698
107	0x3e045d0b	0.12926118
108	0xbc178d1c	-0.009249952
109	0x3dfef952	0.12449898
110	0x3db49f96	0.08819501
111	0x3d1a418d	0.03766017
112	0xbca44fed	-0.020057643
113	0x3dd3aa38	0.10335201
114	0xbddf2232	-0.10895194
115	0xbd661a0c	-0.056177184
116	0x3da37d26	0.079828545
117	0xbdc8059b	-0.09766694
118	0xbdf62323	-0.120184205
119	0x3dc49d65	0.09600333
120	0xbc1f00a6	-0.009704744
121	0x3deb3f94	0.11486736
122	0x3dcf4fc6	0.101226375
123	0xbdfed59e	-0.12443088
124	0x3d4c62a8	0.049898773
125	0xbe0a23b0	-0.13490176
126	0xbd40feed	-0.047118116
127	0xbdb280f8	-0.08716005
128	0xbda08c7a	-0.07839294
129	0x3da2e495	0.07953755
130	0x3d8fecef	0.07027613
131	0xbd0a3828	-0.03374496
132	0xbcc470b8	-0.02397953
133	0xbe040469	-0.12892307
134	0x3dac9c29	0.08428223
135	0xbd1a0e4f	-0.037611302
136	0x3db6d7e3	0.08927896
137	0xbd3d59f6	-0.04622837
138	0xbd9fbc36	-0.0779957
139	0xbdfe76b2	-0.12424983
140	0xbd3e36eb	-0.046439093
141	0xbb87a215	-0.0041391947
142	0xbdc6780e	-0.09690867
143	0x3da85060	0.08218455
144	0x3e083207	0.13300334
145	0x3e02462d	0.12722082
146	0xbc936eae	-0.017997112
147	0xbd858dc7	-0.065211825
148	0xbb02d9a1	-0.0019966143
149	0xbdb96872	-0.090531245
150	0x3e03ed32	0.12883452
151	0x3d6e491d	0.058175195
152	0x3c7fda8c	0.0156160705
153	0xbbb905be	-0.0056464365
154	0xbd78eadc	-0.060770854
155	0x3c9cc932	0.019138906
156	0xbdb12bc2	-0.08650924
157	0xbdd7874b	-0.10523852
158	0xbe0ce593	-0.1375945
159	0xbde697c0	-0.11259413
160	0xbe07ec92	-0.13273838
161	0x3d3f2934	0.046670154
162	0x3db4b38a	0.08823307
163	0x3d86a4b0	0.065743804
164	0xbc87c545	-0.016573558
165	0x3da90c20	0.08254266
166	0xbd772797	-0.06034049
167	0xbdcd8e74	-0.100369364
168	0xbd06ffcd	-0.032958794
169	0x3d99409a	0.07483025
170	0xbd59473c	-0.05304645
171	0x3cd29db2	0.02570996
172	0xbd857552	-0.06516518
173	0x3e01ce78	0.12676418
174	0xbdc2f246	-0.09518866
175	0x3ce8dcea	0.028425653
176	0xbe00b022	-0.1256719
177	0xbd89dcc7	-0.06731563
178	0xbe1058db	-0.14096396
179	0x3dbac08b	0.09118756
180	0x3db2edd7	0.087367706
181	0x3ce77a6a	0.028256614
182	0xbe0e526f	-0.13898633
183	0x3e09519a	0.13410035
184	0x3d720357	0.059085216
185	0x3d8b3099	0.06796379
186	0x3dd52eb8	0.104093015
187	0x3c6fee2f	0.01464419
188	0x3c89d314	0.016824283
189	0xbdf02137	-0.11725085
190	0x3d448022	0.04797376
191	0x3d4a9fde	0.049468867
192	0xbbd4c2ee	-0.006492964
193	0xbd37d281	-0.044878487
194	0x3da11bb4	0.07866612
195	0x3d10a1f8	0.035310715
196	0x3c8135d9	0.015772747
197	0xbc3d02cc	-0.011536311
198	0xbddfcabb	-0.1092734
199	0xbe092e28	-0.13396513
200	0xbd478876	-0.048714124
201	0x3dd2c17e	0.10290812
202	0x3d6b07df	0.057380553
203	0xbdcca27e	-0.099919304
204	0x3dc3e438	0.09565014
205	0x3e06b39e	0.13154456
206	0x3da11760	0.078657866
207	0xbe091ed0	-0.1339066
208	0xbdae4a8e	-0.08510314
209	0xbcaa2c95	-0.020773211
210	0xbddbd908	-0.10734755
211	0x3dd8d93b	0.105883084
212	0xbdc129d8	-0.09431809
213	0x3d8a6e53	0.06759324
214	0xbd300c10	-0.042980254
215	0xbdafc5e4	-0.085826665
216	0xbcab16e3	-0.020884937
217	0x3da16c23	0.078819536
218	0xbd88fc4e	-0.06688748
219	0xbe124050	-0.14282346
220	0xbcc7fac3	-0.024411565
221	0x3c63842b	0.013886492
222	0xbdeacc6a	-0.1146477
223	0x3d1e1fd1	0.03860456
224	0xbc94c14b	-0.018158576
225	0xbde7ba8f	-0.1131488
226	0x3e0b31c2	0.135932
227	0xbdeccb95	-0.11562268
228	0x3dec673e	0.115431294
229	0xbdd7fc0f	-0.10546123
230	0xbdc0c51e	-0.09412597
231	0xbcf5f15e	-0.03002232
232	0xbd342ff2	-0.043991037
233	0xba1e2893	-0.0006033268
234	0xbdc9354e	-0.0982462
235	0x3e054782	0.1301556
236	0x3b5fd1e5	0.0034152206
237	0x3a549dd9	0.00081106793
238	0x3e071fd5	0.13195737
239	0xbdfa4e60	-0.1222198
240	0x3d91fbae	0.07128082
241	0x3d952d2b	0.07284006
242	0xbdef9c7d	-0.1169977
243	0x3defc095	0.11706654
244	0xbdb6127d	-0.08890245
245	0x3cc84ecf	0.024451641
246	0x3ddd2172	0.10797395
247	0xbd9516c5	-0.072797336
248	0x3dfd509f	0.12368893
249	0x3d38f718	0.045157522
250	0xbd2a852c	-0.04163091
251	0x3df69334	0.120397955
252	0xbd9f221a	-0.07770176
253	0xbdf7b493	-0.12094989
254	0xbdc7a8e9	-0.09749014
255	0xbd7797e8	-0.060447603

fc2.bias f4 [50]
0	0xbdc3207e	-0.09527682
1	0x3d1fef93	0.039046835
2	0x3c5e0d9f	0.013553052
3	0x3d3735fc	0.044729218
4	0x3c82da05	0.0159731
5	0xbdf6e1cc	-0.12054786
6	0x3cdad08b	0.02671077
7	0xbdff6ce7	-0.12471943
8	0x3e070184	0.13184172
9	0x3dc05cf7	0.09392732
10	0xbd957d69	-0.07299311
11	0xbc92f585	-0.017939338
12	0xbe13ae83	-0.1442204
13	0x3ded3bb8	0.11583656
14	0x3d37305a	0.044723846
15	0x3e0983b8	0.13429153
16	0xbdeefdff	-0.1166954
17	0xbb339463	-0.0027401678
18	0x3d8539a4	0.06505135
19	0xbd50146a	-0.05080072
20	0xbd0fc959	-0.03510413
21	0x3e01f495	0.12690957
22	0xbc910b8b	-0.0177057
23	0x3c8ca008	0.017166153
24	0xbd220261	-0.03955305
25	0x3d967551	0.07346595
26	0xbdb34f15	-0.08755318
27	0xbd326e0a	-0.043561973
28	0x3da970c0	0.082734585
29	0xbcf50572	-0.029909823
30	0xbbf003a8	-0.0073246546
31	0xbd096a5a	-0.03354869
32	0x3e0da330	0.13831782
33	0xbc9666c2	-0.018359546
34	0xbdf5cadd	-0.12001584
35	0x3e0a41b9	0.13501634
36	0x3e07c8ec	0.1326024
37	0xbc6428e2	-0.013925763
38	0x3e0f1a1a	0.139748
39	0x3e014e95	0.12627633
40	0x3d623a63	0.055231463
41	0x3b448a60	0.0029989704
42	0x3d1c8801	0.03821564
43	0x3d8568fb	0.06514164
44	0x3d6ed89a	0.058312036
45	0x3c65678f	0.014001741
46	0x3d312747	0.04325035
47	0xbd59d779	-0.053184006
48	0x3d922cc3	0.07137444
49	0xbdde5897	-0.10856741

fc3.weight f4 [2, 50]
0	0xbe101d08	-0.14073575
1	0xbd55b1fd	-0.052171696
2	0x3de47c7a	0.111565545
3	0x3c9b410e	0.018951919
4	0x3dc1dc1e	0.09465812
5	0xbda36f0c	-0.07980165
6	0xbaa10d6f	-0.0012287329
7	0xbcc47978	-0.023983702
8	0xbd98cceb	-0.0746096
9	0xbe107d98	-0.1411041
10	0xbb9ce66d	-0.004788211
11	0x3e01a398	0.12660062
12	0x3d3e19bb	0.046411257
13	0xbe083c9d	-0.13304372
14	0x3d286f06	0.041121505
15	0x3a2f2f92	0.0006682809
16	0x3c963fc3	0.01834095
17	0x3dca9a43	0.09892704
18	0xbdafe11f	-0.0858786
19	0xbd0e5bde	-0.03475558
20	0x3d83eda4	0.06441811
21	0x3ceb1cdd	0.028700287
22	0x3e071f21	0.13195468
23	0xbe11f5c9	-0.14253916
24	0x3c0743e9	0.008255937
25	0x3db1afd4	0.08676115
26	0xbe141098	-0.14459455
27	0xbdab0a82	-0.083516136
28	0x3de9c9e6	0.11415462
29	0xbd57a2ac	-0.05264537
30	0xbbde430a	-0.006782894
31	0x3de0ea76	0.1098222
32	0xbd9182d0	-0.07105029
33	0xbd29d923	-0.041466843
34	0xbe0ab424	-0.1354528
35	0x3e09c325	0.13453348
36	0x3d489973	0.048974466
37	0x3d4bae52	0.04972679
38	0xbda88e6d	-0.082302906
39	0x3ccca44c	0.024980687
40	0x3de13e8c	0.10998258
41	0xbdcf8289	-0.101323195
42	0xbe010aaf	-0.12601732
43	0xbdfee5c9	-0.12446172
44	0xbe027ae5	-0.12742193
45	0x3d4157e7	0.04720297
46	0x3dc83888	0.097764075
47	0x3cff5f5d	0.031173402
48	0xbdd2d06a	-0.10293658
49	0xbd993ea5	-0.074826516
50	0x3c977fe2	0.018493596
51	0xbe0472cf	-0.12934421
52	0x3d178557	0.036992397
53	0xbd112a18	-0.035440534
54	0x3c6305eb	0.013856391
55	0x3e0abb68	0.13548052
56	0xbd3ea26c	-0.046541616
57	0xbd6a200c	-0.05715947
58	0xbd111523	-0.03542055
59	0xbd850b21	-0.06496263
60	0xbdfc5366	-0.123205945
61	0x3d27efd9	0.04100022
62	0x3dbb0908	0.09132582
63	0xbbbbb92b	-0.005728861
64	0x3bc3689f	0.0059633995
65	0xbcab4dec	-0.02091118
66	0xbbf6c2b2	-0.0075305337
67	0x3e0e30ed	0.13885851
68	0xbd5faa28	-0.054605633
69	0xbd91a05e	-0.07110666
70	0x3dbdd696	0.09269445
71	0x3d0c0a95	0.03418978
72	0xbdc87126	-0.09787206
73	0xbe0bd257	-0.13654457
74	0xbdf2fa23	-0.11864116
75	0x3c0fa4de	0.008767335
76	0xbccb8e8e	-0.024848249
77	0x3d05affd	0.03263854
78	0xbe0fb358	-0.14033258
79	0x3db41ea8	0.0879491
80	0xbc8c7225	-0.017144272
81	0x3c3c719b	0.011501695
82	0x3dc627ef	0.096755855
83	0xb9d24bbc	-0.00040110748
84	0x3d713c7a	0.058895566
85	0xbd0bee6e	-0.03416293
86	0x3dd7a6f5	0.105298914
87	0xbddfccee	-0.10927759
88	0x3d9c916d	0.07644925
89	0x3cd16cb4	0.025564529
90	0xbdf85747	-0.12126022
91	0x3ca7f59a	0.020502854
92	0xbd385b68	-0.045009047
93	0xbdf91f92	-0.12164225
94	0x3df2bc00	0.118522644
95	0x3d1b1047	0.03785732
96	0xbd02ffc5	-0.031982202
97	0xbe0d1492	-0.13777378
98	0xb70855b7	-8.126189e-06
99	0xbd62e922	-0.055398114

fc3.bias f4 [2]
0	0x3d3720b9	0.04470894
1	0xbdcaa077	-0.098938875
