TorchModels/RLtrader41.pt (torch, 22871 bytes, 6 tensors)

fc1.weight f4 [50, 50]
0	0xbd22c141	-0.039735083
1	0x3cc4233b	0.02394258
2	0x3cb865be	0.022509452
3	0xbc4f33c8	-0.012646623
4	0xbd5c9b99	-0.053859327
5	0x3d33ac2d	0.04386537
6	0x3b9c643b	0.0047726906
7	0x3dbe2316	0.09284036
8	0xbd17e6c8	-0.037085325
9	0x3e0ed7f3	0.13949566
10	0x3d586470	0.05283016
11	0x3dfa6fcf	0.12228357
12	0x3d8de4ef	0.06928431
13	0x3c00e68e	0.0078674685
14	0xbd0195c3	-0.031636965
15	0x3d81f215	0.063450016
16	0xbcfc8bf9	-0.030828463
17	0xbd99b45a	-0.075051025
18	0x3db7b895	0.08970753
19	0x3da00d4e	0.07815038
20	0xbd14a0ad	-0.036286045
21	0x3d999dbb	0.07500788
22	0xbe03558d	-0.12825604
23	0xbd92be5c	-0.071652144
24	0x3e04e07f	0.12976263
25	0x3d7a3739	0.06108782
26	0x3d2fb3ea	0.04289619
27	0xbd62db43	-0.055384886
28	0x3e097d25	0.13426645
29	0xbc8cf70d	-0.017207647
30	0xbd3e5b69	-0.046473894
31	0x3d208640	0.03919053
32	0xbc126b34	-0.008936692
33	0x3c132c6e	0.008982761
34	0x3d44e7af	0.048072513
35	0xbdc1217d	-0.094302155
36	0x3dd81e81	0.10552693
37	0xbd1a6a73	-0.037699174
38	0xbdbc587a	-0.09196563
39	0x3d96b907	0.0735951
40	0x3de25738	0.11051792
41	0xbd80d4b8	-0.06290573
42	0x3d059a10	0.03261763
43	0xbde600b8	-0.11230606
44	0x3dc320cb	0.09527739
45	0xbe05053a	-0.12990275
46	0x3c9abc09	0.01888849
47	0xbd655562	-0.05598963
48	0x3c197e8b	0.009368549
49	0xbccf7d5a	-0.025328327
50	0x3d8fcc20	0.07021356
51	0xbe0f3dac	-0.1398837
52	0xbd237019	-0.039901827
53	0xbc6720e0	-0.014106959
54	0xbd0a6310	-0.03378588
55	0x3daa9d4d	0.08330784
56	0x3cf565b6	0.029955726
57	0xbd86d6f5	-0.065839685
58	0x3da07899	0.07835502
59	0xbd246e37	-0.04014417
60	0xbd808f3d	-0.062773205
61	0xbd813ef7	-0.06310838
62	0x3deb3ed6	0.114865944
63	0x3cca235b	0.024675062
64	0x3ca98788	0.02069451
65	0x3e00933b	0.12556164
66	0x3d4729db	0.0486239
67	0x3def098a	0.11671741
68	0x3cfcffdf	0.030883728
69	0x3dc5cda4	0.096583635
70	0xbd1ec65c	-0.03876339
71	0xbdf64f85	-0.12026886
72	0xbd7e0631	-0.062017623
73	0xbd379327	-0.04481807
74	0xbdb17947	-0.0866571
75	0x3dcc3ede	0.099729285
76	0xbde16011	-0.11004651
77	0xbd2d163a	-0.042257525
78	0xbbd2b7b9	-0.006430593
79	0xbdc7cb94	-0.09755626
80	0x3dd3f614	0.1034967
81	0xbc9477a9	-0.018123465
82	0x3e0bbb48	0.13645661
83	0xbd8848f0	-0.06654537
84	0x3d4f14cf	0.050556954
85	0x3cba4ea8	0.022742584
86	0xbc7140ff	-0.014724969
87	0xbe0c2e7d	-0.13689609
88	0xbadbfa60	-0.0016782992
89	0xbd8406fa	-0.06446643
90	0xbcfd04a5	-0.030886004
91	0x3ddc7af6	0.107656404
92	0xba9bd1b1	-0.0011888054
93	0xbe0ea6cb	-0.13930814
94	0x3d7c74fb	0.061635
95	0xbd4146f5	-0.04718681
96	0x3db716a8	0.08939868
97	0x3d8d338b	0.06894597
98	0xbd829c37	-0.06377452
99	0x3d08a61f	0.03336155
100	0x3d5c1ca3	0.053738248
101	0xbd8e557d	-0.06949899
102	0xbe090591	-0.1338103
103	0xbb513b1d	-0.0031926103
104	0xbd9debf6	-0.077110216
105	0xbd8bab0e	-0.068197355
106	0x3de779f6	0.11302559
107	0x3db9a11a	0.09063931
108	0xbd85f62a	-0.06541093
109	0xbc059f71	-0.00815569
110	0xbd4d9626	-0.05019202
111	0xbdab9b41	-0.08379222
112	0xbdf55b32	-0.11980285
113	0xbc0a1820	-0.008428603
114	0xbd422570	-0.047398984
115	0xbdca8e47	-0.098904185
116	0xbe0fdeba	-0.14049807
117	0x3d65404e	0.05596953
118	0x3de89f11	0.113584645
119	0x3d43320b	0.047655147
120	0xbdf0fc40	-0.11766863
121	0xbd0d3a2a	-0.034479298
122	0x3cd77627	0.026301457
123	0x3d7b0cd9	0.06129155
124	0x3dd3c96b	0.10341152
125	0x3d521222	0.051286824
126	0xbdb2b0d9	-0.08725137
127	0x3b61a370	0.0034429692
128	0xbdc5d2ca	-0.096593454
129	0x3dd8c488	0.1058436
130	0x3ce9a1ba	0.0285195
131	0x3cb05ab3	0.021527624
132	0xbd13af92	-0.03605611
133	0xbd0a5ae4	-0.033778086
134	0x3d5ecd12	0.05439479
135	0x3c9f240f	0.019426374
136	0xbcdc08e8	-0.026859716
137	0x3d01a6cc	0.03165321
138	0x3dc1d111	0.094637044
139	0x3c8f9b1e	0.01753002
140	0xbd541078	-0.05177352
141	0x3dafd01d	0.08584616
142	0xbcab7d9a	-0.020933915
143	0x3dd50e4a	0.10403116
144	0xbdc3d76f	-0.09562575
145	0xbd542529	-0.05179325
146	0x3b47c1be	0.003048047
147	0xbd47444d	-0.04864912
148	0xbd0cbc43	-0.034359228
149	0x3a792c6c	0.00095052156
150	0xbddc4626	-0.10755567
151	0xbc855987	-0.016278042
152	0x3d8cadf4	0.068691164
153	0x3d308bdb	0.043102127
154	0xbc62941e	-0.013829259
155	0xbc2ebfd3	-0.010665852
156	0x3de2fa63	0.11082914
157	0x3dda0139	0.106447645
158	0x3dd1de04	0.10247424
159	0x3c8cce08	0.017188087
160	0xbc4f5342	-0.012654128
161	0xbda37b49	-0.07982499
162	0x3dd9ffd3	0.10644498
163	0xbc294f58	-0.010333858
164	0x3d85cae6	0.065328404
165	0x3dc44bef	0.09584796
166	0xbdba364e	-0.09092389
167	0xbe08ebf0	-0.13371253
168	0xbc4ef019	-0.012630486
169	0x3d7c9f76	0.06167551
170	0xbd85ab39	-0.06526799
171	0x3d9dbf87	0.077025466
172	0x3cc9e37d	0.024644608
173	0x3d5d68fe	0.054055206
174	0xbd791e0f	-0.06081968
175	0xbd93f612	-0.072246686
176	0x3de34641	0.11097384
177	0xbdd29566	-0.10282402
178	0x3da2b283	0.07944205
179	0x3d90346c	0.07041249
180	0xbe0a35ac	-0.13497037
181	0x3d02bd60	0.031918883
182	0x3df85a91	0.12126649
183	0xbd92f5be	-0.07175778
184	0x3cb55ecb	0.022139927
185	0x3de1fac2	0.110341564
186	0x3c92f558	0.017939255
187	0xbdeb45c0	-0.11487913
188	0xbd1cfd69	-0.03832761
189	0x3dd4c543	0.10389187
190	0xbd17355a	-0.036916114
191	0x3ddb43f5	0.10706321
192	0x3c87d351	0.016580256
193	0x3ddf78c0	0.10911703
194	0xbdec7512	-0.11545767
195	0xbc5ac40e	-0.013352407
196	0x3e0c0dc8	0.13677132
197	0x3d669359	0.056292865
198	0xbdb38160	-0.08764911
199	0xbd0505fe	-0.032476418
200	0xbc7476c8	-0.014920898
201	0x3ddc8d5e	0.10769151
202	0x3d41f014	0.047348097
203	0x3e026469	0.12733616
204	0x3dfd06d6	0.123548195
205	0x3d8e8a7d	0.06960008
206	0xbd6364a4	-0.0555159
207	0xbe04eac6	-0.12980184
208	0xbdc6b5af	-0.09702622
209	0xbe01847f	-0.126482
210	0xbe0ac537	-0.13551794
211	0x3cb787fb	0.022403708
212	0x3dd1b303	0.10239222
213	0xbd03b551	-0.03215534
214	0x3c59627b	0.0132681085
215	0x3d81c23b	0.06335875
216	0x3e0c1265	0.13678892
217	0xbd539249	-0.05165318
218	0x3d407375	0.04698511
219	0x3ceb1dc0	0.02870071
220	0x3ce0f310	0.027459651
221	0xbe0dbd65	-0.1384178
222	0x3da5d154	0.08096567
223	0xbdb6730f	-0.089086644
224	0xbdd3b002	-0.10336305
225	0x3d84cb82	0.064841285
226	0x3bc0b180	0.0058805346
227	0x3d85e464	0.06537703
228	0x3dded27f	0.10879993
229	0x3d6601b5	0.05615397
230	0xbca955e3	-0.020670837
231	0x3dae2116	0.085024044
232	0xbd82a299	-0.06378669
233	0x3db93afb	0.09044453
234	0x3de385bb	0.111094914
235	0x3dc78c6d	0.09743581
236	0x3cdca1f0	0.026932687
237	0x3d940ebb	0.07229372
238	0xbd2d7443	-0.042347204
239	0x3df8fc5e	0.1215751
240	0xbd8efb68	-0.06981546
241	0x3cabed63	0.020987218
242	0x3d325ce0	0.043545604
243	0x3d4762dd	0.048678268
244	0x3d86d40d	0.06583414
245	0x3dabe069	0.08392412
246	0xbd58eeb9	-0.05296204
247	0x3c9e9332	0.019357298
248	0x3cd17b8c	0.025571607
249	0xbd9e2bc4	-0.077231914
250	0x3d8312a4	0.0640004
251	0xbdcd6f25	-0.10030965
252	0xbe0d6700	-0.13808823
253	0xbd83f647	-0.06443458
254	0x3db5c873	0.08876123
255	0x3e13776c	0.14401025

fc1.bias f4 [50]
0	0xbdc61289	-0.09671504
1	0x3dc280dd	0.09497235
2	0xbe063f01	-0.13109972
3	0x3dd90167	0.105959706
4	0xbd2164c6	-0.039402746
5	0xbd5c984c	-0.05385618
6	0xbd4f403d	-0.05059837
7	0xbd672f92	-0.05644185
8	0x3d4e8294	0.050417498
9	0x3caac748	0.020846978
10	0xbdde8e28	-0.10866958
11	0x3df4ee60	0.11959529
12	0x3d6afaa3	0.057367932
13	0xbc9721a7	-0.018448664
14	0x3db16560	0.08661914
15	0x3b52a33b	0.003214075
16	0xbdd022be	-0.101628765
17	0xbdbdc5bf	-0.09266233
18	0x3e05efe1	0.13079788
19	0xbd246128	-0.040131718
20	0xbdb71adb	-0.08940669
21	0x3e0583b2	0.13038519
22	0x3d3af3e2	0.04564274
23	0x3d679e15	0.056547243
24	0xbde820a5	-0.113343515
25	0xbcf00346	-0.029298436
26	0x3d3dcd68	0.04633847
27	0xbdca15c7	-0.09867435
28	0x3d64df04	0.055876747
29	0xbdb956bb	-0.09049746
30	0x3e029cf1	0.12755181
31	0x3dde6ea2	0.10860945
32	0xbdba0c0c	-0.09084329
33	0x3b5ba53b	0.0033515233
34	0xbd17a67e	-0.037024014
35	0xbc3f73e3	-0.011685344
36	0x3d0d0e75	0.034437615
37	0xbde37ffd	-0.11108396
38	0xbd0b1b34	-0.03396149
39	0x3dafdc7d	0.08586977
40	0x3daa1522	0.08304812
41	0x3d3a14bf	0.04542994
42	0xbd0d53e9	-0.03450385
43	0x3ddc7676	0.10764782
44	0x3e05bdbd	0.1306066
45	0xbde79843	-0.113083385
46	0x3d6ad625	0.05733313
47	0xbd97edf1	-0.074184306
48	0x3d76f622	0.060293324
49	0x3ddbb178	0.10727209

fc2.weight f4 [50, 50]
0	0xbd4f7336	-0.050646983
1	0xbd491e45	-0.049101133
2	0x3e086346	0.1331912
3	0x3e01857f	0.12648581
4	0xbce07720	-0.027400553
5	0xbdf7c1e0	-0.120975256
6	0xbdf62916	-0.12019555
7	0xbcf63a83	-0.030057197
8	0xbddbb904	-0.10728648
9	0x3cb3aa99	0.021931933
10	0xbcf2f101	-0.029655935
11	0x3dc3e95c	0.09565994
12	0xbbeb8393	-0.0071873157
13	0x3dc221a0	0.0947907
14	0xbc79b3b9	-0.015240603
15	0x3cbd25dc	0.023089342
16	0xbd65fadb	-0.056147438
17	0xbe01ca4e	-0.1267483
18	0xbe0d50e9	-0.13800396
19	0xbdead438	-0.11466259
20	0xbc9bfcbf	-0.019041417
21	0x3ab85d2b	0.0014065852
22	0xbdc26327	-0.09491568
23	0x3cff6df0	0.031180352
24	0x3a0b1245	0.00053051516
25	0xbe0098f4	-0.12558347
26	0xbc969a25	-0.018384049
27	0xbb2a4bb5	-0.0025985066
28	0x3b08490b	0.002079549
29	0xbd0c4444	-0.03424479
30	0xbbc15611	-0.0059001525
31	0x3dfe724c	0.12424144
32	0x3d8373b1	0.06418551
33	0xbb645e7f	-0.0034846363
34	0x3db270b5	0.087129034
35	0x3dbda9d3	0.09260907
36	0x3dd159f7	0.102222376
37	0x3cf39885	0.029735813
38	0x3ce316f5	0.027720908
39	0xbdfcb8aa	-0.123399094
40	0xbdfefdec	-0.124507755
41	0x3e0af9cf	0.13571857
42	0xbdbc9525	-0.092081346
43	0xbdc319c5	-0.095263995
44	0xbca12e56	-0.019675415
45	0x3d7b3cd9	0.061337326
46	0x3df76d78	0.120814264
47	0xbd1322fc	-0.035922036
48	0x3d1a8d99	0.037732694
49	0xbd89c469	-0.067269154
50	0x3cdd7683	0.02703405
51	0x3d45357c	0.04814671
52	0x3de5344e	0.11191617
53	0x3dc77fc3	0.097411655
54	0x3d99c6a1	0.075085886
55	0xbd104dc8	-0.035230428
56	0xbdd1986b	-0.102341495
57	0x3c8fd1b8	0.017556056
58	0xbdced78d	-0.10099707
59	0xbd97c39a	-0.07410355
60	0xbd9a2742	-0.07527019
61	0x3d52bd6d	0.05145018
62	0x3df1fa2f	0.11815297
63	0x3e0f1d79	0.13976087
64	0xbdea90f0	-0.11453426
65	0xbcafab35	-0.021443943
66	0xbe0b8f02	-0.13628772
67	0xbd37f7da	-0.044914104
68	0x3b64f87c	0.0034938147
69	0x3c18a446	0.00931651
70	0x3c2a2570	0.010384902
71	0x3d955c85	0.07293037
72	0x3d7f0be9	0.062267218
73	0xbc952b6e	-0.018209185
74	0x3e0885b8	0.1333226
75	0xbce957cd	-0.02848425
76	0x3d96d2de	0.073644385
77	0x3dc43973	0.0958127
78	0xbd604c1d	-0.054760087
79	0x3d81ee22	0.06344248
80	0xbdf779ef	-0.12083804
81	0x3ba66ed9	0.005079132
82	0x3c24d8a3	0.010061416
83	0xbdf78b70	-0.120871425
84	0x3e0190c3	0.12652878
85	0x3e076d23	0.13225226
86	0xbd5a79e0	-0.053338885
87	0x3d0cede6	0.034406565
88	0xbbced68a	-0.006312196
89	0x3c816f18	0.015800044
90	0x3b8b9c79	0.0042605964
91	0x3dbefd7c	0.09325692
92	0x3d5485b1	0.05188531
93	0x3c69cc22	0.01426986
94	0xbd8cbd67	-0.06872063
95	0x3d103aed	0.035212446
96	0x3da9358c	0.082621664
97	0x3d25b23b	0.040453177
98	0xbbe84154	-0.007087866
99	0x3dc0a5b7	0.094066076
100	0x3dd629e5	0.104572095
101	0x3af2936d	0.0018507071
102	0x3cb7746c	0.022394381
103	0xbdc789de	-0.09743093
104	0xbde45679	-0.11149306
105	0xbd484d74	-0.04890199
106	0x3d22e808	0.039772063
107	0xbdf930b4	-0.121674925
108	0xbe02c54a	-0.12770572
109	0xbc9d11db	-0.019173553
110	0x3b3bb3a1	0.0028641003
111	0x3d48c75a	0.04901824
112	0x3dcf57ac	0.10124144
113	0x3daef97d	0.0854368
114	0xbc88496f	-0.016636578
115	0xbd12813a	-0.03576777
116	0xbdfe3b62	-0.1241367
117	0xbdffe4c2	-0.12494804
118	0x3ad05027	0.0015893028
119	0xbd5ec991	-0.054391447
120	0xbd099d64	-0.033597365
121	0xbdd4e863	-0.10395887
122	0x3cc817dd	0.024425441
123	0x3d087c71	0.0333218
124	0xbd83cb74	-0.0643529
125	0x3e108991	0.14114977
126	0x3df61f33	0.120176695
127	0x3dea1110	0.11429036
128	0xbde2bf79	-0.11071677
129	0xbe095ee3	-0.13415103
130	0xbc18aae8	-0.009318091
131	0xbd86991a	-0.065721706
132	0xbd473405	-0.048633594
133	0x3c302a1f	0.01075223
134	0x3d0ac9d6	0.033883892
135	0x3c74b82c	0.014936488
136	0xbdfb3538	-0.1226601
137	0xbe09d310	-0.1345942
138	0xbd4de3cd	-0.050266076
139	0xbd50beea	-0.05096332
140	0x3d9358e4	0.07194689
141	0x3da50226	0.080570504
142	0xbd4a9407	-0.049457576
143	0x3de0b91e	0.10972808
144	0x3d8599dc	0.06523487
145	0x3d4c81b5	0.049928386
146	0xbd01f5ec	-0.03172867
147	0xbdf5b46b	-0.119973026
148	0x3cf1f013	0.029533422
149	0xbd8734b4	-0.06601849
150	0xbdcf26ae	-0.101147994
151	0xbcac5de9	-0.021040874
152	0xbdd80ea1	-0.10549665
153	0x3e0dc6ae	0.13845322
154	0x3d529349	0.051409993
155	0x3d7dc62c	0.06195657
156	0x3e0d1c2f	0.13780282
157	0xbe010b6c	-0.12602013
158	0x3c787542	0.015164675
159	0x3da8ad57	0.08236187
160	0xbb36046e	-0.0027773636
161	0xbc868819	-0.016422318
162	0xbd93615e	-0.07196306
163	0x3dd780ff	0.10522651
164	0x3dfa8650	0.12232649
165	0x3dbb6fc7	0.09152179
166	0x3dad3d4d	0.08458958
167	0x3dc6e6e4	0.09712008
168	0xbc26c94c	-0.010179829
169	0x3da4b802	0.08042909
170	0x3c7c55e9	0.015401342
171	0xbdbc7af1	-0.09203137
172	0x3d589200	0.05287361
173	0x3d6e51d6	0.058183514
174	0x3d23901e	0.039932363
175	0x3dba6ea0	0.09103131
176	0x3dc9aed3	0.09847798
177	0x3d829de8	0.063777745
178	0xbe099243	-0.134347
179	0xbd91e5a6	-0.0712388
180	0xbb646abd	-0.003485366
181	0x3de6cb54	0.112692505
182	0xbd68a089	-0.056793723
183	0xbe027f32	-0.12743834
184	0x3d7dfa07	0.062006023
185	0xbce44fa7	-0.027870012
186	0xbd32818c	-0.043580577
187	0x3d593262	0.053026564
188	0xbc104c8a	-0.008807311
189	0x3c8b658f	0.0170162
190	0xbdc12618	-0.09431094
191	0x3e03f940	0.1288805
192	0xbd8709d4	-0.065936714
193	0x3dc8ca6d	0.09804235
194	0x3cfb5c56	0.030683678
195	0x3dda3695	0.10654942
196	0xbde91563	-0.11381032
197	0x3de91ff7	0.1138305
198	0x3e03d59a	0.12874451
199	0xbd568f27	-0.052382614
200	0xbd1631ce	-0.03666859
201	0xbd9e4fb7	-0.07730048
202	0xbddf2f77	-0.10897725
203	0xbc11e94c	-0.00890572
204	0x3d518106	0.051148437
205	0x3de0510b	0.10952958
206	0x3e117d83	0.14208035
207	0x3d5a079e	0.05322992
208	0x3d0cc2f7	0.03436562
209	0x3d9bcc77	0.07607358
210	0x3d29725f	0.04136884
211	0x3dd0cf37	0.10195773
212	0xbce555bc	-0.027994983
213	0x3dd0122d	0.10159717
214	0x3d15fbe8	0.03661719
215	0x3d95da2f	0.07317006
216	0xbd3f65a2	-0.046727784
217	0x3d83a3ea	0.064277485
218	0x3e01370a	0.12618652
219	0x3d80b886	0.06285195
220	0x3dd92740	0.106031895
221	0x3d59c3a7	0.053165104
222	0xbb8eb6ca	-0.0043552862
223	0xbca95ad1	-0.020673187
224	0x3df7b497	0.12094992
225	0x3d250bd8	0.0402945
226	0x3db9d2e5	0.09073428
227	0xbd0b5109	-0.034012828
228	0xbcb1fad0	-0.021726042
229	0xbd0e666a	-0.03476564
230	0x3d923ff4	0.07141104
231	0xbdfa67bf	-0.12226819
232	0xbddb2902	-0.10701181
233	0x3e0d846f	0.1382005
234	0x3d26bde0	0.040708423
235	0xbdd5c453	-0.104378365
236	0x3e069072	0.13141039
237	0xbda1b145	-0.078951396
238	0xbd14c5a4	-0.036321297
239	0x3caa73ce	0.020807173
240	0x3ddd6ec1	0.1081214
241	0x3ccac639	0.024752723
242	0x3d91d5fb	0.07120892
243	0x3e001b1f	0.12510346
244	0xbd6a7b53	-0.057246517
245	0xbdc91547	-0.098185115
246	0xbd6526c2	-0.055945165
247	0xbe08ca48	-0.13358414
248	0xbbaa5ee1	-0.0051992987
249	0xbd948d23	-0.07253482
250	0xbcd4280d	-0.025898004
251	0x3d9a98a4	0.07548645
252	0xbde23331	-0.1104492
253	0x3d3835ed	0.044973303
254	0xbcf73906	-0.030178558
255	0xbdc7de44	-0.09759191

fc2.bias f4 [50]
0	0xbdb42ce7	-0.08797627
1	0xbdc615a0	-0.096720934
2	0x3de5e583	0.112254165
3	0x3d93adbf	0.07210874
4	0x3dd9c4ca	0.10633238
5	0xbe06ee84	-0.13176924
6	0x3c8fa464	0.017534442
7	0x3cdd8397	0.027040286
8	0xbd362cf4	-0.044476464
9	0xbc739484	-0.014866952
10	0xb9db296e	-0.00041801803
11	0xbda15b9e	-0.07878803
12	0x3ddc6be3	0.10762765
13	0x3db81b60	0.08989596
14	0x3d3f9182	0.046769626
15	0x3d4376c6	0.047720693
16	0xbe0e4d50	-0.1389668
17	0x3d6998d8	0.05703053
18	0xbdd262fe	-0.102727875
19	0x3dae2653	0.085034035
20	0xbd1a1ad0	-0.037623227
21	0xbdbcf9b2	-0.09227313
22	0x3dc34ef5	0.09536544
23	0x3dc24d0d	0.094873525
24	0x3df73b7c	0.120718926
25	0x3e028aca	0.12748256
26	0xbd345e09	-0.04403499
27	0xbddf54cc	-0.109048456
28	0xbd1ebb2f	-0.03875273
29	0xbdb41e3f	-0.087948315
30	0xbd438ed4	-0.047743633
31	0xbae08551	-0.0017129575
32	0x3d90c360	0.07068515
33	0xbcca014c	-0.024658822
34	0x3d745baf	0.05965775
35	0xbd5b2949	-0.05350617
36	0x3ba4b743	0.0050267293
37	0x3d2a5c3e	0.041591875
38	0x3d1a1d6e	0.037625723
39	0x3d63503a	0.055496432
40	0x3d7835d3	0.060598206
41	0xbd195ab1	-0.037440006
42	0xbc9843c6	-0.018587004
43	0xbe01703e	-0.12640473
44	0x3c958861	0.018253507
45	0xbdbee083	-0.09320166
46	0x3dd06056	0.101746246
47	0xbdc88b09	-0.09792144
48	0xbd436756	-0.04770597
49	0x3e04b7d3	0.12960748

fc3.weight f4 [2, 50]
0	0x3cbb2395	0.022844115
1	0x3dc0f891	0.0942241
2	0x3c4fc67d	0.012681601
3	0x3d830ca8	0.06398898
4	0xbde00350	-0.10938132
5	0xbd9fc354	-0.07800928
6	0x3bdc3264	0.006719874
7	0xbd976b4b	-0.073935114
8	0x3dc848e1	0.097795255
9	0x3dfcf7ca	0.123519495
10	0xbd4d543f	-0.05012917
11	0xbdd7e24f	-0.10541212
12	0xbded94ba	-0.11600633
13	0x3d96ee67	0.073696904
14	0xbc47b4f4	-0.012189139
15	0x3cba77c7	0.022762192
16	0x3d1638d3	0.036675286
17	0x3d133bd3	0.035945725
18	0x3df9fef2	0.1220683
19	0x3ddaa011	0.106750615
20	0xbd9678f9	-0.073472925
21	0x3c3c153b	0.011479671
22	0xbc85c001	-0.016326906
23	0xbde6403e	-0.11242722
24	0xbd8bb9d3	-0.068225525
25	0xbd3773b2	-0.04478807
26	0x3e01a83f	0.12661837
27	0x3d62025e	0.05517804
28	0xbce26084	-0.027633913
29	0x3dc9d005	0.0985413
30	0x3bd99f91	0.0066413363
31	0xbbd75529	-0.006571431
32	0x3d09dd06	0.03365805
33	0xbda6e31b	-0.08148786
34	0xbdf6008d	-0.12011824
35	0xbd9f0915	-0.07765404
36	0xbdf0cce8	-0.11757833
37	0xbde034ab	-0.109475456
38	0x3d177f2b	0.03698651
39	0xbdc6fc5f	-0.09716105
40	0x3d555651	0.05208427
41	0xbdd82547	-0.10553985
42	0xbe0feb3f	-0.14054583
43	0x3b12bc74	0.002239016
44	0xbd90498f	-0.0704528
45	0xbdbee193	-0.093203686
46	0xbc957a60	-0.01824683
47	0xbe033aaa	-0.12815347
48	0xbdd230be	-0.10263203
49	0xbd3b4ab2	-0.045725532
50	0x3d6c4ee9	0.057692442
51	0xbda18ae0	-0.078878164
52	0xbcfac2c8	-0.030610457
53	0xbd48ac58	-0.048992485
54	0xbd572a8b	-0.052530807
55	0xbdf14d69	-0.11782343
56	0xbd81b42e	-0.06333195
57	0xbc80a9b8	-0.015705928
58	0xbd291c8b	-0.041286986
59	0x3e01f10b	0.12689607
60	0x3dd13983	0.102160476
61	0x3d7a2769	0.06107274
62	0x3a6dc913	0.0009070795
63	0xbdb9198b	-0.09038075
64	0xbdbd51a5	-0.09244088
65	0xbd8249fd	-0.063617684
66	0xbca451ff	-0.02005863
67	0x3df97c2f	0.12181889
68	0xbd206ac2	-0.039164312
69	0x3c3efbd1	0.011656717
70	0x3d2b1081	0.041763786
71	0xbe0040fa	-0.12524787
72	0x3df28fe9	0.11843855
73	0x3e0603bc	0.13087362
74	0x3dd74439	0.10511059
75	0x3d8a7521	0.06760622
76	0xbe0839e8	-0.1330334
77	0x3d80f078	0.06295866
78	0xbc7da437	-0.015481046
79	0x3dfd3990	0.12364495
80	0xbdd1068f	-0.10206329
81	0xbd2a466b	-0.041571062
82	0x3df8789d	0.1213238
83	0x3d91ad9f	0.07113194
84	0xbd2f4fbc	-0.04280065
85	0xbcd1b43f	-0.025598643
86	0x3c50ab82	0.012736203
87	0xbd0ff584	-0.03514625
88	0xbc14409c	-0.009048607
89	0xbdcf2b14	-0.101156384
90	0x3d755165	0.059892077
91	0xbd89ef28	-0.067350686
92	0x3d4a6a2c	0.04941766
93	0xbddcad7c	-0.10775277
94	0xbe090451	-0.13380553
95	0xbc5250f8	-0.012836687
96	0xbd8caba3	-0.068686746
97	0x3c0eab99	0.008707904
98	0xbd75668e	-0.059912257
99	0xbd47e678	-0.048803777

fc3.bias f4 [2]
0	0xbadb0ced	-0.0016712226
1	0x3d807b50	0.0627352
