TorchModels/RLtrader13.pt (torch, 22871 bytes, 6 tensors)

fc1.weight f4 [50, 50]
0	0xbd84f07c	-0.06491181
1	0x3e0197e5	0.126556
2	0x3d119f2d	0.035552192
3	0xbd03ce68	-0.032179266
4	0x3d53b801	0.05168915
5	0x3d26239f	0.040561315
6	0x3da125a4	0.078685075
7	0xbd14cc53	-0.03632767
8	0x3d4a169b	0.049337965
9	0xbd25813e	-0.040406458
10	0xbe0fd2b5	-0.14045222
11	0xbdc459f5	-0.095874704
12	0xbca505e6	-0.020144414
13	0x3e0da3b6	0.13831982
14	0x3c69f974	0.014280666
15	0xbde5aab3	-0.11214199
16	0xbe0fc139	-0.14038552
17	0xbc28fa1c	-0.010313537
18	0xbd74f8be	-0.05980753
19	0xbd97235c	-0.07379791
20	0x3df98f42	0.121855274
21	0xbc411b29	-0.011786261
22	0xbdf62154	-0.120180756
23	0x3da9fd27	0.08300238
24	0xbdb81e97	-0.089902095
25	0x3d5a3d60	0.053281188
26	0x3da60fd2	0.08108486
27	0xbcff26cb	-0.031146428
28	0x3beb82ec	0.007187238
29	0x3dd8fb52	0.105948105
30	0xbceb9ce5	-0.028761337
31	0xbcbf05fe	-0.023318287
32	0xbe0f74c5	-0.14009388
33	0xbdf6e03c	-0.12054488
34	0xbdd846c5	-0.10560373
35	0xbdbc99b1	-0.09209002
36	0xbd8a22f4	-0.06744948
37	0x3d814cdf	0.0631349
38	0xbd80f9cb	-0.06297644
39	0x3e03b545	0.12862118
40	0x3bbbee23	0.005735175
41	0x3c8db1ef	0.01729676
42	0xbda1f9b6	-0.07908957
43	0xbe088f77	-0.13335977
44	0x3de09cd8	0.109674156
45	0x3e0edb60	0.13950872
46	0xbd3e1768	-0.04640904
47	0xbdfea580	-0.1243391
48	0xbd7db9cf	-0.06194478
49	0x3dfc2323	0.12311389
50	0x3d02843d	0.031864394
51	0xbcf54c8f	-0.029943733
52	0xbdf963a6	-0.121772096
53	0xbe0bf462	-0.13667443
54	0x3de47db8	0.111567914
55	0xbd0c1643	-0.034200918
56	0x3d31e918	0.043435186
57	0xbd3e3a25	-0.04644217
58	0x3dee1f34	0.11627045
59	0xbdcede09	-0.101009436
60	0x3cfe2632	0.031024072
61	0xbcb9be7d	-0.02267384
62	0x3d488597	0.048955526
63	0xbdde0742	-0.10841228
64	0xbcb49571	-0.022043915
65	0xbcd5f2a9	-0.026116686
66	0xbe0a83ef	-0.13526891
67	0x3df6d8ec	0.12053093
68	0x3d4881fe	0.048952095
69	0x3c169382	0.009190442
70	0x39c67e9e	0.0003785984
71	0xbd28dc57	-0.041225757
72	0x3de0c407	0.10974889
73	0xbdb14e91	-0.086575635
74	0xbc3226eb	-0.010873537
75	0xbe0bdbe5	-0.13658102
76	0x3d92cf04	0.07168391
77	0x3d249fe6	0.040191554
78	0xbd85a644	-0.06525853
79	0xbd8278e7	-0.063707165
80	0xbe0bc1ab	-0.13648097
81	0x3dd7b0eb	0.10531791
82	0xbd2205de	-0.039556377
83	0x3d934059	0.07190008
84	0xbd1c94c3	-0.038227808
85	0xbdd2527a	-0.102696374
86	0xbdf83e49	-0.12121255
87	0x3d7eb709	0.062186275
88	0xbdb29734	-0.08720246
89	0x3d6cfad3	0.057856392
90	0x3dad4524	0.08460453
91	0x3a8bc064	0.0010662195
92	0xbd29f681	-0.04149485
93	0x3dc3877c	0.09547326
94	0xbdac6e75	-0.084195055
95	0xbd9b6846	-0.07588248
96	0x3c6d11b2	0.014469551
97	0xbca43c86	-0.020048391
98	0xbe1375bc	-0.14400381
99	0x3df37232	0.118870154
100	0xbd8a62a3	-0.06757095
101	0xbe076925	-0.13223703
102	0x3ca4c3d6	0.020112913
103	0x3d8a59e4	0.067554265
104	0xbe0e5c41	-0.1390238
105	0xbd509df8	-0.0509319
106	0xbe13ceac	-0.14434308
107	0xbd86fbdc	-0.06591007
108	0xbdf3f3e6	-0.11911754
109	0xbdf0f1bd	-0.11764858
110	0xbdf99e07	-0.121883444
111	0xbd3e7fb9	-0.046508525
112	0xbe150fe1	-0.14556839
113	0x3cd0477e	0.025424715
114	0x3deebf7e	0.11657618
115	0x3da3e465	0.08002547
116	0x3d6c966e	0.05776065
117	0xbd809026	-0.06277494
118	0xbd5323ee	-0.051547937
119	0xbdad2fc3	-0.084563754
120	0xbd8772f1	-0.0661372
121	0x3c20da9f	0.009817748
122	0x3d6ba516	0.057530485
123	0xbdf8121a	-0.121128276
124	0xbe096435	-0.13417132
125	0x3d7c837a	0.061648823
126	0x3d553b91	0.05205876
127	0xbd23d035	-0.039993484
128	0x3dc0c0b6	0.09411757
129	0xbdee1a4a	-0.11626108
130	0x3c2b31a1	0.010448844
131	0x3d319e13	0.043363642
132	0xbcd90edb	-0.026496341
133	0x3c2715b5	0.010198046
134	0x3c710263	0.014710042
135	0xbdf05f0d	-0.117368795
136	0x3c5d9daa	0.01352636
137	0x3d5d8a68	0.054087073
138	0x3de779fa	0.11302562
139	0x3bbba8d1	0.0057269116
140	0x3d9175de	0.071025595
141	0xbdb83d9b	-0.08996125
142	0xbdbb06c7	-0.09132152
143	0xbd84a60c	-0.064769834
144	0x3b1f638e	0.0024320814
145	0xbdc35cbb	-0.09539171
146	0x3c1da8a3	0.009622726
147	0x3d0777fe	0.033073418
148	0x3deb6aa8	0.114949524
149	0xbd53f78f	-0.051749762
150	0x3db8188d	0.08989058
151	0x3cafad5d	0.02144497
152	0xbdb656c7	-0.0890327
153	0x3dd090c9	0.101838656
154	0xbc48b777	-0.012250773
155	0xbdca2043	-0.09869435
156	0x3ddba147	0.107241206
157	0xbda13d3a	-0.07873006
158	0x3ce36b8d	0.027761245
159	0x3d45f9a7	0.04833379
160	0x3dbbe5fa	0.09174724
161	0x3d66979b	0.056296926
162	0xba91fce0	-0.0011137985
163	0xbe0d4ba6	-0.13798389
164	0x3d6fea58	0.058573097
165	0x3dbbb6b0	0.09165704
166	0xbc18b85a	-0.009321297
167	0x3dc98723	0.098402284
168	0xbddd16ed	-0.10795388
169	0xbc0a22a4	-0.0084311105
170	0xbdda678f	-0.106642835
171	0xbdc5539c	-0.09635088
172	0x3aebf811	0.0018003007
173	0xbd8e19e4	-0.06938532
174	0xbddfd2ad	-0.10928855
175	0x3dd98050	0.10620177
176	0xbce4dcf4	-0.02793739
177	0xbd428b42	-0.047496088
178	0x3d9d4d6b	0.07680782
179	0x3d869c7c	0.06572816
180	0x3c4b161d	0.012395409
181	0x3d767ab4	0.060175613
182	0x3dcc0b2b	0.099630676
183	0xbd358692	-0.04431779
184	0x3ddba2e3	0.107244276
185	0x3bdd6c1e	0.0067572733
186	0x3cc1e675	0.02366946
187	0xbe01ae05	-0.1266404
188	0xba443a99	-0.00074855384
189	0x3e06f987	0.13181125
190	0xbd7d198d	-0.061791945
191	0xbd88a5fa	-0.066722825
192	0xbc2cfdb4	-0.010558534
193	0xbdc0ff82	-0.09423734
194	0x3d809fa4	0.06280449
195	0x3cafbfde	0.021453794
196	0xbcb302c8	-0.021851912
197	0x3c44d3a3	0.012013349
198	0xbde8daf4	-0.11369887
199	0x3cd1f7f8	0.025630936
200	0xbdd06e38	-0.101772726
201	0xbda68513	-0.08130851
202	0xbe0b2671	-0.13588883
203	0xbdd85efc	-0.10564992
204	0x3e0ec524	0.1394239
205	0xbd776738	-0.06040117
206	0x3d746846	0.059669755
207	0xba0e415f	-0.0005426611
208	0xbdb651ad	-0.08902297
209	0x3d638378	0.0555453
210	0x3c8ab424	0.0169316
211	0x3ca2946b	0.019846162
212	0xbc0f2b4f	-0.008738353
213	0x3e02577c	0.12728685
214	0x3e0b4cae	0.1360347
215	0x3de089f0	0.109638095
216	0xbcaef7ad	-0.021358335
217	0x3d74cf91	0.059768263
218	0x3d8dd2a6	0.069249436
219	0xbded1ed5	-0.11578146
220	0x3dafca84	0.08583549
221	0xbd95ef92	-0.07321085
222	0x3d86ab5a	0.065756515
223	0x3c92c9f7	0.01791857
224	0x3d0a4532	0.033757396
225	0x3c8c8073	0.017151093
226	0x3dd9f7bd	0.106429555
227	0xbe006f37	-0.12542425
228	0x3e08edaa	0.13371912
229	0xbdc69a39	-0.096973844
230	0xbc233aea	-0.009962777
231	0x3da4cc15	0.08046738
232	0xbda725da	-0.081615165
233	0xbc84a592	-0.016192231
234	0xbd845084	-0.0646067
235	0x3da8b31a	0.08237286
236	0x3dd7dddf	0.105403654
237	0x3e01d62a	0.12679353
238	0xbc94f799	-0.01818447
239	0xbcd0eea7	-0.025504423
240	0xbdc62b40	-0.09676218
241	0xbddc6071	-0.10760582
242	0xbc589d08	-0.013221033
243	0xbe0b7e6d	-0.13622446
244	0xbc231bed	-0.0099553885
245	0xbe07688e	-0.13223478
246	0xbe0771c1	-0.13226987
247	0xbcebd328	-0.02878721
248	0x3d4b5539	0.04964182
249	0x3df2d754	0.11857477
250	0xbe03ee1d	-0.12883802
251	0xbca0e519	-0.019640492
252	0x3d80e05a	0.06292792
253	0xbde07f49	-0.10961778
254	0xbcbfa431	-0.023393722
255	0x3d0bad91	0.034101073

fc1.bias f4 [50]
0	0xbdf1dae1	-0.11809326
1	0xbe0548b6	-0.13016018
2	0xbda8d8e9	-0.08244497
3	0x3cde962a	0.027171213
4	0xbc47449b	-0.012162353
5	0x3e08a17c	0.13342851
6	0x3d2291c7	0.039689805
7	0x3d0c61c5	0.034272928
8	0x3de916c6	0.11381297
9	0xbd02182e	-0.03176134
10	0x3e022f1d	0.12713285
11	0xbdabfa5c	-0.08397362
12	0x3d611ce3	0.05495919
13	0xbd6f9018	-0.058487028
14	0xbd0ed501	-0.034871105
15	0x3dcad86e	0.09904562
16	0x3b0e3e26	0.0021704524
17	0xbd63932d	-0.05556028
18	0xbd948b40	-0.07253122
19	0x3d61d790	0.055137217
20	0x3d90ed3e	0.070765
21	0xbde56f4e	-0.1120287
22	0xbdf9a4f1	-0.12189663
23	0xbdbe0dc9	-0.09279973
24	0xb9fa2530	-0.00047711423
25	0x3deff542	0.11716701
26	0xbdd64fbb	-0.10464426
27	0x3d4b31ad	0.04960792
28	0xbccf1fd9	-0.02528374
29	0xbe0afe0a	-0.1357347
30	0xbdb81f03	-0.0899029
31	0x3dbaa81b	0.09114095
32	0xbd594a70	-0.053049505
33	0x3d643b6e	0.05572074
34	0xbd5b36a4	-0.053518906
35	0xbdd7a647	-0.10529762
36	0xbd517d5b	-0.05114494
37	0xbd1fbe77	-0.039
38	0x3d67de1c	0.056608304
39	0xbb74aceb	-0.0037334512
40	0x3d711ab0	0.05886334
41	0x3d937bed	0.07201371
42	0x3dbdf7bb	0.092757665
43	0xbdc5e80e	-0.096634015
44	0xbdc996c9	-0.09843213
45	0x3d05fb31	0.032710258
46	0x3df1f26c	0.118138164
47	0x3dbac5e1	0.09119774
48	0xbd1980d1	-0.037476365
49	0xbd9843e1	-0.07434822

fc2.weight f4 [50, 50]
0	0xbdf37669	-0.11887819
1	0xbe05e31d	-0.13074918
2	0xbd8ede17	-0.06975954
3	0x3cb96116	0.022629302
4	0xbda2cf58	-0.07949704
5	0x3d3688b8	0.04456398
6	0x3d446f86	0.04795792
7	0x3ca52139	0.020157443
8	0xbb9200a2	-0.004455642
9	0xbd10d42d	-0.035358597
10	0x3dd7f4b5	0.10544721
11	0x3dcdac1e	0.100425944
12	0xbd9ffa65	-0.07811431
13	0x3df2bbde	0.11852239
14	0xbe0c0af8	-0.13676059
15	0x3d0fa472	0.035068937
16	0x3e07a264	0.13245541
17	0x3db65ed2	0.08904804
18	0xbdafd4a1	-0.085854776
19	0xbbc9a015	-0.0061531165
20	0xbc981e6e	-0.018569198
21	0xbd101445	-0.03517558
22	0xbcd8be96	-0.026458066
23	0xbd000530	-0.031254947
24	0xbb36f113	-0.0027914688
25	0xbdf88361	-0.121344335
26	0xbd96c2c3	-0.073613666
27	0x3dab9f3d	0.08379982
28	0xbdc3a340	-0.09552622
29	0x3ddcc429	0.10779602
30	0x3d5cdc0f	0.0539208
31	0x3db63c59	0.08898229
32	0x3dd3790b	0.103258215
33	0x3dba6752	0.09101738
34	0x3deb5034	0.11489907
35	0x3e0b9d37	0.13634191
36	0x3dd93b9c	0.10607073
37	0xbdd03670	-0.10166633
38	0x3d66ede4	0.056379214
39	0x3cf5460a	0.029940624
40	0x3df6975d	0.12040589
41	0x3d27c1da	0.040956356
42	0x3d8b174b	0.06791552
43	0xbdc0568f	-0.0939151
44	0x3cf759b7	0.030194147
45	0xbca978d4	-0.020687498
46	0x3dccc838	0.09999126
47	0xbd289ec0	-0.04116702
48	0xbdfae352	-0.12250389
49	0xbe0ba1b9	-0.13635911
50	0xbdd7071f	-0.10499405
51	0x3d33d389	0.043902908
52	0xbdbf1ab9	-0.09331269
53	0x3db6d960	0.0892818
54	0x3cf80f3e	0.030280706
55	0x3c0ed8a3	0.008718642
56	0x3d817a6a	0.06322177
57	0xbe0696e8	-0.13143504
58	0xbd02a3c7	-0.03189447
59	0x3dc90aaf	0.09816491
60	0xbd8c3eb4	-0.06847897
61	0x3bec4582	0.0072104344
62	0x3c29f8bb	0.010374243
63	0x3b16421f	0.0022927595
64	0x3c8f671e	0.017505225
65	0xbe043bed	-0.12913485
66	0xbca8ff36	-0.020629507
67	0x3d914326	0.07092886
68	0xbda469a5	-0.080279626
69	0x3dd6ba4d	0.10484753
70	0xbd91593d	-0.07097099
71	0xbdc6538a	-0.096839026
72	0x3dafb619	0.08579654
73	0xbdec9b44	-0.11553052
74	0xbdd76cf2	-0.105188265
75	0x3dba83ac	0.09107146
76	0xbcf62e01	-0.030051233
77	0x3d91a9d5	0.07112471
78	0x3df81d79	0.121149965
79	0x3dadd036	0.08486979
80	0x3dc25a47	0.09489875
81	0xbdede4d4	-0.11615911
82	0x3cf6e030	0.030136198
83	0xbda7cb74	-0.081931025
84	0xbe102788	-0.1407758
85	0xbdae1876	-0.08500759
86	0xbd54f41c	-0.051990613
87	0xbe04eedc	-0.12981743
88	0xbe0b58ac	-0.13608044
89	0xbdc80f6d	-0.09768567
90	0x3d9d2768	0.07673532
91	0xbd7d7e70	-0.06188816
92	0xba8fde13	-0.0010976217
93	0xbdfd8be2	-0.12380196
94	0xbce89f68	-0.028396323
95	0x3d6486e2	0.055792697
96	0x3d067573	0.032826852
97	0x3cd36d9e	0.025809105
98	0x3ce60998	0.028080747
99	0x3dd0e98b	0.10200795
100	0x3b1371e8	0.0022498313
101	0xbe0520cf	-0.13000797
102	0x3d87e3f4	0.066352755
103	0xbdbb1af7	-0.091360025
104	0x3d20c162	0.039246924
105	0xbd789557	-0.060689297
106	0x3d055b24	0.03255762
107	0x3d987115	0.07443444
108	0x3b8fdacd	0.0043900968
109	0xbde6483c	-0.11244246
110	0xbdfcf840	-0.123520374
111	0x3db4cf8d	0.0882865
112	0xbd231128	-0.039811283
113	0x3d91d1da	0.07120104
114	0x3c448986	0.011995679
115	0xbd2ceeff	-0.042220112
116	0x3ce99807	0.028514875
117	0x3d61f4a3	0.055164944
118	0xbdcdbdb8	-0.100459516
119	0x3da63b5e	0.08116792
120	0xbb14103c	-0.0022592684
121	0xbdefbc00	-0.1170578
122	0x3d38208d	0.044952918
123	0xbe0a4885	-0.13504227
124	0x3d62b49b	0.05534802
125	0xbc607391	-0.013699428
126	0xbc325529	-0.010884562
127	0x3db8e935	0.09028856
128	0xbcb68d4e	-0.022284176
129	0x3c43ef36	0.011958888
130	0xbdb33117	-0.087495975
131	0xbd8d9198	-0.069125354
132	0x3cac1c17	0.021009488
133	0x3d8a8266	0.06763153
134	0x3de64051	0.11242736
135	0x3db7dfbc	0.08978221
136	0x3dee141e	0.11624931
137	0x3e0bb0df	0.1364169
138	0x3dbd1ab0	0.09233606
139	0x3d2fd935	0.042931754
140	0xbd060ec6	-0.032728933
141	0xbdda51a6	-0.106601045
142	0xbd365817	-0.044517603
143	0xbbfbc8f3	-0.007683867
144	0xbd00bd43	-0.031430494
145	0x3daad6ad	0.083417274
146	0xbc88b04d	-0.01668563
147	0x3d74fd84	0.059812084
148	0xbcd855e2	-0.02640814
149	0x3d0f8863	0.035042178
150	0xbdeb1b91	-0.11479867
151	0xbdbb210d	-0.09137163
152	0x3cb6f14b	0.022331854
153	0xbdeae4d8	-0.1146943
154	0x3dff7edb	0.12475368
155	0xbd8cf58e	-0.06882773
156	0xbdb590e3	-0.088655256
157	0x3dd55d5d	0.10418198
158	0x3dfbc91e	0.122942194
159	0xbd9a39f2	-0.075305834
160	0x3e094001	0.13403322
161	0xbdcb5bee	-0.099296436
162	0xbdc1afe6	-0.09457378
163	0xbd8525b7	-0.06501334
164	0x3c4b4e00	0.012408733
165	0x3e0df3ae	0.13862488
166	0x3cf762bd	0.03019845
167	0x3d399e6a	0.04531709
168	0x3e02379c	0.12716526
169	0x3c90c036	0.017669778
170	0x3e06fc7e	0.13182256
171	0x3e0f7847	0.14010726
172	0x3da22197	0.07916563
173	0xbc209b61	-0.00980267
174	0x3c3929f7	0.011301509
175	0x3d8f31fd	0.069919564
176	0xbe054e28	-0.13018095
177	0xbd2eb155	-0.042649586
178	0x3cf3dfb2	0.029769752
179	0xbdd249cd	-0.10267983
180	0x3dd3ca98	0.10341376
181	0x3d840dc3	0.06447937
182	0xbbff55f1	-0.0077922274
183	0x3e12d8c7	0.14340506
184	0x3c853fec	0.016265832
185	0x3cb2ae3d	0.021811599
186	0xbd90e9ae	-0.07075821
187	0xbd24878f	-0.04016834
188	0xbe098a53	-0.13431673
189	0x3d9b86bd	0.07594059
190	0xbc8a4f84	-0.01688362
191	0x3d683832	0.056694217
192	0xbdb38c3d	-0.08766983
193	0xbdce5b40	-0.10075998
194	0x3d63bb87	0.055598762
195	0x3df69a72	0.12041177
196	0xbd8e93fb	-0.06961819
197	0xbe13b295	-0.14423592
198	0xbdf7844e	-0.12085782
199	0xbd9a37a0	-0.07530141
200	0x3cfbc912	0.030735526
201	0xbe01c60f	-0.1267321
202	0x3db3cf3c	0.08779761
203	0x3d99ab2c	0.075033516
204	0xbdeeb118	-0.11654872
205	0x3e086d7b	0.13323013
206	0x3dba67f6	0.0910186
207	0x3e152811	0.14566065
208	0xbc615e29	-0.01375536
209	0x3d6ac977	0.057321038
210	0xbdb9b83c	-0.09068343
211	0xbdf75afc	-0.12077901
212	0xbda22f9c	-0.07919237
213	0xbd97aa84	-0.0740557
214	0xbd862d25	-0.065515794
215	0xbda7c2be	-0.08191441
216	0xbddaeb13	-0.10689368
217	0x3d3976e9	0.045279417
218	0xbe019777	-0.12655436
219	0xba374356	-0.000699093
220	0xbdd0e006	-0.10198979
221	0xbdaa6e35	-0.083218016
222	0x3e0bbb08	0.13645566
223	0xbe0e8f5a	-0.13921872
224	0xbd87200b	-0.065979086
225	0x3df97ffe	0.12182616
226	0x3e0fc3dd	0.1403956
227	0x3c6f2d0b	0.014598141
228	0x3df88a3e	0.121357426
229	0x3c6f51f4	0.0146069415
230	0xbe04e570	-0.12978148
231	0xbdd3bc62	-0.103386655
232	0x3daf2cba	0.08553453
233	0x3d9a6d43	0.07540371
234	0xbd7c3317	-0.06157216
235	0xbdb7e4ff	-0.089792244
236	0xbdf60d34	-0.12014237
237	0x3db67dae	0.0891069
238	0x3d6cb5ce	0.05779057
239	0xbdb3a408	-0.08771521
240	0x3d51f052	0.051254578
241	0xbd57c83e	-0.0526812
242	0x3b829f9e	0.003986313
243	0x3bccc925	0.0062495642
244	0xbe0b16d0	-0.13582921
245	0xbbbdca0c	-0.005791908
246	0x3da1eb73	0.079062365
247	0xbdafab03	-0.0857754
248	0x3da429f9	0.08015818
249	0x3d8ad122	0.0677817
250	0xbd20550d	-0.03914361
251	0xbe0660b5	-0.13122828
252	0xbd453bac	-0.04815261
253	0xbda807c4	-0.08204606
254	0x3e0393ed	0.12849398
255	0xbdfe9405	-0.12430576

fc2.bias f4 [50]
0	0xbdea0bb1	-0.11428011
1	0x3da87033	0.08224525
2	0xbda3ccdf	-0.079980604
3	0xbe086c7d	-0.13322635
4	0xbca49e16	-0.020094912
5	0xbc10efba	-0.008846218
6	0xbdee288d	-0.11628828
7	0xbde17908	-0.11009413
8	0xb9f1876e	-0.00046068005
9	0x3df51bb6	0.11968176
10	0x3cfd71a7	0.030937983
11	0xbd328d52	-0.043591805
12	0xbcb9cef1	-0.022681685
13	0xbda74e49	-0.081692286
14	0xbd331367	-0.043719675
15	0x3df844b8	0.12122482
16	0xbd71f43e	-0.059070818
17	0x3debae45	0.11507849
18	0x3d387d57	0.04504141
19	0x3cf704df	0.03015369
20	0x3c42d50f	0.011891617
21	0x3ddc5906	0.107591674
22	0xbd9b33e7	-0.07578259
23	0xbd35dedf	-0.044402
24	0xbc71d428	-0.014760055
25	0x3dd423f2	0.103584185
26	0x3dcce04e	0.1000372
27	0x3c98c084	0.018646486
28	0xbdadb790	-0.084822774
29	0xbcde1375	-0.027108887
30	0xbc6ea70f	-0.014566197
31	0xbde6d10c	-0.11270341
32	0xbdd6de7f	-0.104916565
33	0xbd2e2bb9	-0.042522166
34	0xbdd0064f	-0.10157453
35	0xbe0e5a1a	-0.13901559
36	0xbda53052	-0.08065857
37	0x3d4936f3	0.04912467
38	0x3dfd9a81	0.12382985
39	0xbcabd477	-0.020975335
40	0x3de601c6	0.11230807
41	0x3d8da7c8	0.06916767
42	0x3bbaeaa9	0.005704243
43	0x3beadf52	0.007167735
44	0x3dca6ac4	0.09883645
45	0x3b831f8b	0.004001563
46	0xbd694762	-0.05695284
47	0xbdc556d7	-0.09635704
48	0xbde70eae	-0.11282097
49	0x3d683949	0.056695256

fc3.weight f4 [2, 50]
0	0xbc037c9f	-0.008025317
1	0xbd2ea07c	-0.04263352
2	0xbd81b6f3	-0.06333723
3	0xbcc4de93	-0.024031913
4	0xbdd7cf0c	-0.10537538
5	0x3d5e42ae	0.05426281
6	0xbd7b8a75	-0.06141134
7	0xbd0b2378	-0.033969373
8	0x3d7053e6	0.05867376
9	0xbdd50404	-0.104011565
10	0xbe0199a5	-0.12656267
11	0x3e0f828f	0.14014648
12	0x3dd24cab	0.102685295
13	0x3e0db36d	0.13837977
14	0x3de235f0	0.11045444
15	0xbd8f7d4f	-0.070063226
16	0x3d8e1f47	0.069395594
17	0xbdd5d0ab	-0.10440191
18	0xbc9d82a5	-0.019227335
19	0x3ce6a322	0.02815396
20	0xbde74bd7	-0.11293762
21	0xbdec6b3f	-0.11543893
22	0x3db2f7d7	0.08738678
23	0xbdb1b1cd	-0.08676491
24	0x3db5c65f	0.08875727
25	0x3e08b89e	0.13351676
26	0xbe0acc4e	-0.13554499
27	0x3d8c6cff	0.06856727
28	0x3e109f19	0.14123191
29	0xbdcf33c1	-0.10117293
30	0xbe057876	-0.13034233
31	0x3e084312	0.13306835
32	0x399ea225	0.00030256915
33	0x3c53dcf4	0.012931097
34	0xbdee89a4	-0.116473466
35	0x3e038482	0.12843516
36	0x3e0900a0	0.13379145
37	0x3dcb0043	0.09912159
38	0xbda7d4f8	-0.081949174
39	0x3dac6439	0.084175535
40	0x3d09f099	0.033676717
41	0xbb2748d0	-0.0025525577
42	0x3dff07d0	0.12452662
43	0xbd74d09c	-0.059769258
44	0xbd7a17d8	-0.061057895
45	0x3d131d45	0.035916585
46	0xbde4215e	-0.11139177
47	0xbca42934	-0.020039178
48	0x3dc704b7	0.09717696
49	0x3ccacd51	0.024756106
50	0x3d27109c	0.040787324
51	0xbe0fb171	-0.14032532
52	0x3cece059	0.028915571
53	0xbd17652e	-0.036961727
54	0xbde97cb9	-0.11400742
55	0x3c5eb6f4	0.013593424
56	0x3dfcc54c	0.12342319
57	0xbc019125	-0.00790814
58	0x3c88b5e5	0.016688297
59	0xbd94a120	-0.07257295
60	0x3e015c10	0.12632775
61	0xbca68c72	-0.020330641
62	0x3d54e23f	0.051973578
63	0x3c33a1f7	0.010963908
64	0x3ccff8cd	0.025387192
65	0xbe0948af	-0.13406633
66	0xbd3bcfdc	-0.045852527
67	0x3de60669	0.112316914
68	0x3bb9da66	0.005671787
69	0xba9a7bc6	-0.0011786155
70	0x3d6c4b95	0.05768927
71	0xbdb9f23a	-0.09079404
72	0x3d7cfa38	0.061762065
73	0xbd912517	-0.070871525
74	0x3b4f0b98	0.0031592604
75	0x3de1bdf7	0.11022561
76	0x3af440c2	0.0018635022
77	0x3c54618d	0.012962711
78	0xbc42da8c	-0.011892926
79	0xbda998ac	-0.08281073
80	0x3e0ad650	0.13558316
81	0x3c50effe	0.012752531
82	0xbdebee18	-0.11520022
83	0xba93b9f9	-0.0011270634
84	0x3c7deb9b	0.015498067
85	0xbdf173fa	-0.11789699
86	0x3d9ae2bf	0.0756278
87	0x3db84f03	0.08999445
88	0xbc99ec84	-0.018789537
89	0x3d0d5ed9	0.034514282
90	0xbdbaadc5	-0.09115175
91	0x3dda987f	0.106736176
92	0xbd96d086	-0.073639914
93	0xbdda3030	-0.10653722
94	0x3ca80a80	0.02051282
95	0xbd8c0307	-0.06836515
96	0x3d8ff43f	0.07029008
97	0x3d41236a	0.047152914
98	0x3da5f207	0.08102804
99	0x3dc8da72	0.0980729

fc3.bias f4 [2]
0	0x3d0cb051	0.034347836
1	0xbd131023	-0.03590406
