TorchModels/RLtrader49.pt (torch, 22871 bytes, 6 tensors)

fc1.weight f4 [50, 50]
0	0x3dd0406b	0.10168537
1	0x3dcbedbd	0.09957454
2	0xbdb310e7	-0.08743458
3	0xbd81a63e	-0.06330536
4	0xbe010607	-0.12599955
5	0x3d2036eb	0.039114874
6	0x3c9442df	0.018098293
7	0x3d9eb97f	0.07750224
8	0xbdbc8597	-0.09205168
9	0x3d7a7580	0.061147213
10	0xbdd9d20c	-0.106357664
11	0x3d69d075	0.057083566
12	0x3cd0a58e	0.025469568
13	0x3d4774c9	0.04869536
14	0x3d5934c3	0.053028833
15	0x3d24dbce	0.040248685
16	0xbd5da69d	-0.054113973
17	0xbe0c1e21	-0.13683368
18	0xbc2174b4	-0.009854484
19	0xbdf33c24	-0.11876705
20	0xbdcafd62	-0.0991161
21	0xbdf3f6ed	-0.11912332
22	0x3ce18d94	0.02753333
23	0xbcb1dd8c	-0.021712087
24	0xbdb07060	-0.08615184
25	0xbe03509a	-0.12823716
26	0x3d81a48d	0.06330214
27	0xbdc4e040	-0.09613085
28	0xbdf92afe	-0.12166403
29	0xbdcc3b10	-0.09972203
30	0x3d1f29c8	0.038858205
31	0x3c6eb6a4	0.014569912
32	0xbdd37f26	-0.10326986
33	0xbd118d32	-0.035535045
34	0x3da3c1d7	0.079959564
35	0xbc18afc3	-0.009319249
36	0x3d5fb221	0.054613236
37	0x3df2081c	0.11817953
38	0x3da49404	0.08036044
39	0x3df2c6b8	0.11854309
40	0xbdf83c8f	-0.12120926
41	0xbdee13e9	-0.11624891
42	0xbd8389b7	-0.064227514
43	0x3d1e2bb7	0.03861591
44	0x3de7769c	0.1130192
45	0x3d25e24e	0.040499024
46	0x3c9d5b68	0.019208625
47	0x3db28e1b	0.08718511
48	0xbdde4db8	-0.108546674
49	0x3cdfb752	0.027309094
50	0x3da56a94	0.08076969
51	0x3c73fc69	0.014891722
52	0xbd98e5e2	-0.07465722
53	0x3d552890	0.052040637
54	0xbdafe967	-0.0858944
55	0x3de5a821	0.11213709
56	0x3dd3240a	0.10309608
57	0xbdb87f97	-0.09008711
58	0xbcbb10f9	-0.022835242
59	0xbc81f5f4	-0.01586435
60	0xbd88d301	-0.06680871
61	0xbe078029	-0.13232483
62	0x3e03725f	0.12836598
63	0xbbbfa949	-0.005849038
64	0xbbada1ac	-0.005298814
65	0x3de25f35	0.110533156
66	0xbd7f64b6	-0.062351905
67	0x3d8874f7	0.06662934
68	0x3d258cfc	0.040417656
69	0xbdd9ccb0	-0.10634744
70	0x3d7f964d	0.062399197
71	0x3d9b9487	0.07596689
72	0xbcb8efd9	-0.022575306
73	0x3def9c0d	0.11699686
74	0xbda525b3	-0.08063831
75	0x3d70396d	0.058648515
76	0x3c3991af	0.011326238
77	0x3dae211b	0.08502408
78	0x3db74057	0.08947819
79	0xbe054ed2	-0.13018349
80	0xbb94ef78	-0.0045451485
81	0xbc0cfce3	-0.008605215
82	0x3def2b8c	0.11678228
83	0x3d0359ac	0.03206794
84	0xbdded6b1	-0.10880793
85	0xbd11e857	-0.035621967
86	0x3db774bb	0.089578114
87	0x3e07144f	0.13191341
88	0x3db2b708	0.08726317
89	0xbc9978c6	-0.018734347
90	0x3ddb4a4f	0.107075326
91	0x3d27a4c1	0.040928606
92	0x3cff5844	0.031170018
93	0x3dc2fe35	0.095211424
94	0x3d832000	0.06402588
95	0x3cc5d33e	0.02414858
96	0x3dc00fbc	0.09378001
97	0xbd7e31f9	-0.062059376
98	0x3d14e7d0	0.036353886
99	0x3d458eba	0.048231818
100	0x3df91444	0.121620685
101	0x3d6cceed	0.057814527
102	0xbd069acb	-0.032862466
103	0xbb81d5b9	-0.0039622453
104	0xba120ec4	-0.0005571658
105	0xbdf86bbc	-0.12129924
106	0xbcfeb4b1	-0.03109202
107	0xbdd272b9	-0.10275788
108	0xbd7202c2	-0.05908466
109	0xbc922305	-0.017838964
110	0xbc5b14b4	-0.013371635
111	0x3dcc5127	0.09976416
112	0xbb8f9f7b	-0.004383025
113	0xbe035c57	-0.12828194
114	0xbdd7033f	-0.10498666
115	0xbd3f1069	-0.04664651
116	0xbd75ead3	-0.0600384
117	0x3d2c72a3	0.042101514
118	0x3cbedc79	0.023298489
119	0xbd5dff72	-0.05419869
120	0x3bc4b46c	0.0060029533
121	0x3dbb9da1	0.09160925
122	0xbe062b95	-0.13102563
123	0x3d022093	0.031769346
124	0xbc8a7af5	-0.016904334
125	0xbdf499b5	-0.1194338
126	0x3d1373b0	0.035999
127	0x3c91264e	0.01771846
128	0xbda65496	-0.08121602
129	0xbe0f3503	-0.13985066
130	0xbd9323af	-0.071845405
131	0x3d9b91de	0.07596181
132	0x3dc31cb7	0.09526961
133	0x3e0b901e	0.13629195
134	0x3dee0db5	0.11623708
135	0xbd257c20	-0.040401578
136	0xbd4e55f5	-0.050374944
137	0xbe08798f	-0.13327621
138	0xbd37419e	-0.04474031
139	0x3d86dd2b	0.06585153
140	0xbd54b106	-0.051926635
141	0xbd1f2eb0	-0.038862884
142	0x3dd0d777	0.10197347
143	0x3d7aa84a	0.06119565
144	0x3ddd2162	0.10797383
145	0xbcde5c20	-0.027143538
146	0x3e081013	0.13287382
147	0xbd284b14	-0.041087225
148	0x3bad43d6	0.0052876277
149	0x3d1e80c7	0.03869703
150	0xbde3e7f0	-0.11128223
151	0xbdae09f0	-0.08497989
152	0xbdfe3a66	-0.12413482
153	0xbe109f16	-0.14123186
154	0x3dcf4337	0.10120242
155	0x3db80a83	0.0898638
156	0x3e062260	0.1309905
157	0xbdf3e191	-0.11908258
158	0x3d1250b8	0.03572151
159	0x3d69cec8	0.057081968
160	0xbdeeed0b	-0.11666306
161	0x3dc35866	0.09538345
162	0x3d0c6a90	0.034281313
163	0xbd07f411	-0.033191744
164	0xbcf5118e	-0.029915597
165	0x3d0a063d	0.033697356
166	0x3dae8fab	0.08523496
167	0x3d7ee68c	0.062231585
168	0xbd60dd28	-0.05489841
169	0xbd381bd2	-0.044948407
170	0x3d1fe390	0.03903538
171	0x3d60665b	0.054785114
172	0x3cc972b1	0.024590822
173	0x3dbe1af6	0.09282486
174	0xbdf79345	-0.12088636
175	0x3dc79746	0.0974565
176	0xbdbe5b06	-0.09294705
177	0xbd35bee2	-0.044371493
178	0x3dbaf1e6	0.0912817
179	0xbde94baa	-0.11391385
180	0xbcc6e48b	-0.0242789
181	0xbd97fc24	-0.07421139
182	0xbdbba203	-0.09161761
183	0x3d8d74f4	0.06907073
184	0x3d5b8906	0.053597473
185	0xbd834485	-0.064095534
186	0xbdd3b55a	-0.103373244
187	0xbd143769	-0.036185656
188	0x3c7b01bf	0.0153202405
189	0x3d0ba1d7	0.03408989
190	0xbd66a3d4	-0.056308582
191	0x3e00bfc8	0.12573159
192	0xbd512b5f	-0.051066753
193	0x3db2a456	0.08722751
194	0xbc903e28	-0.017607763
195	0x3e093623	0.13399558
196	0xbd500c79	-0.050793145
197	0xbd80f3bb	-0.06296488
198	0x3de03fbe	0.10949658
199	0x3e075234	0.13214952
200	0xbdb9825e	-0.09058069
201	0xbe0a93dc	-0.13532966
202	0x3d5a136a	0.05324117
203	0xbdc0e2e9	-0.0941828
204	0x3b65bf27	0.0035056563
205	0x3b5cb022	0.003367432
206	0x3e00502e	0.12530586
207	0x3ddd870d	0.108167745
208	0x3d06e5c3	0.03293396
209	0x3d0d8a7e	0.034555905
210	0x3b1fb8b7	0.0024371573
211	0x3d791302	0.060809143
212	0xbd660d57	-0.056165066
213	0x3e0f412d	0.13989706
214	0x3d6a33a2	0.057178147
215	0xbc72515a	-0.014789904
216	0x3d78c88d	0.060738135
217	0x3d632385	0.055453796
218	0xbbe9f9c3	-0.0071403696
219	0x3e015732	0.12630919
220	0xbded79e5	-0.11595515
221	0xbe088ad1	-0.13334204
222	0xbd2c6fe6	-0.042098902
223	0xbdb6221e	-0.08893226
224	0xbdd8dd06	-0.10589032
225	0xbc2a738d	-0.010403526
226	0x3daef17b	0.085421525
227	0xbe036b37	-0.12833868
228	0x3d947094	0.07248035
229	0xbd453d1d	-0.048153985
230	0xbdbfba8e	-0.09361754
231	0x3db84ca9	0.08998997
232	0x3c6fe094	0.014640946
233	0x3cb35dd4	0.021895327
234	0xbcbcaf3c	-0.023032777
235	0xbc38a18e	-0.011268986
236	0x3d846afa	0.06465717
237	0xbde177e1	-0.11009193
238	0x3c975c67	0.018476678
239	0x3d9cb88d	0.07652388
240	0xbc0902e7	-0.008362508
241	0x3de33fe7	0.11096173
242	0xbd82fde4	-0.06396082
243	0xbde7bd9a	-0.113154605
244	0x3d4126b6	0.04715606
245	0x3d97828b	0.07397946
246	0xbd982315	-0.07428566
247	0x3c55e375	0.013054718
248	0x3db43f8a	0.088011816
249	0xbd852030	-0.0650028
250	0xbca1d491	-0.01975468
251	0xbd8b2f29	-0.067961045
252	0x3d4ccece	0.05000191
253	0x3de545a6	0.11194925
254	0x3d8cefd4	0.06881681
255	0xbd008965	-0.03138103

fc1.bias f4 [50]
0	0x3bb32cd8	0.0054679923
1	0xbd7fa52a	-0.062413372
2	0x3d8b728a	0.06808956
3	0x3d565a04	0.05233194
4	0x3dbc517e	0.09195231
5	0x3df5539b	0.11978837
6	0x3d8f4546	0.06995635
7	0xbd9362d4	-0.07196584
8	0x3d8e29cf	0.06941568
9	0xbd8baf87	-0.068205886
10	0x3e0ded64	0.13860089
11	0xbbe6cbe6	-0.0070433496
12	0xbc8092c5	-0.015694985
13	0xbdbb4591	-0.09144128
14	0x3d944215	0.07239167
15	0xbe06167d	-0.13094516
16	0x3d17211d	0.036896814
17	0x3d2443e8	0.040103823
18	0xbddc4add	-0.107564665
19	0x3d680261	0.056642894
20	0x3d085f3c	0.033293948
21	0x3db0b4c6	0.0862823
22	0xbdf85e0b	-0.12127312
23	0xbcf74a62	-0.030186836
24	0x3dfff4a3	0.124978326
25	0xbd60642b	-0.054783028
26	0xbd2092df	-0.039202567
27	0x3d835830	0.06413305
28	0xbdc5f038	-0.09664959
29	0xbcd97ba0	-0.026548207
30	0x3dd5604a	0.10418756
31	0xbd1cfcb9	-0.038326953
32	0x3d19db90	0.037562907
33	0x3d1e7fd7	0.038696136
34	0x3dcd83eb	0.10034927
35	0x3caff7dc	0.021480493
36	0xbdbff819	-0.09373493
37	0x3dceb14a	0.10092409
38	0x3de688ab	0.11256536
39	0x3d271f82	0.040801533
40	0xbc8017c4	-0.015636332
41	0x3d128c03	0.035778057
42	0x3d84d526	0.06485967
43	0xbdf6ac48	-0.12044579
44	0x3c334f54	0.010944206
45	0x3cffd7e3	0.031230872
46	0xbd26d565	-0.040730853
47	0x3c246dcc	0.010035943
48	0xbd3080ff	-0.04309177
49	0xbe0d4d28	-0.13798964

fc2.weight f4 [50, 50]
0	0x3e06bc7e	0.13157842
1	0x3de920d1	0.11383212
2	0x3d8c1351	0.06839622
3	0x3dad3875	0.08458034
4	0xbd903652	-0.07041611
5	0x3d6cdebb	0.0578296
6	0x3d77cb01	0.060496334
7	0x3dc2ff40	0.09521341
8	0x3bff68c3	0.007794471
9	0xbdf10b14	-0.11769691
10	0x3c6be635	0.014398147
11	0x3db24d8a	0.08706196
12	0xbc9eec01	-0.019399645
13	0x3daac6c7	0.08338695
14	0x3db6fafd	0.08934591
15	0x3cfff7ae	0.031246033
16	0xbcaf7eee	-0.02142283
17	0xbd893202	-0.06698991
18	0x3def5340	0.116858006
19	0x3dbf68af	0.09346139
20	0x3ddb1363	0.10697057
21	0xbdf05c57	-0.117363624
22	0xbda129a2	-0.07869269
23	0x3d798be9	0.060924444
24	0xbe01fb45	-0.12693508
25	0xbd942798	-0.072341144
26	0xbd624328	-0.055239826
27	0xbdf1c71e	-0.11805557
28	0x3dac4681	0.08411885
29	0xbe05a150	-0.13049817
30	0x3d0c5e31	0.034269515
31	0xbd50f459	-0.051014278
32	0xbd991983	-0.07475569
33	0xb9896c98	-0.00026211585
34	0x3cd51d7f	0.026015041
35	0x3d703605	0.058645267
36	0xbdcbd709	-0.09953124
37	0x3c5b7c00	0.013396263
38	0xbcf6e1a4	-0.03013689
39	0x3db9eec9	0.09078748
40	0x3dc92b59	0.09822721
41	0x3de3a040	0.1111455
42	0x3dd2616c	0.10272488
43	0x3c809aed	0.015698874
44	0xbdb9b240	-0.090672016
45	0x3d708ed8	0.058729976
46	0xbd93356b	-0.07187923
47	0x3db8e76d	0.09028516
48	0xbc48e13b	-0.01226073
49	0xbdd8b97d	-0.10582254
50	0x3cbcfed9	0.02307074
51	0x3c9723ff	0.018449781
52	0x3dc55119	0.09634609
53	0xbe1189e5	-0.14212759
54	0x3e0f1501	0.13972856
55	0x3d91d9ca	0.07121618
56	0xbc72bbd0	-0.014815286
57	0x3dd3073b	0.103041135
58	0x3c8eaf3e	0.017417546
59	0xbd791fe2	-0.06082142
60	0x3e0a9e9b	0.13537066
61	0x3d195457	0.03743395
62	0x3dcdc3f2	0.10047139
63	0xbce24070	-0.027618617
64	0xbd6b7746	-0.057486795
65	0x3c7f69e0	0.015589207
66	0xbce082e7	-0.02740617
67	0xbc35b92a	-0.01109151
68	0x3dda99e4	0.106738836
69	0xbd65a135	-0.056061942
70	0xbdae5d8b	-0.08513936
71	0x3db2f8f0	0.08738887
72	0x3ddfedfa	0.10934062
73	0xbd3182d3	-0.043337654
74	0x3de8f09a	0.11374016
75	0x3dafcc47	0.08583885
76	0x3d5d294d	0.053994466
77	0xbc29fa2b	-0.010374586
78	0x3db4e76c	0.08833203
79	0xbd1d9995	-0.038476545
80	0x3e09ba5e	0.1345
81	0x3ded2203	0.11578753
82	0xbd5022f9	-0.050814603
83	0x3e01d83e	0.12680146
84	0x3dc42c99	0.09578819
85	0xbd0ea6f4	-0.034827188
86	0x3d33c4d3	0.043888878
87	0xbd0f5f62	-0.035003074
88	0xbcc656c9	-0.024211304
89	0x3db14f49	0.086577006
90	0xbd9a301c	-0.075287074
91	0xbda2dbd5	-0.07952086
92	0xbce85d4f	-0.028364806
93	0xbd079425	-0.033100266
94	0xbdf023ff	-0.11725616
95	0xbc29a409	-0.01035405
96	0x3cd4c1da	0.025971342
97	0xbdfe9ce5	-0.12432269
98	0x3e04ec73	0.12980823
99	0xbcbb1ef6	-0.022841912
100	0xbd9ded86	-0.077113196
101	0x3df5b338	0.11997074
102	0xbd0b7536	-0.034047328
103	0x3cb061e5	0.021531055
104	0x3d918965	0.07106284
105	0xbcb6c0fc	-0.022308819
106	0xbcb1397e	-0.02163386
107	0xbd60fa99	-0.05492649
108	0x3c98fc70	0.01867506
109	0x3d9f9186	0.07791428
110	0x3bc53054	0.006017724
111	0x3d246dbb	0.04014371
112	0xbd026c90	-0.031841815
113	0xbd5ebfda	-0.054382183
114	0xbc8fd44e	-0.01755729
115	0x3dd8a8bb	0.10579058
116	0x3d4be760	0.049781203
117	0x3dd5e093	0.10443225
118	0xbd8eaaac	-0.06966147
119	0x3c08a8f4	0.008341063
120	0xbcba94df	-0.022776065
121	0x3ddc3c1f	0.10753655
122	0xbda3761e	-0.079815134
123	0x3de42bed	0.11141191
124	0xbd2eda51	-0.04268867
125	0xbd9c2ce0	-0.07625747
126	0xbd4749d2	-0.048654385
127	0x3dee671d	0.11640761
128	0x3d203004	0.03910829
129	0x3d489413	0.04896934
130	0xbdebc94e	-0.11513005
131	0xbd4e5d5c	-0.050382003
132	0x3daede3e	0.08538483
133	0xb91919b8	-0.00014600798
134	0xbd9eac66	-0.07747726
135	0x3e03ed95	0.12883599
136	0x3de39e1d	0.11114142
137	0xbdc90222	-0.0981486
138	0x3b358e67	0.0027703287
139	0x3dc6060f	0.09669124
140	0x3d109594	0.0352989
141	0xbc1b61eb	-0.009483795
142	0x3dc7ce11	0.09756101
143	0x3d219af4	0.039454415
144	0x3d11be56	0.03558191
145	0x3dd92eaf	0.10604607
146	0x3dee77da	0.116439536
147	0xbd00720f	-0.031358775
148	0x3d988772	0.07447709
149	0x3e05c468	0.13063204
150	0x3dae6e25	0.08517102
151	0xbdbecc1e	-0.09316276
152	0x3debdcd0	0.11516726
153	0xbe01c013	-0.12670927
154	0xbdd053d3	-0.10172238
155	0x3d82654c	0.06366977
156	0x3d32b1ed	0.043626714
157	0x3ddeeccd	0.1088501
158	0x3d8061a8	0.062686265
159	0xbcc63297	-0.024194045
160	0x3c9466ff	0.018115519
161	0xbe011b02	-0.12607959
162	0x3d2fa4aa	0.042881645
163	0xbdc38c19	-0.09548206
164	0x3cd0c5e0	0.02548498
165	0xbd96bd82	-0.073603645
166	0x3ddcb495	0.10776631
167	0xbd562586	-0.05228188
168	0xbdbf8084	-0.09350684
169	0x3dbae817	0.09126299
170	0xbd5ad248	-0.053423196
171	0x3d9909f5	0.07472602
172	0x3dd05396	0.10172193
173	0x3dbd1c21	0.09233881
174	0x3c9ef231	0.019402595
175	0xbdb14fe8	-0.08657819
176	0x3d93b41f	0.0721209
177	0xbdc71ced	-0.09722314
178	0x3e059080	0.13043404
179	0xbd2a007e	-0.041504376
180	0x3d8502f4	0.06494704
181	0x3dfed03f	0.124420635
182	0x3bf26e4d	0.007398403
183	0xbda66635	-0.08124963
184	0xbd231263	-0.039812457
185	0xbdcf81e1	-0.10132194
186	0xbdfd2a98	-0.1236164
187	0x3df645aa	0.12025006
188	0xbb5a27e4	-0.0033287937
189	0x3d79c99b	0.06098328
190	0xbd52daa2	-0.051478036
191	0x3d83c529	0.0643409
192	0xbc90a639	-0.017657386
193	0xbd14cf57	-0.036330547
194	0xbdc2d67b	-0.09513565
195	0x3df2b022	0.11850001
196	0xbe01681a	-0.12637368
197	0xbb1ea4a4	-0.002420702
198	0x3dde0ffe	0.10842894
199	0x3c50c18c	0.012741458
200	0x3c82bcd6	0.015959185
201	0x3d43afc0	0.04777503
202	0xbdcda983	-0.100420974
203	0xbd025b74	-0.031825498
204	0xbb1cabe8	-0.0023906175
205	0x3d3b38f7	0.045708623
206	0xbe0ebf7b	-0.13940232
207	0xbd948a13	-0.07252898
208	0xbdf9a6e6	-0.121900365
209	0xbcfd7f58	-0.030944511
210	0x3daed59b	0.08536836
211	0xbe0ea1cb	-0.13928907
212	0xbda97cc0	-0.08275747
213	0x3bd15cca	0.006389235
214	0xbd9c3423	-0.07627132
215	0x3e0d36a1	0.1379037
216	0x3da4fa9a	0.08055611
217	0xbd497d64	-0.049191847
218	0xbd886cf2	-0.06661405
219	0xbc378fb2	-0.011203693
220	0xbc08ae1e	-0.008342294
221	0xbbc1b781	-0.005911768
222	0x3dc7225c	0.097233504
223	0x3daa637f	0.083197586
224	0xbda04fd3	-0.07827725
225	0x3d46f305	0.048571605
226	0x3e09e21f	0.13465165
227	0xbd87e336	-0.06635134
228	0x3e0ae69f	0.13564537
229	0xbdd11ef2	-0.102109805
230	0x3cf47b71	0.029844018
231	0xbdc93e85	-0.09826378
232	0xbdcbfb6c	-0.09960064
233	0xbd4fc76f	-0.050727304
234	0xbd9dbdb9	-0.07702202
235	0x3c4c8258	0.012482248
236	0x3cf475ae	0.02984127
237	0x3d5f79e2	0.054559596
238	0xbdf9460c	-0.121715635
239	0xbe08d96c	-0.1336419
240	0x3d388412	0.045047827
241	0xbd873b48	-0.06603104
242	0x3d3c77ba	0.046012618
243	0x3c23f76a	0.010007719
244	0x3db71161	0.08938862
245	0xbd0c7337	-0.034289565
246	0xbddb312f	-0.107027404
247	0x3e061e36	0.13097462
248	0xbd4a2e1f	-0.04936039
249	0xbdb1c199	-0.08679504
250	0xbdb29f32	-0.0872177
251	0x3d3582ed	0.044314314
252	0x3dd518db	0.104051314
253	0xbcea441f	-0.028596936
254	0xbd5cfd08	-0.053952247
255	0x3d833c51	0.06407989

fc2.bias f4 [50]
0	0x3cde846b	0.027162751
1	0x3ca13f52	0.019683514
2	0x3de20ece	0.1103798
3	0xbe08dfe3	-0.13366656
4	0xbd9953a1	-0.07486654
5	0x3a9bd75d	0.0011889745
6	0xbc3c2793	-0.011484045
7	0x3d7088a8	0.058724076
8	0xbd854760	-0.06507754
9	0xbce4dcb3	-0.027937269
10	0x3cf9c11c	0.03048759
11	0xbb7d7a0b	-0.003867748
12	0xbddb4518	-0.10706538
13	0x3d97ccf3	0.07412138
14	0x3e072253	0.13196687
15	0xbdf60046	-0.12011771
16	0xbc3bd9bd	-0.011465487
17	0x3e03c183	0.12866788
18	0xbd30b457	-0.043140735
19	0xbdb40c37	-0.08791392
20	0xbdfbeed2	-0.12301411
21	0x3e06543b	0.13118069
22	0x3cbd4dde	0.023108419
23	0xbdc7ae08	-0.09749991
24	0xbdad3ebe	-0.08459233
25	0x3d0e897a	0.034799077
26	0x3d9174b3	0.07102337
27	0x3d823220	0.06357217
28	0x3c4e94a3	0.01260868
29	0xbe07b04f	-0.1325085
30	0xbd892c1b	-0.066978656
31	0x3da9f382	0.082983986
32	0x3d5d754f	0.054066952
33	0x3d7b092c	0.061288044
34	0xbb242015	-0.0025043536
35	0xbdb32d4f	-0.08748876
36	0xbd7321c7	-0.059358384
37	0xbdc10eca	-0.09426649
38	0xbd924490	-0.071419835
39	0xbdf179ed	-0.117908336
40	0xbdde6865	-0.108597554
41	0x3d715452	0.058918305
42	0x3d6712f9	0.056414578
43	0xbd618b3d	-0.05506443
44	0xbe00ebb5	-0.12589915
45	0xbd2dc533	-0.042424392
46	0x3d7ebc7e	0.06219148
47	0xbd8a0185	-0.06738571
48	0xbdd53a8f	-0.1041156
49	0xbcb2b5c8	-0.021815196

fc3.weight f4 [2, 50]
0	0xbdb082d5	-0.08618704
1	0x3c937e55	0.018004576
2	0xbbcfc77a	-0.006340918
3	0x3da373d7	0.07981079
4	0xbd5f84ad	-0.05456989
5	0x3e018407	0.1264802
6	0x3c644605	0.01393271
7	0xbdcadf4e	-0.09905873
8	0x3e047d8b	0.12938516
9	0x3da92b01	0.082601555
10	0x3dfd935f	0.123816244
11	0xbd889211	-0.06668485
12	0xbcdbe836	-0.026844125
13	0xbd2a2fc8	-0.041549474
14	0x3cc42ca3	0.023947066
15	0xbd976562	-0.07392384
16	0xbcba00aa	-0.022705395
17	0xbdd79fe0	-0.105285406
18	0xbdc27e3f	-0.09496736
19	0xbdad55e0	-0.08463645
20	0x3ddebde3	0.10876062
21	0xbdc61348	-0.09671646
22	0x3d9895ff	0.074504845
23	0x3d4b97b6	0.04970523
24	0x3baabfb8	0.005210843
25	0x3c342080	0.010994077
26	0xbdabc7b5	-0.083877005
27	0x3dbc0c91	0.09182084
28	0xbd8aa973	-0.06770601
29	0x3d3cc9af	0.046090778
30	0x3d9edbf4	0.077567965
31	0x3dd57bda	0.104240134
32	0x3e05052f	0.12990259
33	0xbb7c28e5	-0.0038476523
34	0x3cfd501f	0.030921994
35	0x3d72b415	0.05925377
36	0xbc783496	-0.015149256
37	0x3dfaafc0	0.12240553
38	0x3defd177	0.11709874
39	0xbd301d71	-0.042996828
40	0xbe0c1740	-0.13680744
41	0xbdc66f48	-0.09689194
42	0x3c231e26	0.009955918
43	0x3d54ec48	0.051983148
44	0x3dd495b9	0.1038012
45	0x3c9fa336	0.019487005
46	0x3d111267	0.03541794
47	0x3def5595	0.11686245
48	0xbddc2cb0	-0.10750711
49	0xbd3d33dc	-0.046192035
50	0xbcea4076	-0.02859519
51	0x3d8362c5	0.06415323
52	0xbdaaf4c5	-0.08347467
53	0x3d76969e	0.060202233
54	0x3d258853	0.040413212
55	0xbde6ae03	-0.11263659
56	0xbce6f35b	-0.028192213
57	0xbd24deb9	-0.040251467
58	0xbdd51583	-0.10404494
59	0xbdf4cffb	-0.119537316
60	0x3d1dc761	0.03852022
61	0xbe069692	-0.13143376
62	0x3ba2cdbb	0.0049683726
63	0xbd846559	-0.06464643
64	0x3dbd5a97	0.09245794
65	0x3dec81f9	0.11548228
66	0x3c349a94	0.011023182
67	0x3d591c87	0.05300572
68	0xbe0eec45	-0.13957317
69	0xbd4eb542	-0.05046583
70	0x3cd495a9	0.02595027
71	0x3c8fbc1b	0.01754575
72	0xbdc1f1f3	-0.09469976
73	0x3dc406f3	0.09571638
74	0x3dfe3cf5	0.124139704
75	0x3c824ca0	0.015905678
76	0x3e033aa1	0.12815334
77	0x3d75e76c	0.060035154
78	0x3d959536	0.0730385
79	0x3d33fab7	0.043940272
80	0x3cd15828	0.025554731
81	0xbc30512d	-0.010761541
82	0x3dc0f8c4	0.09422448
83	0xbd9c005b	-0.07617255
84	0x3d82a7a8	0.06379634
85	0x3ddfd293	0.10928836
86	0xbe066a2e	-0.13126442
87	0x3d98ba2e	0.07457386
88	0xbdbf578b	-0.09342869
89	0x3d8c24c8	0.06842953
90	0xbd7034bf	-0.058644053
91	0x3dba4b0f	0.090963475
92	0x3d3e90fa	0.04652498
93	0xbd84dbc3	-0.06487229
94	0xbd8e717a	-0.06955238
95	0x3d1fa7a3	0.03897823
96	0x3d3d36e4	0.046194926
97	0x3cee2362	0.029069606
98	0x3d9d2a5e	0.076740965
99	0xbdd1939c	-0.102332324

fc3.bias f4 [2]
0	0xbcdef0d9	-0.027214454
1	0x3d8e6c71	0.06954277
