TorchModels/RLtrader33.pt (torch, 22871 bytes, 6 tensors)

fc1.weight f4 [50, 50]
0.11846013 -0.10457967 -0.070669144 0.0047779484 0.114169255 0.1110285 0.066477075 0.089245886
-0.0703546 0.03335644 0.09735604 -0.04474126 -0.08589051 0.05345479 0.045011245 -0.03069253
-0.047808554 -0.13215482 0.033149593 0.03609928 0.046494942 -0.07072089 -0.0058861105 0.073792666
0.08161461 -0.018408295 0.08989134 0.014399186 0.07612605 -0.11511907 0.10651406 -0.091975205
-0.10817395 0.095483676 0.02311983 -0.026327135 -0.029176708 -0.049662355 -0.039038345 -0.06373139
0.021819903 0.12156743 0.05032923 -0.0007718613 -0.10748552 0.11405786 -0.109019816 0.008297084
0.011177545 0.0016078542 0.02801651 0.04746927 0.050511174 -0.017254144 -0.116810285 0.14030822
0.06352301 0.0070139454 -0.0065928022 -0.011351856 0.13644354 0.093466185 0.09911812 -0.01969465
-0.13061902 -0.112513475 0.031487066 0.0722054 0.12857115 -0.13165316 -0.10157622 -0.12043895
0.11662532 -0.11813532 0.12283023 -0.057557818 0.016738936 -0.089180306 0.11715851 0.13937196
-0.09279065 0.0769642 -0.08585821 0.015320452 0.04038438 0.10255308 0.12885813 -0.08735164
0.10380529 -0.11942629 0.13586624 0.0714631 0.09056423 0.12981732 -0.11663843 -0.05440672
0.083213374 -0.014935599 -0.0583876 -0.09234982 -0.039251536 0.12538823 -0.07834535 0.02833819
0.11282789 -0.087498546 0.06310737 0.06535335 -0.0517106 0.046336703 0.008415704 0.048908338
0.00075134047 0.06385919 0.01503962 -0.10235759 0.023613047 0.020506237 0.12213366 -0.049805596
0.019432578 -0.0993127 -0.098460816 0.088235594 0.06497561 0.118692905 0.110251024 0.032167736
0.019134706 0.09200922 -0.0077406242 0.054244258 -0.07105914 -0.034901652 0.058144085 -0.07774976
0.049396712 0.10470275 0.120755546 0.03828348 0.008899767 -0.066312365 0.018428875 -0.0077887666
-0.085063055 0.080640346 -0.050526116 0.06575233 -0.124456845 -0.011363993 0.012051541 -0.13525605
0.06488746 0.033695564 0.03745636 -0.11496068 0.010023486 -0.09104629 -0.030227067 -0.043842945
0.096969426 0.12427707 -0.116891295 -0.07713035 0.0056899325 0.060313445 0.03561876 -0.11533084
-0.09321114 -0.028514199 0.09076605 -0.13319911 0.054400224 0.113607414 0.12747176 0.09408266
0.13853271 0.086854406 0.059164222 -0.048339233 -0.093290724 0.030392623 -0.07881979 -0.061384983
0.13507551 0.05508954 0.06402588 -0.09276264 0.052679755 -0.051699698 -0.08450627 -0.13873427
0.04685617 -0.108665474 0.07651547 -0.0210655 0.09997061 0.047323547 0.082707174 0.1336172
-0.13963582 -0.12891695 -0.11441176 -0.01852145 -0.042046674 0.05741959 0.0022952673 0.09362149
0.12397213 -0.13360654 -0.10010448 -0.068084545 0.04354953 0.027007708 -0.021131262 0.09813633
-0.12311141 -0.10098188 -0.05998129 0.10444334 -0.06257849 0.065016985 -0.08493247 0.04858916
-0.06579066 -0.06001464 0.07973735 -0.0869708 0.10692127 0.031104272 0.06694724 0.07065605
0.13391027 -0.07031998 0.029909503 0.0072452337 0.03009215 -0.105520405 -0.06794045 -0.06535596
0.022651484 0.060519494 0.055293843 -0.0834769 0.06195398 -0.13527636 -0.08729898 0.0019124926
-0.06854575 0.11851867 0.13077763 -0.1394486 -0.07177968 -0.13210109 0.057710446 0.08058776
00000000: 3a9b f23d de2d d6bd fcba 90bd 5690 9c3b
00000010: 92d1 e93d e962 e33d 2225 883d 8cc6 b63d
00000020: 1316 90bd c3a0 083d 9a62 c73d 9d42 37bd
00000030: 5de7 afbd 69f3 5a3d b65d 383d e76e fbbc
00000040: e7d2 43bd 9853 07be dec7 073d d7dc 133d
00000050: 7b71 3e3d 1dd6 90bd 46e0 c0bb 9c20 973d
00000060: 9025 a73d fecc 96bc f318 b83d 90ea 6b3c
00000070: f9e7 9b3d 8cc3 ebbd 0b24 da3d 7f5d bcbd
00000080: 4e8a ddbd f28c c33d cc65 bd3c 01ac d7bc
00000090: fe03 efbc c16a 4bbd ace6 1fbd 9a85 82bd
000000a0: a7bf b23c 58f8 f83d 0626 4e3d bc56 4aba
000000b0: 5e21 dcbd 2b97 e93d c845 dfbd 7ef0 073c
000000c0: 0622 373c a2be d23a e182 e53c 236f 423d
000000d0: cee4 4e3d 9058 8dbc 3b3a efbd f5ac 0f3e
000000e0: 5a18 823d 3dd5 e53b 6f08 d8bb 23fd 39bc
000000f0: dbb7 0b3e 336b bf3d 71fe ca3d ad56 a1bc
00000100: fec0 05be 776d e6bd 95f8 003d 6de0 933d
00000110: 28a8 033e 16d0 06be 3107 d0bd b2a8 f6bd
00000120: 41d9 ee3d eef0 f1bd 6a8e fb3d bfc1 6bbd
00000130: 1820 893c 2aa4 b6bd cdf0 ef3d 86b7 0e3e
00000140: 0609 bebd 689f 9d3d 6ed6 afbd a202 7b3c
00000150: 176a 253d 5907 d23d 63f3 033e 6be5 b2bd
00000160: de97 d43d c595 f4bd 8520 0b3e 3f5b 923d
00000170: bd79 b93d d5ee 043e 21e0 eebd 95d9 5ebd
00000180: c66b aa3d 71b4 74bc d627 6fbd e721 bdbd
00000190: 38c6 20bd c665 003e 8773 a0bd 7e25 e83c
000001a0: 4f12 e73d 7032 b3bd 703e 813d fad7 853d
000001b0: 7ece 53bd 8ecb 3d3d 05e2 093c 1c54 483d
000001c0: 9bf5 443a 9bc8 823d bd68 763c dba0 d1bd
000001d0: 2670 c13c b2fc a73c 3621 fa3d f400 4cbd
000001e0: 1231 9f3c 7564 cbbd d3a5 c9bd ddb4 b43d
000001f0: ef11 853d 4415 f33d 4acb e13d 51c2 033d
00000200: 63c0 9c3c 546f bc3d 10a5 fdbb 3a2f 5e3d
00000210: 7487 91bd 09f5 0ebd 7e28 6e3d 443b 9fbd
00000220: 3554 4a3d 656e d63d af4e f73d 23cf 1c3d
00000230: 54d0 113c c7ce 87bd 27f8 963c e938 ffbb
00000240: 8a35 aebd c426 a53d 79f4 4ebd 28a9 863d
00000250: 3be3 febd 0b30 3abc d473 453c 9080 0abe
00000260: b7e3 843d 5c04 0a3d d76b 193d 8170 ebbd
00000270: 8c39 243c 7a76 babd c19e f7bc a994 33bd
00000280: e897 c63d fa84 fe3d b464 efbd 84f6 9dbd
00000290: 9d72 ba3b 3b0b 773d fae4 113d 9332 ecbd
000002a0: 7be5 bebd 9c96 e9bc 8de3 b93d 5965 08be
000002b0: c5d2 5e3d 01ab e83d f587 023e 69ae c03d
000002c0: 85db 0d3e b9e0 b13d 2f56 723d 5cff 45bd
000002d0: 350f bfbd f3f9 f83c 456c a1bd d26e 7bbd
000002e0: 3c51 0a3e 92a5 613d 0020 833d 57fa bdbd
000002f0: bac6 573d 10c3 53bd a011 adbd 5b10 0ebe
00000300: 41ec 3f3d 018c debd 25b4 9c3d 8e91 acbc
00000310: 64bd cc3d 56d6 413d 6162 a93d f3d2 083e
00000320: b1fc 0ebe ce02 04be b650 eabd 4cba 97bc
00000330: 2239 2cbd ce30 6b3d 326c 163b a0bc bf3d
00000340: 1ae5 fd3d 27d0 08be 9403 cdbd e96f 8bbd
00000350: fe60 323d 453f dd3c 781b adbc b3fb c83d
00000360: d621 fcbd 97cf cebd f1ae 75bd 64e6 d53d
00000370: 2729 80bd a027 853d 13f1 adbd 6d05 473d
00000380: 41bd 86bd e9d1 75bd 564d a33d bf1d b2bd
00000390: 8af9 da3d 63ce fe3c a21b 893d 1fb4 903d
000003a0: c61f 093e ec03 90bd c604 f53c 6d69 ed3b
000003b0: d083 f63c 151b d8bd 5d24 8bbd 58d9 85bd
000003c0: 9b8f b93c 4ae3 773d cc7b 623d f0f5 aabd
000003d0: 75c3 7d3d e385 0abe cfc9 b2bd 9aac fa3a
000003e0: b761 8cbd ebb9 f23d 92ea 053e 9dcb 0ebe
000003f0: 3a01 93bd 8245 07be ca61 6c3d 320b a53d

fc1.bias f4 [50]
-0.07395092 0.11989999 0.059085544 -0.12221972 -0.13560915 0.12852845 -0.09995211 0.09034124
-0.08913752 -0.047250673 0.097270764 0.04863187 -0.080251604 0.09147365 0.035750654 -0.103682265
-0.008936394 0.014803913 0.098148055 -0.11340589 0.11907802 -0.08445609 -0.09148564 0.065187216
0.10431834 0.09532087 -0.02929766 0.03964049 -0.115462124 0.09383083 0.12002305 -0.11655449
0.09685423 0.09372088 -0.10248574 -0.069661975 -0.106760934 -0.085765325 -0.11455535 -0.100333184
-0.0057123667 0.07983553 0.07685381 0.11072973 -0.13185756 0.09636676 -0.07169646 -0.0011380573
-0.04448495 0.13009955
00000000: 9473 97bd 208e f53d af03 723d 554e fabd
00000010: 20dd 0abe f69c 033e b1b3 ccbd d404 b93d
00000020: bb8d b6bd ec89 41bd e535 c73d 3632 473d
00000030: f45a a4bd 8956 bb3d 476f 123d 5e57 d4bd
00000040: f469 12bc 1d8c 723c d901 c93d 5941 e8bd
00000050: 2ddf f33d 51f7 acbd d35c bbbd e080 853d
00000060: dba4 d53d 9737 c33d a501 f0bc 115e 223d
00000070: 6877 ecbd 612a c03d a5ce f53d 1fb4 eebd
00000080: 835b c63d bcf0 bf3d 0be4 d1bd f0aa 8ebd
00000090: 7aa5 dabd bba5 afbd ff9b eabd 7c7b cdbd
000000a0: ce2e bbbb cf80 a33d 8865 9d3d 45c6 e23d
000000b0: ab05 07be f05b c53d 98d5 92bd de2a 95ba
000000c0: da35 36bd d138 053e

fc2.weight f4 [50, 50]
-0.09098475 -0.026523111 -0.059924707 -0.025559915 0.11555341 -0.12703332 -0.008030664 -0.12714502
-0.049452372 0.06317018 0.098091684 0.090653695 0.11968484 0.13071097 -0.10108649 0.12303635
-0.0020441434 0.058810033 0.08815229 -0.06625787 0.030176057 -0.06770575 0.017208753 -0.0481468
0.09498801 -0.02288875 -0.13339856 -0.011100477 0.1007572 -0.11150136 -0.1296598 -0.018019745
-0.019820845 -0.0021565405 0.07872936 0.042841867 0.13818412 0.026140528 -0.038530998 0.079510055
-0.0783957 -0.13913785 -0.08459249 0.05502748 -0.060316194 0.09024628 0.054797933 -0.13713625
0.13261448 -0.058535643 -0.067845 0.02553909 -0.12454397 -0.022598784 0.0704091 -0.08443373
0.010947517 0.11218703 -0.028768409 0.070093066 -0.1194289 -0.10063354 0.11229207 0.06205786
0.13517939 0.10678434 0.033100266 0.057726987 -0.08883492 -0.0038866876 0.079482086 -0.11305768
-0.004038406 0.11455199 -0.09166493 -0.08205072 0.10812514 -0.08521412 0.04700866 -0.0556301
-0.07941243 0.00026146206 -0.14050587 0.04624472 0.09474746 0.02816176 -0.05955788 0.11786153
-0.12100053 0.11885744 0.048623286 0.015163792 0.0531676 -0.051642396 -0.08023429 -0.01736945
0.06720456 -0.0064800614 0.029252518 0.10511362 -0.12003608 0.10036753 -0.005181444 0.061035752
0.05072872 -0.031025251 0.025948536 0.028970007 -0.13486584 0.005984824 -0.1371173 0.09324066
0.10275737 -0.04927008 -0.08633522 0.042769287 0.020248797 -0.04217484 0.033065543 0.10827317
0.08132716 0.06278946 0.027763335 0.0625551 0.0030165825 0.0531166 0.091094464 0.10516135
0.024376582 0.10986944 -0.08665947 0.07502803 0.013742644 0.045237124 -0.012054885 0.0886148
-0.09724496 -0.09128811 -0.0778177 -0.10868778 0.033019498 -0.017488535 0.120501995 0.0026038205
0.06032495 0.0357249 0.07561672 -0.12831198 0.06409598 0.11175837 -0.058380716 -0.113853924
0.09142312 -0.102459826 0.09573524 -0.04670333 -0.06604051 0.104468085 0.10591742 -0.116938114
0.078271605 -0.10112364 -0.09829228 0.0913519 0.11157053 0.019884981 0.099878184 -0.015385164
-0.07806063 -0.06947505 -0.09378938 -0.071198635 0.08643305 -0.12475857 -0.009771534 -0.0888876
0.13356355 0.005509651 -0.025336294 -0.05574167 -0.09020256 -0.09034817 0.02554663 0.010048357
0.08033869 0.022486228 -0.09994108 -0.08465085 0.032689128 -0.11531925 0.079239056 0.0238774
0.007292177 -0.140548 0.059988134 -0.09493159 0.09716381 0.088181846 0.10031858 -0.080381595
-0.08903324 -0.10936215 0.1221958 -0.12939553 0.11971995 -0.04483866 -0.05726512 0.031735335
-0.11540915 -0.02947777 0.06118728 -0.13835475 0.027307732 -0.003691775 -0.10125323 -0.10183498
-0.013679931 -0.028618094 0.12885307 0.08400275 0.086448334 0.07838056 0.028654208 -0.09514554
0.0789764 -0.13283864 -0.04505474 -0.11936584 0.042407155 -0.12886955 0.06546241 0.09476011
0.062090445 0.023807822 -0.072500244 0.06417763 0.10786969 0.107118934 0.09203503 0.013883265
0.0116016 -0.10301927 0.05888963 -0.12574695 -0.1130665 0.13511243 -0.053339377 -0.06528994
-0.12911765 0.13113585 -0.09205768 -0.12040996 -0.09730478 -0.12675135 0.010725484 -0.06339304
00000000: 3656 babd ff46 d9bc 9c73 75bd 0763 d1bc
00000010: 44a7 ec3d 0615 02be 0c93 03bc 4e32 02be
00000020: 928e 4abd 5e5f 813d 4be4 c83d a5a8 b93d
00000030: 531d f53d 19d9 053e 6f06 cfbd 7bfa fb3d
00000040: 09f7 05bb cae2 703d 3089 b43d 35b2 87bd
00000050: c733 f73c 50a9 8abd 5ff9 8c3c 9435 45bd
00000060: 1389 c23d 3081 bbbc a299 08be c6de 35bc
00000070: ca59 ce3d d35a e4bd 8ac5 04be 259e 93bc
00000080: 535f a2bc bf54 0dbb dc3c a13d f47a 2f3d
00000090: 2380 0d3e a924 d63c aed2 1dbd 2bd6 a23d
000000a0: ed8d a0bd 277a 0ebe d43e adbd 7f64 613d
000000b0: 1d0e 77bd 0bd3 b83d cc73 603d 726d 0cbe
000000c0: 17cc 073e 12c3 6fbd 52f2 8abd 5b37 d13c
000000d0: e910 ffbd 1621 b9bc a532 903d 97eb acbd
000000e0: 375d 333c 50c2 e53d baab ebbc f48c 8f3d
000000f0: 2497 f4bd f518 cebd 63f9 e53d 6230 7e3d
00000100: 776c 0a3e c0b1 da3d 2594 073d 2273 6c3d
00000110: 15ef b5bd ccb7 7ebb 81c7 a23d c98a e7bd
00000120: 9b54 84bb 3c9a ea3d d3ba bbbd 350a a8bd
00000130: b770 dd3d be84 aebd 278c 403d 63dc 63bd
00000140: fca2 a2bd d814 8939 c5e0 0fbe 1b6b 3d3d
00000150: f50a c23d 7eb3 e63c f7f2 73bd 6361 f13d
00000160: 20cf f7bd 886b f33d 3629 473d 8e71 783c
00000170: 45c6 593d fa86 53bd e051 a4bd 604a 8ebc
00000180: 8ba2 893d b256 d4bb faa2 ef3c cf45 d73d
00000190: 7ad5 f5bd 7e8d cd3d 1ac9 a9bb a000 7a3d
000001a0: ebc8 4f3d ab28 febc 0692 d43c 8252 ed3c
000001b0: 451a 0abe 581c c43b 7a68 0cbe f6f4 be3d
000001c0: 7572 d23d 6ccf 49bd 85d0 b0bd d92e 2f3d
000001d0: cee0 a53c 86bf 2cbd bc6f 073d 53be dd3d
000001e0: db8e a63d c397 803d ef6f e33c e31c 803d
000001f0: dbb1 453b cb90 593d bc8f ba3d d55e d73d
00000200: 66b1 c73c 3b03 e13d 857a b1bd 4ca8 993d
00000210: d428 613c 904a 393d da81 45bc ad7b b53d
00000220: 5e28 c7bd 43f5 babd e35e 9fbd b397 debd
00000230: 743f 073d 1e44 8fbc c0c9 f63d dca4 2a3b
00000240: 4b17 773d 4654 123d f0dc 9a3d 3764 03be
00000250: c144 833d 93e1 e43d 9e20 6fbd 3f2c e9bd
00000260: 0b3c bb3d 75d6 d1bd d610 c43d fe4b 3fbd
00000270: 3f40 87bd 5df3 d53d 3beb d83d 407d efbd
00000280: dd4c a03d e919 cfbd 774d c9bd b416 bb3d
00000290: 177f e43d d4e5 a23c ef8c cc3d 0e12 7cbc
000002a0: 40de 9fbd ef48 8ebd a514 c0bd 97d0 91bd
000002b0: d003 b13d 6c81 ffbd c918 20bc b40a b6bd
000002c0: e2c4 083e 4d8a b43b 0f8e cfbc 6151 64bd
000002d0: 1fbc b8bd 7608 b9bd 2b47 d13c dda1 243c
000002e0: 9c88 a43d 0a35 b83c e9ad ccbd 6d5d adbd
000002f0: 09e5 053d 802c ecbd 1648 a23d 8a9a c33c
00000300: 37f3 ee3b d1eb 0fbe 1eb6 753d 7e6b c2bd
00000310: d2fd c63d af98 b43d d473 cd3d 1b9f a4bd
00000320: 0f57 b6bd 43f9 dfbd cb41 fa3d 4380 04be
00000330: bc2f f53d bea8 37bd d58e 6abd e9fc 013d
00000340: a25b ecbd 5d7b f1bc 839f 7a3d deac 0dbe
00000350: 77b4 df3c b5f1 71bb da5d cfbd dc8e d0bd
00000360: ca21 60bc 7e70 eabc 0ff2 033e a209 ac3d
00000370: d30b b13d fd85 a03d 3bbc ea3c aadb c2bd
00000380: 61be a13d da06 08be 528b 38bd 1476 f4bd
00000390: 20b3 2d3d 61f6 03be 2811 863d 9711 c23d
000003a0: 8d52 7e3d 9f08 c33c 027b 94bd 906f 833d
000003b0: c9ea dc3d 2c61 db3d dd7c bc3d a276 633c
000003c0: a314 3e3c c4fb d2bd 4136 713d cfc3 00be
000003d0: 698f e7bd ea5a 0a3e 647a 5abd bbb6 85bd
000003e0: 6b37 04be 7a48 063e bd88 bcbd 7f99 f6bd
000003f0: ba47 c7bd 1bcb 01be f1b9 2f3c 36d4 81bd

fc2.bias f4 [50]
-0.056332365 -0.12357732 -0.047554694 -0.13489586 -0.051620226 -0.014615927 -0.0038656795 -0.018361865
-0.096124254 0.023070632 0.0030163787 -0.04547323 0.07365563 -0.044197217 0.11415156 -0.03998436
0.005509215 0.14264257 -0.05937863 0.11259092 0.027392387 -0.121292 -0.082986765 0.0062640603
0.0047117146 -0.06483945 0.020617614 0.12535454 -0.019033834 0.0664262 -0.046768334 -0.0664044
-0.055178557 0.043839376 -0.049600787 -0.03340395 0.115003794 0.12586717 0.10819187 0.09789825
-0.14173843 0.049255252 0.0389454 -0.068608016 0.0664431 -0.071559146 -0.040690716 0.026744574
0.047422055 -0.09747358
00000000: c4bc 66bd 1b16 fdbd b6c8 42bd 2422 0abe
00000010: bb6f 53bd a477 6fbc 5757 7dbb 9f6b 96bc
00000020: cbdc c4bd 9ffe bc3c 70ae 453b 2342 3abd
00000030: c3d8 963d 2408 35bd 4bc8 e93d a4c6 23bd
00000040: a586 b43b e510 123e 0237 73bd 1196 e63d
00000050: 0066 e03c f167 f8bd f7f4 a9bd bf42 cd3b
00000060: ba64 9a3b 8cca 84bd 45e6 a83c f15c 003e
00000070: d8ec 9bbc 760a 883d 2790 3fbd 08ff 87bd
00000080: e902 62bd eb90 333d 322a 4bbd 95d2 08bd
00000090: 1c87 eb3d 53e3 003e b393 dd3d e17e c83d
000000a0: e123 11be e0bf 493d 3685 1f3d 5c82 8cbd
000000b0: 5213 883d 9a8d 92bd 4fab 26bd 7017 db3c
000000c0: a13d 423d 3aa0 c7bd

fc3.weight f4 [2, 50]
0.0012281861 0.0001429033 0.13134113 -0.020967975 0.05838391 -0.026656374 -0.027887292 -0.012651057
-0.021579841 -0.03402222 0.02503949 -0.1281475 0.067612916 -0.102516085 -0.1040667 -0.037497606
-0.06129687 -0.09332836 -0.07764272 -0.09134021 -0.11324159 -0.014309453 -0.048014097 -0.13715366
-0.06941689 -0.05638974 -0.05843172 0.09934786 0.047411606 -0.0064870017 -0.118446775 -0.028916337
0.105205394 -0.13893096 -0.053331915 -0.0009782562 0.08059613 0.00047876383 0.03726459 0.03578533
-0.0080973655 0.13176553 -0.0721257 -0.010121328 -0.12620337 0.13747552 0.13923794 -0.021892944
0.11540442 -0.008674492 0.013685644 0.08874201 -0.055739168 0.015089053 -0.10884484 -0.040401433
-0.042212363 0.13237679 -0.028678501 -0.011154467 0.09185993 -0.014381392 -0.053376816 0.08382971
-0.090594076 -0.14266773 0.07689293 0.023484454 0.10870022 0.06697518 -0.13395813 0.079308756
0.008673407 0.020071972 0.009146526 -0.10380516 0.03903328 -0.116317384 -0.12908876 0.1277687
-0.12493206 -0.0793482 -0.08652837 -0.0100430595 -0.02037387 0.075408205 -0.14134353 -0.08460477
0.0008831516 0.12531358 0.015261344 0.098523386 0.13418984 0.01578902 -0.015809719 0.0061363745
0.043456197 0.13026842 -0.0886875 0.051996335
00000000: 16fb a03a 50d8 1539 4a7e 063e 08c5 abbc
00000010: f823 6f3d 785e dabc e473 e4bc 6146 4fbc
00000020: 35c8 b0bc e25a 0bbd 9e1f cd3c 1939 03be
00000030: a478 8a3d f4f3 d1bd ec20 d5bd 1797 19bd
00000040: 6d12 7bbd f022 bfbd 2503 9fbd 9310 bbbd
00000050: 35eb e7bd 3272 6abc 6eaa 44bd 0272 0cbe
00000060: 712a 8ebd eef8 66bd 1956 6fbd e476 cb3d
00000070: ac32 423d ea90 d4bb 3994 f2bd f4e1 ecbc
00000080: ed75 d73d eb43 0ebe 9172 5abd d538 80ba
00000090: 950f a53d 9802 fb39 c1a2 183d a393 123d
000000a0: d0aa 04bc 8bed 063e a4b6 93bd edd3 25bc
000000b0: 753b 01be 62c6 0c3e 6494 0e3e d558 b3bc
000000c0: 2759 ec3d 751f 0ebc c039 603c 5fbe b53d
000000d0: c14e 64bd 1338 773c 0bea debd f97b 25bd
000000e0: dfe6 2cbd c88d 073e 2def eabc 3ac1 36bc
000000f0: 0f21 bc3d ee9f 6bbc a6a1 5abd e9ae ab3d
00000100: 6389 b9bd 7d17 12be 0a7a 9d3d 7862 c03c
00000110: 399e de3d 482a 893d 522c 09be a16c a23d
00000120: e81a 0e3c fa6d a43c 50db 153c cd97 d4bd
00000130: 5ce1 1f3d cf37 eebd d82f 04be ccd5 023e
00000140: 61dc ffbd 4f81 a2bd c935 b1bd a58b 24bc
00000150: 1ae7 a6bc 9e6f 9a3d 5cbc 10be 4445 adbd
00000160: 4d83 673a 3452 003e b70a 7a3c a1c6 c93d
00000170: 1069 093e fa57 813c 6283 81bc a413 c93b
00000180: 20ff 313d 1665 053e cba1 b5bd 1cfa 543d

fc3.bias f4 [2]
-0.11420068 0.112741366
00000000: 0ce2 e9bd f2e4 e63d
