TorchModels/RLtrader31.pt (torch, 22871 bytes, 6 tensors)

fc1.weight f4 [50, 50]
-0.075977586 -0.09811584 -0.1364757 0.110921614 -0.09419009 0.047030654 -0.08065067 0.12570953
0.07059402 -0.032254986 -0.060735587 0.107673645 -0.034319963 -0.043163568 0.017745964 -0.051250532
-0.05201005 -0.12515345 -0.015915688 -0.11880724 0.072989285 0.06541121 -0.037980836 -0.024808848
0.122097254 -0.08450445 0.104933664 0.02372575 0.03050962 -0.12197688 -0.09003973 0.01844687
-0.14407423 -0.061264217 0.00517852 0.08800495 0.03855156 0.09054649 -0.018021753 0.027237652
-0.054196462 0.02561592 0.03555983 0.08724906 0.053430647 -0.12935701 0.05945827 0.02749643
0.0121583855 -0.035959 -0.09942974 0.11315719 -0.1272611 -0.01087843 0.024873786 -0.104262665
-0.034264177 0.12898657 0.03513392 0.03648609 -0.019796029 -0.022263475 0.07762636 0.099651374
-0.0025714447 -0.13154002 0.094466455 0.034218937 0.1059476 0.025799178 -0.047642823 -0.11917676
0.059507973 0.041878823 -0.12732388 0.07435117 -0.049973544 0.11609858 -0.1412086 0.014638427
0.13398889 -0.047598615 -0.038109977 -0.08042156 0.026161967 0.035194617 -0.07036157 -0.13928677
-0.010303931 -0.021283288 0.026122378 -0.10753842 0.06475558 0.0666777 -0.03928245 0.13453388
0.046651874 0.12922974 -0.1138068 0.09112059 0.026544038 -0.03171761 0.032118276 0.09932494
-0.10935574 0.111256294 0.09727812 0.02744578 0.0945207 -0.09712344 -0.0018841068 0.02611852
0.06177878 0.11105169 0.1113185 0.051789112 0.018319346 0.12926324 -0.14110696 0.022846218
-0.1290962 -0.018211711 -0.08849513 -0.08614035 0.102732934 -0.00027440072 0.09773199 0.010146962
-0.13748859 -0.04441787 -0.12286187 -0.12677012 0.065103136 -0.10951157 -0.020748142 -0.05643531
-0.07125259 -0.054750126 0.043473326 -0.015615759 0.010846117 0.00019641184 -0.019233072 -0.10635547
0.10912708 -0.12211064 -0.08004224 -0.052289296 0.005641367 0.07661417 -0.11684833 -0.008941004
-0.08624048 -0.0594373 -0.06808629 0.014887178 -0.11809207 -0.01108673 -0.06621146 0.13561009
0.0776549 -0.10992871 -0.09020446 -0.11897388 -0.07113241 0.045050964 0.060591865 0.11616872
-0.050609253 0.09979377 0.06508294 -0.08788359 0.010433191 0.03924764 0.11317082 0.117350966
-0.10387255 0.055832606 0.046977296 0.011827461 0.003673526 0.0067048944 0.09910358 -0.103316255
-0.0030503839 -0.047699813 -0.09440178 -0.11854586 -0.13414992 0.084793985 -0.08603929 -0.012175943
-0.05035612 0.035841383 -0.037674736 -0.1134733 -0.11969881 0.06568144 0.03893015 -0.053862885
-0.018856173 -0.09570859 -0.040014036 -0.11460751 -0.05007307 0.012488441 0.13016772 -0.013214806
0.013952869 0.10099951 -0.05802821 -0.029550735 -0.081598714 -0.01943715 -0.014854108 -0.10665354
-0.084925316 -0.019050246 0.032019477 0.082767345 -0.13360913 -0.07240491 -0.08756914 -0.08053815
0.081210956 -0.11515498 0.06827354 -0.0675665 0.027133008 0.015149345 -0.005134222 0.035953484
0.0715225 -0.089187056 0.017711392 0.09026263 0.029723955 0.10916894 0.105218135 0.0040240884
0.13985765 -0.04164706 0.12147493 0.12141638 -0.028755525 -0.06073761 0.07754091 -0.083800666
-0.056850787 0.057314944 -0.1076579 0.10875524 0.0050552776 -0.13928843 -0.121710084 -0.03097345
00000000: 239a 9bbd f5f0 c8bd 49c0 0bbe df2a e33d
00000010: bce6 c0bd 37a3 403d 2e2c a5bd 00ba 003e
00000020: 9993 903d ce1d 04bd e1c5 78bd 0084 dc3d
00000030: 1793 0cbd 48cc 30bd fc5f 913c 14ec 51bd
00000040: 7d08 55bd 3a28 00be 9e61 82bc 3651 f3bd
00000050: 687b 953d 50f6 853d cb91 1bbd ed3b cbbc
00000060: 200e fa3d ab10 adbd 76e7 d63d 815c c23c
00000070: 50ef f93c 04cf f9bd c066 b8bd e41d 973c
00000080: 3288 13be 30f0 7abd 93b0 a93b f03b b43d
00000090: 3ee8 1d3d 7070 b93d 5ba2 93bc 7f21 df3c
000000a0: 1cfd 5dbd 7ad8 d13c 2fa7 113d a3af b23d
000000b0: 18da 5a3d 2a76 04be 848a 733d 3140 e13c
000000c0: f733 473c bf49 13bd d2a1 cbbd f5be e73d
000000d0: bc50 02be 713b 32bc 1cc4 cb3c aa87 d5bd
000000e0: 9858 0cbd 0e15 043e 96e8 0f3d 7072 153d
000000f0: 482b a2bc e461 b6bc 92fa 9e3d 0516 cc3d
00000100: af85 28bb 6db2 06be a177 c13d 2829 0c3d
00000110: 0efb d83d cc58 d33c 1f25 43bd f212 f4bd
00000120: a2be 733d 2189 2b3d 3161 02be 6d45 983d
00000130: 0fb1 4cbd 18c5 ed3d fd98 10be 03d6 6f3c
00000140: 6234 093e c4f6 42bd 3519 1cbd 0fb4 a4bd
00000150: 9f51 d63c 3b28 103d ba19 90bd 31a1 0ebe
00000160: d2d1 28bc 4a5a aebc 99fe d53c 1a3d dcbd
00000170: 939e 843d 518e 883d a2e6 20bd 40c3 093e
00000180: 0916 3f3d cd54 043e 8a13 e9bd 6f9d ba3d
00000190: e272 d93c 53ea 01bd 748e 033d e06a cb3d
000001a0: e7f5 dfbd 57da e33d c039 c73d f9d5 e03c
000001b0: 1294 c13d a7e8 c6bd 22f4 f6ba 82f6 d53c
000001c0: bf0b 7d3d 126f e33d f4fa e33d d220 543d
000001d0: 7412 963c 955d 043e 587e 10be fe27 bb3c
000001e0: cb31 04be ba30 95bc ef3c b5bd 5a6a b0bd
000001f0: a565 d23d 71dd 8fb9 b627 c83d 713f 263c
00000200: cfc9 0cbe 83ef 35bd 019f fbbd 07d0 01be
00000210: cb54 853d 9a47 e0bd 02f8 a9bc b628 67bd
00000220: e1ec 91bd ab41 60bd 1611 323d 3ed9 7fbc
00000230: e9b3 313c e7f3 4d39 ad8e 9dbc e6d0 d9bd
00000240: 057e df3d 2515 fabd 30ed a3bd 4d2d 56bd
00000250: 37db b83b e4e7 9c3d 2d4e efbd 4a7d 12bc
00000260: d99e b0bd 8774 73bd d370 8bbd 5ae9 733c
00000270: 41da f1bd 1ea5 35bc e099 87bd 5fdd 0a3e
00000280: 8809 9f3d 4e22 e1bd 1ebd b8bd 94a8 f3bd
00000290: dead 91bd 5c87 383d 2d2f 783d dee9 ed3d
000002a0: a64b 4fbd ad60 cc3d 344a 853d 50fc b3bd
000002b0: faef 2a3c 22c2 203d 1ac6 e73d b455 f03d
000002c0: 22bb d4bd bbb0 643d 446b 403d f8c7 413c
000002d0: 8abf 703b bbb4 db3b d1f6 ca3d 7997 d3bd
000002e0: f3e8 47bb e160 43bd b855 c1bd 2cc8 f2bd
000002f0: 995e 09be 78a8 ad3d 5e35 b0bd 9b7d 47bc
00000300: 3842 4ebd 6ace 123d d350 1abd b164 e8bd
00000310: a624 f5bd fe83 863d 3975 1f3d 549f 5cbd
00000320: 4378 9abc dd02 c4bd c2e5 23bd 58b7 eabd
00000330: 6b19 4dbd 519c 4c3c b04a 053e ea82 58bc
00000340: 939a 643c d5d8 ce3d fdae 6dbd 6214 f2bc
00000350: 3a1d a7bd a83a 9fbc a55e 73bc 2c6d dabd
00000360: 53ed adbd 430f 9cbc db26 033d ed81 a93d
00000370: d5d0 08be 0749 94bd 7357 b3bd 30f1 a4bd
00000380: ee51 a63d 60d6 ebbd ffd2 8b3d 4e60 8abd
00000390: 0b46 de3c f534 783c fa3c a8bb f643 133d
000003a0: 637a 923d b4a7 b6bd 7b17 913c 9ddb b83d
000003b0: a77f f33c f793 df3d 9b7c d73d 80dc 833b
000003c0: d836 0f3e 1c96 2abd d9c7 f83d 27a9 f83d
000003d0: b590 ebbc 00c8 78bd c5cd 9e3d af9f abbd
000003e0: 5fdc 68bd 13c3 6a3d bf7b dcbd 11bb de3d
000003f0: bea6 a53b a0a1 0ebe 2343 f9bd 08bc fdbc

fc1.bias f4 [50]
0.04172661 -0.048914395 -0.108540274 0.11108054 -0.12558244 0.044680018 -0.08168029 0.13934603
-0.052501947 0.078699805 0.048490554 0.04891339 0.06678124 -0.061270345 0.11959729 -0.10239095
-0.07875714 0.00871769 0.024011917 0.08942143 -0.10954917 0.13198322 -0.04918345 0.09356705
0.047667354 -0.1406088 0.099764094 -0.018311998 0.1147646 -0.030103587 -0.09777066 -0.022644378
0.072727196 -0.09564857 0.07858666 0.07216402 0.1358624 0.038633224 -0.07136079 -0.02724774
-0.021483488 0.0769659 0.09076937 0.13259496 -0.13854496 -0.011670155 0.029636083 0.0353987
0.06626855 0.09358384
00000000: 86e9 2a3d 765a 48bd 5d4a debd 327e e33d
00000010: af98 00be 6502 373d ff47 a7bd bab0 0e3e
00000020: 480c 57bd 5d2d a13d 089e 463d 6859 483d
00000030: 9ac4 883d 9df6 7abd 6def f43d 59b2 d1bd
00000040: 6c4b a1bd a4d4 0e3c a4b4 c43c 9522 b73d
00000050: 515b e0bd 9c26 073e 9674 49bd 15a0 bf3d
00000060: d83e 433d c1fb 0fbe 1e51 cc3d 0b03 96bc
00000070: b409 eb3d cc9b f6bc fc3b c8bd b480 b9bc
00000080: fff1 943d 66e3 c3bd 0bf2 a03d bbca 933d
00000090: 831f 0b3e df3d 1e3d 9b25 92bd a736 dfbc
000000a0: 24fe afbc 4ca0 9d3d 4be5 b93d f9c6 073e
000000b0: bbde 0dbe 2e34 3fbc 5fc7 f23c 3afe 103d
000000c0: ceb7 873d e2a8 bf3d

fc2.weight f4 [50, 50]
0.020903757 -0.033113454 0.117865816 0.08238646 0.12357117 -0.017232504 0.10402108 0.10392046
0.13302773 0.11054817 -0.04705863 -0.05738551 -0.09943152 -0.102214985 -0.0435499 -0.052087203
-0.06348148 -0.11448643 0.106843166 0.029886983 -0.1302126 -0.071834885 0.055172715 0.01440521
-0.08638538 0.09105051 -0.0916853 -0.13663016 -0.09162814 -0.012342995 0.09749467 0.07205993
-0.011836301 0.12773632 -0.14304806 0.104569815 -0.10090834 -0.11361367 0.10502909 -0.09824697
0.065251715 -0.0064075063 0.032435466 0.11567655 0.0999742 0.1198035 0.03991219 -0.12253669
0.06820102 -0.014065139 -0.0847132 -0.009002525 0.021627108 -0.10127352 0.10835136 -0.1251839
-0.028238712 -0.0040176613 -0.007638981 -0.12942304 0.09855874 -0.009502652 -0.06413646 0.03377869
0.12432012 0.03970433 -0.13237706 0.05171052 -0.058969714 0.023466965 0.10115687 -0.048175246
-0.05245806 -0.07067132 -0.0018731671 0.10680376 0.041167345 -0.11244479 -0.019720463 -0.019108936
0.11541015 -0.04800169 -0.053805817 0.05292021 0.083639525 0.04983921 -0.10994701 -0.13679281
0.118938304 0.057136677 0.1333673 -0.046752255 0.06874323 -0.08864073 0.12111081 -0.113647945
0.0147758005 -0.03188098 0.116153225 -0.0073164 -0.062244132 -0.060155135 0.061162163 -0.051738907
0.11374306 0.1348159 -0.02202024 0.12171946 0.022618664 -0.02762427 -0.056074947 -0.018462194
-0.08940524 0.007737666 0.09354518 -0.00096612464 0.08273014 0.026347972 0.063639574 0.049566902
0.060366493 -0.016745402 0.009375744 -0.017952124 -0.07105603 -0.04740564 -0.11883177 -0.05150015
-0.100097045 0.01858975 -0.10226242 0.098924994 0.039710388 0.028054843 -0.018694038 0.019234134
-0.07322388 0.072934955 -0.053846754 0.08287442 -0.0848064 0.027899051 -0.049990784 0.07099599
0.12043662 0.13641472 -0.04301342 -0.042196017 0.07464096 -0.1166805 -0.086428456 0.013768699
0.022232573 0.08786641 0.11809829 0.09548551 -0.019682959 -0.090908796 0.07253368 0.11659857
-0.051661648 0.13060161 -0.09901867 0.049430143 -0.02736327 -0.088410854 -0.02329026 0.10667693
0.08785745 -0.111993656 0.10887923 0.048213508 -0.050383747 -0.13719916 0.1344086 -0.043320432
0.06736932 0.12079394 -0.022572445 0.10910353 -0.050205383 -0.08479587 0.11251024 -0.083133586
0.0008519489 0.060316436 -0.029836133 -0.09698791 0.12767819 -0.0008139977 -0.08061991 0.042466685
-0.057416916 -0.029501325 0.08808291 -0.010278753 0.04420241 0.05362221 -0.09250285 0.121519074
0.092429064 -0.035583008 0.08104722 -0.007612863 -0.039939735 -0.066815 0.0015519141 -0.13922799
-0.06770592 -0.1284968 -0.04577863 -0.05986034 -0.037013154 0.06831236 0.12694094 -0.02352744
0.112712115 -0.087369286 -0.10360804 0.117646106 0.046541758 0.02586195 0.12838568 -0.07748518
0.08926035 0.11495285 0.041433904 0.039634895 -0.09795196 -0.067395285 0.026940413 0.06003925
-0.02415308 -0.088562176 0.092822194 0.025583759 -0.13809665 -0.0054934113 0.030096948 0.058709454
-0.09220919 -0.11382624 -0.018110018 0.084317625 0.10250392 -0.06718607 0.013493142 0.11837721
-0.06608014 -0.07563577 0.10705253 -0.114361 -0.107592724 -0.09678259 0.09583875 -0.099181734
00000000: 5b3e ab3c f9a1 07bd a263 f13d 3bba a83d
00000010: e212 fd3d 2e2b 8dbc 0109 d53d 40d4 d43d
00000020: 6c38 083e 1467 e23d 8dc0 40bd 120d 6bbd
00000030: c1a2 cbbd 1756 d1bd 6161 32bd 6459 55bd
00000040: 9402 82bd dd77 eabd 97d0 da3d 8cd5 f43c
00000050: 7456 05be 2b1e 93bd c9fc 613d d403 6c3c
00000060: d1ea b0bd b178 ba3d 81c5 bbbd c7e8 0bbe
00000070: 89a7 bbbd 463a 4abc 49ab c73d 2894 933d
00000080: 0bed 41bc 4fcd 023e 317b 12be b328 d63d
00000090: 08a9 cebd 49ae e8bd 7e19 d73d b535 c9bd
000000a0: b1a2 853d 0ff6 d1bb 0ddb 043d d4e7 ec3d
000000b0: 46bf cc3d 8a5b f53d f77a 233d 84f4 fabd
000000c0: faac 8b3d 7871 66bc 1d7e adbd 547f 13bc
000000d0: 552b b13c 7e68 cfbd 51e7 dd3d 3530 00be
000000e0: df54 e7bc 96a6 83bb 6b50 fabb 7987 04be
000000f0: 2ad9 c93d 03b1 1bbc fa59 83bd 865b 0a3d
00000100: 8c9b fe3d 02a1 223d da8d 07be 69ce 533d
00000110: 3a8a 71bd cb3d c03c 552b cf3d 6853 45bd
00000120: 43de 56bd 20bc 90bd 0f85 f5ba eebb da3d
00000130: 179f 283d 7449 e6bd cf8c a1bc 588a 9cbc
00000140: 285c ec3d 6c9d 44bd 7d63 5cbd ddc2 583d
00000150: 334b ab3d 3324 4c3d e62b e1bd 6a13 0cbe
00000160: ed95 f33d 2608 6a3d 7091 083e 4b7f 3fbd
00000170: 40c9 8c3d 4589 b5bd f208 f83d 41c0 e8bd
00000180: 3316 723c a195 02bd bee1 ed3d 69be efbb
00000190: b4f3 7ebd 3b65 76bd 2d85 7a3d 2dec 53bd
000001a0: 1ff2 e83d 2e0d 0a3e ca63 b4bc 0d48 f93d
000001b0: c74a b93c 4b4c e2bc d8ae 65bd 073e 97bc
000001c0: 181a b7bd 3f8c fd3b 9e94 bf3d 8743 7dba
000001d0: 6b6e a93d b4d7 d73c 7755 823d aa06 4b3d
000001e0: db42 773d a72d 89bc b89c 193c 5510 93bc
000001f0: d385 91bd 6b2c 42bd 125e f3bd d2f1 52bd
00000200: aeff ccbd 8849 983c f66e d1bd 3099 ca3d
00000210: 5ca7 223d 45d3 e53c 3d24 99bc e790 9d3c
00000220: 67f6 95bd ec5e 953d 6a8e 5cbd 10ba a93d
00000230: faae adbd 8d8c e43c 23c3 4cbd 5866 913d
00000240: 7aa7 f63d 4db0 0b3e d72e 30bd bbd5 2cbd
00000250: 5cdd 983d 30f6 eebd 6701 b1bd 1c96 613c
00000260: 1621 b63c 4ef3 b33d 84dd f13d e88d c33d
00000270: 283e a1bc 642e babd 8a8c 943d 3bcb ee3d
00000280: 2a9b 53bd 6ebc 053e 4dca cabd 4377 4a3d
00000290: f028 e0bc c010 b5bd 37cb bebc 6f79 da3d
000002a0: 9bee b33d ee5c e5bd 13fc de3d 877b 453d
000002b0: 305f 4ebd f07d 0cbe 68a2 093e c470 31bd
000002c0: edf8 893d d062 f73d d9e9 b8bc ac71 df3d
000002d0: 29a4 4dbd 75a9 adbd c56b e63d f141 aabd
000002e0: 5355 5f3a 5e0e 773d e86a f4bc 99a1 c6bd
000002f0: 12be 023e 7662 55ba 0d1c a5bd 8cf1 2d3d
00000300: 002e 6bbd c3ac f1bc d064 b43d 3768 28bc
00000310: 960d 353d f6a2 5b3d 2272 bdbd fede f83d
00000320: 734b bd3d 7dbf 11bd 16fc a53d 5375 f9bb
00000330: d997 23bd 4dd6 88bd 9969 cb3a c891 0ebe
00000340: 67a9 8abd aa94 03be 5f82 3bbd 1e30 75bd
00000350: 1b9b 17bd 5ae7 8b3d cefc 013e 9ebc c0bc
00000360: 9cd5 e63d abee b2bd 7430 d4bd 71f0 f03d
00000370: 92a2 3e3d 71dc d33c 8977 033e 8db0 9ebd
00000380: 21ce b63d 666c eb3d 99b6 293d 3358 223d
00000390: 0a9b c8bd 8a06 8abd 24b2 dc3c b7eb 753d
000003a0: aedc c5bc 1660 b5bd 9019 be3d 0895 d13c
000003b0: 3569 0dbe 1302 b4bb e08d f63c 5379 703d
000003c0: 2cd8 bcbd bb1d e9bd 765b 94bc b8ae ac3d
000003d0: 93ed d13d da98 89bd 5712 5d3c c06f f23d
000003e0: 0655 87bd ede6 9abd 5b3e db3d 1a36 eabd
000003f0: 9359 dcbd f335 c6bd 1b47 c43d cb1f cbbd

fc2.bias f4 [50]
-0.040515848 0.08179479 0.083974436 -0.07496171 0.009664203 0.07705207 -0.017118126 -0.0151453875
0.01848213 -0.056427475 -0.10930907 0.08000484 -0.104973316 0.017890556 0.111516386 -0.06298558
0.04479371 -0.0348474 -0.07069113 -0.012879775 -0.007273488 0.01723441 -0.09489609 -0.08751649
-0.02685708 -0.08730487 0.08245893 -0.13195062 0.13592306 -0.070890754 -0.14116469 -0.023142375
0.121954024 -0.0199045 -0.026867999 0.021412844 0.09073116 -0.12097228 0.07726154 -0.09573258
0.118676856 0.09897839 0.07260916 -0.13336739 0.13396934 -0.104194485 0.110036775 -0.115129784
-0.07488439 0.038477216
00000000: f2f3 25bd 0784 a73d cafa ab3d 8685 99bd
00000010: 9b56 1e3c 7acd 9d3d 503b 8cbc 5c24 78bc
00000020: d667 973c 7f20 67bd 6fdd dfbd 94d9 a33d
00000030: 40fc d6bd 378f 923c b462 e43d 95fe 80bd
00000040: 9c79 373d 26bc 0ebd 83c6 90bd b105 53bc
00000050: 7156 eebb 2d2f 8d3c e258 c2bd d83b b3bd
00000060: 6103 dcbc e5cc b2bd 3ae0 a83d 101e 07be
00000070: 6a2f 0b3e 2c2f 91bd 7a8d 10be 1495 bdbc
00000080: 08c3 f93d c30e a3bc 471a dcbc fd69 af3c
00000090: 42d1 b93d 51c0 f7bd 4c3b 9e3d 710f c4bd
000000a0: da0c f33d 2fb5 ca3d 1cb4 943d 7691 08be
000000b0: 422f 093e eb63 d5bd f65a e13d 2ac9 ebbd
000000c0: fd5c 99bd 499a 1d3d

fc3.weight f4 [2, 50]
-0.048040535 0.13079415 0.006162785 -0.12403168 0.06660768 0.025043454 0.0065980316 0.107100785
-0.11301239 0.11537974 0.0756512 -0.13941678 0.04505314 -0.013481416 0.013660992 -0.040261704
0.058236416 0.041525874 0.017505463 -0.14214692 -0.085314274 0.018992174 -0.008950984 -0.03404641
-0.090132095 -0.07482047 0.030017996 0.085613824 -0.08706167 0.07566064 -0.05661804 -0.03351786
0.037966218 -0.09800703 0.062492482 0.12830932 0.013029024 -0.051552646 0.09675393 -0.14009598
-0.116458036 0.10433533 0.0068283654 0.04217634 -0.011751953 -0.1224746 0.020053865 0.052218843
-0.032682415 0.052136123 0.13429742 -0.037645876 0.00019804214 0.062430296 -0.12777722 -0.12233708
-0.049333878 0.015510294 -0.0102161 -0.10171385 0.13239202 0.11962728 -0.040051427 0.06902495
0.0961028 -0.084967665 -0.0015305275 -0.03180209 -0.11685993 0.112423286 0.029175982 -0.08618888
0.0101982085 -0.10317486 0.014730184 -0.14328776 -0.14276598 0.08211407 -0.018199828 0.12672457
0.068035565 0.12288087 0.07099019 0.033047996 -0.077689625 0.052245636 0.03366078 -0.09343781
0.12587921 -0.084464826 0.037676506 -0.050275188 -0.06158885 0.060235064 0.055381387 -0.07076609
0.10373621 -0.10276461 -0.029988209 -0.059179027
00000000: 27c6 44bd e7ee 053e 30f1 c93b 5204 febd
00000010: 9b69 883d ee27 cd3c 4d34 d83b a857 db3d
00000020: 0a73 e7bd 374c ec3d 04ef 9a3d 46c3 0ebe
00000030: a489 383d 28e1 5cbc 5ad2 5f3c 75e9 24bd
00000040: 4f89 6e3d 0917 2a3d 9e67 8f3c f68e 11be
00000050: 40b9 aebd 7a95 9b3c 26a7 12bc 4074 0bbd
00000060: 2d97 b8bd 793b 99bd 4de8 f53c 4d56 af3d
00000070: 644d b2bd f7f3 9a3d 51e8 67bd 064a 09bd
00000080: 7782 1b3d e9b7 c8bd 1ef8 7f3d 8563 033e
00000090: b077 553c de28 53bd ed26 c63d 5275 0fbe
000000a0: 8d81 eebd c3ad d53d 7bc0 df3b 19c1 2c3d
000000b0: 438b 40bc f7d3 fabd 0148 a43c 6de3 553d
000000c0: ffdd 05bd b08c 553d 4385 093e 9032 1abd
000000d0: 88a9 4f39 e9b6 7f3d 08d8 02be dd8b fabd
000000e0: 5212 4abd e31e 7e3c 6e61 27bc 5a4f d0bd
000000f0: c691 073e 26ff f43d f70c 24bd f45c 8d3d
00000100: 8bd1 c43d 8703 aebd fb9b c8ba e942 02bd
00000110: 4254 efbd 2e3e e63d 7802 ef3c cc83 b0bd
00000120: 6316 273c 574d d3bd df56 713c 07ba 12be
00000130: 3f31 12be 6c2b a83d ce17 95bc 16c4 013e
00000140: 3b56 8b3d f7a8 fb3d 4e63 913d 565d 073d
00000150: bd1b 9fbd 85ff 553d e3df 093d 535c bfbd
00000160: 7be6 003e e5fb acbd ae52 1a3d 5bed 4dbd
00000170: 9744 7cbd 0bb9 763d 98d7 623d d0ed 90bd
00000180: a673 d43d 4076 d2bd d5a9 f5bc b565 72bd

fc3.bias f4 [2]
-0.07523968 0.10550707
00000000: 4317 9abd 1714 d83d
