TorchModels/RLtrader23.pt (torch, 22871 bytes, 6 tensors)

fc1.weight f4 [50, 50]
-0.055931352 -0.13158952 0.10021418 -0.00491954 -0.0074521103 -0.06427745 0.0034353812 -0.091781676
-0.009160215 0.013464067 -0.066924274 0.1349884 -0.13614187 -0.13638483 0.055306792 0.052397702
0.11917874 -0.07502449 0.06531959 -0.12574403 0.04057389 0.04856794 0.027521024 0.11558954
-0.01670886 0.077173434 0.055328332 0.010928903 0.07225686 -0.09344538 0.007715665 0.04995483
-0.026546303 0.04086218 -0.04251455 -0.092718996 -0.06668935 -0.089194484 0.08964359 0.12306145
0.07351381 0.12331356 0.0008381602 -0.11413616 0.0895729 0.079296 0.055741493 -0.0202853
0.091928676 -0.028484872 0.030755175 -0.06121039 0.11745608 0.044784997 -0.04344727 -0.005169808
0.10526654 -0.0012213328 0.11416694 0.03487455 0.05229486 0.027279746 -0.049062934 0.011502923
-0.06308542 -0.034952182 -0.10914798 0.028044121 -0.093246296 0.06325339 0.08620426 -0.009600107
-0.09844812 -0.13456501 0.012609871 0.014836351 0.011858104 -0.040589813 0.08009039 -0.08748217
-0.082932696 0.013959872 -0.025564607 -0.13738537 0.11132736 0.001023194 -0.081782 -0.108332224
0.08500003 -0.11583173 0.115405 0.04915072 0.025450645 -0.047811262 0.0036189437 -0.13588633
-0.032875743 0.094271444 0.06290518 0.08213594 0.06702668 0.086695746 0.081391335 -0.12718964
-0.007129334 -0.13936104 -0.13779098 0.068558216 -0.09579851 0.06601077 -0.015150316 -0.013489965
0.0021451716 -0.049457476 0.07375156 -0.0003282733 0.085980706 -0.03558752 0.08181783 0.029226465
0.1322978 0.055362567 -0.071557716 -0.02246155 0.106164105 -0.12475285 0.13721353 -0.10775565
-0.011425382 0.04565825 0.0059113605 -0.11177417 0.042985275 -0.03113109 0.004135104 0.07984065
0.105388835 0.057638522 -0.0641963 0.094344854 -0.09491467 0.095084414 0.057257246 0.06686221
0.061706778 0.08503742 -0.008880727 -0.10888602 0.10034406 -0.09139559 0.02064244 -0.01549586
0.066268094 0.008861083 -0.13579492 -0.072874725 -0.047850627 0.077165455 -0.06014466 0.017287102
0.010515294 -0.12574472 -0.04364168 0.011574176 0.104072794 0.02086372 0.109749794 -0.06197659
0.09506243 0.028582985 -0.018473897 0.10700009 0.09025981 0.026706591 -0.10932614 -0.051116586
-0.021149877 -0.06765116 -0.04391452 0.026535682 0.098786466 0.0919421 -0.032122023 -0.10938282
-0.052077617 0.07859186 0.123494424 -0.07722707 0.05125667 0.10324108 -0.12461374 0.11957218
-0.03318465 -0.097212605 0.047891397 -0.05466775 0.05936615 0.043484513 0.11417525 -0.051653713
-0.06651786 -0.045574587 0.019196028 -0.012332914 -0.11164681 0.0019927144 -0.053590197 -0.06887281
-0.107553765 -0.056499075 -0.014669393 -0.05839333 -0.074536465 0.10773525 -0.14242223 -0.07739994
-0.05152378 0.12224196 -0.019547444 0.0050269654 -0.08372836 0.11628859 -0.13677496 -0.062248506
0.06468867 -0.016201297 0.0064472905 0.012529395 -0.058516834 -0.12003715 -0.013995146 -0.0074156774
-0.04625953 -0.10658701 -0.11882572 0.006298988 -0.025566021 0.0008026006 -0.0017679 0.10049486
-0.008652006 -0.09639381 0.038921166 -0.114575446 0.020517444 0.058148134 0.009508741 -0.079787716
0.033636436 -0.048372142 -0.023714349 0.1261238 0.1048561 -0.13249339 0.08608169 0.032618977
00000000: 4618 65bd 67bf 06be 183d cd3d 1834 a1bb
00000010: d530 f4bb e5a3 83bd 2224 613b 08f8 bbbd
00000020: ba14 16bc 6498 5c3c 980f 89bd 663a 0a3e
00000030: c668 0bbe 77a8 0bbe 6089 623d f99e 563d
00000040: fc13 f43d 71a6 99bd 47c6 853d 0bc3 00be
00000050: cf30 263d 2def 463d c573 e13c 35ba ec3d
00000060: 05e1 88bc 1b0d 9e3d f69f 623d 240f 333c
00000070: 68fb 933d 4b60 bfbd b0d3 fc3b 709d 4c3d
00000080: a277 d9bc 1a5f 273d bd23 2ebd 75e3 bdbd
00000090: 6d94 88bd 99ab b6bd 0f97 b73d a407 fc3d
000000a0: 698e 963d d28b fc3d fbb7 5b3a 38c0 e9bd
000000b0: ff71 b73d f165 a23d 3151 643d 5c2d a6bc
000000c0: 1a45 bc3d 1b59 e9bc 47f2 fb3c bfb7 7abd
000000d0: d08c f03d 7970 373d c4f5 31bd 7e67 a9bb
000000e0: fc95 d73d 2115 a0ba 5bd0 e93d 9ed8 0e3d
000000f0: 2333 563d c679 df3c 37f6 48bd c276 3c3c
00000100: ee32 81bd 052a 0fbd fa88 dfbd c9bc e53c
00000110: eaf7 bebd fe8a 813d dc8b b03d c449 1dbc
00000120: 2b9f c9bd 69cb 09be a299 4e3c 2b14 733c
00000130: 7e48 423c 8141 26bd 6e06 a43d da29 b3bd
00000140: 9ed8 a9bd f2b7 643c de6c d1bc c0ae 0cbe
00000150: 99ff e33d b21c 863a 527d a7bd 49dd ddbd
00000160: 7f14 ae3d 3039 edbd 7559 ec3d 4452 493d
00000170: df7d d03c bed5 43bd cd2b 6d3b c925 0bbe
00000180: b7a8 06bd 6311 c13d 6ed4 803d e336 a83d
00000190: 4945 893d 8a8d b13d 80b0 a63d 003e 02be
000001a0: 309d e9bb a9b4 0ebe 1419 0dbe 4068 8c3d
000001b0: 0232 c4bd a830 873d 0839 78bc 0405 5dbc
000001c0: 0296 0c3b ec93 4abd 0f0b 973d 191c acb9
000001d0: a716 b03d 38c4 11bd 1b90 a73d 576c ef3c
000001e0: 1379 073e dcc3 623d da8c 92bd 4901 b8bc
000001f0: 916c d93d 6c7e ffbd b481 0c3e ffae dcbd
00000200: 8731 3bbc 2504 3b3d 16b4 c13b dbe9 e4bd
00000210: 5411 303d a106 ffbc c47f 873b 7f83 a33d
00000220: 1ad6 d73d 5f16 6c3d 5a79 83bd e037 c13d
00000230: 9f62 c2bd 9ebb c23d 9386 6a3d 0eef 883d
00000240: 3fc0 7c3d 1928 ae3d 7880 11bc a2ff debd
00000250: 3081 cd3d 9c2d bbbd 561a a93c 59e2 7dbc
00000260: 91b7 873d 132e 113c d30d 0bbe 583f 95bd
00000270: 05ff 43bd ec08 9e3d 3f5a 76bd ae9d 8d3c
00000280: 5748 2c3c 39c3 00be 9ec1 32bd 9da1 3d3c
00000290: 1e24 d53d 64ea aa3c 80c4 e03d 2adb 7dbd
000002a0: 17b0 c23d dd26 ea3c 9256 97bc dd22 db3d
000002b0: 23da b83d c8c7 da3c 62e6 dfbd a05f 51bd
000002c0: 8242 adbc b18c 8abd b6df 33bd 5c61 d93c
000002d0: 8f50 ca3d 244c bc3d 6292 03bd 1a04 e0bd
000002e0: 574f 55bd c5f4 a03d a5ea fc3d 3a29 9ebd
000002f0: 84f2 513d 0f70 d33d 7d35 ffbd 42e2 f43d
00000300: a1ec 07bd 6717 c7bd c529 443d 4aeb 5fbd
00000310: ec29 733d d11c 323d b7d4 e93d d892 53bd
00000320: 843a 88bd 6bac 3abd fd40 9d3c fe0f 4abc
00000330: 15a7 e4bd 3398 023b 6581 5bbd 300d 8dbd
00000340: 2645 dcbd 936b 67bd e557 70bc d82d 6fbd
00000350: 93a6 98bd 4ca4 dc3d 22d7 11be dc83 9ebd
00000360: 990a 53bd fe59 fa3d f621 a0bc 3eb9 a43b
00000370: c679 abbd b628 ee3d bc0e 0cbe 4af8 7ebd
00000380: 7e7b 843d 95b8 84bc cb43 d33b 1748 4d3c
00000390: 59af 6fbd 0ad6 f5bd e64b 65bc 36ff f2bb
000003a0: a27a 3dbd 4a4a dabd e65a f3bd be67 ce3b
000003b0: d56f d1bc 9d65 523a e1b8 e7ba 40d0 cd3d
000003c0: 25c1 0dbc 1e6a c5bd cd6b 1f3d 88a6 eabd
000003d0: 3314 a83c bd2c 6e3d 8dca 1b3c be67 a3bd
000003e0: 5cc6 093d de21 46bd 9844 c2bc 9926 013e
000003f0: ccbe d63d 59ac 07be 994b b03d 7a9b 053d

fc1.bias f4 [50]
0.12561037 0.021594109 0.01299907 -0.042295102 0.04366735 -0.08502055 -0.082508504 0.078128524
0.06423904 0.03260243 -0.013947348 0.06277907 -0.021458106 -0.11766033 -0.11220827 -0.091101445
0.0361526 0.04133173 0.0408715 0.049407806 0.07584099 0.026008252 0.10462447 -0.01563942
0.122608155 0.14155522 -0.12484414 0.090983935 -0.021875251 0.02645385 -0.01646287 0.13673893
-0.022772666 0.07151631 -0.12067945 -0.089391075 0.056593385 -0.10634414 -0.06927998 0.028668819
-0.09181928 -0.10907197 -0.03173311 -0.07153551 -0.032059878 0.094406426 0.024050998 -0.13947377
-0.0002472394 -0.12545589
00000000: 01a0 003e 21e6 b03c 0dfa 543c a13d 2dbd
00000010: 89dc 323d 411f aebd 38fa a8bd d901 a03d
00000020: c28f 833d 208a 053d 6b83 64bc 5092 803d
00000030: e9c8 afbc e6f7 f0bd 73cd e5bd 6593 babd
00000040: c014 143d 764b 293d e068 273d d75f 4a3d
00000050: 8552 9b3d 420f d53c 5b45 d63d 3e1e 80bc
00000060: fc19 fb3d daf3 103e 49ae ffbd c955 ba3d
00000070: ba33 b3bc bfb5 d83c 24dd 86bc 4a05 0c3e
00000080: be8d babc 2577 923d ca26 f7bd ab12 b7bd
00000090: 77ce 673d f5ca d9bd aae2 8dbd dfda ea3c
000000a0: bf0b bcbd 2061 dfbd 94fa 01bd 3681 92bd
000000b0: 3851 03bd 2858 c13d 9906 c53c 36d2 0ebe
000000c0: e99f 81b9 8277 00be

fc2.weight f4 [50, 50]
0.123317614 -0.12777704 0.0583881 0.11268434 0.12669906 -0.116287544 -0.10182598 0.10706852
-0.003901579 0.113536894 -0.07424498 0.13165453 -0.13440675 0.0943063 0.10911756 0.0018657877
-0.06999814 0.02297553 -0.0858722 -0.055164084 0.07825152 -0.0028856432 -0.026385559 -0.101904325
-0.03791575 -0.023295546 0.10160307 0.10736149 -0.045956288 0.010642819 -0.06509176 0.06501734
-0.04072652 0.13996236 0.08040319 0.13616124 -0.03366026 -0.12441893 0.09771445 0.045852963
0.027795454 -0.022168536 0.08835445 0.13387573 -0.0778342 -0.03110788 -0.041632585 0.0589363
-0.04330226 -0.13277988 -0.053464226 -0.12895785 -0.061686903 0.09044116 0.066062294 -0.014115387
-0.07908447 -0.04789957 0.08896423 0.11652119 0.08880786 0.040932074 0.10307271 -0.0918805
0.09678717 -0.03750361 -0.10118891 -0.10227311 0.09454765 -0.13611029 -0.06664316 -0.08470775
-0.022362776 -0.11218327 -0.03124752 0.038572792 0.12979725 -0.02194776 -0.11567183 0.108256444
0.07748637 -0.06929314 0.051526893 -0.018946536 -0.0024062619 0.06007755 -0.059597887 -0.13689764
-0.12591842 0.04968831 0.09822966 0.011004723 0.1319296 -0.039037034 0.12615755 -0.089785434
-0.12037409 -0.08263748 -0.037260313 0.0634108 0.07912461 -0.028794298 -0.023929207 0.070378594
0.0186978 0.018839601 0.09019869 -0.10029775 0.06722772 -0.12866491 -0.094655566 0.1298319
0.10146757 0.12163375 0.12046562 0.07338666 0.0856672 0.009688947 0.05847364 -0.10756209
0.06706451 -0.12456577 0.1362895 -0.0015566723 -0.05796638 0.11567569 0.08966657 0.053538673
0.12482815 0.012315737 0.10049324 0.106829055 -0.14054725 -0.074871205 -0.06680404 0.07494724
0.0005513888 -0.08673799 -0.043403037 0.12131202 -0.01927434 0.0076004225 0.13199866 0.044207513
-0.05788547 -0.06012374 0.108602196 -0.114867404 -0.13403086 -0.10946522 0.13626496 -0.011064094
0.05800914 0.047037143 -0.09440803 -0.1305832 0.025812017 -0.12979317 -0.10479848 -0.071657576
-0.11758217 -0.016430942 -0.0984041 0.093975514 -0.054758742 0.0045290953 0.015538289 -0.13591705
-0.0547482 -0.0013106491 0.10182176 0.100920804 0.05363174 -0.054038174 -0.13542782 0.06444772
-0.03757691 0.12035212 0.085563935 -0.015829153 0.057970352 -0.08783565 -0.044443432 0.019350806
0.12846345 -0.01295133 -0.05077347 -0.01285763 0.064466 -0.05165227 0.11826673 0.031608604
-0.076288424 0.031503506 0.07564504 0.043569602 -0.08039306 -0.0945814 0.07779228 -0.12000566
-0.042189993 0.0046128407 0.10878 0.07140861 0.085605405 -0.0974783 0.10268963 -0.05060126
0.08967856 -0.033834565 -0.13690646 0.119384415 -0.021020174 -0.07626814 0.10465902 0.018001128
-0.13252607 -0.12140196 0.1364412 0.08802997 0.13334198 -0.101388186 0.04022472 -0.100364566
0.011595548 -0.07639138 0.055984627 0.08343991 0.072153166 0.14067921 0.060109273 0.0059834183
0.10758959 -0.010919902 -0.056381475 0.074976 -0.013515069 0.039435532 -0.12761529 -0.120269276
-0.04372909 -0.11969177 -0.012597329 -0.10833402 -0.06178395 0.11489109 -0.09139834 -0.027784599
0.07879805 -0.07025816 -0.03930229 -0.06553813 -0.017264549 -0.029671216 -0.06324524 -0.061655786
00000000: f28d fc3d fcd7 02be 5c28 6f3d 0cc7 e63d
00000010: 66bd 013e 2a28 eebd 248a d0bd bd46 db3d
00000020: a2b1 7fbb 0886 e83d c10d 98bd 72d0 063e
00000030: eca1 09be a923 c13d 0779 df3d 728d f43a
00000040: 2f5b 8fbd 2e37 bc3c c4dd afbd bcf3 61bd
00000050: 5542 a03d 0f1d 3dbb 8726 d8bc 37b3 d0bd
00000060: 8c4d 1bbd 4dd6 bebc 4515 d03d 57e0 db3d
00000070: a93c 3cbd 385f 2e3c d44e 85bd d027 853d
00000080: dad0 26bd 4b52 0f3e 6daa a43d da6d 0b3e
00000090: 57df 09bd 5acf febd 831e c83d 51d0 3b3d
000000a0: 4bb3 e33c ca9a b5bc 2ef3 b43d b816 093e
000000b0: 8967 9fbd f4d5 febc ee86 2abd 3167 713d
000000c0: b65d 31bd 73f7 07be 4efd 5abd 870d 04be
000000d0: 68ab 7cbd 3739 b93d ab4b 873d 3944 67bc
000000e0: 0af7 a1bd 5732 44bd e132 b63d a9a2 ee3d
000000f0: e5e0 b53d 64a8 273d c917 d33d d82b bcbd
00000100: 5a38 c63d 639d 19bd 223c cfbd 9074 d1bd
00000110: 33a2 c13d 7f60 0bbe 367c 88bd 427b adbd
00000120: 2432 b7bc 58c0 e5bd cdfa ffbc 81fe 1d3d
00000130: 92e9 043e cacb b3bc 5ae5 ecbd 8eb5 dd3d
00000140: 2db1 9e3d 90e9 8dbd dd0d 533d c435 9bbc
00000150: 60b2 1dbb e113 763d ea1c 74bd e52e 0cbe
00000160: c2f0 00be f885 4b3d a22c c93d 274d 343c
00000170: 8e18 073e 4ce5 1fbd 722f 013e 6de1 b7bd
00000180: b186 f6bd d73d a9bd 459e 18bd 86dd 813d
00000190: 150c a23d 05e2 ebbc 2f07 c4bc a722 903d
000001a0: 212c 993c 8255 9a3c 17ba b83d e868 cdbd
000001b0: b0ae 893d bcc0 03be c7da c1bd a7f2 043e
000001c0: 3bce cf3d 1e1b f93d aeb6 f63d bf4b 963d
000001d0: 4972 af3d 64be 1e3c 0e82 6f3d 8349 dcbd
000001e0: 1e59 893d 571c ffbd 7a8f 0b3e 4109 ccba
000001f0: 286e 6dbd 60e7 ec3d 1ba3 b73d 5e4b 5b3d
00000200: e7a5 ff3d f2c7 493c 66cf cd3d 31c9 da3d
00000210: 9eeb 0fbe 1356 99bd 8ed0 88bd f07d 993d
00000220: 138b 103a b0a3 b1bd 62c7 31bd 7072 f83d
00000230: 38e5 9dbc f70c f93b a82a 073e f012 353d
00000240: 5119 6dbd 5044 76bd d46a de3d 9a3f ebbd
00000250: 633f 09be 4d2f e0bd 0b89 0b3e 2c46 35bc
00000260: fe9a 6d3d 05aa 403d ff58 c1bd 9ab7 05be
00000270: b973 d33c 80e8 04be 96a0 d6bd 35c1 92bd
00000280: ecce f0bd 2f9a 86bc 1788 c9bd 3c76 c03d
00000290: b44a 60bd ce68 943b 4f94 7e3c d72d 0bbe
000002a0: a63f 60bd 16ca abba ed87 d03d 91af ce3d
000002b0: f5ac 5b3d 2257 5dbd 97ad 0abe 2bfd 833d
000002c0: 3fea 19bd 2c7b f63d 253c af3d 24ac 81bc
000002d0: 5272 6d3d 2de3 b3bd 510a 36bd 9585 9e3c
000002e0: ec8b 033e d131 54bc d8f7 4fbd cfa8 52bc
000002f0: c006 843d 5591 53bd d435 f23d 0678 013d
00000300: 1b3d 9cbd d209 013d c9eb 9a3d 0a76 323d
00000310: 1ea5 a4bd e5b3 c1bd 8f51 9f3d 87c5 f5bd
00000320: 6acf 2cbd 5027 973b 0cc8 de3d ad3e 923d
00000330: e351 af3d b4a2 c7bd f14e d23d 4443 4fbd
00000340: 65a9 b73d 1d96 0abd 3531 0cbe d17f f43d
00000350: 8032 acbc 7832 9cbd 7857 d63d 1a77 933c
00000360: eab4 07be 97a1 f8bd 3eb7 0b3e 0f49 b43d
00000370: cd8a 083e 9ca4 cfbd adc2 243d f08b cdbd
00000380: 41fb 3d3c 1573 9cbd 2350 653d 8be2 aa3d
00000390: 0ac5 933d 360e 103e 2435 763d 8d10 c43b
000003a0: ee57 dc3d 63e9 32bc 43f0 66bd 048d 993d
000003b0: 4f6e 5dbc 2787 213d 95ad 02be bd4f f6bd
000003c0: 461d 33bd f520 f5bd 0765 4ebc 3ade ddbd
000003d0: 2b11 7dbd 054c eb3d 0e2f bbbd 879c e3bc
000003e0: df60 a13d 83e3 8fbd 70fb 20bd db38 86bd
000003f0: 626e 8dbc 0d11 f3bc b886 81bd c78a 7cbd

fc2.bias f4 [50]
0.14086723 0.0038913505 0.0043215104 0.024963161 -0.08739812 -0.052709665 -0.11178048 -0.089608036
-0.057890262 -0.091251284 0.091100365 -0.0074761095 -0.051568817 0.028740518 -0.12638828 0.0028842208
0.10378223 0.06701017 -0.022069698 -0.0076989485 0.029616538 0.09759838 0.101835795 0.06317438
-0.08461718 -0.12253658 -0.07776089 0.031924915 -0.050082117 0.14138252 -0.091614485 0.084091745
-0.027941797 0.1284821 -0.019459462 -0.022407526 -0.078756206 -0.054660432 -0.10789058 0.07052878
0.07413612 -0.042063087 -0.12307026 -0.07602607 0.103001215 -0.04271044 0.11670485 -0.044932213
-0.13061121 -0.1132447
00000000: 803f 103e 0706 7f3b 759b 8d3b 8b7f cc3c
00000010: c9fd b2bd 17e6 57bd 2aed e4bd 6b84 b7bd
00000020: 571e 6dbd f4e1 babd d492 ba3d 27fa f4bb
00000030: d339 53bd 3c71 eb3c ee6b 01be 3205 3d3b
00000040: c78b d43d a13c 893d 83cb b4bc 7647 fcbb
00000050: 629e f23c a9e1 c73d 498f d03d 9261 813d
00000060: c64b adbd 75f4 fabd 1a41 9fbd b3c3 023d
00000070: e822 4dbd 94c6 103e 60a0 bbbd 4b38 ac3d
00000080: 32e6 e4bc d090 033e 7369 9fbc fd8f b7bc
00000090: ef4a a1bd 9ee3 5fbd bdf5 dcbd 6571 903d
000000a0: aed4 973d 584a 2cbd 430c fcbd 8eb3 9bbd
000000b0: 4df2 d23d 24f1 2ebd f402 ef3d d70a 38bd
000000c0: f2be 05be d6ec e7bd

fc3.weight f4 [2, 50]
0.14202987 0.11001853 -0.012973278 -0.0692066 0.1116164 -0.06923947 0.04977925 0.12039647
-0.08546237 0.035360377 -0.045613177 -0.115450114 -0.11164737 -0.025532769 -0.12950186 0.030285897
0.06446439 0.003757509 -0.09747576 0.05604957 -0.14112115 0.08864319 -0.05604748 -0.09568762
-0.021200003 -0.07714224 0.11898397 0.0025243612 0.02078303 0.10936584 0.038116608 -0.121777326
-0.13638708 -0.06956634 0.06675648 0.055889726 0.05967684 0.07230714 -0.04404658 -0.005418379
0.108184524 0.05006204 -0.069367915 -0.008403716 0.03210024 0.016723186 -0.017206192 -0.02191104
0.026075536 0.12858963 -0.04323983 -0.019099157 -0.07760535 0.05564016 -0.04859441 -0.12836204
-0.12587285 -0.13035418 0.11148187 0.13817567 0.13924344 -0.10832865 0.121572755 -0.04951359
0.069225356 -0.023650032 -0.07788937 -0.13587041 -0.072539166 0.13807768 0.10954531 -0.032011602
0.10393324 0.06759279 0.067916475 -0.03881133 0.07427665 0.10997751 0.11388524 0.056707606
-0.11575642 0.086338 0.10653185 0.020458918 -0.039868537 -0.13569058 0.008450185 -0.017031573
-0.017703643 0.09763713 -0.017215783 -0.093429364 -0.009933047 -0.05721622 0.10393232 0.07653679
-0.052485153 -0.046721052 -0.06620733 0.09630958
00000000: 4770 113e 6551 e13d df8d 54bc 31bc 8dbd
00000010: 2497 e43d 6ccd 8dbd 54e5 4b3d 6d92 f63d
00000020: e506 afbd 0bd6 103d e2d4 3abd 1c71 ecbd
00000030: 60a7 e4bd 192a d1bc 239c 04be 211a f83c
00000040: e805 843d 8a40 763b 5fa1 c7bd 3c94 653d
00000050: 1082 10be 908a b53d 0b92 65bd dff7 c3bd
00000060: a1ab adbc c0fc 9dbd dead f33d c16f 253b
00000070: 2c41 aa3c 33fb df3d 2920 1c3d 6466 f9bd
00000080: 0ea9 0bbe cc78 8ebd 9fb7 883d a0ec 643d
00000090: b46f 743d c415 943d 306a 34bd a88c b1bb
000000a0: d98f dd3d db0d 4d3d c410 8ebd bdaf 09bc
000000b0: 8b7b 033d 10ff 883c 00f4 8cbc c87e b3bc
000000c0: 5d9c d53c 00ad 033e 3f1c 31bd d675 9cbc
000000d0: 8eef 9ebd f0e6 633d ef0a 47bd 5771 03be
000000e0: d0e4 00be 917b 05be 9b50 e43d ec7d 0d3e
000000f0: d595 0e3e 69db ddbd 23fb f83d c3ce 4abd
00000100: 06c6 8d3d b6bd c1bc 7684 9fbd 9d21 0bbe
00000110: 6a8f 94bd 3c64 0d3e 4b59 e03d 991e 03bd
00000120: f3da d43d 176e 8a3d cb17 8b3d a1f8 1ebd
00000130: 5b1e 983d e43b e13d aa3c e93d 3c46 683d
00000140: b411 edbd fad1 b03d 5f2d da3d 7699 a73c
00000150: 314d 23bd 79f2 0abe a572 0a3c cc85 8bbc
00000160: 3b07 91bc faf5 c73d 1d08 8dbc e557 bfbd
00000170: 38be 22bc 8e5b 6abd 78da d43d 52bf 9c3d
00000180: acfa 56bd 935e 3fbd b597 87bd f53d c53d

fc3.bias f4 [2]
0.1043617 0.10330276
00000000: 96bb d53d 6690 d33d
