TorchModels/RLtrader3.pt (torch, 22871 bytes, 6 tensors)

fc1.weight f4 [50, 50]
0	0x3decfe49	0.115719385
1	0x3d9ed2eb	0.07755073
2	0xbdcfcd36	-0.10146563
3	0x3ddae2ae	0.10687767
4	0x3db80ede	0.08987211
5	0xbd89112c	-0.066927284
6	0x3d91b39f	0.07114338
7	0x3d1aded9	0.03781018
8	0xbd84c761	-0.06483341
9	0xbd80faf7	-0.06297868
10	0xbdbb22a1	-0.09137464
11	0x3e0629d4	0.13101894
12	0xbd7626bb	-0.06009553
13	0xbe08f11c	-0.13373226
14	0x3d76c883	0.060249817
15	0x3dc28704	0.094984084
16	0x3de43e61	0.1114471
17	0xbd289e47	-0.04116657
18	0x3db81c81	0.08989812
19	0x3e0e5818	0.13900793
20	0xbb5cdbe2	-0.0033700396
21	0xbdcdbc8f	-0.1004573
22	0x3dd1a716	0.10236947
23	0x3c5f8a1a	0.013643766
24	0x3dde7122	0.10861422
25	0x3db99ff8	0.09063715
26	0xbd94420f	-0.07239162
27	0x3d08ae5c	0.033369407
28	0x3d8b9385	0.068152465
29	0x3e007b80	0.12547112
30	0x3d9aa748	0.075514376
31	0xbdc4051a	-0.095712855
32	0xbdf280a7	-0.11840945
33	0x3df4ec22	0.11959101
34	0x3c84acfc	0.016195767
35	0x3d8c6894	0.06855884
36	0x3d8616ba	0.065473035
37	0xbd83a5cd	-0.06428108
38	0xbc74802a	-0.014923135
39	0x3e039d6f	0.12853025
40	0x3e0d794c	0.13815802
41	0xbde90a5a	-0.113789275
42	0x3d5dae24	0.05412115
43	0xbe039ce6	-0.12852821
44	0xbe036d6d	-0.12834711
45	0x3ddf704b	0.1091009
46	0x3ddd90c0	0.108186245
47	0x3c965daa	0.01835521
48	0xbd6c3f36	-0.05767747
49	0x3e09f165	0.13470991
50	0x3db6fa3c	0.08934447
51	0xbbcfb302	-0.006338478
52	0xbd808c74	-0.06276789
53	0xbdff0aae	-0.12453209
54	0xbcdbdb2f	-0.026837913
55	0x3d26292f	0.04056662
56	0x3dfa6a1f	0.12227272
57	0xbdf9612a	-0.12176736
58	0xbe02191c	-0.12704891
59	0xbde7716a	-0.11300929
60	0xbd7a4bf9	-0.06110761
61	0xbc880c91	-0.016607555
62	0xbdcaa14c	-0.09894046
63	0xbd2937d0	-0.041312993
64	0xbda72a0a	-0.08162315
65	0x3d3e5dcf	0.04647618
66	0xbe0f4eb2	-0.13994864
67	0x3d76de8e	0.06027084
68	0xbcb8325f	-0.022484956
69	0xbd55f4df	-0.05223548
70	0xbc493670	-0.012281045
71	0xbce6b0d2	-0.028160486
72	0x3e0d283d	0.13784881
73	0xbd956871	-0.07295311
74	0x3debfac4	0.11522439
75	0x3de3dca5	0.11126069
76	0x3de961be	0.11395596
77	0x3d7b6773	0.061377954
78	0xbe0708a0	-0.13186884
79	0xbce196c6	-0.027537715
80	0x3dff679a	0.12470932
81	0xbdd5f763	-0.10447576
82	0xbccadb3d	-0.024762744
83	0xbd384437	-0.04498693
84	0xbcdf1e6a	-0.027236182
85	0x3ddd2443	0.10797932
86	0x3dde49ed	0.10853944
87	0x3d861f3b	0.065489255
88	0xbe0105dc	-0.12599891
89	0x3dfae1fe	0.12250136
90	0x3cb1179e	0.021617707
91	0xbdfdeb1b	-0.123983584
92	0x3dec9653	0.115521096
93	0x3da091d8	0.078403175
94	0xbdf6f2cc	-0.120580286
95	0x3dc6ea80	0.09712696
96	0x3d971ee0	0.07378936
97	0x3e014680	0.1262455
98	0x3d69ea19	0.05710802
99	0xbddad3cd	-0.10684929
100	0xbd754b47	-0.059886243
101	0x3d98bab3	0.07457485
102	0xbc859b98	-0.016309544
103	0xbb95fce5	-0.0045772665
104	0x3dc5c21c	0.09656164
105	0xbc74f5bd	-0.014951167
106	0xbdcabfc2	-0.09899856
107	0xbd048959	-0.032357547
108	0x3d07df73	0.033172082
109	0x3dad4418	0.084602535
110	0xbc918b34	-0.017766573
111	0x3d816b8a	0.063193396
112	0x3e0a3314	0.13496047
113	0xb99bdc6d	-0.00029728134
114	0x3c3b076d	0.011415345
115	0xbcb17a24	-0.021664687
116	0x3dd221a9	0.102603264
117	0x3ca870f7	0.020561678
118	0xbd2755db	-0.040853363
119	0xbdefdade	-0.117116675
120	0xbc618e2f	-0.013766809
121	0xbdf3fcbb	-0.11913439
122	0xbd0ccc90	-0.034374774
123	0xbdcbd7e8	-0.0995329
124	0xbd16bcfb	-0.03680132
125	0x3d895f0a	0.067075804
126	0x3d678183	0.056519996
127	0x3de923ac	0.11383757
128	0x3d8523f6	0.06501
129	0x3dd05323	0.10172107
130	0xbdc538f9	-0.09630007
131	0xbdfe4c03	-0.12416842
132	0xbd85c436	-0.06531565
133	0xbc2278e2	-0.009916516
134	0x3c7e46c6	0.015519803
135	0x3a9d1eee	0.0011987367
136	0x3dd38d33	0.10329666
137	0xbded7038	-0.1159367
138	0x3dc66226	0.09686689
139	0x3dcf86d9	0.10133142
140	0xbdd67f53	-0.10473504
141	0x3dfddadc	0.1239526
142	0xbcd2a6cb	-0.025714299
143	0x3c3af237	0.011410288
144	0xbd38ea13	-0.045145106
145	0x3ce26419	0.02763562
146	0x3d8dc198	0.06921691
147	0x3d815672	0.06315316
148	0x3e06033b	0.1308717
149	0xbda2505e	-0.07925485
150	0x3ca99134	0.020699121
151	0x3dae3c41	0.08507586
152	0xbd959db9	-0.07305474
153	0x3dadb4ef	0.08481776
154	0x3d822e3b	0.06356474
155	0x3b95f267	0.0045760158
156	0x3db26675	0.087109484
157	0x3dad914e	0.0847498
158	0x3cd3321a	0.025780726
159	0xbdaf065d	-0.085461356
160	0x3ddadea3	0.10686996
161	0xbe140cf4	-0.14458066
162	0xbd755a6e	-0.059900694
163	0x3c986207	0.01860143
164	0x3c63969b	0.013890888
165	0x3e0a9d31	0.13536526
166	0x3e0b3168	0.13593066
167	0xbb260f76	-0.0025338805
168	0xbe0be066	-0.1365982
169	0xbd9e35ec	-0.077251285
170	0xbe021a9c	-0.12705463
171	0xbbd840d2	-0.006599524
172	0xbdb00d11	-0.08596242
173	0xbd85125c	-0.064976424
174	0x3c917193	0.017754352
175	0xbdef3542	-0.1168008
176	0xbe05ed22	-0.1307874
177	0xbdfe71a5	-0.1242402
178	0x3d1e1060	0.038589835
179	0x3d5cf042	0.053940065
180	0x3d985c13	0.07439437
181	0xbdc26afb	-0.09493061
182	0xbcb3cfc7	-0.021949662
183	0x3b575c46	0.0032861396
184	0xbdff7bc2	-0.12474777
185	0xbd84751c	-0.06467649
186	0xbe077ed7	-0.1323198
187	0xbcdd17f4	-0.02698896
188	0xba4d2a72	-0.0007826454
189	0x3c8f70a6	0.01750977
190	0xbde9286d	-0.11384664
191	0x3d8b2c2d	0.06795535
192	0x3c4136c4	0.011792842
193	0xbdcca8fb	-0.09993168
194	0x3d04dc83	0.03243686
195	0xbdef5804	-0.116867095
196	0xbdb6690a	-0.08906753
197	0xbdcf69b3	-0.101275824
198	0x3c907de6	0.017638158
199	0xbd986d28	-0.07442695
200	0xbdd09c57	-0.101860695
201	0xbd9d6adb	-0.07686397
202	0x3da98fd1	0.08279384
203	0x3e0cbcb3	0.13743858
204	0xbdf12c9b	-0.11776086
205	0xbd955aec	-0.072927326
206	0x3ded7d27	0.115961365
207	0x3daa22b3	0.083073996
208	0xbdc868f8	-0.09785646
209	0xbd922c42	-0.07137348
210	0xbd628548	-0.05530289
211	0xbded45c7	-0.115855746
212	0x3e05d9d8	0.13071382
213	0x3e02dbab	0.12779109
214	0xbaa0a1d2	-0.0012255257
215	0xbe0ee571	-0.13954712
216	0x3e0b77e0	0.13619947
217	0xbdebed07	-0.11519819
218	0x3de7169c	0.11283609
219	0x3dc53877	0.096299104
220	0x3deebed4	0.11657491
221	0xbe106db4	-0.14104348
222	0x3e02165d	0.12703843
223	0x3d44ec14	0.048076704
224	0x3d84091b	0.06447049
225	0x3d4977a7	0.049186375
226	0x3dd27c56	0.102776214
227	0xbd4c92b4	-0.049944595
228	0xbe0da087	-0.13830768
229	0x3c847bce	0.016172316
230	0x3c561dd9	0.01306864
231	0x3d5e8b9f	0.05433237
232	0x3dfbea35	0.12300531
233	0xbd8e90a7	-0.06961184
234	0xbd8f2c05	-0.06990818
235	0xbe0f28a8	-0.13980353
236	0x3d99ee96	0.0751621
237	0x3d224b96	0.039622866
238	0xbdb72d1a	-0.08944149
239	0xbdaa129d	-0.083043315
240	0x3daa12ee	0.08304392
241	0x3cca18a1	0.024669947
242	0x3cf39cbd	0.029737825
243	0x3c02afab	0.007976453
244	0x3bf6f108	0.0075360574
245	0x3dfec732	0.12440337
246	0x3dfe8f8c	0.12429723
247	0xbd99a054	-0.07501283
248	0xbd309c6a	-0.043117918
249	0xbd3d9871	-0.046287958
250	0x3d6bf62e	0.057607822
251	0x3d106ef8	0.035262078
252	0xbc2980cc	-0.010345649
253	0xbdb78bd9	-0.08962221
254	0xbdbc5e7a	-0.091977075
255	0xbda9637f	-0.082709305

fc1.bias f4 [50]
0	0x3dad57af	0.0846399
1	0xbd890713	-0.066908024
2	0x3d15048e	0.036381297
3	0xbdbffa90	-0.09373963
4	0x3d40474a	0.046942987
5	0x3d8989e1	0.067157514
6	0xbdcb8ee6	-0.09939365
7	0x3db22c29	0.08699829
8	0x3da733f3	0.081642054
9	0xbc6cd41c	-0.014454868
10	0xbc650cbf	-0.01398009
11	0xbd9158a5	-0.07096986
12	0x3d4e5763	0.050376307
13	0x3e05fafb	0.13084023
14	0xbdb174cb	-0.086648546
15	0xbdb4a854	-0.088211685
16	0xbd2f6929	-0.042824898
17	0x3ddf1078	0.10891813
18	0xbddd3002	-0.108001724
19	0xbd7a5e71	-0.061125223
20	0xbc380eaf	-0.01123397
21	0x3e0b0de6	0.1357952
22	0xbdff9e63	-0.12481382
23	0x3cd26302	0.025681976
24	0x3c3ba271	0.011452303
25	0x3dab7407	0.0837174
26	0xbe05f31e	-0.13081023
27	0xbd35a064	-0.044342414
28	0x3d7ce768	0.061744124
29	0x3ca8ac8b	0.020590087
30	0x3d7b8800	0.061408997
31	0xbc40332d	-0.011730951
32	0x3d821817	0.06352251
33	0x3d2d5480	0.042316914
34	0xbda21263	-0.07913663
35	0x3d460f4d	0.048354436
36	0x3d9e0762	0.07716252
37	0xbde1f58a	-0.11033161
38	0xbcb179b8	-0.021664485
39	0xbdc6a68f	-0.09699737
40	0x3c333a85	0.010939245
41	0x3b143db5	0.0022619788
42	0x3c1f9911	0.009741084
43	0xbd689434	-0.056781963
44	0xbd7dbd7b	-0.06194828
45	0xbdcf04cd	-0.101083376
46	0xbc8a72f4	-0.016900517
47	0xbdb49ad3	-0.08818593
48	0xbcee24f6	-0.029070359
49	0x3dd52b10	0.10408604

fc2.weight f4 [50, 50]
0	0xbd5dbbf5	-0.054134328
1	0xbce504f2	-0.02795646
2	0x3d239563	0.03993739
3	0xbe0bfe95	-0.13671334
4	0xbdc0ec02	-0.09420015
5	0xbd903c4b	-0.0704275
6	0xbdeb57b8	-0.114913404
7	0xbd28c66c	-0.041204855
8	0x3d7fcf05	0.06245329
9	0xbac38ffa	-0.0014920228
10	0xbd50e533	-0.05099983
11	0x3e0fb683	0.14034466
12	0xbd645e12	-0.055753775
13	0xbb12599e	-0.0022331248
14	0xbcfa87f5	-0.030582407
15	0x3d2ab0a2	0.041672356
16	0xbddd8da2	-0.1081803
17	0x3d544b80	0.051829815
18	0x3c3e886f	0.011629208
19	0x3d6918f8	0.056908578
20	0xbcb4f17c	-0.022087805
21	0x3de07d0b	0.1096135
22	0x3d01be34	0.031675532
23	0x3baf6240	0.0053522885
24	0xbdd739a0	-0.10509038
25	0xbd81b51a	-0.063333705
26	0xbcaa78bc	-0.020809524
27	0x3db9d144	0.090731174
28	0xbdbd271d	-0.09235976
29	0xbe093973	-0.13400821
30	0xbd2ef2da	-0.04271207
31	0xbd510bb7	-0.051036563
32	0xbdf04720	-0.11732316
33	0x3dd673d7	0.104713134
34	0xbc9818e8	-0.018566564
35	0x3e08ead4	0.1337083
36	0x3cf9894b	0.030460974
37	0xbd966f2a	-0.073454216
38	0xbdd4631d	-0.10370467
39	0xbc46a5fa	-0.012124533
40	0xbe0061ad	-0.1253726
41	0xbdc903cd	-0.09815178
42	0xbb30b8a8	-0.0026965532
43	0xbd0f7f33	-0.035033416
44	0x3c2cd909	0.010549792
45	0xbd98d925	-0.07463292
46	0x3dd2e57e	0.102976784
47	0x3d927875	0.071518816
48	0xbd0a2c44	-0.03373362
49	0x3d9e801f	0.07739281
50	0xbd77e782	-0.060523517
51	0x3e119c24	0.14219719
52	0xbc576357	-0.013146243
53	0x3d0e628b	0.034761947
54	0x3df82b9d	0.121176936
55	0xbbf4dd68	-0.0074726827
56	0xbdab2b6c	-0.083578914
57	0x3d996816	0.07490556
58	0xbcfad15b	-0.030617407
59	0xbcf2c621	-0.02963549
60	0x3d37a0ce	0.04483109
61	0xbe008be9	-0.12553371
62	0x3e0ca0c0	0.13733196
63	0x3dbac278	0.09119123
64	0x3d8d4fea	0.06900008
65	0x3b4cf53c	0.00312741
66	0xbd9259e8	-0.071460545
67	0x3d455ef9	0.048186276
68	0xbdf8b6b8	-0.12144226
69	0xbdb56da3	-0.08858802
70	0xbdfb4ad6	-0.12270133
71	0xbd8811c8	-0.066440165
72	0xbd32d31e	-0.04365837
73	0x3da1e0b3	0.07904186
74	0xbde3340a	-0.1109391
75	0x3df1fc28	0.11815673
76	0xbcf3ae15	-0.029746095
77	0x3d072975	0.03299852
78	0xbda07be0	-0.07836127
79	0x3d1dbc6e	0.03850978
80	0x3dc86ad2	0.09785999
81	0x3c1f9c33	0.009741831
82	0xbd69d7da	-0.057090618
83	0xbd6365fd	-0.055517185
84	0x3d841a08	0.064502776
85	0xbd2b2858	-0.04178652
86	0x3e0cb558	0.13741052
87	0xbd8b8916	-0.068132564
88	0x3ad10522	0.0015946964
89	0xbdfa9654	-0.12235704
90	0xb9deddd2	-0.0004250841
91	0xbe04c817	-0.12966953
92	0x3d15f869	0.036613856
93	0xbdc03309	-0.09384734
94	0x3c9fee57	0.019522829
95	0xbd9f82b8	-0.077886045
96	0x3dfd369b	0.12363931
97	0xbd3f7d8b	-0.046750586
98	0x3cc2b469	0.023767667
99	0xbd8c53ee	-0.06851946
100	0x3d9a47dd	0.07533238
101	0x3cc6bd57	0.024260206
102	0x3d0e1571	0.034688417
103	0x3b367aa2	0.002784409
104	0x3df46bbd	0.11934612
105	0x3ba3e96a	0.0050021904
106	0x3d1a6a23	0.037698876
107	0xbd2b5fec	-0.041839525
108	0xbdf940af	-0.121705405
109	0xbb26e7ef	-0.0025467833
110	0xbbe5420b	-0.0069963983
111	0xbd26e8bd	-0.0407493
112	0x3c253387	0.010083086
113	0x3e0cd1ae	0.13751861
114	0x3cd7854d	0.02630868
115	0xbd1eb8a6	-0.038750313
116	0x3d4e2e61	0.0503372
117	0x3daa3b69	0.08312113
118	0x3da85382	0.08219053
119	0xbe0a4c7e	-0.13505742
120	0x3e02dbf2	0.12779215
121	0xbddec4eb	-0.10877403
122	0x3d1aa371	0.037753526
123	0x3d0c2e04	0.03422357
124	0x3cc6a8b0	0.024250358
125	0x3d8bb613	0.06821837
126	0xbe062fb9	-0.13104142
127	0xbd42952a	-0.047505535
128	0xbd6fd7b9	-0.05855534
129	0xbdfe3b34	-0.12413636
130	0x3cd9a29d	0.026566798
131	0x3daa19cf	0.08305704
132	0x3d62b16b	0.05534498
133	0x3d30407c	0.043030247
134	0x3e0c9da9	0.13732018
135	0xbd6b19b6	-0.057397567
136	0x3dd43e72	0.10363473
137	0x3e019b99	0.12657012
138	0x3d6262d5	0.055270035
139	0x3ddf35a0	0.108989
140	0xbddf6c9d	-0.10909388
141	0x3dfd8b80	0.12380123
142	0x3c9fcdf0	0.019507378
143	0xbd8df58d	-0.06931601
144	0x39dc4d55	0.00042019287
145	0xbac7a5af	-0.0015231873
146	0xbdcd68d1	-0.10029758
147	0xbd9026c8	-0.07038647
148	0xbd099c54	-0.03359635
149	0x3de70e0b	0.11281975
150	0x3bb39b8f	0.0054811905
151	0x3e010b50	0.12601972
152	0x3df5f632	0.12009849
153	0x3dd829e0	0.10554862
154	0xbd05064d	-0.032476712
155	0xbd9c3f62	-0.07629277
156	0xbdeb00a6	-0.11474733
157	0xbd4cb64d	-0.049978543
158	0xbccf81ad	-0.025330389
159	0x3cedca95	0.029027263
160	0xbd91080d	-0.07081614
161	0xbd1aadd5	-0.037763435
162	0xbc2ed7b1	-0.010671542
163	0x3df885e5	0.12134913
164	0x3db2647c	0.08710572
165	0x3dedfd7b	0.11620613
166	0x3c8e2b13	0.017354524
167	0xbd10078c	-0.035163447
168	0xbddb2880	-0.10701084
169	0xbd0b1acb	-0.0339611
170	0x3c01f68e	0.007932318
171	0xbd9a45bd	-0.07532833
172	0xbdcd26b2	-0.10017146
173	0x3e06b2fc	0.13154215
174	0x3dda2412	0.10651411
175	0x3d76a216	0.06021317
176	0x3df38a06	0.1189156
177	0x3d394bb8	0.045238227
178	0x3ddb044e	0.106941804
179	0xbd5b2d57	-0.053510036
180	0xbd184dc5	-0.03718354
181	0xbd19f45e	-0.037586562
182	0xbd335688	-0.043783695
183	0x3d871319	0.065954395
184	0xbddf9faf	-0.10919129
185	0x3c8db61b	0.017298749
186	0xbd113065	-0.035446543
187	0xbe09abe9	-0.13444485
188	0xbdc12578	-0.09430975
189	0xbdaccdd3	-0.08437695
190	0xbd552af6	-0.052042924
191	0xbe0683bc	-0.1313619
192	0xbde3423d	-0.11096618
193	0x3c55d5b3	0.013051438
194	0x3e0bd6e2	0.1365619
195	0x3be4389b	0.0069647557
196	0x3dd235f9	0.10264201
197	0xbdfded9d	-0.12398837
198	0xbda80091	-0.08203233
199	0x3d7a0eb0	0.061049163
200	0x3e0467ee	0.12930271
201	0x3e0e0069	0.13867344
202	0x3c33324a	0.010937283
203	0x3d02bfd7	0.031921234
204	0x3dbf1197	0.09329527
205	0x3ceea057	0.02912919
206	0xbabc05e5	-0.0014345018
207	0xbd9a68dd	-0.07539532
208	0xbd9269d3	-0.071490906
209	0xbd101594	-0.03517683
210	0x3bf2fbec	0.0074152853
211	0x3da4693c	0.08027884
212	0xbc84206b	-0.01612874
213	0x3d272e0a	0.04081539
214	0xbcc48b54	-0.023992218
215	0x3db7ec5c	0.08980629
216	0xbd16f99d	-0.036859144
217	0x3a93ba36	0.0011270705
218	0xbdd478e5	-0.10374621
219	0xbde1483f	-0.11000108
220	0x3bfd7d33	0.007735872
221	0xbe0caf8d	-0.13738842
222	0x3df9c323	0.121954225
223	0x3db56e17	0.088588886
224	0xbd960a0d	-0.07326136
225	0xbcbec24b	-0.023286005
226	0xbc86c4ca	-0.016451258
227	0x3de71dd4	0.11284986
228	0xbda66448	-0.08124596
229	0x3e002f72	0.12518099
230	0xbc3f7e3b	-0.0116878105
231	0x3e0e544a	0.13899341
232	0xbd39d5f4	-0.045370057
233	0x3bc3bde7	0.005973566
234	0xbd978cc9	-0.073998995
235	0xbc95f579	-0.018305527
236	0x3d9c42c8	0.07629925
237	0xbc0e7554	-0.008694965
238	0xbc927b4f	-0.017881064
239	0xbdade37d	-0.084906556
240	0xbba52879	-0.005040225
241	0x3d06e151	0.032929722
242	0xbd6cc84a	-0.057808198
243	0x3e0a7764	0.13522106
244	0xbd816ea1	-0.06319929
245	0xbd1c8833	-0.038215827
246	0xbd084f4a	-0.03327874
247	0x3d4f2afe	0.05057811
248	0x3de37946	0.111071154
249	0x3d6af781	0.057364944
250	0x3e042e69	0.12908329
251	0x3d2c2fd1	0.04203779
252	0x3dd47883	0.10374548
253	0xbcb46550	-0.022020966
254	0x3d6b8753	0.057502102
255	0x3da71fbf	0.08160352

fc2.bias f4 [50]
0	0xbdd6a48a	-0.10480602
1	0x3c49ca0c	0.012316238
2	0xbcd49ca0	-0.02595359
3	0xbdd2bff0	-0.102905154
4	0x3da2270a	0.07917602
5	0x3df3c5ce	0.119029626
6	0xbe01caf7	-0.12675081
7	0x3cfe4333	0.031037902
8	0xbe0316c9	-0.1280166
9	0xbdbd81ab	-0.09253248
10	0x3d0d9cbc	0.0345733
11	0x3e07a7e8	0.13247645
12	0x3da115ec	0.078655094
13	0x3dbfe63e	0.09370087
14	0xbd02e6a4	-0.031958237
15	0xbcb688ec	-0.022282086
16	0x3d9ffb1c	0.07811567
17	0x3d792d60	0.06083429
18	0xbc2b6daa	-0.010463158
19	0x3d9776d2	0.0739571
20	0x3bb0c250	0.0053942576
21	0x3db3ada5	0.087733544
22	0x3dba258a	0.09089191
23	0x3da02203	0.07818987
24	0xbcff928f	-0.031197814
25	0xbe0c421f	-0.13697098
26	0xbe0276cb	-0.12740628
27	0xbcd19a04	-0.025586136
28	0x3d42c197	0.047547903
29	0xbd28ad39	-0.041180823
30	0xbe1147d7	-0.14187561
31	0xbc8c632e	-0.017137136
32	0xbcc26232	-0.023728464
33	0x3d76aa98	0.060221285
34	0xbd54464a	-0.051824845
35	0x3d9f4c5f	0.077782385
36	0xbd58b848	-0.05291012
37	0x3a2f372c	0.00066839415
38	0xbca810e6	-0.02051587
39	0x3dae3113	0.08505454
40	0xbca10e37	-0.019660098
41	0xbe0217da	-0.12704411
42	0x3dd54770	0.10414016
43	0xbdd5a242	-0.10431339
44	0xbce7883c	-0.028263204
45	0x3dbbe27a	0.09174056
46	0x3e0784e5	0.13234289
47	0xbd2a0b79	-0.041514847
48	0xbda91330	-0.08255613
49	0x3cd0b488	0.025476709

fc3.weight f4 [2, 50]
0	0x3e1118b2	0.14169577
1	0x3d856711	0.06513799
2	0x3e088b95	0.13334496
3	0xbdc50173	-0.09619417
4	0xbcae79c5	-0.021298299
5	0x3cdab0c6	0.02669562
6	0xbcd2e0ff	-0.025742052
7	0xbcb74517	-0.022371812
8	0x3dfe66d2	0.12421955
9	0x3d8ff33c	0.07028815
10	0x3ba32ba7	0.004979569
11	0xbcc924af	-0.024553625
12	0x3de19d4f	0.11016332
13	0xbdc357a5	-0.09538201
14	0x3d888015	0.06665055
15	0xbd3a1143	-0.04542662
16	0xbc982f78	-0.018577322
17	0x3d04e1a6	0.032441758
18	0xbcadb9da	-0.021206785
19	0xbd5ca3b2	-0.05386705
20	0xbdaf5a3a	-0.08562131
21	0x3df976bf	0.12180852
22	0x3deeda52	0.11662735
23	0x3de8910d	0.11355791
24	0xbbbf76ee	-0.005843035
25	0x3d579b18	0.052638143
26	0xbe06f540	-0.13179493
27	0xbe121e4f	-0.14269374
28	0xbc0b0b98	-0.008486651
29	0xbc4e2124	-0.0125811435
30	0xbcc2e9d7	-0.023793144
31	0xbd12df48	-0.03585747
32	0x3e03adba	0.1285924
33	0x3da5cfbe	0.08096264
34	0xbde2194c	-0.11039981
35	0xbbadb27d	-0.0053008185
36	0x3d0d79a1	0.034539822
37	0x3c12fa04	0.008970741
38	0x3dbd9f08	0.092588484
39	0x3d3b30ff	0.045701023
40	0xbdd66448	-0.10468346
41	0x3d85869f	0.065198176
42	0x3db1e4b4	0.086862
43	0x3cefab6c	0.029256545
44	0xbdebab0f	-0.11507236
45	0xbdf43862	-0.11924817
46	0x3cd0fa39	0.02550994
47	0xbd7f2cb8	-0.062298506
48	0xbe0ce023	-0.13757376
49	0xbdc3e6b9	-0.09565491
50	0xbdec153b	-0.11527487
51	0xbdb096f3	-0.08622541
52	0xbda4f4c8	-0.08054501
53	0xbdf70488	-0.12061411
54	0xbd08baa1	-0.03338111
55	0x3deea10a	0.116518095
56	0x3e071dce	0.13194963
57	0xbe02294f	-0.1271107
58	0x3de96363	0.1139591
59	0xbc468a9b	-0.012118007
60	0x3dc27e84	0.09496787
61	0x3de50649	0.111828394
62	0xbb85e600	-0.004086256
63	0xbe0aa6a7	-0.13540135
64	0x3d56ad79	0.05241153
65	0xbd9bcd7c	-0.076075524
66	0xbdad2b32	-0.084555045
67	0xbcaa78b5	-0.02080951
68	0x3d7eb3f5	0.06218334
69	0xbcbf0145	-0.023316035
70	0x3d5974a7	0.053089764
71	0xbcd34fbe	-0.02579486
72	0x3ddc98a6	0.10771303
73	0xbcefdc07	-0.029279722
74	0x3c8cc8b1	0.01718554
75	0xbd0adab2	-0.03389997
76	0x3d9e37e6	0.077255055
77	0x3d7776ae	0.060415916
78	0x3d34d82f	0.04415148
79	0x3d9a755b	0.07541915
80	0x3d88da18	0.06682223
81	0x3d082771	0.03324074
82	0x3d517aa6	0.051142357
83	0xbd7cd005	-0.06172182
84	0xbda606b4	-0.08106747
85	0x3d8bc70d	0.06825075
86	0x3d8266d1	0.06367267
87	0x3dbd8834	0.09254494
88	0xbae0ef04	-0.0017161076
89	0xbddda805	-0.10823063
90	0xbd5c3170	-0.053758085
91	0xbdd3c5e6	-0.103404805
92	0xbe026414	-0.1273349
93	0xbdee81f2	-0.11645879
94	0xbda9f630	-0.0829891
95	0x3c50e0fc	0.012748953
96	0xbd202899	-0.039101217
97	0x3d6a0526	0.057133816
98	0x3da890b4	0.08230725
99	0xbce909fe	-0.028447147

fc3.bias f4 [2]
0	0xbcd17fb2	-0.025573585
1	0xbc4a25f7	-0.012338153
