TorchModels/RLtrader2.pt (torch, 22871 bytes, 6 tensors)

fc1.weight f4 [50, 50]
00000000: ddec edbd 8a65 2dbd 98ef 67bd ebc6 7f3c
00000010: 21af 90bc 3bc3 b4bd fe85 0cbe 6950 fa3d
00000020: 95de ebbd dac4 d3bd 6082 6b3b d203 8abd
00000030: 04a9 81bd e0f6 02bd e479 05be 40ee 80bd
00000040: 4b64 4dbc c825 d13d 08a3 453d a99c 0ebe
00000050: 83a5 a2bd 1717 743d c9ee ed3d e1ea d7bd
00000060: ee2f a0bc f72f da3d 87c1 0abe 1593 47bd
00000070: 23e0 18bd 47d0 93bd 0473 b2bc abb9 9a3d
00000080: 621d cd3d 81f6 53bd f2ea 60bd c21a d93d
00000090: 0c92 a8bd 82a6 71bd 2a79 04be 997e ccbd
000000a0: 8132 a43d abbb 1dbd ea00 ccbd 56be 5abd
000000b0: 12d3 2bbd 513d 7ebd 1e64 6abd 0d44 c5bd
000000c0: 9241 5f3d 4124 ccbc a165 7abd 5d75 083e
000000d0: 5721 5c3d 11fd aa3d 84f6 de3d 2296 03be
000000e0: 7c4f bebd 3828 9fbd ab1e 80bd 305a 083e
000000f0: 299d 8f3d 1577 a13c 8890 48bc 294a e83d
00000100: a953 d23d 2eee 013d 1cd6 cfbb c0f8 05be
00000110: ebbe bb3d d288 123d 8cfc 283d 2e45 93bd
00000120: ef63 083c 2545 eabd b6af 0cbe 1569 83bd
00000130: f211 cebd cf36 78bd aa72 ccbd 65fa 62bd
00000140: efa4 78bd e9f0 ca3d e689 4bbd 8f3d 52bd
00000150: 684f 063e bc48 ef3d e0a9 4f3d af41 a23d
00000160: d953 b0bd 4d06 fd3d 9745 0ebe 084e e73d
00000170: aeec 793d c2e3 943d 08a2 d7bd 274d 2c3c
00000180: 8116 9abd d3e3 0c3e a6bc e4bd 8875 0abe
00000190: f65e fbbd fa7b debc 1e0d 123b 6166 ccbc
000001a0: 0c73 29bd ab4b 023d 260b 88bd c749 a03b
000001b0: a073 90bb bd33 ccbb aa73 cebc 3c09 22bd
000001c0: e636 b13d 646a 813d 7f94 fd3d bbca 993d
000001d0: 2cb9 4a3d 4386 ce3d bb15 eeba f6f4 163d
000001e0: 8776 0a3e e39a f9bd eb50 153c 6aa2 9c3b
000001f0: c782 a13c fd68 963d 50f0 723d 2f69 cbbd
00000200: 53ec 843d 1daf 903c f0a0 9abc 8432 023e
00000210: e785 d43d a184 b13d 3d2a eb3d c62f bebd
00000220: a123 b03d d59d e53d 0d7d 47bb b5fa de3d
00000230: e107 89bd 5ab8 783d 7750 a5bd b5b0 b2bd
00000240: 7df4 903d aaa2 133b efbd 6dbc 374a 863d
00000250: c209 533d da61 8e3d 9b83 ea3c 4eb6 f53d
00000260: d8a6 9dbd 4a6f eebd 705e f73d 355c 623d
00000270: 6c1b a33c 2d8d b8bd bbac 4fbb 2210 3fbd
00000280: db11 f53d 687f a33d 4a44 f03d 2143 533b
00000290: 97b4 f4bd a4c7 263d 5c94 42bb e898 e43d
000002a0: b3d7 eebd 381c 87bd 16e5 a3bd 3ead f03d
000002b0: d427 8e3d b911 c23d ffda 64bc 4287 e9bd
000002c0: 90c9 ac3d ef52 ed3d 570c cc3d 776c 053e
000002d0: 60a2 a8bd b20c cb3d 5618 823d e8f1 073d
000002e0: bec8 943d 6f71 ca3d c5da 0ebd 10ad c43d
000002f0: 28c9 49bd a97b e0bc 5347 9d3d 8508 06be
00000300: 780b bbbc 5b61 063e fd0f c23d 034f 7ebd
00000310: 7ee2 f2ba aeb5 553c f707 2abc c182 153d
00000320: b3c3 ed3d ba1e 8abd 709a 803b 3525 f6bd
00000330: 174c a63d 71c9 a3bd d4da 0d3e 780d a9bd
00000340: 5a7f 53bc 57f3 f9bb 54ce 42bc 9090 ac3c
00000350: 6063 01be 27d2 e4bb 8b3d c63c 957d 01be
00000360: 8ae1 e63c f8f0 f33d a3b2 f23c f0b9 35ba
00000370: d862 7f3d a76b f63d baa8 3e3b 5c12 413b
00000380: f00a 4dbd 0aeb eabd d977 0abe b203 27bd
00000390: ec0c 02be ed30 6b3d 6fa8 57bd c8a2 8dbd
000003a0: c6f7 76bd 35c5 74bb 4c8a abbd 5da7 9d3d
000003b0: 2c1c 7bbb c8aa 353c 23a5 c23d 2d16 02be
000003c0: e8fd c6bd b8e2 a23c f92d 193c bd5c cebc
000003d0: 8777 e0bd a534 e0bd 501b eebd 8708 5abd
000003e0: 9f05 e93d 620e cf3d 1d6b c8bd 7396 0d3e
000003f0: 2e7a c23d 37fe d4bd 6204 033e dece a73d
-0.11617444 -0.042333163 -0.05662498 0.015611391 -0.017661633 -0.088263 -0.13722989 0.12222368
-0.115170635 -0.10340281 0.0035935864 -0.0673901 -0.06331065 -0.03197372 -0.13034779 -0.062954426
-0.012536119 0.10212284 0.04825118 -0.13926949 -0.07941725 0.059592333 0.1161781 -0.105428465
-0.019554105 0.1065368 -0.13550387 -0.048724253 -0.03732313 -0.0721746 -0.02178336 0.075549446
0.1001537 -0.051748756 -0.05491156 0.10600807 -0.08230981 -0.058996685 -0.12936845 -0.09985084
0.08017445 -0.038509052 -0.09961112 -0.053404175 -0.04194934 -0.062070195 -0.057224385 -0.0963212
0.054505892 -0.024919631 -0.061132077 0.1332602 0.053742733 0.0834905 0.10886863 -0.1285024
-0.09292504 -0.07771343 -0.062558495 0.13315654 0.07012398 0.019710103 -0.01224149 0.1134227
0.10269863 0.031721286 -0.0063426625 -0.13083172 0.09167274 0.035775013 0.041256472 -0.07190929
0.008324607 -0.114389695 -0.13738903 -0.06416527 -0.100620165 -0.060599145 -0.09982808 -0.055414576
-0.060704168 0.09909231 -0.049692057 -0.051328238 0.13116229 0.11683795 0.050699115 0.079226844
-0.08609743 0.123547174 -0.13893734 0.1129418 0.06101673 0.07270004 -0.10528952 0.010516441
-0.075238235 0.13758783 -0.11168794 -0.13521397 -0.12273972 -0.027158726 0.002228565 -0.024951162
-0.041369483 0.031810444 -0.066427514 0.0048916074 -0.004408315 -0.0062317536 -0.025201637 -0.039559588
0.08653049 0.063191205 0.12381839 0.07509371 0.049493 0.10084202 -0.0018164435 0.036854707
0.13521777 -0.121877454 0.009113531 0.0047801035 0.01971568 0.07344244 0.05931121 -0.099321716
0.06490388 0.017661626 -0.01887557 0.12714583 0.10377102 0.08667875 0.11482666 -0.09286456
0.08600546 0.11211745 -0.0030439526 0.10887662 -0.06690956 0.060722686 -0.08071988 -0.087251104
0.070778824 0.0022527375 -0.014510616 0.06557124 0.051522978 0.069522575 0.028627208 0.119976625
-0.076978385 -0.116423205 0.120785594 0.055263717 0.019910537 -0.09011302 -0.0031688649 -0.046646245
0.11966296 0.07983285 0.11731775 0.0032236057 -0.11948507 0.040717736 -0.002969048 0.11161977
-0.11662235 -0.06597179 -0.08002679 0.11751793 0.0694119 0.094760366 -0.013968228 -0.114027515
0.084368825 0.11588084 0.09963291 0.13029657 -0.082340956 0.09914531 0.06352298 0.033189684
0.07264851 0.09884917 -0.034876604 0.096033216 -0.049264103 -0.027402716 0.0767962 -0.13089187
-0.022832617 0.13123076 0.09475706 -0.06208707 -0.0018530635 0.013043804 -0.0103778755 0.03650165
0.11609592 -0.06744142 0.0039246604 -0.120188154 0.08119982 -0.07997406 0.13853008 -0.08254522
-0.012908781 -0.0076278853 -0.011890013 0.021065027 -0.12635565 -0.00698306 0.024199268 -0.12645562
0.028183717 0.119111955 0.029626196 -0.0006932309 0.062350124 0.12032252 0.0029092268 0.0029460406
-0.05005926 -0.114706114 -0.13522281 -0.04077501 -0.12700242 0.057419706 -0.052650865 -0.06915814
-0.06029489 -0.003734899 -0.083759874 0.07697938 -0.0038316352 0.011088081 0.095041536 -0.12703772
-0.097163975 0.019883499 0.00934934 -0.025190705 -0.10960298 -0.10947541 -0.11626303 -0.05323079
0.11378025 0.10110165 -0.09786055 0.13826923 0.0949596 -0.1040005 0.1279464 0.08193754

fc1.bias f4 [50]
00000000: da56 ce3c 8b35 c8bd a280 813c 99e0 cf3d
00000010: aeb4 d9bc fe6b d9bd d3ef 003d a9ea f4bc
00000020: 2a45 bdbd aabb debd c19d 09be 2208 90bd
00000030: 402e b2bd a0e3 06be 1de7 8d3d b4f7 09be
00000040: 94ac b5bc dbe2 0e3d 4797 0dbd 8991 b43c
00000050: 3bb6 e03d 7ad8 b3bc 2fb8 df3d 2e3f 923d
00000060: 006e 483d 541e 063e 82be 49bd c995 b0bd
00000070: 3d19 093e 6564 01bd 8378 163d 8848 e23d
00000080: 7cd7 0b3e 24b8 4abd 1d06 f839 d447 f4bc
00000090: f8b0 9e3d 8326 cdbd 1e54 88bd 28b9 d33c
000000a0: 80d7 f53d e951 2dbd 6147 c3bd 0393 da3c
000000b0: 031d ca3d 999b 9b3d 63d9 cebc 6906 2c3d
000000c0: dedc 47bd 1712 f3bd
0.025187898 -0.097758375 0.015808407 0.101502605 -0.026575413 -0.10616301 0.031478714 -0.029897051
-0.092417076 -0.10875638 -0.13439085 -0.07032801 -0.08700228 -0.1317277 0.06928847 -0.13473397
-0.022177018 0.034884315 -0.034568097 0.022042053 0.10972258 -0.02195381 0.10923802 0.07140957
0.04893303 0.13097507 -0.049253948 -0.08622319 0.13388534 -0.031589884 0.036736023 0.110489905
0.1365642 -0.049492016 0.000473068 -0.029819407 0.07748598 -0.10017111 -0.06656669 0.025845125
0.12003994 -0.042314444 -0.09535099 0.026681429 0.09868815 0.07598037 -0.025250142 0.0419983
-0.04879462 -0.11868685

fc2.weight f4 [50, 50]
00000000: a6b1 ab3d ab4e a8bd 02a4 c33c 3888 09be
00000010: f53d ad3c b706 1e3d 4eba a83c 25f4 d63c
00000020: 87cc 21bd ccbc 0c3d 6750 e53d 8ece 00be
00000030: 786d d93c 357f e2bc 0035 5f3c 1836 b0bd
00000040: e8d4 f5bd c0bc b13d 483f 3b3c 0025 b73d
00000050: afa6 523d 003a 773d c29c 4bbd 998c a43c
00000060: 9655 09bd 422f 3bbd c9c6 37bd feae 02be
00000070: 016c 89bc 8c77 753d d1d3 153c 928a 23bd
00000080: 1179 86bd 8aac 773c 8c68 d2bd 10f6 043e
00000090: 1617 07be 5cd7 e93d 61d3 4cbc f291 c3bd
000000a0: 4f1c ec3d 44e1 7cbd 0f1e a63d cf98 02be
000000b0: e071 d23d 9c79 e53d 8a92 e3bc c335 7d3c
000000c0: 6005 813b 2e4b 0e3e 8cd2 c1bd b041 db3d
000000d0: d13b d53d b6db e03d 14d0 1d3d b2d7 063e
000000e0: d8a8 a9bd d482 9abd 2977 24bd 5bac 0d3e
000000f0: de30 8d3c 714d 743d 19dc 923d ed59 06be
00000100: 1df8 97bd 21d8 b23d 0839 df3d ae0e 0bbe
00000110: 9f91 563d 4887 9d3b a0e0 0a35 aa64 903d
00000120: f266 0fbe 76bc 87bd fe91 a43d 8ac5 743c
00000130: 7421 2fbc 812d e43d de94 403d 4923 323d
00000140: 44c2 03bd ad0d 08be 5ef0 a9bc 3f49 5bbd
00000150: 262d aabd 721e d7ba ac2d b33d c422 03be
00000160: 12f9 1a3c 5ede da3d b724 f63d 3c33 fd3b
00000170: 7f9e 1f3d 8a88 80bd 19e7 d93c 3c44 19bb
00000180: c0a2 f33d 4e65 8cba f9a5 563a dceb 983d
00000190: 0599 ddbc d9ac dbbd 8645 2d3a fcd1 b03a
000001a0: cb07 e8bd 94a9 b93d f309 2fbd 713f fabc
000001b0: 1f4c 133d 007a abbd cb93 543b 662b 993d
000001c0: e638 0dbe 84c9 07bd 9f45 00bc 67a1 053e
000001d0: 2c97 953c 0fc1 e03c b8bb 003e a85f 18bc
000001e0: d060 983c 91df d9bc 1554 c13d 4633 90bd
000001f0: bfbc 033e 84c3 0e3e f459 023e 5a50 003d
00000200: 77e8 04bd 8642 df3d 2dec 4fbd 8ac0 1c3c
00000210: fa08 4c3d 88fb c5bd 537e db3c 939d b13d
00000220: feb6 e2bd e0b7 e6bb 1a18 d9bd fb4b df3d
00000230: f45d 613d 4892 98bd 33d1 67bd 6cb4 a53d
00000240: 3227 e03c b01f 053e ee8c ec3d 08d5 053e
00000250: 7229 f13a bda9 81bb 53db 49bd c98b 8dbb
00000260: 9a08 00be 17c2 ecbc 8729 f4bd a4e3 ed3c
00000270: de78 c1bd 9d44 e7bd ff69 79bd bacb edbd
00000280: fe59 06be 7183 10bd 2035 a73c 3b48 32bd
00000290: 6736 dabd a266 703d 117f d73d 10b1 343c
000002a0: 8b13 333d 3008 843d c910 56bd 53a9 5dbd
000002b0: 7412 3cbd 0c81 693d f792 73bd 7d48 b1bb
000002c0: 9554 aabc d341 babd 0e66 693d 1d07 e13d
000002d0: 788e 4ebd 6142 033e 4b59 04bd 6fa8 8b3d
000002e0: 3691 493c 9b56 f1bb ee21 473d 2ecc c23d
000002f0: b6b1 5cbd 2929 12be eb5f 0ebe 32ff acbd
00000300: a10e b2bd 8677 9bbd 57b1 d4bc e668 e13d
00000310: 5b55 023e 4275 a3bd cdfa cb3d d891 123e
00000320: be20 453d 64ce c53c 5a09 953d d5ff 84bd
00000330: 994b a6bd 9b3d 283d cb3f a3bd 4521 163d
00000340: b767 efba 0dc9 97bd d55d 283d 05c8 0a3e
00000350: 8852 4d3d 97b7 4a3d 63f2 103c 022b 2dbd
00000360: cf39 d9bd 4e72 fabd d756 ad3c e6ea 483d
00000370: f7ad b1bd 5f78 063e e97f ad3b 8726 0d3d
00000380: 0005 f9bc b5ee e9bd 233c e1bd aa33 a3bd
00000390: 853c 6d3c e699 ff3d 10fc b43c 3795 8ebd
000003a0: 002e 023e 2e3d c83d 2d07 ac3d 6e83 be3d
000003b0: bd17 0d3e d52f fd3a ab72 9bbc 741a ef3d
000003c0: 3ddb e4bd 1293 b3bd d4d2 abbd 8725 89bd
000003d0: 43d5 de3d e17d 083e 6c70 08be 6bb3 4ebd
000003e0: 3adc 0a3e 4460 a23d dfe9 cd3c d57b 97bd
000003f0: 691f 0b3e 87bd e5bd dc88 70bd 7e76 41bb
0.08383493 -0.0821813 0.023881916 -0.1343087 0.021147707 0.038580623 0.02059665 0.026239464
-0.039501693 0.03435974 0.11196976 -0.12578794 0.026541457 -0.027648548 0.013623476 -0.086040676
-0.12003499 0.08678579 0.011428662 0.08942604 0.051428493 0.060358047 -0.049710043 0.020086573
-0.033528887 -0.045699365 -0.04486731 -0.12762067 -0.016775133 0.059928462 0.009144739 -0.039927073
-0.0656606 0.01511682 -0.10273847 0.1298449 -0.131924 0.1141803 -0.0125015685 -0.09549321
0.11528837 -0.061738268 0.08111202 -0.12753604 0.10275626 0.11204836 -0.027779836 0.015454712
0.0039374083 0.13895866 -0.09463987 0.10705888 0.104118 0.109794065 0.038528517 0.13168219
-0.082841575 -0.07544485 -0.040152702 0.1383528 0.017235216 0.059644166 0.071708865 -0.13120241
-0.07420371 0.087326296 0.1089955 -0.13579819 0.05238497 0.0048073865 5.173588e-07 0.0705045
-0.14004114 -0.06627743 0.08035658 0.014939675 -0.010689128 0.11141492 0.04701697 0.04349068
-0.032167688 -0.13286467 -0.020744499 -0.05353665 -0.08309393 -0.0016412272 0.087489456 -0.12806231
0.009458797 0.106869444 0.120187216 0.007727055 0.038969513 -0.06276043 0.026599454 -0.0023386618
0.118962765 -0.0010711343 0.0008188184 0.074668616 -0.027050504 -0.107263274 0.0006609786 0.0013490315
-0.113296114 0.090655476 -0.042734098 -0.03054783 0.035961267 -0.08372879 0.0032436724 0.07478981
-0.13791236 -0.033151165 -0.007829099 0.13049851 0.01826056 0.027435808 0.12571609 -0.00930015
0.018600851 -0.026595863 0.094398655 -0.0704103 0.1286497 0.13941771 0.12729627 0.03132663
-0.03244826 0.1090136 -0.050762344 0.009567389 0.04981325 -0.096671164 0.026793635 0.08672633
-0.11070059 -0.0070409626 -0.106003 0.10903164 0.05502124 -0.07449776 -0.056595992 0.08091053
0.02736244 0.13000369 0.11550318 0.13069546 0.0018399192 -0.003957002 -0.04928143 -0.004319642
-0.12503281 -0.028901143 -0.11921983 0.029039212 -0.09446882 -0.11292384 -0.0608921 -0.116111234
-0.13120267 -0.035281602 0.020411074 -0.043525916 -0.10654908 0.05869163 0.10522283 0.011028543
0.04371981 0.06446874 -0.0522621 -0.05411656 -0.045916036 0.057007834 -0.05946633 -0.0054102526
-0.020792285 -0.09094586 0.056982093 0.10987685 -0.050428838 0.1281829 -0.03231172 0.068192355
0.012302687 -0.0073650605 0.048616342 0.095116004 -0.053880416 -0.14273514 -0.13903777 -0.08447112
-0.086941965 -0.07591157 -0.025963468 0.11006336 0.12727873 -0.079813495 0.09959946 0.14313447
0.04812693 0.024146266 0.07277174 -0.064941086 -0.08119888 0.041074377 -0.07971152 0.036652822
-0.0018265162 -0.07411394 0.04110511 0.13552864 0.050127536 0.04949149 0.008846852 -0.042277344
-0.10606729 -0.12228833 0.021159573 0.04905214 -0.08675759 0.13131855 0.005294789 0.03446057
-0.030397892 -0.11422483 -0.10997798 -0.079688385 0.014479761 0.12480526 0.022092849 -0.06962054
0.1271286 0.09777294 0.08399806 0.09302412 0.13778587 0.0019316623 -0.018975576 0.116749674
-0.11174629 -0.08768286 -0.08389822 -0.06696611 0.1088052 0.13329269 -0.13324136 -0.050464075
0.13560572 0.079285175 0.025135932 -0.07396666 0.13586201 -0.1121779 -0.05872427 -0.002952009

fc2.bias f4 [50]
00000000: 3db9 55bd 0bf3 1b3d 5977 acbd 0c59 f03d
00000010: 276e 49bd f31d d9bd 805a f4bd 98ab 053d
00000020: f192 debd eedf e73c 2d78 ae3d 1661 50bd
00000030: 0a0d edbb 6f02 ba3d 8b2a d83c 7070 9a3c
00000040: 2748 8b3d 6a34 0abe 6167 073e 67c8 b8bc
00000050: 0ad7 213d 2447 4a3c ce06 fa3c a3e1 833d
00000060: 3cb3 91bd 88ae 2f3d 1ba6 dd3c 0c3c 99bd
00000070: 0cf6 38bd cc10 cc3c 3f0b 073e cc56 df3d
00000080: c5cd c93d 0da7 4c3c b276 193d f63d bfbd
00000090: a282 86bd 70d9 a73b 5b61 1a3d 3302 d33d
000000a0: e974 813b 4969 ff3c 4eca 90bd e25a c9bc
000000b0: 1550 843d 748b 01be 7a9a 43bd 2da4 793a
000000c0: 4372 ce3c 400e 7dbd
-0.05217861 0.03807358 -0.08421201 0.11735734 -0.049177315 -0.106014155 -0.11931324 0.032634348
-0.108678706 0.02830502 0.085190155 -0.05087384 -0.0072342204 0.090824954 0.026387474 0.018852443
0.06800871 -0.13496557 0.1322303 -0.022556497 0.039511718 0.012346063 0.030520823 0.06439521
-0.07114264 0.042891055 0.027056744 -0.07482156 -0.045156524 0.024910353 0.13187884 0.10905227
0.098537005 0.012491 0.037466712 -0.0933799 -0.06567885 0.005122356 0.0376905 0.10303154
0.0039507044 0.031178134 -0.070698366 -0.02457947 0.06460587 -0.12650853 -0.047754742 0.000952306
0.025200969 -0.061781168

fc3.weight f4 [2, 50]
00000000: 1ff6 bebd a222 9bbc 2429 1abd cf74 a1bd
00000010: 9f42 f1bd 7d9c 2f3d d22f a6bc 71f3 a7bd
00000020: 3986 b93d fefe 4cbd bb9d 8ebc a67d 0fbc
00000030: 8c60 0b3d 5709 233d 67e4 0c3d 1b1d aebd
00000040: f60c 5dbd 4b39 8f3d 9c2c fe3d 6ca9 7b3b
00000050: 7526 b83d 32d7 d8bd b22f 3cbd fee3 ba3b
00000060: 302f b2bd 0831 d2bd b7f1 03bd 207d 9cbd
00000070: b995 313c 9f24 5a3c 70ea dbbb e32c bc3d
00000080: 3163 8ebd 3dd8 23bd 8f1d 9fbc 9580 853d
00000090: 5f0d fbbd a908 113e a3b4 ebbd 61b5 f23d
000000a0: c65f 31bd 3efa e8bd f77b 02be 48aa 823d
000000b0: 38c5 f73d 142f d53d 7963 053e 0924 1dbd
000000c0: 1488 373d 7c9f 07be fe46 0e3d bef8 a33d
000000d0: 566b db3d 46db 04be 7abb 04bd ee66 fdbc
000000e0: a895 973a 532b 683d ed80 e9bd 1771 e1bc
000000f0: 90e6 f63d 5e66 ee3d 676d f13c 7c5e 0abd
00000100: 8265 a63b a2f9 2b3c c814 783d 90e2 903d
00000110: 769e bf3d f66d 443d 8706 223c f4fb 2fbd
00000120: 9c71 9f3d 1054 8f3d a30d 9b3d bbee 0dbd
00000130: f5e7 83bd 1dbc a93d c127 003e 5282 863d
00000140: f656 a8bd 91a1 353d ddf7 9b3d d270 083e
00000150: 1320 d1bd 93fe cebd 13b4 233c dc96 aa3d
00000160: 28f3 7e3b 6631 e43d daeb bcbd 91ae f53d
00000170: 39c4 913d dbdf cc3c 0641 6dbc 7c71 d93d
00000180: d429 d83d 2a1e d83d db58 a0bb 7727 9a3d
-0.093242876 -0.018937413 -0.03763689 -0.078836076 -0.11780285 0.04287385 -0.020286474 -0.0820073
0.09058804 -0.050047867 -0.017409196 -0.008757984 0.03402762 0.03980383 0.03439751 -0.08501645
-0.05396744 0.0699335 0.12410852 0.0038400544 0.0899171 -0.1058792 -0.045943923 0.0057034483
-0.087004066 -0.10263258 -0.03221294 -0.07641053 0.010838919 0.013314395 -0.0067112967 0.09188249
-0.06952513 -0.040001143 -0.019423274 0.06518666 -0.1225841 0.1416346 -0.11509063 0.118510015
-0.043304227 -0.11375855 -0.12742601 0.06380135 0.12098163 0.1040937 0.13026227 -0.038364444
0.04480751 -0.13244432 0.034735672 0.08006428 0.10713832 -0.12974271 -0.032405354 -0.03093287
0.0011564987 0.056681942 -0.11401544 -0.027519746 0.12055695 0.11640619 0.029471112 -0.033781514
0.0050780186 0.010496529 0.060566694 0.07074463 0.09356396 0.04795643 0.009889252 -0.04296489
0.07785341 0.069984555 0.075709604 -0.0346515 -0.06440727 0.08287833 0.12515165 0.065678254
-0.082197115 0.044343535 0.076156355 0.13324288 -0.10211196 -0.1010715 0.0099916635 0.083295554
0.0038902257 0.111422345 -0.092246726 0.119961865 0.071175046 0.025009086 -0.014480835 0.106173486
0.10554853 0.10552628 -0.004893405 0.075270586

fc3.bias f4 [2]
00000000: 6140 013e aa69 b33d
0.12622215 0.08760388
