TorchModels/RLtrader8.pt (torch, 22871 bytes, 6 tensors)

fc1.weight f4 [50, 50]
0.053002138 -0.04534898 0.12753034 0.025159966 0.1373491 -0.0078086667 -0.04787761 0.13355917
-0.104802966 -0.10371377 -0.13609864 -0.0365151 -0.12124076 -0.008951806 0.042408682 -0.006724659
-0.08790236 -0.0015942204 0.07946116 -0.09305964 0.0030197457 -0.105137795 -0.009530255 -0.11097817
-0.05625265 0.048586383 0.015652882 -0.0010182542 -0.003653548 0.023564609 -0.0140405325 0.062423974
0.09533321 0.029743873 -0.098343596 -0.131393 -0.12473758 -0.036149494 -0.10838982 0.006584677
-0.03763924 0.08191269 -0.13614264 -0.11666458 -0.07275533 0.070966005 -0.08538083 0.11016279
-0.100601576 -0.13274504 0.019598728 0.015632354 0.07979855 -0.12935047 -0.091163285 0.108588524
-0.13157205 -0.11520707 0.055142205 -0.045672752 -0.04264066 0.13301593 -0.023564124 0.09151184
0.033722818 -0.10477308 -0.034191698 0.02413865 -0.02754357 -0.12555897 -0.117656745 -0.044710163
0.043856207 -0.005129409 0.11970686 -0.051727388 -0.100522764 0.10576576 -0.06727698 -0.10746768
-0.07534728 -0.039286565 -0.068766624 -0.079649456 -0.09833849 -0.025835872 0.12553105 -0.11821025
0.06944062 0.1265338 0.032168455 -0.03662893 -0.026327597 0.10312861 -0.14018224 0.11330673
-0.1349473 -0.07380379 0.1100838 0.036339514 0.051646933 -0.07440064 -0.024176659 -0.07081103
0.017392125 -0.040699225 0.14040725 -0.065145 -0.015408767 -0.060799688 0.042569418 -0.033887204
-0.06947215 -0.1262793 -0.050141197 -0.09601074 -0.09712988 -0.11725584 0.025926463 -0.08243658
-0.00791456 -0.1322644 0.07549995 0.01840974 -0.09622945 0.032878503 0.014058121 0.12517257
0.04428596 0.047269676 -0.0051614307 0.059638355 -0.10556348 -0.12622598 0.07342485 -0.0123504205
0.13238148 -0.09683008 0.10239937 0.08344179 0.13728383 -0.04304943 -0.103424564 -0.12078826
0.009250931 0.13420267 0.0034959204 0.019419132 0.08555702 0.09714712 -0.050929684 0.131035
0.019424237 -0.062811024 0.012894899 0.014189187 -0.1356064 -0.044848405 0.053677183 -0.0009821305
0.0061222343 -0.036598988 -0.10335241 0.13637073 0.13814485 0.018856421 0.08379991 0.09725515
0.098645456 0.0041385842 0.0031292958 -0.0803211 0.00343099 -0.0068894634 -0.1281999 0.13550182
0.00023943663 0.14055407 0.123003066 0.12859026 0.11823394 0.09990597 0.00079132925 -0.07294698
0.1391226 -0.13292977 -0.002269738 -0.08336549 0.1297742 -0.052636888 -0.062115725 -0.007192217
0.06602907 -0.04541567 -0.13379076 0.09632031 0.039123904 0.01611762 0.12558462 0.12828729
0.059730142 0.1279406 0.04331137 0.06180323 0.031205097 0.007870981 0.05279251 -0.1053339
0.008392312 -0.13282228 -0.109216675 -0.05457391 -0.0187253 -0.08313866 0.06952078 0.0638103
-0.094906874 0.0912727 -0.013498132 -0.1180814 -0.048692558 -0.045129128 0.075278334 0.13263579
0.10749222 0.048065253 0.034924246 -0.06390648 -0.1421547 -0.104573384 0.038965832 0.10151767
-0.12870583 0.042358194 0.094094805 -0.06356613 -0.066289596 -0.013719209 0.054756425 -0.090167016
0.07356316 0.08756247 -0.13148646 0.13860464 0.049960487 0.020561535 0.106436715 -0.033675425
0.010199695 0.10044417 0.023589585 0.1063238 -0.054277346 0.12991148 0.01635725 -0.040540192
00000000: c518 593d dabf 39bd 5097 023e 461c ce3c
00000010: 3ea5 0c3e d8df ffbb 501b 44bd bcc3 083e
00000020: f0a2 d6bd e367 d4bd 715d 0bbe dc90 15bd
00000030: 134d f8bd 99aa 12bc bab4 2d3d 875a dcbb
00000040: 2706 b4bd 29f5 d0ba 88bc a23d 0d96 bebd
00000050: ede6 453b 7c52 d7bd c924 1cbc 8648 e3bd
00000060: 2e69 66bd 8402 473d 793a 803c f176 85ba
00000070: 5d70 6fbb 910a c13c 430a 66bc 48b0 7f3d
00000080: 0f3e c33d 6ca9 f33c 5e68 c9bd e38b 06be
00000090: 6b76 ffbd 7e11 14bd 7bfb ddbd 46c4 d73b
000000a0: 9b2b 1abd d7c1 a73d fa68 0bbe d7ed eebd
000000b0: bf00 95bd a056 913d 25dc aebd 079d e13d
000000c0: 3308 cebd 51ee 07be 838d a03c 6c0f 803c
000000d0: 6c6d a33d 7374 04be d1b3 babd a963 de3d
000000e0: d3ba 06be aff1 ebbd cbdc 613d 5a13 3bbd
000000f0: f9a7 2ebd 5435 083e 8d09 c1bc 8f6a bb3d
00000100: f020 0a3d 4593 d6bd 980c 0cbd 6bbe c53c
00000110: 0ea3 e1bc 8892 00be 05f6 f0bd 0122 37bd
00000120: 91a2 333d 9a14 a8bb df28 f53d 19e0 53bd
00000130: e1de cdbd b89b d83d 83c8 89bd 0418 dcbd
00000140: ad4f 9abd f3ea 20bd 84d5 8cbd 411f a3bd
00000150: b165 c9bd c0a5 d3bc 368b 003e 3718 f2bd
00000160: e236 8e3d 1492 013e 12c3 033d 3808 16bd
00000170: f9ac d7bc 1835 d33d ef8b 0fbe 5c0d e83d
00000180: a02f 0abe 7126 97bd 9e73 e13d bed8 143d
00000190: bc8b 533d 5d5f 98bd 210e c6bc 6005 91bd
000001a0: ee79 8e3c 3bb4 26bd ebc6 0f3e be6a 85bd
000001b0: 0e75 7cbc 1809 79bd 455d 2e3d 4fcd 0abd
000001c0: 6a47 8ebd 5c4f 01be db60 4dbd 47a1 c4bd
000001d0: 08ec c6bd d423 f0bd bc63 d43c 82d4 a8bd
000001e0: 12ac 01bc 5270 07be b89f 9a3d 06d0 963c
000001f0: f213 c5bd 9cab 063d 0854 663c 3d2d 003e
00000200: 3265 353d d99d 413d 3821 a9bb 5947 743d
00000210: aa31 d8bd 6241 01be c55f 963d 6b59 4abc
00000220: 038f 073e d94e c6bd c3b6 d13d 87e3 aa3d
00000230: 2294 0c3e 9954 30bd 42d0 d3bd d65f f7bd
00000240: 3891 173c 6d6c 093e d01b 653b df14 9f3c
00000250: 8538 af3d 12f5 c63d a59b 50bd 0a2e 063e
00000260: 941f 9f3c 11a3 80bd 2045 533c c479 683c
00000270: 67dc 0abe f6b2 37bd 9bdc 5b3d d5ba 80ba
00000280: 069d c83b d2e8 15bd 6eaa d3bd c5a4 0b3e
00000290: d875 0d3e c878 9a3c 4a9f ab3d b52d c73d
000002a0: a106 ca3d f69c 873b df14 4d3b 647f a4bd
000002b0: 76da 603b 02c1 e1bb d646 03be fdc0 0a3e
000002c0: 4811 7b39 68ed 0f3e 08e9 fb3d 2aad 033e
000002d0: a324 f23d 809b cc3d 3571 4f3a 3a65 95bd
000002e0: 2876 0e3e be1e 08be e2bf 14bb 87bb aabd
000002f0: 87e3 043e c799 57bd 0f6d 7ebd b0ac ebbb
00000300: 403a 873d c805 3abd 7200 09be 9543 c53d
00000310: 6340 203d 1909 843c 4199 003e be5d 033e
00000320: 98a7 743d dc02 033e 4367 313d 6225 7d3d
00000330: d5a1 ff3c 49f5 003c f53c 583d 4db9 d7bd
00000340: e87f 093c 9002 08be feac dfbd e488 5fbd
00000350: cd65 99bc 9a44 aabd e960 8e3d f9ae 823d
00000360: 895e c2bd 2eed ba3d 4527 5dbc a9d4 f1bd
00000370: d971 47bd 52d9 38bd 872b 9a3d add1 073e
00000380: e224 dc3d 12e0 443d ba0c 0f3d 67e1 82bd
00000390: 0091 11be 922a d6bd a39a 1f3d 7fe8 cf3d
000003a0: 76cb 03be c97f 2d3d c7b4 c03d f62e 82bd
000003b0: d7c2 87bd 88c6 60bc 4648 603d 7ca9 b8bd
000003c0: 48a8 963d f453 b33d 63a4 06be 60ee 0d3e
000003d0: 5ea3 4c3d aa70 a83c 7efb d93d 3eef 09bd
000003e0: 9f1c 273c acb5 cd3d f23e c13c 4bc0 d93d
000003f0: ec51 5ebd 8407 053e a4ff 853c 790d 26bd

fc1.bias f4 [50]
0.026949793 0.13624106 -0.043140408 -0.037094284 -0.031717733 0.08275626 -0.05625277 0.10556327
0.031328328 -0.0133886775 -0.081558354 0.056916505 -0.078267545 0.029737325 0.08292166 0.11962443
0.13554145 0.084080406 0.060879175 0.023905031 -0.088375635 -0.08598309 -0.11077229 0.10867855
-0.058978554 -0.009882191 0.11617244 0.032847453 -0.091135465 -0.0986619 0.12464851 -0.009164308
0.10492934 -0.12910005 -0.029120317 -0.082789056 0.023841184 0.03258464 0.123926364 -0.026683418
-0.045016237 0.03709869 0.04767907 -0.10244341 -0.07045309 0.13470806 0.10727857 0.012761965
-0.00968077 0.12767142
00000000: d0c5 dc3c c782 0b3e ffb3 30bd 2df0 17bd
00000010: 74ea 01bd 1d7c a93d 4e69 66bd 8e31 d83d
00000020: 2252 003d 2f5c 5bbc 1108 a7bd 4821 693d
00000030: bc4a a0bd b19b f33c d5d2 a93d a7fd f43d
00000040: 61cb 0a3e 5932 ac3d 715c 793d 7cd4 c33c
00000050: 49fe b4bd e717 b0bd 95dc e2bd dc92 de3d
00000060: 7f93 71bd eae8 21bc d1eb ed3d 0d8b 063d
00000070: 3ba5 babd 400f cabd b847 ff3d e525 16bc
00000080: 32e5 d63d ce32 04be bb8d eebc 4f8d a9bd
00000090: 964e c33c 7977 053d 1bcd fd3d 2f97 dabc
000000a0: f262 38bd ccf4 173d 214b 433d dacd d1bd
000000b0: b649 90bd e9f0 093e deb4 db3d 9017 513c
000000c0: 189c 1ebc 4cbc 023e

fc2.weight f4 [50, 50]
-0.040077724 0.037997782 -0.08409787 0.13687189 0.011362923 0.022092825 0.004912468 0.037176654
-0.09666885 0.11272816 -0.07801341 -0.056572806 -0.117647864 0.10911018 -0.10563974 -0.14168055
0.11663215 -0.042632 0.02739825 -0.10470928 -0.09312604 -0.006869402 0.03163174 -0.119845234
-0.09396583 -0.06193487 -0.024413414 -0.0097625945 -0.1263688 0.013844928 0.107120596 0.10851752
-0.06770549 -0.027952837 -0.0136255855 -0.13897538 0.0036109637 0.062801674 0.1341187 0.029086288
-0.110746086 0.040724095 -0.1187463 -0.04173084 0.024827093 0.064699955 -0.023775954 -0.14222363
-0.1131763 0.055619866 -0.074107945 -0.13786939 -0.14011312 -0.008367176 -0.036213804 -0.11976473
0.13743407 0.076153345 -0.11977699 0.06820058 0.12894724 0.009710882 -0.10323385 -0.012786105
0.047471732 -0.11391038 0.12847613 -0.0012798734 -0.12898093 -0.13686997 0.03740314 -0.12362169
0.037878897 0.13862574 -0.038034048 0.06637103 -0.12267106 -0.13115005 0.041152414 0.08128832
-0.059748657 -0.07150101 -0.13800324 -0.06868372 0.017070496 0.03541639 0.11906373 -0.048671775
-0.07059146 0.0918122 -0.042511947 0.14014694 -0.12181165 0.1224449 -0.12898943 0.10541675
-0.11287279 -0.06547825 -0.1376549 0.06907349 0.1324971 -0.1323772 -0.10196249 -0.04826949
-0.03868981 0.10473875 -0.025289264 0.08814557 0.103998885 -0.0742979 -0.079167135 -0.11047796
-0.13704188 0.0762091 0.06808774 -0.10913174 -0.032182474 0.09579418 -0.036033332 0.0336661
0.13546462 0.10173939 0.04342833 -0.012841378 0.05148556 0.11921926 -0.09020453 0.12732533
0.029794708 -0.09120411 -0.027460534 -0.025503978 -0.081600405 -0.043599874 -0.032455403 -0.01747809
-0.027459286 0.08940062 -0.0015674828 0.12842356 -0.07766233 0.022568293 0.037357 -0.08112234
-0.06908857 -0.063949786 -0.035541832 0.07624859 -0.12761216 0.13456677 0.057457015 -0.05421463
0.0013056977 -0.0668842 0.07403078 -0.08177403 -0.088765256 0.008201843 0.024142487 -0.012759359
0.0052659865 -0.09358333 0.10852509 0.13758384 -0.04787648 -0.08509682 0.07981599 0.07808763
-0.13213713 -0.046634723 -0.0052889395 0.05507074 0.01194008 -0.008887555 -0.037108388 0.077515766
0.08464816 0.1390043 -0.02909051 0.013076088 -0.08308774 0.074907005 -0.09981644 0.044295505
0.11649713 -0.06602472 0.0776049 0.090732165 0.09280529 -0.10845783 -0.041825585 -0.054913703
-0.06836718 -0.073463276 0.038794458 -0.01003183 0.06754075 0.12817575 0.10970798 0.015753461
0.077989906 -0.10923512 0.022647 0.06245613 0.09254159 0.049161915 0.06899911 -0.05182159
-0.009864991 -0.07093256 0.09081847 -0.046463236 -0.056996923 -0.12135465 -0.0028965685 -0.10676022
0.07609283 -0.083409265 -0.026976265 -0.011322548 -0.12259219 -0.0059914226 -0.08690561 0.029705161
0.06529493 -0.058521464 0.10813288 -0.11108182 -0.078857295 0.101806894 -0.015061755 -0.03351669
-0.1322494 -0.08660261 0.056566432 -0.08870376 0.0008088795 -0.013133475 -0.008947192 0.08428353
-0.12552987 -0.06830655 0.056569297 -0.120486826 0.06528156 -0.12336659 0.06364202 0.13556086
0.1265902 0.1141053 -0.07582573 -0.0152168665 0.11313813 0.06495716 -0.07745627 -0.052625116
00000000: 8a28 24bd 90a3 1b3d 813b acbd 2528 0c3e
00000010: 8e2b 3a3c 03fc b43c c5f8 a03b 8c46 183d
00000020: 51fa c5bd 06de e63d 7fc5 9fbd e3b8 67bd
00000030: 5df1 f0bd 2875 df3d a659 d8bd b514 11be
00000040: d6dc ee3d e49e 2ebd 4b72 e03c d271 d6bd
00000050: deb8 bebd b818 e1bb 4990 013d 6b71 f5bd
00000060: 2871 c0bd 6baf 7dbd a4fe c7bc 4af3 1fbc
00000070: d366 01be d6d5 623c 0b62 db3d 6f3e de3d
00000080: 2da9 8abd 59fd e4bc d93d 5fbc 904f 0ebe
00000090: eba5 6c3b 2a9e 803d 6a56 093e 5e46 ee3c
000000a0: d8ce e2bd 4fce 263d 4331 f3bd f5ed 2abd
000000b0: 3062 cb3c 6981 843d cac5 c2bc 12a3 11be
000000c0: fac8 e7bd a8d1 633d e8c5 97bd a22d 0dbe
000000d0: d079 0fbe 7b16 09bc ed54 14bd 3647 f5bd
000000e0: 84bb 0c3e 49f6 9b3d a34d f5bd bfac 8b3d
000000f0: bf0a 043e 641a 1f3c 456c d3bd d07c 51bc
00000100: b871 423d d849 e9bd 3f8f 033e 6dc1 a7ba
00000110: 9413 04be a427 0cbe 0934 193d 5e2d fdbd
00000120: e726 1b3d e8f3 0d3e 97c9 1bbd 89ed 873d
00000130: f73a fbbd 334c 06be 6f8f 283d 7e7a a63d
00000140: 02bb 74bd 1f6f 92bd b950 0dbe 0daa 8cbd
00000150: 6dd7 8b3c c710 113d afd7 f33d 0e5c 47bd
00000160: 4192 90bd 0908 bc3d 0221 2ebd ae82 0f3e
00000170: 6378 f9bd 64c4 fa3d ce15 04be bde4 d73d
00000180: d929 e7bd 7619 86bd 68f5 0cbe 6776 8d3d
00000190: 52ad 073e e48d 07be b6d1 d0bd 3bb6 45bd
000001a0: 3579 1ebd 4581 d63d 6e2b cfbc aa85 b43d
000001b0: 5efd d43d 7f29 98bd 6122 a2bd 4542 e2bd
000001c0: b554 0cbe 8413 9c3d 9671 8b3d 7680 dfbd
000001d0: c5d1 03bd bd2f c43d b097 13bd 77e5 093d
000001e0: 3db7 0a3e be5c d03d e8e1 313d a564 52bc
000001f0: 86e2 523d 3a29 f43d 27bd b8bd 9261 023e
00000200: 0814 f43c 38c9 babd eaf4 e0bc b8ed d0bc
00000210: 1d1e a7bd c895 32bd f5ef 04bd 362e 8fbc
00000220: 4cf2 e0bc ac17 b73d ff73 cdba 7781 033e
00000230: 6d0d 9fbd 24e1 b83c a703 193d 7823 a6bd
00000240: 4f7e 8dbd 1bf8 82bd 5094 11bd 3928 9c3d
00000250: c3ac 02be dfcb 093e 0c58 6b3d 2910 5ebd
00000260: f223 ab3a 95fa 88bd 739d 973d 2579 a7bd
00000270: 8fca b5bd 0661 063c 77c6 c53c a10c 51bc
00000280: 4c8e ac3b 9ea8 bfbd 6742 de3d c7e2 0c3e
00000290: 211a 44bd 3e47 aebd 9176 a33d 68ec 9f3d
000002a0: f54e 07be 0d04 3fbd d74e adbb db91 613d
000002b0: 53a0 433c 1c9d 11bc f7fe 17bd 96c0 9e3d
000002c0: 045c ad3d 2557 0e3e 394f eebc 173d 563c
000002d0: e829 aabd d868 993d 906c ccbd 346f 353d
000002e0: 0c96 ee3d f837 87bd 51ef 9e3d c9d1 b93d
000002f0: b310 be3d 241f debd 4e51 2bbd 31ed 60bd
00000300: 1804 8cbd ea73 96bd f0e6 1e3d 8b5c 24bc
00000310: ce52 8a3d 8140 033e 94ae e03d 670d 813c
00000320: 2cb9 9f3d aab6 dfbd 3486 b93c 00d2 7f3d
00000330: 7286 bd3d 015e 493d 684f 8d3d e042 54bd
00000340: c5a0 21bc 1745 91bd 09ff b93d 3c50 3ebd
00000350: 9b75 69bd c988 f8bd 5bd4 3dbb 1aa5 dabd
00000360: 8fd6 9b3d 7ad2 aabd 54fd dcbc 3582 39bc
00000370: 9d11 fbbd b253 c4bb 92fb b1bd 3d58 f33c
00000380: 59b9 853d 34b4 6fbd c574 dd3d de7e e3bd
00000390: ef7f a1bd 2280 d03d 94c5 76bc cc48 09bd
000003a0: 636c 07be b65c b1bd 34b2 673d 51aa b5bd
000003b0: fc0a 543a c92d 57bc 3e97 12bc d89c ac3d
000003c0: e78a 00be 4ee4 8bbd 35b5 673d ccc1 f6bd
000003d0: 57b2 853d 9fa7 fcbd bf56 823d 77d0 0a3e
000003e0: dda0 013e 0ab0 e93d 854a 9bbd 2a50 79bc
000003f0: f7b4 e73d 4208 853d 65a1 9ebd 6f8d 57bd

fc2.bias f4 [50]
0.018228702 0.08412224 -0.13113911 0.013457369 0.09893369 -0.14165163 0.044552602 -0.13078925
-0.11430632 -0.08216486 -0.08191062 -0.020314679 -0.090710014 0.07782183 -0.13547945 -0.030522088
0.039525278 -0.096312374 0.074477576 -0.027305985 -0.0095899915 -0.07523223 0.012312849 0.015813094
-0.12465307 0.10256525 0.11879645 -0.054764777 0.046813246 -0.04441868 -0.025719712 -0.05487631
-0.13079345 -0.0094205765 -0.041455045 -0.107390985 -0.1215467 0.01661712 0.102720514 0.036952563
0.07213766 0.08794881 0.09557411 0.086728476 0.0844556 -0.047841344 -0.12667996 0.0031318795
0.1382315 -0.08907868
00000000: 5c54 953c 4848 ac3d 5549 06be 4c7c 5c3c
00000010: bf9d ca3d 200d 11be ca7c 363d 9eed 05be
00000020: 6f19 eabd 0d46 a8bd c1c0 a7bd f86a a6bc
00000030: 2cc6 b9bd 0d61 9f3d 20bb 0abe 7509 fabc
00000040: 42e5 213d 6c3f c5bd b387 983d cdb0 dfbc
00000050: 571f 1dbc 5b13 9abd d5bb 493c 768a 813c
00000060: 1c4a ffbd bb0d d23d 8e4b f33d 0851 60bd
00000070: 3fbf 3f3d 5df0 35bd 25b2 d2bc fbc5 60bd
00000080: b8ee 05be c358 1abc c4cc 29bd ceef dbbd
00000090: 7aed f8bd a020 883c 225f d23d 925b 173d
000000a0: e9bc 933d 811e b43d 5cbc c33d b39e b13d
000000b0: 0ff7 ac3d 49f5 43bd 64b8 01be 3840 4d3b
000000c0: 8f8c 0d3e e26e b6bd

fc3.weight f4 [2, 50]
-0.055871222 -0.06434012 -0.017840099 0.036473203 -0.09581012 0.01578509 0.03148069 -0.0044813394
-0.1136594 -0.10184115 -0.044981107 0.07726451 0.087166764 0.08872659 0.124445915 -0.06798353
-0.10851467 -0.026025336 0.0060383794 -0.06121627 -0.08797733 -0.1143995 -0.000108217144 -0.01960063
0.11523768 0.11179001 -0.040802836 0.04793049 -0.10409789 0.12185869 0.10381985 -0.08805518
-0.13689159 -0.016469685 -0.042522937 0.03211902 0.0769823 0.13808735 0.09638535 -0.120346524
0.023505775 0.13250302 -0.0860323 0.117953606 0.11381574 -0.05156786 -0.07684176 -0.012093373
0.050607428 0.051300507 0.12710117 0.07271263 0.118863285 0.08877827 -0.12041784 0.0098043475
-0.049638465 0.11379061 -0.07685491 -0.10391265 -0.09241174 -0.09251146 0.13518542 0.13449237
0.021833139 -0.14089951 0.11021503 0.04336858 -0.07975935 -0.04730029 0.017699394 0.054850556
-0.079447985 -0.04589081 -0.00977471 0.009057142 0.029699165 -0.077316634 0.124077685 -0.12207498
-0.08067404 0.08531074 0.08432998 -0.10980227 0.09343177 -0.1300631 0.01982315 -0.085182965
-0.10622761 -0.12188894 -0.053267434 -0.055327643 -0.016079905 -0.013743752 -0.12813736 -0.06469774
0.021371646 0.121324085 0.05353557 0.10221717
00000000: 39d9 64bd c1c4 83bd 6625 92bc ed64 153d
00000010: 1938 c4bd bc4f 813c e5f1 003d 33d8 92bb
00000020: 42c6 e8bd 1892 d0bd 1c3e 38bd db3c 9e3d
00000030: 7d84 b23d 49b6 b53d 80dd fe3d f33a 8bbd
00000040: f03c debd 1633 d5bc 99dd c53b e9bd 7abd
00000050: 752d b4bd 494a eabd a3f2 e2b8 8091 a0bc
00000060: bc01 ec3d 29f2 e43d e020 27bd c352 443d
00000070: 4631 d5bd 0d91 f93d 809f d43d 4656 b4bd
00000080: 4f2d 0cbe 6feb 86bc 882c 2ebd 3c8f 033d
00000090: e5a8 9d3d c566 0d3e af65 c53d 3d78 f6bd
000000a0: 2f8f c03c dfae 073e b431 b0bd a991 f13d
000000b0: 3a18 e93d d238 53bd 365f 9dbd 4823 46bc
000000c0: bc49 4f3d 7b20 523d cf26 023e 5cea 943d
000000d0: 986e f33d 62d1 b53d a19d f6bd 6aa2 203c
000000e0: b451 4bbd 0d0b e93d 1b66 9dbd 28d0 d4bd
000000f0: 5e42 bdbd a676 bdbd 0c6e 0a3e 5eb8 093e
00000100: 69db b23c f647 10be 6bb8 e13d 41a3 313d
00000110: df58 a3bd f3bd 41bd 52fe 903c faaa 603d
00000120: a0b5 a2bd 01f8 3bbd 1b26 20bc 6864 143c
00000130: aa4b f33c 2f58 9ebd 711c fe3d 7202 fabd
00000140: 6e38 a5bd 66b7 ae3d 32b5 ac3d 03e0 e0bd
00000150: 2859 bf3d 432f 05be 2964 a23c 6874 aebd
00000160: dc8d d9bd e9a0 f9bd f42e 5abd 3d9f 62bd
00000170: 01ba 83bc 792d 61bc 7136 03be 4080 84bd
00000180: 9713 af3c c378 f83d 1d48 5b3d 3c57 d13d

fc3.bias f4 [2]
-0.08598176 0.123990454
00000000: 3417 b0bd b5ee fd3d
