TorchModels/RLtrader30.pt (torch, 22871 bytes, 6 tensors)

fc1.weight f4 [50, 50]
000000 ac 52 26 bc 2a 3a c3 3c 21 5c 8b bc 0a c0 f5 bd
       -0.010151546 0.023831446 -0.017011704 -0.11999519
000010 29 b2 04 3e 1b a1 09 be a9 b2 38 bd 3c 4d 82 3d
       0.12958588 -0.13440363 -0.04509226 0.063623875
000020 56 dc e3 3d 5c 00 9a 3d e3 1d ab 3d e6 b6 79 bd
       0.1112601 0.075196 0.0835531 -0.06096544
000030 00 29 9d bc e5 3a 57 bd ee 84 91 bd e8 41 1a bd
       -0.01918459 -0.0525464 -0.071054325 -0.03766051
000040 c0 67 f6 bd c1 6d 63 3d 23 87 9d 3d 9c 1f 04 be
       -0.120315075 0.05552459 0.07691791 -0.12902683
000050 f5 78 b9 bc ec 5f 6b bd 64 41 9b 3d 33 f4 03 3e
       -0.022640685 -0.057464525 0.07580832 0.12886123
000060 ff 7b 59 3d cd b7 f1 bd 35 b3 97 bd 0f c8 f5 3d
       0.053096768 -0.11802635 -0.07407228 0.12001049
000070 ab 36 13 bb 51 75 17 bd 3d 09 58 bd 8c b5 e8 bd
       -0.0022463005 -0.036977116 -0.052743185 -0.11362752
000080 28 e6 b2 3d 8a ab cd 3d 98 95 8a bd 2c 3c 0d be
       0.08735305 0.10042484 -0.06766814 -0.13792485
000090 7b c8 8b 3d 39 13 1a bd 08 b2 b6 bd e3 db 4f 3d
       0.06825348 -0.03761599 -0.089206755 0.05074681
0000a0 00 a3 50 3d 6f a8 7b bd 84 6f f3 bd 25 d7 c9 3d
       0.0509367 -0.061439928 -0.11886504 0.09855489
0000b0 0a 38 fb 3b ae bf 90 bd 65 7a 99 3c 77 a8 ec 3c
       0.0076665925 -0.0706781 0.01873512 0.028888924
0000c0 38 10 e5 3d ac bb cd bd 31 9b 90 bd c2 86 9f bd
       0.11184734 -0.10045561 -0.070608504 -0.07789375
0000d0 ff 98 0a bd 2b bb d9 3d 92 86 d9 3d eb 34 90 3c
       -0.033837315 0.106314026 0.106213704 0.017603358
0000e0 63 46 0c 3d dc 01 49 bd d0 18 7f bd 56 5f 1d 3d
       0.034246814 -0.04907404 -0.062279522 0.038420998
0000f0 a2 45 2a bd f8 92 07 3e 54 c6 8a 3d cb 69 eb bd
       -0.041570313 0.13239658 0.06776109 -0.11494788
000100 40 42 66 bc d2 ef 46 3b 2d 7a 6c 3d ba f0 04 bc
       -0.014053881 0.0030355346 0.057733703 -0.008114034
000110 a0 b0 a3 bd 14 da a1 3d 5e c9 6e bd 8e 23 fa bc
       -0.07992673 0.07902923 -0.058297507 -0.030534532
000120 9e bb eb 3b b8 66 05 3d 03 90 09 3e 44 03 b2 3d
       0.0071939966 0.032568663 0.13433842 0.08692029
000130 c6 3a c6 bd 83 19 e8 3d 9d 11 b6 3c 1f 17 92 ba
       -0.09679179 0.11332991 0.022225196 -0.0011145807
000140 4d df 6e bb 36 f9 b7 3d 09 65 08 3d 39 c3 c9 3d
       -0.0036449016 0.0898308 0.03329948 0.09851689
000150 3f f1 9c 39 43 4f 34 3c d6 6a 3f bd 44 93 c6 bd
       0.0002993438 0.011005226 -0.046732746 -0.096960574
000160 dd 61 db 3c 0a 49 ca 3d 14 d1 04 be 2d 29 0b be
       0.026780063 0.09877212 -0.12970382 -0.13589926
000170 62 dd f2 bd 82 ae 85 bd 33 9e d9 bd 4b 54 c0 3c
       -0.11858632 -0.06527425 -0.10625877 0.023477694
000180 c2 e9 ed 3d d9 f1 e3 bd ea a0 a2 bd 7b 20 c2 3c
       0.116168514 -0.11130113 -0.07940848 0.023697129
000190 e2 6a 4a bd 03 ef f3 3c 8c 5e f1 bd 4a c0 d4 bd
       -0.049418338 0.029777056 -0.117856115 -0.10388239
0001a0 01 70 01 be 47 f9 dc bd e6 39 13 3d 1a 37 16 3d
       -0.12640382 -0.107897334 0.035943888 0.036673643
0001b0 35 37 90 bd 35 90 d3 bb 44 eb 1b 3d bf 17 9e bd
       -0.0704178 -0.0064564 0.038066164 -0.07719373
0001c0 0e 95 e6 3d d8 cf b3 3d ca e5 c9 bd a6 3a 96 bd
       0.11258899 0.087798774 -0.09858282 -0.07335405
0001d0 b1 a8 0b 3e 2c 1b 1d 3d 32 3d d6 3d f4 b7 e2 3d
       0.1363857 0.03835599 0.10460891 0.110702425
0001e0 97 cf 82 bd dd 4b 1b bc df 91 cf bd 24 ed 84 3d
       -0.06387251 -0.009478536 -0.101352446 0.064905435
0001f0 e9 75 a6 bd 2b 7d 4e bd 41 29 fb bd 11 a4 aa bd
       -0.08127958 -0.05041234 -0.12263728 -0.083320744
000200 1d f1 74 bd b9 19 56 bc 78 8b c7 bd 13 e2 4f bd
       -0.059800256 -0.013067656 -0.097433984 -0.05075271
000210 77 f5 0e 3e b5 ea ec bd d9 17 c3 3c 05 8a a1 3d
       0.13960825 -0.11568204 0.023815082 0.07887653
000220 ba 1b 49 bc 67 93 33 bd 2f 57 dd 3d 5e 00 a2 bd
       -0.012274677 -0.043841746 0.108076446 -0.07910226
000230 4b 6a cd 3c e5 1d 87 3b 69 92 2c bd 6f 07 ba 3d
       0.025075098 0.0041234368 -0.042131815 0.09083449
000240 af 43 a6 3b 7a 5d 65 3d 43 05 ca 3c 04 5d d8 bd
       0.0050739865 0.05599735 0.024660712 -0.10564616
000250 4e b9 06 3d 85 8d 3b bd 3b 9a cb bd 9f 49 8c bd
       0.032891564 -0.04578926 -0.099415265 -0.068499796
000260 93 f9 ef 3c 15 ca 03 be 35 9e c7 3d 11 1b 00 3e
       0.029293811 -0.12870057 0.097469725 0.12510325
000270 8f 19 d6 bc f4 dc 3e bd 09 e2 e5 bd 37 c6 6e 3d
       -0.026135234 -0.046597436 -0.112247534 0.0582945
000280 3f 0d e7 bd 86 2b bd bd b3 a8 f4 3d 06 82 f1 3d
       -0.11281823 -0.09236817 0.11946239 0.11792378
000290 5e 82 8f bd 6c 81 f1 bd f9 a3 01 bd e5 04 5d 3a
       -0.070072874 -0.117922634 -0.031650517 0.00084312103
0002a0 86 06 32 bd e2 8b d1 bd 2e c7 c0 bc e2 6c ee 3d
       -0.043463252 -0.10231759 -0.023532476 0.116418615
0002b0 67 73 07 3e d4 13 54 3d 6a 23 a0 bc c9 ab 0a be
       0.13227616 0.051776722 -0.019548137 -0.13542093
0002c0 83 3d 1b bd 85 b2 de bd 1a 00 00 3e fb f6 cd bd
       -0.03790046 -0.10873894 0.12500039 -0.100568734
0002d0 30 b1 d0 bd c7 ba 51 3d 76 e2 71 3d 64 36 25 bd
       -0.10190046 0.051203515 0.05905386 -0.040335074
0002e0 ba aa 35 bd 48 52 82 3c 9a be 0b 3e e0 22 b4 3d
       -0.04435227 0.015908375 0.13646927 0.087957144
0002f0 4c 7e 8b 3d f9 bd 29 3d c4 1e c5 3c 14 0e 80 bc
       0.068111986 0.041440938 0.024062522 -0.015631713
000300 fd 60 a4 bd 65 0d b4 3d f4 f6 c9 3a 06 de 01 3e
       -0.080263115 0.08791617 0.0015408681 0.12682351
000310 c5 bc 96 3c 19 12 99 3d fd 1d 98 bd 74 2e 1d bd
       0.01840056 0.07474155 -0.07427595 -0.03837438
000320 6a e2 a4 3d 94 ba cf 3c be 5a a3 3d 9f 09 0c 3e
       0.080509976 0.025357522 0.07976292 0.13675545
000330 68 08 84 3d 07 f7 01 be 6c be 4a bd c8 fc ea bc
       0.06446916 -0.1269189 -0.049498007 -0.028684989
000340 4f bb eb 3d 13 f6 db 3d 92 df a4 3d 63 db a9 3d
       0.11510336 0.10740294 0.08050455 0.08293798
000350 b1 e6 ed 3d 88 40 c4 3d df 2d 0f 3e 8c 9d aa 3d
       0.116162665 0.09582621 0.13982342 0.08330831
000360 4f 02 06 3e 14 8d 37 3d 4f 75 98 bd 69 5e 01 bd
       0.13086818 0.044812277 -0.0744425 -0.031584177
000370 66 cf 09 3e d9 1b 92 bd bd 32 65 3d 48 6f cf 3d
       0.13458022 -0.07134218 0.05595659 0.10128647
000380 2d f2 22 bd 31 46 75 bd 52 74 1d 3b 93 7e da bd
       -0.039781738 -0.059881393 0.002402563 -0.10668673
000390 05 0a f4 3d 48 d3 fa bd 30 2d 3b 3d 0e 0d e0 bd
       0.119159736 -0.1224733 0.04569739 -0.1093999
0003a0 21 3e c7 3d f8 b6 28 3d 79 6a 16 3d d5 f9 d9 bd
       0.09728647 0.041190118 0.036722634 -0.10643355
0003b0 1b 08 bf 3d 24 36 01 bc aa 87 e0 3d f3 fa bd bd
       0.09327718 -0.007886443 0.10963376 -0.092763804
0003c0 22 1e e2 bd fd 68 e8 3d 16 c8 7b 3d 0d 83 8e bd
       -0.11040904 0.1134815 0.061470114 -0.0695859
0003d0 fd e9 75 bd 88 ab bf 3d 7b 5c 3b 3d ed e9 6c 3d
       -0.0600376 0.09358889 0.045742493 0.057840277
0003e0 70 35 de 3d b6 3d 6a bd 87 da ec 3c 0d 4a 0d be
       0.10850036 -0.05718776 0.028912796 -0.1379778
0003f0 d0 92 0d 3d d4 c8 05 bc fe 67 b8 3d 7c bd 14 bd
       0.03456384 -0.008165557 0.0900421 -0.03631352

fc1.bias f4 [50]
000000 47 23 39 bd 33 ac 93 bd c6 d9 3e 3d 4b b1 c1 3d
       -0.04519966 -0.07210579 0.046594404 0.09457644
000010 7a 90 07 3e df aa 98 3d 07 42 07 be e3 d4 87 bd
       0.13238707 0.07454466 -0.13208781 -0.06632402
000020 84 d0 ec 3d c6 fd 02 3e 18 c7 b2 bc 11 80 9f 3d
       0.11563209 0.1279212 -0.02182345 0.077880986
000030 bb 87 ad bc c6 28 43 3d ff 18 4e bd 08 68 10 bc
       -0.021182885 0.047646306 -0.050316807 -0.0088138655
000040 6b 9a ca 3d fb 4b 86 3d 7b eb f7 3d d4 b7 0e 3e
       0.09892734 0.06557461 0.12105461 0.13937312
000050 41 3b 5b 3c 80 7d 7c 3c d8 b9 f1 3d 73 87 93 bd
       0.013380826 0.015410781 0.11803025 -0.07203569
000060 ee 16 69 bd 06 ca 4f bd ef 57 27 bd 04 ef d4 bd
       -0.056906633 -0.050729774 -0.040855344 -0.10397151
000070 c0 0e 04 3e d9 7f 86 3b a4 a3 f6 3d 96 5c d7 bb
       0.12896252 0.004104596 0.12042931 -0.0065723164
000080 02 39 0f be 91 31 d6 3d 42 40 9f bd a1 e2 e9 3b
       -0.1398659 0.10458673 -0.07775928 0.007137612
000090 05 48 73 3d 20 52 c9 3d 69 6c 5f 3c 36 b7 2b bc
       0.059394855 0.09830117 0.013636687 -0.010480693
0000a0 2c 21 05 be 94 5a 19 3d 73 f7 0b 3e 3c 59 b9 bd
       -0.13000935 0.037439898 0.13668613 -0.09050223
0000b0 b8 83 f7 bc 65 41 af 3d 20 a0 d4 3d 4e 62 f8 bd
       -0.030214176 0.08557395 0.10382104 -0.12128125
0000c0 5d aa fb 3d 53 90 10 3d
       0.122883536 0.03529389

fc2.weight f4 [50, 50]
000000 81 94 e3 bd a4 83 d1 bd 0d df bf bd 66 a0 40 3c
       -0.11112309 -0.102301866 -0.093687154 0.011756992
000010 7b f5 e5 3d 7c 8b 60 bc 59 8a 9b bd 3f d7 a6 bd
       0.11228462 -0.013705131 -0.07594747 -0.08146524
000020 e9 06 b1 bd dd 08 f7 3d 71 e9 f0 3d 9d a3 95 bc
       -0.08643896 0.120622374 0.117632754 -0.018266493
000030 08 a6 06 be 75 9a f3 bd 82 64 d7 3d 27 14 03 3e
       -0.13149273 -0.11894695 0.10517217 0.12800656
000040 8e 9f af bb d7 ce da 3c f4 51 98 3d 35 ae aa bd
       -0.0053595966 0.026709957 0.07437506 -0.083340086
000050 bd d6 0c be 58 1c dc 3d 29 31 c2 bd c0 07 0e be
       -0.13753791 0.10747594 -0.09482033 -0.13870144
000060 d5 db 7f bd 08 82 78 bd ec 69 1f 3d 63 a9 9a bd
       -0.062465508 -0.060670882 0.038919374 -0.07551839
000070 82 94 20 3d 58 c6 5a 3d ab 0d a5 3d 62 04 b5 3d
       0.039204128 0.05341181 0.080592476 0.088387266
000080 3f 7e 6b bc 19 19 81 3d 45 ed a1 bd f8 29 ce 3d
       -0.014373361 0.06303615 -0.07906584 0.10066599
000090 40 45 c7 bd ac c0 51 bd 28 b9 96 bd eb 00 b8 bb
       -0.09730005 -0.051209137 -0.073595345 -0.005615344
0000a0 cf 03 89 3d 84 e5 d0 bd 02 f2 8c 3b 64 33 87 bd
       0.066901796 -0.10200027 0.0043013105 -0.06601599
0000b0 9e b4 2c bd 17 0d 49 bd 5d df ff bd e4 d0 d0 bd
       -0.042164437 -0.04908475 -0.12493775 -0.10196093
0000c0 fc 31 8e bd be 29 88 3c f3 ea 07 be cb 63 87 bd
       -0.069431275 0.016621467 -0.1327322 -0.06610831
0000d0 d6 b8 ae bc db 13 ac bd 06 07 08 3e 70 8f 82 3d
       -0.021328371 -0.08402225 0.13283929 0.06375015
0000e0 b4 ba 4d bd 6d 99 00 3e df 2f 08 3e e6 4a 2c bd
       -0.050226882 0.12558527 0.13299511 -0.042063616
0000f0 2b 6d 29 bd 9a db 4d 3c f1 bd 05 bd 3e 3e 23 3c
       -0.041363876 0.012564564 -0.032651845 0.00996357
000100 09 b2 2e bd 9e b6 ad 3d a8 34 c8 3d 58 19 eb bd
       -0.042650256 0.08482097 0.097756684 -0.11479443
000110 b8 15 d2 3d 87 ca 43 3d 06 d7 65 3d 0a b9 47 bc
       0.10258049 0.047800567 0.056113265 -0.012190113
000120 8e 11 ef bc 16 33 79 bd f6 98 86 bd e4 a8 ce bd
       -0.029183175 -0.060839735 -0.06572144 -0.10090807
000130 b9 fa d0 3d b4 f8 ff 3d 46 5d 8e 3c 24 6b 8d 3c
       0.102040716 0.12498608 0.01737846 0.017263003
000140 62 67 f3 bd 54 49 77 3d 46 de 51 bd 1d ce c7 bd
       -0.11884953 0.060372666 -0.051237367 -0.0975611
000150 ea 1a b2 bd 20 f8 81 3d c2 6c a6 bd b4 b5 fb bd
       -0.0869654 0.06346154 -0.08126213 -0.122905165
000160 16 3c dc bd e3 7c 00 3e 3e ae 57 bc d9 68 82 bc
       -0.10753648 0.1254764 -0.013164101 -0.015919136
000170 92 4f 99 3d 6c 68 07 3d 0f b4 6f bd 77 60 8a bc
       0.0748588 0.03305857 -0.058521327 -0.016891701
000180 49 b5 e4 3d f6 18 c7 bd e0 1c 86 bd b0 d7 30 bc
       0.1116739 -0.09721558 -0.06548476 -0.010793611
000190 e5 d8 00 3e 38 bb 99 bd 5f 10 ef 3d 88 f3 09 be
       0.12582739 -0.07506412 0.116730444 -0.13471806
0001a0 1c 41 c6 3c f1 e1 04 be 5d f3 88 3d 91 63 de 3c
       0.024200968 -0.12976815 0.06687043 0.027147086
0001b0 be 93 0d be a0 04 cf bd 67 fd ed 3d ea 77 14 bd
       -0.1382589 -0.10108304 0.11620598 -0.03624717
0001c0 8f 6f c3 3d f2 52 04 bc bf 16 9b bc 41 50 dd bc
       0.095427625 -0.008076416 -0.018931745 -0.027015807
0001d0 b8 8c e5 3b f2 50 44 bd e5 d0 cf 3c 63 0e e7 bd
       0.0070053004 -0.047928758 0.025368163 -0.11282041
0001e0 07 38 db bd 5a 75 b2 bb b4 c9 3f 3d 06 1e dd 3d
       -0.10704046 -0.0054461183 0.04682322 0.10796742
0001f0 93 79 06 3e 8b 2b fc bc 11 c6 b2 3d e9 d1 a2 3d
       0.13132314 -0.030782482 0.087291844 0.079501934
000200 e7 06 f4 3d ab 36 cd 3d 3c cb 95 3d f7 e1 00 3e
       0.11915379 0.10020193 0.073141545 0.12586199
000210 bd 59 0d be 63 94 85 3d 03 cb c4 bd 4a ec a5 b9
       -0.13803764 0.06522443 -0.09609034 -0.00031647302
000220 a1 98 bb bd 45 0d a3 3d 7a 12 9b bd ef 34 83 bd
       -0.09159971 0.07961515 -0.075718835 -0.06406581
000230 4c 30 15 bc ac 7a 71 bc 28 a6 a4 3d 57 20 f0 3c
       -0.009105753 -0.01473872 0.08039504 0.029312296
000240 23 a1 d3 bd 7d a6 32 bd 27 68 97 3d 96 a9 7d bd
       -0.10333469 -0.043615807 0.07392912 -0.061929308
000250 ee 5f ca bd 82 c3 89 3d 38 72 01 be b8 a2 c0 3d
       -0.098815784 0.06726743 -0.12641227 0.09406036
000260 f0 b0 47 3c f0 38 89 3c e0 fb bc 3b ac cc 25 bd
       0.012188181 0.016750783 0.0057673305 -0.040478393
000270 00 b1 a2 3a c8 45 80 3c c4 e9 7a 3d 60 86 be 3b
       0.0012412369 0.015658274 0.061258093 0.0058143586
000280 00 58 56 bb 71 f4 b3 bd 03 1b 0e be a5 a2 f8 bd
       -0.003270626 -0.08786858 -0.13877492 -0.12140397
000290 5a bf c8 3d 84 85 01 be 6b b9 01 be 8c bf 97 bd
       0.098021224 -0.12648588 -0.12668388 -0.074095815
0002a0 90 45 10 be c6 47 37 bd b0 f1 d3 bd 8c de f3 bd
       -0.14089036 -0.044746183 -0.103488326 -0.11907682
0002b0 af a1 f3 bd e4 1d ba bd e8 eb fd 3c 1a 10 e8 bd
       -0.11896073 -0.090877324 0.030996278 -0.11331196
0002c0 d6 75 bc 3d 18 1b a2 bd b8 2d 4b bd c4 db f3 bd
       0.09202163 -0.07915324 -0.049604148 -0.11907151
0002d0 8e 29 f5 bd d8 e8 ef 3c 32 d9 af 3d 0d b9 83 bd
       -0.119708166 0.029285833 0.085863486 -0.0643178
0002e0 81 a2 10 be 9c aa b6 3d 74 2c 36 bd b5 3d b4 bd
       -0.1412449 0.0891926 -0.044475988 -0.08800832
0002f0 dc 39 75 3d a4 19 bb bc 0f 52 06 3e 40 d1 d6 3d
       0.059869632 -0.022839375 0.1311724 0.1048913
000300 db a9 ef bd 6c 1f 05 bd ee 1a e1 3d d7 67 0d be
       -0.11702319 -0.03250067 0.109914646 -0.13809143
000310 38 f6 30 3d 76 2e 88 3d e4 46 2c bd 24 c6 3c bd
       0.043203562 0.06649487 -0.042059794 -0.0460874
000320 87 3d 51 3d ca 05 01 be 73 fb e9 3d 39 66 cb 3d
       0.051084068 -0.12599865 0.11424913 0.09931607
000330 99 c6 8a bd 8a d7 c5 bd 2f 3f b6 bd 7a 86 14 3d
       -0.06776161 -0.096602514 -0.0889877 0.03626106
000340 af 9e 6a bc 31 a5 80 3d df b7 cd 3d f2 54 ab bd
       -0.01432006 0.06281508 0.10044836 -0.083658114
000350 47 73 c4 3d 59 12 35 3d 32 b4 5f ba b4 5b 71 bd
       0.095923 0.04420695 -0.0008533626 -0.058925346
000360 6d a7 71 bd dc 98 b1 3d ee 01 f5 3d 53 c5 ee 3d
       -0.05899756 0.08671734 0.11963259 0.1165873
000370 24 cc 0f 3e 70 aa 05 be 73 33 81 3d db 74 af bd
       0.14042717 -0.13053298 0.06308641 -0.0856721
000380 2b c6 21 3b 7f a0 0a 3e e3 a5 e6 3d f0 1f e0 3d
       0.0024684768 0.13537787 0.11262109 0.109435916
000390 71 80 28 3d 84 de 08 be 0d fb 05 bd 41 3f d8 3d
       0.041138116 -0.13366133 -0.032710124 0.1055894
0003a0 92 92 0c 3e 2d fc 05 3d 0d 6e 77 bd e5 e4 45 3c
       0.13727787 0.032711197 -0.060407687 0.0120784985
0003b0 13 73 8c 3d b7 6e cf bd b5 40 42 bd 28 6b 8a 3d
       0.06857886 -0.10128539 -0.04742499 0.0675872
0003c0 4c 63 42 bd 4e 86 7d 3d 7c 1a 00 3d 9f 03 ed bb
       -0.047457978 0.06189566 0.031275257 -0.0072330977
0003d0 c1 86 46 3d c8 4e fd 3d 55 ed 5e bd 30 a6 7a bd
       0.048468355 0.12368542 -0.054425556 -0.061193645
0003e0 9c 1a 46 bc d3 d8 41 bc 85 4d c2 3d cf 6a c7 3c
       -0.012091305 -0.01183148 0.09487442 0.024342922
0003f0 04 54 7c bd de 1a e9 bc 61 6b a5 bc 7b 33 f4 3d
       -0.06160356 -0.028455194 -0.020192804 0.119238816

fc2.bias f4 [50]
000000 67 16 a3 3d 20 1e 8e 3d 1e 02 cd bd e3 11 dc bd
       0.07963257 0.0693934 -0.100101694 -0.10745599
000010 bc ac 78 3d 13 b8 eb 3d db 8c aa 3d 17 c3 e3 3b
       0.060711607 0.11509719 0.08327647 0.0069507468
000020 be 65 70 bd 83 3e 04 be 18 78 a2 bd 0d 31 92 bc
       -0.05869078 -0.12914471 -0.07933062 -0.017845655
000030 ce dd de 3b 19 f7 99 bd f5 77 8c 3d 2a 6e f1 3d
       0.0068013435 -0.07517833 0.068588175 0.1178859
000040 2a 06 ad 3c a8 24 6f 3d 91 e5 96 3d 8b b9 9e bc
       0.021121103 0.058384567 0.07368005 -0.019375583
000050 42 46 a4 bd 59 25 dc bb 4c 77 fa 3d b7 d4 ec 3d
       -0.08021213 -0.0067183194 0.12229785 0.1156401
000060 70 c6 9b bd 7c d7 ce 3d 3b 25 0b bd 69 87 ca 3d
       -0.07606208 0.10099694 -0.033971053 0.09889109
000070 7b 01 58 3d a1 e9 34 bd c4 91 7f bc 13 79 97 3d
       0.052735787 -0.04416812 -0.015598718 0.0739614
000080 8b 29 02 3e d8 36 09 3e 2f 53 63 3d cc 4a 87 3d
       0.1271116 0.13399827 0.055499252 0.06606063
000090 fc 81 ca bd 41 09 b2 3d cf 35 8c 3d 9a db 13 3d
       -0.09888074 0.08693171 0.06846201 0.0360981
0000a0 eb 57 7c bc 55 d0 81 bc 75 b7 69 3d e7 6c 2f bd
       -0.015401821 -0.01584641 0.057059724 -0.042828467
0000b0 0b f3 f9 bc 70 38 84 bd bc f1 a0 bd 2d 46 12 bd
       -0.0305114 -0.06456077 -0.07858607 -0.035711456
0000c0 39 49 25 3d 69 4e ca 3d
       0.040353034 0.09878237

fc3.weight f4 [2, 50]
000000 c2 27 86 3d b5 16 96 3d f2 c8 a1 bd 58 ef d3 bd
       0.06550552 0.0732855 -0.078996554 -0.103483856
000010 cd 7c a0 bd 9d 64 28 3d 7b 7b a6 bd 24 6e e7 bd
       -0.07836304 0.041111577 -0.08129021 -0.113003045
000020 85 3d e8 3c 26 18 86 3d 5c 0b 61 3d ed 5d 0d be
       0.028349647 0.06547575 0.054942474 -0.13805361
000030 9d 25 8d 3d 15 91 12 3d 3f c0 b8 3d 6d f3 8a 3d
       0.0689194 0.035782892 0.09021043 0.06784711
000040 d1 00 cf bd 09 60 0c 3e 59 49 d5 3d 40 1c 34 3d
       -0.101075776 0.1370851 0.104143806 0.043972254
000050 bd 2e ad 3d 13 57 6f bd 2c 17 f2 3d 23 9a a7 bd
       0.0845618 -0.05843265 0.11820826 -0.08183696
000060 16 b6 c7 3d 65 07 08 3e 8f 42 cb bd b2 e3 a2 bc
       0.09751527 0.13284071 -0.099248044 -0.019883964
000070 70 9f 28 3c 07 66 9b 3c d7 a2 b3 bc ff b7 f6 3d
       0.010291919 0.018969549 -0.021928234 0.12046813
000080 24 df eb 3d 5a fa 22 3d 2e 46 d9 3d da 8c a2 3b
       0.1151717 0.039789535 0.10609089 0.0049606385
000090 e4 01 37 3d 0b 4d 01 3e e4 57 8c 3d 5f 17 96 bd
       0.044679537 0.12627046 0.06852701 -0.073286764
0000a0 b4 1e fb bd f7 ee 9a bd 50 bb 4f 3d ff a5 5f bd
       -0.122617155 -0.0756511 0.050715744 -0.054601666
0000b0 c0 48 27 3c d8 86 3a bd 93 3d 33 bd 7b 23 76 3d
       0.010210216 -0.045538753 -0.043759894 0.06009243
0000c0 f5 67 a0 3d 0e 0c af bd 2d f4 8d 3d 19 4a 10 be
       0.07832328 -0.08547221 0.069313385 -0.14090766
0000d0 ad 12 0a 3e d5 b8 07 be 53 20 b1 bd 36 32 f2 3d
       0.13483687 -0.13254102 -0.086487435 0.11825983
0000e0 a7 38 4f bd 7c 43 14 3d da e9 51 bd ef b2 07 be
       -0.050591137 0.03619717 -0.05124841 -0.13251851
0000f0 ec 4c 7d 3d ad 2b 24 bd 04 c5 a0 bc 18 01 dd 3d
       0.061840937 -0.040080715 -0.019625194 0.10791224
000100 83 53 b5 3d a8 3c 40 3c dc ea 59 3d 97 90 08 be
       0.08853819 0.011733212 0.053202495 -0.13336407
000110 4f 1e 90 bd 97 f3 06 be c2 0e a8 bd 5c e2 d2 bd
       -0.07037031 -0.1317886 -0.0820594 -0.10297081
000120 bb 92 42 bc d3 38 fd 3d bf dc e5 3c 80 60 ec bd
       -0.011875804 0.12364354 0.028059362 -0.115418434
000130 a8 86 f0 3d 2f 09 0a be 61 2d 92 3d b7 88 b4 3d
       0.11744434 -0.13480066 0.071375616 0.08815139
000140 71 57 bf bc f0 66 99 3d fc 98 0b be 81 bb db bd
       -0.023357125 0.07490337 -0.13632578 -0.10729123
000150 4b ff ec bc 1c 32 ea bd 89 5a 08 3d 85 b2 20 3d
       -0.028930327 -0.11435339 0.033289466 0.03923275
000160 3e dd 8c 3d dc bf 8d ba 18 75 d0 3c d9 e5 85 3c
       0.06878136 -0.0010814625 0.02544646 0.016344951
000170 26 aa f5 3d 96 21 57 bd 00 7a 37 3d 88 4f 32 bd
       0.11995344 -0.052522264 0.044794083 -0.04353288
000180 58 6e 64 bd d6 ed b7 bd 9c 12 5a 3c b0 86 73 3d
       -0.055769295 -0.089809105 0.013310101 0.05945462

fc3.bias f4 [2]
000000 65 13 a2 bd 2b 65 02 3e
       -0.079138555 0.12733905
