TorchModels/RLtrader43.pt (torch, 22871 bytes, 6 tensors)

fc1.weight f4 [50, 50]
000000 d5 50 98 bd 92 65 bf 3d 48 9d a3 bd 53 c3 03 be
       -0.074372925 0.09345545 -0.079889834 -0.12867479
000010 91 42 95 3d 11 e5 a3 bd 35 31 04 be fc bb e6 bd
       0.07288087 -0.08002675 -0.12909396 -0.11266324
000020 d9 4e 0b 3e 03 91 54 3b 12 e8 ea 3b 6a f5 ef bd
       0.13604297 0.0032435067 0.007168778 -0.11716731
000030 6c 6e 85 3d 21 33 ce bd 4b d3 09 3e 90 be 07 3e
       0.06515202 -0.10068346 0.13459508 0.13256288
000040 85 69 1f 3d a7 10 66 3d 57 33 0e be f9 05 fb 3d
       0.03891899 0.056168225 -0.13886772 0.122569986
000050 22 6b 5c bd ac c7 ae 3d 26 cf 97 bd 1c a1 06 3e
       -0.053813107 0.08534178 -0.07412557 0.13147396
000060 2c c8 0a 3e 59 84 78 bd e2 42 17 bb e0 02 19 bd
       0.13552922 -0.06067309 -0.0023080637 -0.037356257
000070 11 bf 4e bc 43 f2 01 be 55 8d c7 bd 78 ab cc bd
       -0.012618796 -0.12690072 -0.09743754 -0.099936426
000080 fe de 0c 3e 20 5c 00 3e 82 74 a0 bd f0 05 95 bb
       0.1375694 0.12535143 -0.07834722 -0.004547827
000090 e8 fe 51 bd 58 77 29 3d 9c 78 f5 bd d6 f0 81 3c
       -0.05126849 0.04137358 -0.11985895 0.01586191
0000a0 37 6b 0c 3e 35 cc 5f 3d b3 e7 ea bd 43 8e 58 3d
       0.13712774 0.054638106 -0.11469974 0.052870046
0000b0 14 41 09 3e 93 2b ab bd 45 60 ce 3d 69 1f ab 3d
       0.13403732 -0.083579205 0.10076956 0.083556004
0000c0 fb c5 aa bd 52 34 92 bc 55 8c 1d bd 5b 25 c6 3d
       -0.08338543 -0.017847214 -0.03846391 0.09675094
0000d0 07 45 3a bd 0d a1 09 be 91 e1 38 3d 6d d2 62 3d
       -0.045475986 -0.13440342 0.045136992 0.05537646
0000e0 95 04 b7 3d 3a 7f cc 3d 2b da 30 3c bc fc d3 3b
       0.08936421 0.09985204 0.010794203 0.0064693373
0000f0 50 9a fa bd 5d a6 04 3e 4f 06 0a be ed 70 d2 bd
       -0.12236464 0.12954088 -0.13478969 -0.10275445
000100 ef 52 27 3c 05 9a c3 3c d3 9b 73 bd e5 59 b9 bc
       0.010212644 0.023877153 -0.059474777 -0.022625873
000110 cb 74 ae bc 83 13 e8 3d 1b 64 25 bd 13 fc 35 bc
       -0.021295926 0.113318466 -0.04037867 -0.011107462
000120 29 bf 08 3d 21 82 df bd 9a b3 f1 3d b5 f4 45 3d
       0.03338543 -0.10913492 0.118018344 0.048329074
000130 67 73 56 3d d6 19 01 be a3 ee 2b 3d f0 40 af 3d
       0.05235615 -0.12607512 0.04197563 0.08557308
000140 c5 74 8f 3d d6 12 cb 3c dc f1 f9 3d ce 21 da 3a
       0.07004694 0.024789255 0.12204334 0.0016642155
000150 22 9e 1c 3d e0 56 fe 3d c1 67 a5 3a 7b c4 98 bd
       0.038236745 0.12418914 0.0012619422 -0.07459351
000160 e9 75 0d be 4e 38 26 3c 7d 95 0e be 69 62 ae bd
       -0.1381451 0.01014526 -0.13924213 -0.08514864
000170 fc 59 0f 3e 12 54 ac bd 21 12 a6 3d 34 34 89 bd
       0.1399917 -0.08414473 0.081089266 -0.0669941
000180 55 e0 f0 bd 73 b7 bc bc 9f 7b d4 3d 18 dc af bd
       -0.11761538 -0.023036694 0.10375141 -0.085869014
000190 ff bc 04 be e2 a6 d8 3d 4d b8 e4 bd ac 5a c8 3d
       -0.12962721 0.10578705 -0.11167965 0.09782919
0001a0 78 9d ab bd 19 2f 02 3e 1d d3 03 be 83 c3 07 3e
       -0.08379644 0.12713279 -0.12873502 0.13258176
0001b0 fa 3c f2 bd 86 e8 05 bd 45 8c 5c bd 2d 28 04 3e
       -0.118280366 -0.032692455 -0.05384471 0.12905951
0001c0 8d 1f 02 3e 88 ee 81 bd b4 f9 24 3c 0c c1 b7 3d
       0.12707348 -0.06344324 0.0100692995 0.08972368
0001d0 74 21 0c 3e 10 94 f7 3d 72 b8 ef 3d 39 b8 98 bc
       0.13684636 0.120887876 0.11705102 -0.018642532
0001e0 90 55 f5 3c 81 17 e1 3c 11 b0 e5 3d 6b 68 82 bd
       0.029948026 0.027477028 0.112152226 -0.063675724
0001f0 7e 1b b8 bd d3 70 6e 3d a4 17 26 bd 2b e5 7a 3d
       -0.08989619 0.058213066 -0.04054989 0.061253708
000200 72 8e f2 b9 9f 70 f9 3d 84 8d f9 bd 2d cb d8 bd
       -0.00046263967 0.12179684 -0.12185195 -0.10585628
000210 5f 59 94 3d 83 24 82 bd 39 c9 0d bd 2b f3 27 bd
       0.07243609 -0.0635462 -0.03461573 -0.041003387
000220 96 15 16 bd d5 0e 81 bc 83 1f 0b be 81 ce 9c 3d
       -0.03664168 -0.015754143 -0.1358624 0.07656575
000230 29 45 e0 3d 74 9b b3 3d eb ce 6a bb 08 95 43 bd
       0.10950691 0.08769885 -0.00358289 -0.04774955
000240 49 09 dd bd d1 85 d0 3d ce 45 ab bd b9 af 70 bd
       -0.10792787 0.101817735 -0.083629236 -0.058761332
000250 35 db 89 3d ba 64 dd bd e9 29 00 bd ed eb bf 3b
       0.067312635 -0.10810228 -0.03128997 0.005856982
000260 58 03 1d 3d ac 6d 53 3c 02 3d 89 bd 7a 05 f0 bd
       0.038333267 0.012904566 -0.067010894 -0.117197946
000270 22 db db bd 73 9e ad 3d 73 65 8b 3d 7c 40 09 3d
       -0.10735156 0.084774874 0.06806459 0.033508763
000280 c6 c0 ba bd dc 15 de 3d 7d 70 ae bd df f0 80 3d
       -0.091188 0.10844013 -0.08517549 0.062959425
000290 ce 60 cf 3d bb 83 d2 3c 80 c6 30 bc 4f 68 2e bc
       0.10125886 0.02569758 -0.010789514 -0.010644986
0002a0 6f 43 c2 3d 0a 1d d2 bd 0a 97 44 3c 18 ad aa 3d
       0.09485518 -0.10259445 0.011998901 0.08333796
0002b0 9e d0 b3 3c 7d d0 67 3d 31 11 b6 3b eb f9 f8 3d
       0.021950062 0.056595314 0.0055562486 0.12157043
0002c0 45 ef dd bd 9c 80 98 3d d4 cc 41 3c ce 02 32 bd
       -0.10836653 0.07446405 0.01182862 -0.043459706
0002d0 b8 2e 5a bd ac 45 b6 3d 18 87 0c bd ad 86 84 bd
       -0.05326721 0.089000076 -0.034308523 -0.06471
0002e0 65 ae 4c 3d d0 c6 1d 3c f2 25 e1 3d 06 c5 10 3e
       0.049971003 0.00962992 0.109935656 0.14137658
0002f0 fa f7 9e 3d e9 9c 36 3d 3e af b6 3d eb 75 0e bd
       0.077621415 0.044583235 0.089201435 -0.034780424
000300 86 1b 36 bd 34 8a 99 bd 38 e6 87 bd f1 23 ec 3d
       -0.044459842 -0.07497063 -0.066357076 0.11530293
000310 60 8f 3d bc 1b ad 3c bc cc 1b ee bd 7d 9c ef 3c
       -0.011569828 -0.011515881 -0.116263956 0.029249424
000320 1f 61 32 3d b9 85 58 3d 07 ba 1e 3c 38 f0 f4 bd
       0.043549653 0.052861903 0.009687907 -0.119598806
000330 f1 de af bd be 87 09 3d 5a 9a 29 3d 45 63 7d bc
       -0.085874446 0.03357672 0.041406967 -0.015465562
000340 b3 33 2c 3d a7 02 85 bc 9c 8c 6d bd b7 5f 81 bd
       0.04204149 -0.016236616 -0.057995424 -0.06317084
000350 04 64 8e bb e8 67 12 bd 7f 08 b2 3d 62 d6 c0 bd
       -0.004345419 -0.035743624 0.08693027 -0.0941589
000360 ca 25 dc 3d d7 4b 0b 3e ea 5d 2d bd 0b ea f3 3d
       0.10749395 0.1360315 -0.04232589 0.119098745
000370 31 47 9d 3d b7 03 2e 3c 7b 98 2d bd 7d c4 b6 bd
       0.07679594 0.010621003 -0.042381745 -0.08924196
000380 f3 fb 84 3d 79 5e aa bd 15 ba 45 bc 0e 6c ae bc
       0.06493368 -0.083188005 -0.012068291 -0.021291759
000390 d9 3a 2e bd d2 d9 cf bd fb f4 5a 3c 7e c9 0e 3c
       -0.04253659 -0.10148968 0.013364072 0.008715032
0003a0 40 a4 f9 bd 4c d3 08 3e 35 e6 8f bc 7d fb 06 3d
       -0.12189531 0.13361853 -0.017565826 0.03295468
0003b0 93 87 e3 3c 5a 48 03 3e ca 2b ca 3d b2 fe c5 bc
       0.027774608 0.12820569 0.09871633 -0.0241693
0003c0 cb 20 12 bd 7d 87 44 bd d1 f4 90 bd d2 e7 f1 bd
       -0.035675805 -0.047980774 -0.07077945 -0.11811794
0003d0 47 a9 07 3b 36 94 2f bc 12 7c a5 3d bd 9c d5 bc
       0.0020700262 -0.010716489 0.08080305 -0.026075715
0003e0 e0 8e 84 bd c8 7c 05 bd 7f 45 c2 bd e1 1f 65 3d
       -0.06472564 -0.032589704 -0.094859116 0.055938605
0003f0 df d6 d0 3c c7 01 1a 3d ef 90 c3 bd ca dc 25 3d
       0.025493084 0.03759935 -0.09549128 0.040493764

fc1.bias f4 [50]
000000 15 dd b0 3d 3f e1 0f bd cc d6 ef bd 87 4a b9 bd
       0.08635918 -0.03512692 -0.11710891 -0.09047418
000010 af ce 1d bd 06 91 7d bd bb e3 48 bd 32 4b 06 be
       -0.038527187 -0.061905883 -0.049045306 -0.13114622
000020 0e 6a 51 3d 4d d1 ab 3d af 68 8d 3b 52 02 ee 3b
       0.051126532 0.0838953 0.004315458 0.00726346
000030 23 c7 c4 3d ec f5 a5 bc 65 06 72 3b d9 83 cf 3c
       0.09608295 -0.020258866 0.003693008 0.025331425
000040 7f 3a 3a bc c4 96 a3 3d 61 02 0b 3e dc 48 64 bd
       -0.011366486 0.07987741 0.13575126 -0.055733547
000050 50 b0 e2 bd d7 da 0e 3e a9 ec d2 3c 7f 54 f7 bd
       -0.11068785 0.13950668 0.025747614 -0.12076663
000060 f5 aa b1 bd d8 df d8 3d 5e 77 e1 bc 05 df ef bd
       -0.086751856 0.1058957 -0.027522739 -0.117124595
000070 e0 45 be bd 31 8e 6c bd 0c 50 91 3c c6 06 03 be
       -0.09290671 -0.05775279 0.017738365 -0.12795553
000080 50 d4 e7 3d ef de 3e 3b 19 4e e2 3c 37 09 26 3d
       0.11319792 0.0029124578 0.02762513 0.04053613
000090 78 ec 04 3d aa bb ed 3c a6 30 b7 3d d0 40 d3 3d
       0.032452077 0.02902015 0.08944826 0.103150964
0000a0 9a a2 ee bd cc de 1e bd 14 36 6c bd 3c 30 d6 bd
       -0.116521075 -0.038786694 -0.05766876 -0.10458419
0000b0 b5 68 a2 3d 26 a4 69 bc 4a 6c 86 bd 3f 7c 3f 3d
       0.079301275 -0.014260327 -0.06563623 0.04674935
0000c0 0e 49 f5 bd a4 2e 2e 3c
       -0.11976825 0.010631237

fc2.weight f4 [50, 50]
000000 b1 ed ff bd 58 2a d6 3d bc db 98 3d ee d8 a8 bc
       -0.12496508 0.10457295 0.07463786 -0.020611253
000010 03 ea aa 3d bf 95 af bd aa d1 7b bd 63 78 c2 3c
       0.083454154 -0.08573484 -0.061479248 0.023739045
000020 f6 8d f9 bd ff b5 58 3c 3c 52 60 bc cb a8 2e 3c
       -0.1218528 0.013226985 -0.013691481 0.010660361
000030 ef 56 ec 3d 5c f3 9d 3d 7d 90 0a 3e 16 20 7f bc
       0.11540019 0.07712433 0.1353168 -0.015571615
000040 c8 c2 22 3d 66 9f f4 3d 36 7a b9 3d a8 e0 18 3c
       0.03973654 0.11944465 0.09056513 0.009330906
000050 50 a2 5f 3d 7f b6 0c 3e 51 0e 5f bd d6 93 c3 3d
       0.054598153 0.13741492 -0.054457013 0.09549682
000060 81 93 cc bd 4f 8b 81 bd f4 ae 10 bd 88 1f 64 bc
       -0.09989072 -0.06325399 -0.0353231 -0.013923533
000070 6d 56 4e bd 71 ab 0a 3e 9d 47 03 3d 69 d9 4b 3d
       -0.05037539 0.13541962 0.032050718 0.049767885
000080 84 55 06 be c9 7f cc bd ea 21 09 be 20 22 aa bd
       -0.13118559 -0.099853106 -0.13391843 -0.0830729
000090 9c 7f 4c bd 9c 68 48 bd 76 f8 21 bc ce bf b5 3d
       -0.049926385 -0.04892789 -0.009885898 0.088744745
0000a0 29 62 ac bd 96 d9 c7 bd b4 73 a3 3d f0 27 78 3d
       -0.0841716 -0.09758298 0.07981053 0.060584962
0000b0 51 6d 20 3d 79 72 b3 3d 5f 5e 1a bd af bf d5 bc
       0.039166752 0.08762068 -0.037687656 -0.026092378
0000c0 50 4b 8b bd cd 64 fa bd ba f6 91 3b 7c f4 e4 3d
       -0.06801474 -0.122262575 0.004454461 0.11179444
0000d0 2f ff 91 3d ad 7d 92 bb 00 94 58 3d 0a 45 a1 3d
       0.071287505 -0.004470548 0.05287552 0.07874496
0000e0 73 d9 1b bd d6 41 02 be 7c e2 1d 3d 9a 34 6f 3d
       -0.038049173 -0.12720427 0.03854607 0.058399774
0000f0 59 55 fe bc ef 51 c6 bd 26 e9 3d bc e4 87 ff bd
       -0.031046556 -0.09683596 -0.011591231 -0.12477091
000100 73 15 a1 3d 91 d6 86 bc 25 45 f6 3d 6d ae e4 3d
       0.07865419 -0.016459735 0.12024907 0.111660816
000110 86 16 ce 3d 98 e8 03 be 37 1d 84 3d a0 89 ca 3d
       0.1006289 -0.12881696 0.06450885 0.09889531
000120 30 27 ee 3c 09 83 f1 bd 62 52 bf 3c 3b 41 b1 3d
       0.02907142 -0.11792571 0.023354713 0.0865502
000130 7b 7f 1d 3d b4 8a a4 3d e1 0a bd bd 8e 27 04 3e
       0.038451653 0.08034268 -0.092305906 0.12905714
000140 bd 03 f9 bd 85 70 d6 3d 65 99 80 bd 86 8b c9 3d
       -0.12158916 0.1047068 -0.06279258 0.09841065
000150 e3 45 69 bd 72 53 9e 3d a8 95 f2 bd 94 01 76 3d
       -0.056951415 0.0773076 -0.11844951 0.0600601
000160 ce 37 a2 3d d4 b8 98 bd 30 f7 bf bd f0 72 04 3e
       0.079208 -0.07457128 -0.09373319 0.1293447
000170 18 c4 8d bd 26 05 03 be c5 3b 96 3d 6e 9d fb 3c
       -0.069221675 -0.12794933 0.07335619 0.030714717
000180 28 e1 cf bd 21 82 17 3d c3 69 88 3d bb 69 dc 3d
       -0.10150367 0.036989335 0.066607974 0.10762354
000190 4e 3b 10 3e 95 4b 0c 3b 0d 67 b6 bd d8 4a 55 bd
       0.14085123 0.0021407355 -0.08906374 -0.05207333
0001a0 a0 de 6c 3d 92 93 50 3c 70 4f ba 3d 21 23 d5 3d
       0.0578295 0.012730496 0.09097183 0.10407091
0001b0 8b d5 0a 3e 86 d5 12 3d 00 31 ea bc 55 b9 fe bd
       0.13558023 0.035848163 -0.028587818 -0.12437693
0001c0 5f d4 8e bd bd 14 eb 3d e3 ae eb bc f9 8a 95 bd
       -0.069741 0.11478565 -0.028769916 -0.073018976
0001d0 02 15 75 bd 3f 48 0a be 1f 97 b0 3b dc 1a 9e 3d
       -0.059834488 -0.13504122 0.005389109 0.07719967
0001e0 1f d5 e9 bd 66 70 ec bd 67 f9 4a bd 37 bd 07 be
       -0.11417603 -0.11544876 -0.049554255 -0.13255773
0001f0 fb 78 ac bd ae 77 b5 3d d9 fe a9 3d fa bf ec 3d
       -0.08421513 0.08860718 0.083005615 0.11560054
000200 ba 67 13 3d a9 dd e0 3b 4a cd 0b be e2 29 ed bd
       0.035987593 0.0068623614 -0.1365253 -0.11580254
000210 9f bf 8c bd 8a 28 3e bc 1a 75 d9 3c c1 38 d0 bd
       -0.06872486 -0.011606345 0.026545096 -0.10167075
000220 d7 6e 29 bd f7 e6 52 bd 7f 52 e1 3d f7 ef 09 be
       -0.04136547 -0.051489796 0.11002063 -0.13470446
000230 dd 6c 57 bd 9f 53 ce bd d0 a0 69 bc ee 23 98 3b
       -0.052594054 -0.10074543 -0.014259532 0.004642955
000240 dd 0a 05 be d3 f5 0c be 43 3f c4 3d 51 0b 81 3d
       -0.12992425 -0.1376565 0.09582379 0.063009866
000250 0b 31 33 bc 43 0f 06 bd c1 e6 ac 3d 43 8f ad 3d
       -0.010936986 -0.0327294 0.0844245 0.08474591
000260 13 bc 8a 3d 57 30 94 bd 57 72 6b 3d ed af 53 3d
       0.067741536 -0.072357826 0.05748209 0.051681448
000270 af 13 83 bc 64 2d 0b be cd 92 83 bd 45 f0 c2 3d
       -0.016000597 -0.13591534 -0.064244844 0.09518484
000280 7b a4 74 3d 1d eb 03 be 24 5a 26 3d 14 a7 32 bd
       0.059727173 -0.12882657 0.04061331 -0.04361637
000290 9e 89 65 3d f3 64 09 be a6 62 c7 bd 1c 90 6f 3d
       0.056039445 -0.13417415 -0.097356126 0.058487043
0002a0 ce 27 95 bb a2 ce 27 3b 4c 72 de bd 91 17 a4 3d
       -0.004551864 0.002560534 -0.10861644 0.080123074
0002b0 ad 76 16 3c 30 7e d4 bd 0b db 30 3d 75 53 bc bd
       0.009183568 -0.10375631 0.043177646 -0.09195606
0002c0 e0 b2 a1 3b 93 ed ab bd c0 2a 00 be 97 68 6f 3b
       0.0049346536 -0.08394923 -0.12516308 0.0036530846
0002d0 94 fc c4 bd 8b 86 da bc 50 e9 06 be 48 01 28 bd
       -0.09618488 -0.026675483 -0.13174939 -0.041016847
0002e0 90 fc 8f 3d 88 ef 11 be 0a 3f 79 3d 98 aa f3 bd
       0.07030594 -0.1425153 0.060851134 -0.118977726
0002f0 73 f1 0e be 0d c4 0e be 03 4d 54 3d 9d 81 fb ba
       -0.13959293 -0.13941975 0.051831257 -0.0019188408
000300 3d 24 a0 3d 23 03 79 bd 6a e9 3e 3d 82 06 ad bd
       0.07819412 -0.060794007 0.04660932 -0.08448507
000310 5c 9e f9 bd 67 ae d8 3b 5f e2 05 be b2 8c 47 bc
       -0.12188408 0.0066125873 -0.13074635 -0.0121795405
000320 26 71 73 bc fa 26 d5 bd f8 c5 be bd 95 20 1c 3c
       -0.01485852 -0.10407825 -0.09315103 0.009529253
000330 c0 82 3d bd 22 d1 89 bd ea 14 5c 3d ca c2 df 3c
       -0.04626727 -0.06729342 0.053730883 0.027314562
000340 9b 06 5d 3d 15 dc ff 3d d1 11 96 bd 6f 0b bb 3d
       0.053961378 0.12493149 -0.07327617 0.0913304
000350 2a 94 15 3d 09 9b 09 3e 2d 5e 27 bd 4e 11 70 3c
       0.036518253 0.13438047 -0.040861297 0.014652563
000360 01 95 93 3d 3c eb a5 3d f4 36 dd bd 97 d4 3b 3d
       0.072061546 0.08101508 -0.10801497 0.04585704
000370 90 49 c6 3d 6c 92 28 3d 8f b9 b8 3d 1e 6b db 3d
       0.09682 0.041155264 0.090197675 0.1071379
000380 7e 56 08 3e fa 03 fe bd 52 4a 11 3e 96 f4 9c bd
       0.13314244 -0.12403102 0.14188507 -0.076638386
000390 4b f7 88 bd 8e 04 0d 3e 8f ca 03 3d c5 28 50 3c
       -0.066877924 0.13771269 0.032175597 0.012705033
0003a0 92 82 02 3c cc 78 05 be ec 7a 97 3d 50 ce 92 bd
       0.007965701 -0.13034362 0.07396492 -0.07168257
0003b0 c5 98 00 be 06 b2 0e be 03 b9 e9 bd eb b6 dd bc
       -0.12558277 -0.13935098 -0.11412241 -0.027064761
0003c0 7e 47 03 3e f7 ad 9c bd 1b d3 08 be af 5d 4f 3d
       0.12820241 -0.07650369 -0.1336178 0.050626453
0003d0 f2 14 42 3d 87 23 a3 bd 1e a8 4a 3d c3 9d 3f bd
       0.047383256 -0.07965761 0.049476735 -0.046781313
0003e0 a3 a0 34 3d 70 51 98 bd 3f e8 e7 3c b7 20 51 bd
       0.044098508 -0.07437408 0.028308986 -0.05105659
0003f0 ef 89 b9 3c f2 54 4c 3d ff 43 d5 3c 4f d9 94 bc
       0.02264878 0.049885698 0.0260334 -0.018170027

fc2.bias f4 [50]
000000 44 c5 02 3e 80 03 e0 3d b8 72 d6 bd 1b ee b2 3d
       0.12770563 0.109381676 -0.104710996 0.08736821
000010 25 26 00 be 15 bc d3 bd 79 22 0e 3e 8d 17 89 bd
       -0.12514551 -0.10338608 0.13880338 -0.06693945
000020 5f 82 3e 3c 50 4b 17 3d 88 7e ed 3d 30 19 d0 bd
       0.011627763 0.036937058 0.115963995 -0.10161054
000030 0c 14 f3 3d 33 23 df 3d c5 3a 46 bd 29 cb 08 bd
       0.11869058 0.108953856 -0.04839589 -0.033396874
000040 c4 e2 4f bd 63 a4 d1 bc 46 6c 06 be b7 6e d3 bd
       -0.05075337 -0.025591081 -0.1312724 -0.103238516
000050 95 eb 53 3d 20 25 ca bd 97 34 08 3e 7d 68 5b 3b
       0.05173834 -0.09870362 0.13301311 0.0033479028
000060 0c 02 d4 3c 89 34 a2 bd 0e cb e6 bd 64 6b d9 3d
       0.025879882 -0.079201765 -0.11269198 0.10616186
000070 a4 32 fc 3d 5e 58 03 3e 37 05 8b 3d bb 03 16 3b
       0.123143464 0.12826678 0.06788104 0.0022890407
000080 61 af f4 bc d9 c3 97 3d 1b 19 fe 3d d2 63 37 3d
       -0.029868783 0.07410402 0.12407132 0.04477293
000090 9f 26 54 3d 21 3e 25 3c 7e 1c c2 bd 0f 1e f3 3d
       0.051794644 0.0100856135 -0.09478091 0.118709676
0000a0 a8 61 03 be 9a 87 8a 39 17 a1 19 bd 86 d9 bb bd
       -0.12830222 0.00026422442 -0.037507143 -0.09172349
0000b0 b9 68 44 bd 32 c7 dd bd da 7e ef bd 64 a1 71 3d
       -0.047951434 -0.10829009 -0.11694117 0.058991805
0000c0 a0 31 e2 bd 49 2e 8f bd
       -0.110446215 -0.0699125

fc3.weight f4 [2, 50]
000000 3d 51 fe 3d 83 3f f4 bc db 17 b3 3d 15 30 fb 3d
       0.12417839 -0.029815441 0.087447844 0.1226503
000010 fe e7 c9 bd 97 a6 91 bd 51 5b 80 bd cc 4b 57 3d
       -0.09858702 -0.071118526 -0.06267417 0.05256252
000020 ab ed 33 3c db 4a f1 bd aa d0 f5 3d 23 ad ce ba
       0.010981957 -0.11781856 0.1200269 -0.0015768151
000030 c3 b8 de bd e8 17 82 3d 3c bf ae bd 6a 36 bc 39
       -0.10875084 0.06352216 -0.08532569 0.00035898696
000040 92 04 cd 3d d4 03 3a 3b 24 f8 09 3e 24 7f 08 3e
       0.10010637 0.002838363 0.13473564 0.1332975
000050 1a 70 8a bc 87 34 b3 3d 5a e6 e5 3d ae 6f 59 bd
       -0.016899157 0.08750253 0.11225577 -0.05308502
000060 8b 54 28 3d f4 81 de bd de 22 b5 3d 77 18 c2 3d
       0.04109625 -0.1086463 0.08844541 0.094773225
000070 2b 7f 12 be 62 52 6c bd 83 b3 cb bd 3b 18 f0 bd
       -0.14306323 -0.057695754 -0.099463485 -0.117233716
000080 f7 16 a9 bd 04 1c ec 3d c1 23 44 3c b1 d3 ca bd
       -0.08256333 0.11528781 0.011971415 -0.09903658
000090 2f 02 1b bd 22 7b 0b be a5 75 10 be 89 03 04 3e
       -0.03784388 -0.1362119 -0.14107378 0.12891974
0000a0 67 68 98 3d 07 28 25 3d 21 7a 4b 3c 64 6d e7 bc
       0.07441788 0.040321376 0.0124192545 -0.028250404
0000b0 47 ca 8e 3d 4b a3 d4 bd 4f 25 ab 3d 79 a5 17 bc
       0.06972175 -0.10382708 0.083567254 -0.00925576
0000c0 ee 3d 10 be 96 a6 c2 3d 7b 71 b7 bc e0 72 ae bd
       -0.14086124 0.0950443 -0.022392979 -0.085180044
0000d0 a2 59 38 bd 59 6f 0c 3e da 3b eb bd 70 28 e9 3d
       -0.045007356 0.13714351 -0.11486025 0.11384666
0000e0 b3 94 07 3e 84 cb eb bc 45 1e 86 3c 69 bd ad 3d
       0.13240318 -0.028783567 0.016371856 0.08483393
0000f0 fa a1 17 bd 02 02 87 3d f6 11 ad 3d b1 e5 9b bd
       -0.037019707 0.0659218 0.084506914 -0.076121695
000100 37 ba fb 3d cf 68 ea bd 4a 72 8a bd b6 1c cf bd
       0.12291377 -0.11445772 -0.0676008 -0.10112898
000110 50 76 77 bc 9c 60 bc 3d 19 8e 07 be 57 52 c3 bd
       -0.0151038915 0.09198114 -0.132378 -0.095371895
000120 68 29 0f be 04 5e 42 3c df d4 f0 3c e8 ce a7 bd
       -0.13980639 0.011863235 0.02939838 -0.08193761
000130 2d 59 91 bd 5f f9 0d 3e e1 a6 22 bd 12 2f 30 3d
       -0.07097087 0.13864659 -0.03970993 0.04301364
000140 44 de 80 bd cd 6e f7 3d 68 70 d2 3a 09 e0 e3 3d
       -0.06292394 0.120816804 0.0016055228 0.11126716
000150 16 b6 1d bc 2e 96 c5 bd cc 07 6b 3d cc 14 4d 3c
       -0.009625932 -0.09647785 0.057380483 0.012517165
000160 07 dd 2a bc 95 b7 ca 3d 15 b0 ec 3d dc c8 e2 bb
       -0.010428674 0.09898297 0.115570225 -0.006920917
000170 26 54 66 bd 62 95 93 bd 39 27 49 3d 22 a7 91 3c
       -0.056232594 -0.07206227 0.04910967 0.01777989
000180 00 58 57 bd 9f 95 a1 3d 9d 31 b7 bb d9 02 a9 bd
       -0.052574158 0.07889866 -0.005590631 -0.08252496

fc3.bias f4 [2]
000000 2d 6a 6b 3c 9f 89 a4 3d
       0.014368576 0.08034062
