TorchModels/RLtrader34.pt (torch, 22871 bytes, 6 tensors)

fc1.weight f4 [50, 50]
00000000: b97e da3d 2549 afbd cf4f dbbd c88a a93d
00000010: b2f8 1fbd 7b7d cebc 61af e7ba 3f1f 7a3d
00000020: bd43 6cbd 8ef2 083e 3ed1 a83d 79e0 7fbd
00000030: dd9e f4bd a077 a83a fe3a 113e 14bd 4d3d
00000040: eaf5 bebd c21a c2bd dc8f 5bbd c35d 00be
00000050: fa4a d3bd b52d dabd 8f79 d8bd a26c 763d
00000060: e6be 0d3e 7469 b63d f64f 553d 7223 80bd
00000070: 9b44 f33b 242a e93d d5bf 5abd 8847 acbc
00000080: e02a d8bd bd9b f53d 5d4c 083e 1bdd 823d
00000090: 3fff dbbd f4c0 c6bb 7f33 32bd 65ee 093d
000000a0: 827c 54bd a9f4 eb3d dab7 5abd a27c 3cbd
000000b0: abbf 9cbd f02e 77bd 013a 663d 8e6a 003b
000000c0: 1b0c c5bd a2e6 4abd 29ed e1bd b893 273d
000000d0: c57e de3d bc74 443d 3c38 85bd 7847 903d
000000e0: 51eb 113e 58e6 47bc c9d4 0c3e 3e4e 133e
000000f0: 71db b23c 8ea4 e93c 326f 07be d393 2aba
00000100: 88ed c8bc e5bb d7bd 406f 53bd 4305 84bd
00000110: 4a97 8abd 8076 a5bd 534c 723d d1e1 2bbc
00000120: 7c03 9e3d fc4e 683c 25a2 7d3d 4d71 513d
00000130: ab01 d9bc 6720 cbbd d2a8 d03d 9c23 1b3c
00000140: ba3e 74bc 63c5 6ebd 460c 793c a3b7 693d
00000150: 536a 5e3d b629 09bc a150 1abb db17 bf3d
00000160: f660 0b3e c928 e5bd d3fe 373d 0187 b33c
00000170: 83db e13c 3dc7 60bd 97b0 6f3c 89ce 8cbc
00000180: 07ee df3d a356 113d 72bb f53c 1f51 9b3d
00000190: 6332 893d 71ed f8bd 1acd bd3a c77e 283d
000001a0: b42e 47bd f08d 703d 1210 63bd 8097 c4bd
000001b0: 78c5 cabd 1057 f53d bdd9 2dbd 7593 d3bd
000001c0: 0e31 e5bd 2b6a 33bd 33cd 55bd f25a ac3d
000001d0: a24a ebba 4b86 a63d aab5 d33d 132b ff3d
000001e0: 19e9 86bc 14bc 21bd 7a23 d13d ba37 2f3c
000001f0: 0eea ffbd 7876 653d 46d3 2f3c 59fe 683d
00000200: ade7 233d a8fb 46bd 4f69 06be 63a7 9f3d
00000210: 5268 7b3c fb91 973d 4d26 463d e4aa 0ebe
00000220: a67f 22bd a531 9e3d fbb4 febd 718e e4bc
00000230: e546 bdbc 7661 853d 3076 09be 75ff 0abe
00000240: bb29 6f3d af1b 93bd 7adf efbd 0605 dc3d
00000250: 4eef ee3d 9e42 8fbc 3f9d d03c 1929 44bd
00000260: 50de d9bd c0c1 a93d 8416 063d 8f91 1fbd
00000270: 9842 ebbd 03e4 963d 74da 76bd f693 093e
00000280: 5d50 ed3b 8300 8a3d 3b43 c3ba 5624 98bd
00000290: f226 df3d d3aa 1d3a fc28 d2bd ee2d 7d3c
000002a0: 2deb b13d 8b42 d5bd 9909 8ebc 1fb4 103d
000002b0: ec33 a0bb 0be6 f7bc 4445 b1ba 26a5 8bbd
000002c0: eea8 c1bc 6bd6 e83c ebb3 b53d 7859 f63b
000002d0: 14a2 b63c 9635 0c3e 6b0d 1f3d 9356 eebd
000002e0: 2ac7 623d 150c 0bbe af84 523d 6e1f fd3c
000002f0: 7c64 0e3e e916 083e 785a b73d 93f0 853d
00000300: 2194 d13d f9a0 05be 0151 b33c 8d4e 28bd
00000310: 471a c5bd 4d48 0d3e f701 0b3d a73b 083e
00000320: a715 bcbd 8edc dcbd ee8e ed3b d4ad ec3d
00000330: ace4 623d 257a 04bd a20d 033e 9b6b 84bc
00000340: 7189 1cbd b03c 0bbe e0a1 d33d c5c3 d0bd
00000350: 427c a1bd 5e1e bfbd c71d b8bd 6beb 7c3d
00000360: 696e b4bd 3f7c 4d3d 544a 51bc 5981 833c
00000370: 6048 2dbd 8ebe c93d f2ac 8bbd a539 bcbd
00000380: a1fa f2bd a9c7 8dbc c0fe c13d c857 3d3d
00000390: a667 eebd 5a62 e8bd 5bc3 61bd 3511 21bd
000003a0: 511a 093e 18dd 173d 53ff ac3d acf1 edbd
000003b0: 97be 35bd 8c91 52bd 7836 a0bd 3179 943d
000003c0: ffe6 edbd 0de0 ed3c 36bf 03be 2084 463d
000003d0: 1173 fe3d 24c4 873c 243a 96bd b0ac dfbd
000003e0: 8734 03be 7a6a cb3d 9b24 03be f1fe b03d
000003f0: 47cf b93d 2c85 8a3d 6473 0f3c 4dc5 d23d
0.10668702 -0.08558873 -0.10708582 0.082784235 -0.039055534 -0.025206318 -0.0017676168 0.061064955
-0.057681788 0.13373777 0.08243035 -0.062469933 -0.11944363 0.0012853034 0.1418266 0.050229147
-0.09324248 -0.0947776 -0.053603992 -0.12535767 -0.10317035 -0.10653249 -0.105700605 0.060162194
0.13842353 0.08906832 0.05207821 -0.06256761 0.00742395 0.11384991 -0.0534056 -0.021030203
-0.10555053 0.11992595 0.1331038 0.06389829 -0.10742044 -0.0060654823 -0.04350614 0.033674616
-0.051876552 0.115212746 -0.05339799 -0.046017297 -0.07653745 -0.060347497 0.05620766 0.0019594762
-0.096214496 -0.049536355 -0.11031563 0.04091236 0.10864023 0.04796289 -0.065048665 0.070448816
0.14249922 -0.012200914 0.13753046 0.14385316 0.021833153 0.028520849 -0.13226011 -0.0006507013
-0.024527326 -0.10533885 -0.05161977 -0.06446316 -0.06767137 -0.08079243 0.05915482 -0.010490851
0.07715508 0.014178988 0.06192221 0.051133443 -0.026490053 -0.0991829 0.1018845 0.009468939
-0.014907533 -0.05829371 0.01520068 0.057059895 0.054300617 -0.008371761 -0.0023546594 0.09330722
0.13611206 -0.1118942 0.044920754 0.02191496 0.027570492 -0.05487751 0.014629505 -0.017188327
0.10934072 0.035483014 0.029996607 0.07583832 0.06699064 -0.12154663 0.0014480681 0.04113653
-0.048628524 0.058729112 -0.055435248 -0.09599209 -0.099009454 0.119794965 -0.04244398 -0.103308596
-0.11190997 -0.04380242 -0.052197646 0.08415784 -0.001795132 0.08131083 0.10337384 0.12459388
-0.016468571 -0.039486006 0.10211845 0.010694439 -0.12495814 0.056021184 0.010731524 0.05688319
0.040015865 -0.04857984 -0.1312611 0.07795598 0.015344696 0.074008904 0.04837637 -0.13932377
-0.039672516 0.07724313 -0.12436863 -0.027899953 -0.023105094 0.0651273 -0.13423991 -0.13574012
0.058389407 -0.071830146 -0.11712547 0.10743146 0.116667375 -0.01748782 0.025465606 -0.047890756
-0.10638106 0.08288908 0.032736316 -0.038957175 -0.11487311 0.073677085 -0.060266927 0.13435349
0.007242246 0.06738379 -0.0014897356 -0.074288055 0.108961 0.00060145295 -0.102617234 0.015452845
0.08687434 -0.10413083 -0.01733856 0.035328027 -0.004889002 -0.03026106 -0.0013524671 -0.06818609
-0.023640122 0.028422555 0.08872207 0.0075179897 0.022294082 0.13692316 0.038831156 -0.116376065
0.05536572 -0.13578828 0.05139607 0.030898776 0.13905519 0.1328999 0.089528024 0.065400265
0.102333315 -0.13049687 0.021889212 -0.041090537 -0.09624153 0.13797112 0.03393742 0.13304006
-0.09183817 -0.10784255 0.0072497046 0.115565926 0.05539386 -0.03234305 0.1279817 -0.016164592
-0.03821701 -0.13597369 0.103336096 -0.1019359 -0.078850284 -0.09331964 -0.089900546 0.06174795
-0.088101216 0.05016732 -0.012774069 0.016052889 -0.04230535 0.098507985 -0.06820096 -0.09190682
-0.1186421 -0.01730712 0.09472418 0.046226293 -0.11640863 -0.11346884 -0.055117946 -0.03932305
0.13388945 0.037076086 0.08447137 -0.11618361 -0.044371214 -0.051408336 -0.07822889 0.07249678
-0.11616325 0.0290375 -0.1286591 0.048465848 0.12424291 0.01657302 -0.07335308 -0.109216094
-0.12813006 0.09932418 -0.12806933 0.08642376 0.09072738 0.06763682 0.008755539 0.102915384

fc1.bias f4 [50]
00000000: e1b7 cf3d 1b6e 9a3d 3668 513d 69c3 433d
00000010: d545 0dbe 7ab5 e53c ff1d e33d a035 573d
00000020: b00b 85bc b394 fd3d 0f1d 29bd f616 babd
00000030: c0f9 fe3c af4c c2bc b17f b53d 11ba 65bd
00000040: 3487 003e 407a 463d 4686 f33d 3d88 5e3d
00000050: c25c 3cbd 6fdf fe3d c965 86bd 8170 d4bd
00000060: 40fe 113e 91b1 a83d da71 483d a0ca 81bc
00000070: 1051 32bd 223b f5bd 8bc8 09be 77fe d9bd
00000080: b0ab dcbc 2160 80bd 9dce 44ba 94cb 37bd
00000090: 7400 6f3d ef7e 01be e22f 02be 27ca 033e
000000a0: 8fd6 9cbc 4414 b6bd 2290 e5bd 51a4 aabd
000000b0: 81bb 9ebd 6e55 313d 4ff1 aebd 83cb 653d
000000c0: 8e90 d4bb bd31 d5bc
0.10142494 0.07540532 0.051124774 0.04779378 -0.1379617 0.028040636 0.11089706 0.052541375
-0.016240925 0.12381878 -0.041287478 -0.09086411 0.03112495 -0.023718206 0.08862246 -0.05608565
0.12551576 0.04845643 0.11890845 0.054329146 -0.0459869 0.1244496 -0.06562383 -0.10373021
0.14257145 0.08236993 0.048936702 -0.01584369 -0.04353434 -0.11974169 -0.13455407 -0.106442384
-0.026937336 -0.06268335 -0.00075075944 -0.04487188 0.05835004 -0.12646078 -0.12713578 0.12870084
-0.019145278 -0.08890584 -0.11209132 -0.08332122 -0.07750607 0.043294363 -0.0854212 0.056102287
-0.006486959 -0.026024694

fc2.weight f4 [50, 50]
00000000: 9d43 b5bd ce1e 09be 7ba0 ac3d 0f86 9e3c
00000010: b508 c13d 9cc9 0a3d 9c7e 093e 7cfe b7bd
00000020: cce3 873d 7bce b63c ca7a eabc 7de3 ecbd
00000030: 94ff 993d 7aab b23d a95a 02be 056e 50bd
00000040: 66c0 823d e5db acbd 42c9 f43c 6e27 aa3d
00000050: 7dae 81bd 1e08 203d 8e4e f23d 707c 89bd
00000060: ece2 92bd fff8 023d ba5c 94bd cdf4 16bd
00000070: df4b 963d 9c51 d13a 25a9 073b 402c b1bc
00000080: 0358 fc3d efd9 7b3c fd56 e1bd 09c9 fb3a
00000090: ab1d 90bd 186f c93d 0b11 873d 4ad0 093e
000000a0: af7b d23d aef7 723d c4bd f23c 5ec8 3fbd
000000b0: b47d ddbb e322 9cbd f41d d23d 2b0c 76bd
000000c0: 3a24 f03d a3cd d53d 1811 8bbd 748a b8bd
000000d0: 874d 12be 3807 053e fc48 d7b9 b230 093d
000000e0: 5c96 4c3c 877b 91bd 1796 fd3c cb74 3cbd
000000f0: 8e26 d13d fdff 413d 18c5 383d 6beb 68bd
00000100: 6d1b a83d 81f6 7b3d 1902 e2bd c717 c3bd
00000110: 2158 03be d1ac 083c 2851 07bd c50b a4bc
00000120: e7b3 073e bcfc fdbd 58ed babc cb34 d83c
00000130: 782e a7bd 11dd bbbd 3ae2 063e 008d 323b
00000140: f3b8 0a3c 0dfb 0dbe fcb6 5f3d 28ed 7abd
00000150: 0dbb ebbd 563a d0bd b1e1 053e b522 e33d
00000160: dd56 ecbd ea02 db3d 8fcc f8bd e838 463d
00000170: 4fd4 53bd 06da c73d b166 11be aae5 023e
00000180: 67f2 91bd fe45 bcbd 937a 423d 36d2 9c3d
00000190: a2e0 1c3d b173 403d 3ffc c7bc 8b65 013e
000001a0: 8c2a b4bc afd6 953c 7e75 b6bd 222e 83bd
000001b0: f349 81bc 0c19 e33c be06 8abd a2b1 f1bc
000001c0: 4e92 c5bd 1a1f ea3d 80d2 4bbd cdcb f93d
000001d0: 4ab9 cfbd 8578 acbd 0c03 4bbd f22b 43ba
000001e0: bdc2 ca3d 3f6d af3d a428 cb3c a2f2 9abd
000001f0: 04b9 afbd 84e0 80bd 8a9c b7bd 1644 a73d
00000200: c2d8 083e 5932 c6bd 79e4 023e 6644 39bd
00000210: 8b99 8e3d be20 39bd 589c edbd d291 d2bd
00000220: ce86 9dbd 790e 08be 8397 1dbd 7032 eabd
00000230: 4d3d ad3c 6a37 f1bb b45c f23c 559d 263c
00000240: b023 b5bb 7b3d c93d 2f00 d6bc 5ab8 e03d
00000250: d5e4 d93d 5f3e 69bd cceb 143d 9c4a 0ebe
00000260: f109 ab3d 51de de3d 2e74 773d af82 d9bd
00000270: 26fe f4bd 8af0 083e e2b5 3d3d de4b 4ebd
00000280: 974e 053e a62d 8b3d ea0b 2a3d 7521 6a3d
00000290: bd02 67bd 500a 0dbd 958d a73d c646 133d
000002a0: ae69 2abd a701 b1bd ecae f1ba 89df e03d
000002b0: cf63 f23a ea2a 9b3a a6d1 96bc 183b c83d
000002c0: e784 423d d7ba 0abe 29c9 8ebd 1e0c 233d
000002d0: 8340 113e 396e e1bc 7140 c43d 4b4d ca3d
000002e0: ca3c 013e beab ab3d 3cc1 8c3d 50f0 21bd
000002f0: 0701 fb3c b600 09be dd80 b7bd aeb3 413c
00000300: f8e0 70bd 39dd 163d 59fb 8a3d be53 6e3d
00000310: 08b4 cebd c01f 023e a7cf a83c 8b78 60bd
00000320: 3d1d a4bd 4b99 a7bd 4447 ed3d 26ca f9bd
00000330: e69a 91bd 3e78 0ebe 906e ddbd 59b4 ce3b
00000340: a58e b23c e6e3 843d bd6b da3d 4d6c eebd
00000350: 8f85 abbd 1ceb d93b 5cf0 0d3e 7377 04be
00000360: 39f2 94bd e2d1 7e3c 7aa9 b2bc 1235 f53d
00000370: 6ad6 b33d d9ca 0cbe 816d 8b3d 3385 0bbe
00000380: 7864 133d ba98 9dbd 5c9f ad3d 4f63 f53d
00000390: 80e3 22bc 5d5a 08be 8fb2 033e 284e 8c3d
000003a0: f2ba 013c 720b 723c 461a 10be cb84 08be
000003b0: 6859 4dbd c09e 0d3e 84c7 f43d 1311 d93d
000003c0: 9977 d0bd fa90 9e3d 0b0e fc3d d684 133d
000003d0: 161a 8bbb 8616 913b 52de 2fbd a585 77bb
000003e0: c9bc 0ebe 0837 013e 82e5 ba3d 48af b5bd
000003f0: fb0f b1bd 603d d43d 5065 7fbd 6fea c4bb
-0.08850787 -0.13390657 0.08429047 0.019351033 0.09425489 0.033883676 0.13427204 -0.08984086
0.06635246 0.022315254 -0.028623004 -0.115668274 0.07519451 0.08724113 -0.12729897 -0.050886173
0.06384353 -0.08440379 0.029881123 0.08308302 -0.06332109 0.03907024 0.11831389 -0.06713188
-0.07172188 0.031975742 -0.07244249 -0.036854554 0.0733869 0.0015969756 0.0020700183 -0.021627545
0.123214744 0.015371784 -0.1100292 0.0019209693 -0.07036909 0.098356426 0.065950476 0.13458362
0.10277497 0.059318237 0.029631503 -0.046821944 -0.0067593697 -0.076238416 0.10259619 -0.060070198
0.1172566 0.10439613 -0.0679037 -0.09010783 -0.14287387 0.12991035 -0.00041062373 0.033493705
0.01248702 -0.07103639 0.030955357 -0.04600982 0.10212432 0.04736327 0.04510984 -0.056865137
0.08208356 0.06151438 -0.11035556 -0.095260195 -0.12826587 0.008341984 -0.03303638 -0.020025143
0.13252221 -0.12401721 -0.022818252 0.026392361 -0.0816316 -0.091730244 0.13172236 0.0027244687
0.008466947 -0.138653 0.054617867 -0.061261326 -0.115102865 -0.10167377 0.13074376 0.11090604
-0.11540005 0.10693915 -0.121483915 0.048394114 -0.051716145 0.097583815 -0.1419933 0.12782922
-0.07126313 -0.091930375 0.047480177 0.07657282 0.038300164 0.046985332 -0.024412272 0.12636392
-0.021992944 0.018290846 -0.089091286 -0.064052835 -0.015782332 0.027721904 -0.06739567 -0.029503647
-0.09647046 0.114317134 -0.049761295 0.12197075 -0.10142763 -0.08421425 -0.049563453 -0.0007445208
0.09900425 0.08565759 0.024799652 -0.0756581 -0.08580211 -0.06292823 -0.08965404 0.08167283
0.13363937 -0.09677572 0.12782468 -0.045231245 0.0696288 -0.04519724 -0.11602086 -0.10281719
-0.076917276 -0.13286771 -0.03847457 -0.114354014 0.021147395 -0.007361342 0.02958522 0.010169347
-0.005527936 0.098261796 -0.026123134 0.10972662 0.10639349 -0.056944247 0.036357686 -0.13895649
0.083515055 0.10882247 0.060413532 -0.10620629 -0.119625375 0.13373008 0.046316035 -0.05036532
0.13018261 0.06795816 0.04151527 0.057160813 -0.056399096 -0.034433663 0.081813015 0.035956167
-0.04160469 -0.08642893 -0.0018438972 0.10980136 0.001849288 0.0011838351 -0.018410515 0.09776896
0.047490027 -0.13547836 -0.06971962 0.039806478 0.14184766 -0.027518379 0.09582604 0.09878024
0.12620845 0.083823666 0.06872794 -0.03953582 0.030640138 -0.13379177 -0.089601256 0.011822624
-0.058808297 0.036832068 0.06786222 0.05818533 -0.10092932 0.12707424 0.020606829 -0.05480246
-0.08013389 -0.08183535 0.115858585 -0.1219676 -0.07109623 -0.13913056 -0.10812104 0.00630812
0.021796534 0.06488781 0.10665081 -0.116417505 -0.08375084 0.0066503417 0.13861221 -0.12936191
-0.07272763 0.01555297 -0.021809328 0.11973013 0.087811306 -0.13749255 0.068079956 -0.1362503
0.035984486 -0.07695146 0.08477661 0.11981832 -0.009941936 -0.13315721 0.12861083 0.068508446
0.007918106 0.014773237 -0.14072523 -0.13331906 -0.050134093 0.1383009 0.11952117 0.1059896
-0.101790614 0.07742496 0.12307366 0.036015354 -0.004245053 0.004427734 -0.04293663 -0.0037768867
-0.13939203 0.12618649 0.091258064 -0.08871323 -0.08645626 0.10363269 -0.06235248 -0.006009392

fc2.bias f4 [50]
00000000: 18f4 72bd c775 80bd 0f7c 5a3d daed cb3d
00000010: 750e ab3d 3d3f 853c 4d55 21bd ccfc 8fbb
00000020: 075e 063e 89e0 01be 1a29 0a3e 20e1 053e
00000030: 8c7a b7bd 5b23 e1bc 31f3 b73d 419a 5d3d
00000040: 110a 903b 85f6 9abd df54 e43d 2228 053c
00000050: 6432 683c 68e1 c2bd 950b ba3d a61c 12be
00000060: 9147 033d b837 053d bf5e aabd 8f96 fcbd
00000070: 9b6e 0c3e 7616 e13d 3fde 28bd 2145 f4bb
00000080: fb74 6d3d 6cbc 04be bb87 d3bd ddc5 4c3c
00000090: ed1f 403d aa7c 42bd a73f 263d b956 f0bd
000000a0: bbc0 173d a96f ebbd 2064 e5bd 29fe 6f3d
000000b0: 1907 a4bd 0a6e 633d 8503 10be 0914 a7bd
000000c0: ac78 a3bd 1024 0e3e
-0.059314817 -0.06272464 0.053340968 0.09957476 0.08352367 0.016265506 -0.03938799 -0.0043941494
0.13121806 -0.1268331 0.13492242 0.1307416 -0.08958921 -0.02748268 0.08981932 0.054102186
0.0043957313 -0.07566551 0.111490004 0.008127244 0.01417217 -0.09515649 0.0908424 -0.14268741
0.032050673 0.03252384 -0.08318853 -0.12333404 0.13714068 0.10990612 -0.041227575 -0.00745453
0.05797289 -0.12962502 -0.10328623 0.012498346 0.046905447 -0.04748217 0.040588047 -0.11735291
0.037049036 -0.11495907 -0.11200738 0.058591995 -0.08009166 0.055524863 -0.14063843 -0.08158118
-0.07982001 0.13880944

fc3.weight f4 [2, 50]
00000000: c2d1 92bc 3b7b 053d b2cf d83d aded 7bbd
00000010: 9b01 953d c007 033e d0a4 cf3c 2582 e4bd
00000020: 7839 06be 21d8 98bd 4cc8 543d 953f 2f3d
00000030: e340 7c3d e8be ed3d 557b de3c 65e7 063e
00000040: 1e80 b8bc f7a1 38bd 079e fd3d 509a 933c
00000050: 8b60 123d d23e 593d c2e4 fdbd 0810 833d
00000060: 2fd6 d6bc 6529 05be 7e07 203d 2876 35bd
00000070: bfb8 edbd 7524 133d 36ce c53d 8486 f5bd
00000080: 89b7 03be f5a7 93bd 6c66 06be 3efd c9bd
00000090: 4c43 c1bd 7dd2 f1bd 33a6 dfbd 99ce a33d
000000a0: 5b85 913d f808 dfbb 1ea3 10be 15f7 b0bd
000000b0: bb1a 42bd 57d9 d63d cc71 7c3d 0dc0 473b
000000c0: aa5a f63c feb8 0fbe 3282 12be d571 b93d
000000d0: 77fb fabd 9204 0b3d 2c7e f9bd d903 01bd
000000e0: af55 99bb f21a b0bd 01bf fe3c 0fd3 fe3d
000000f0: a317 b0bd 8811 4d3d e56d dc3c 6b59 48bc
00000100: e8ff 5d3d 9915 d53c 2999 023e 9620 6bbd
00000110: d163 de3a b146 12bc aecc ac3d 9554 83bc
00000120: 0192 f83d 9d14 743d bb46 b53c 6ab4 60bb
00000130: 8c9f 0fba 2d93 ea3d 855b bcbd e029 fc3d
00000140: cc05 dfbd 4b48 b8bb 4215 813d 7e1a 673c
00000150: 6932 16bd 3dc1 463d bfbf a4b9 bbc0 583c
00000160: fc4a 8d3d 1827 9fbd 9092 51bd 00a7 033e
00000170: 74a0 8e3c b5c4 6dbd 2dfe ed3d b789 9f3d
00000180: d860 a53d e7c2 003e c242 4f3d b8c1 663d
-0.017922286 0.032588225 0.1058649 -0.061505962 0.07275697 0.12795925 0.025347143 -0.111576356
-0.1310786 -0.07463098 0.05194883 0.042785246 0.06158532 0.11608678 0.027158419 0.13174208
-0.022522029 -0.045076337 0.12383657 0.018017918 0.0357366 0.053038426 -0.12397148 0.06399542
-0.026225178 -0.13004072 0.039069645 -0.044302136 -0.11607503 0.03592344 0.09658472 -0.119885474
-0.12862982 -0.0720977 -0.13125008 -0.09862755 -0.09436664 -0.118077256 -0.10920372 0.0799839
0.07105514 -0.006806489 -0.14124724 -0.08640877 -0.047388773 0.10490673 0.061631963 0.0030479461
0.030072529 -0.14035413 -0.14307478 0.09054915 -0.12254994 0.033939905 -0.121822685 -0.03149781
-0.0046794037 -0.085988894 0.031096937 0.124426 -0.08598258 0.050065547 0.02690787 -0.01222835
0.05419913 0.026011275 0.12753738 -0.057404123 0.0016967003 -0.008927987 0.08437477 -0.016031543
0.12137223 0.05958997 0.022128453 -0.0034287223 -0.00054787914 0.11453853 -0.091971435 0.123126745
-0.108897775 -0.0056238524 0.06302883 0.014105437 -0.03666917 0.04852413 -0.0003142338 0.013229544
0.06899068 -0.077711284 -0.051165164 0.12856674 0.017410494 -0.058048923 0.11620746 0.07789939
0.08075112 0.1257435 0.050600775 0.05633709

fc3.bias f4 [2]
00000000: d8ba 833d d6cb c6bd
0.06432122 -0.09706847
