TorchModels/RLtrader39.pt (torch, 22871 bytes, 6 tensors)

fc1.weight f4 [50, 50]
0	0xbdeb7b8d	-0.11498175
1	0xbe075e40	-0.13219547
2	0xbe0038ed	-0.12521715
3	0x3d5ccb1f	0.05390465
4	0x3d34cb70	0.044139326
5	0x3d904f7d	0.07046411
6	0x3d81c3c5	0.06336168
7	0xbe020f94	-0.12701255
8	0x3dfe3707	0.124128394
9	0x3e113b23	0.14182715
10	0xbd81e618	-0.06342715
11	0xbddf2d07	-0.1089726
12	0x3d044865	0.032295603
13	0x3d254085	0.040344734
14	0x3d241d69	0.04006711
15	0x3ddffe65	0.10937194
16	0xbc660d88	-0.014041312
17	0xbd30c493	-0.043156218
18	0x3d160599	0.036626432
19	0x3dfb3034	0.122650534
20	0x3cd5d6f1	0.026103469
21	0x3ded0642	0.11573459
22	0x3da896c8	0.08231884
23	0x3d0d28bb	0.03446267
24	0x3dbf9d3f	0.09356164
25	0x3c2fd4df	0.010731905
26	0xbd89f823	-0.067367814
27	0x3db0ed29	0.08638985
28	0xbcc98dbb	-0.024603715
29	0xbccaf6d2	-0.024775896
30	0xbdbfeb29	-0.09371025
31	0xbd73200e	-0.05935674
32	0xbc431e63	-0.0119091
33	0x3df0d1c2	0.11758758
34	0xbabe146d	-0.0014501937
35	0xbb05e024	-0.0020427788
36	0x3d1fab56	0.038981758
37	0xbd421878	-0.047386616
38	0x3df2f391	0.11862863
39	0xbd1c1018	-0.038101286
40	0x3df13af1	0.1177882
41	0x3d3c6aa4	0.046000138
42	0xbd5de941	-0.054177526
43	0x3dce4b4e	0.10072957
44	0x3d22b4c6	0.03972318
45	0x3d7e98fd	0.06215762
46	0xbdb5bdc1	-0.08874083
47	0xbdc81601	-0.09769822
48	0xbe005542	-0.12532523
49	0xbce90998	-0.028446957
50	0x3c2b6d00	0.010462999
51	0x3d700ccf	0.058605965
52	0xbceacda9	-0.02866252
53	0x3c00449d	0.007828859
54	0xbdf097aa	-0.117476776
55	0x3dfa6d0e	0.12227832
56	0x3da82339	0.08209843
57	0xbe06e135	-0.13171847
58	0x3da43054	0.0801703
59	0xbdc0f5d2	-0.094218865
60	0xbced7b5d	-0.028989488
61	0x3d3f34a1	0.04668105
62	0xbdc60b1f	-0.0967009
63	0xbe0adcd6	-0.13560805
64	0xbdd792c9	-0.10526044
65	0xbd8e2dee	-0.06942354
66	0xbde937a4	-0.11387566
67	0xbde797e7	-0.1130827
68	0x3e0e2907	0.13882838
69	0xbe00a0d3	-0.1256135
70	0x3dcda63d	0.10041473
71	0x3cf5ecd2	0.030020151
72	0xbddce100	-0.10785103
73	0x3e025d1f	0.12730835
74	0x3c93fa70	0.018063754
75	0x3dae1c5b	0.08501502
76	0x3e02064b	0.12697713
77	0xbc6ffac9	-0.014647194
78	0xbd2fd064	-0.042923346
79	0xbdf27e1c	-0.1184046
80	0xbd133955	-0.035943348
81	0x3dd5c7cc	0.10438499
82	0x3d449b3b	0.0479996
83	0x3b159d86	0.0022829487
84	0xbc94d534	-0.01816807
85	0x3dfd7aa4	0.123769075
86	0xbda09c42	-0.07842304
87	0xbd870569	-0.06592829
88	0xbdb5ce16	-0.088771984
89	0x3d5ce2d3	0.053927254
90	0x3d88cdfd	0.06679914
91	0x3d9356aa	0.07194264
92	0xbd430415	-0.047611315
93	0xbdf65cda	-0.12029429
94	0x3e018b16	0.12650713
95	0x3d572129	0.05252186
96	0xbda05ba0	-0.07829976
97	0xbe0a647c	-0.13514894
98	0xbd375661	-0.04476011
99	0xbe02d6c7	-0.12777244
100	0x3d2e089b	0.042488676
101	0x3d3f4a26	0.046701573
102	0x3dcf3cec	0.10119042
103	0xbca471c5	-0.02007378
104	0xbdf1bd13	-0.11803641
105	0xbadc19ce	-0.0016792358
106	0xbd56666b	-0.052343767
107	0x3e0a4868	0.13504183
108	0x3d97fd71	0.07421387
109	0xbdc3a0d4	-0.0955216
110	0xbd1498fe	-0.036278717
111	0x3d73007d	0.059326638
112	0xbe0a53e3	-0.13508563
113	0xbe072460	-0.1319747
114	0x3df444e7	0.119272046
115	0xbd8470f4	-0.064668566
116	0x3d89aab7	0.067220144
117	0x3e0a6d89	0.13518347
118	0x3dd47172	0.103732005
119	0x3e03c00a	0.12866226
120	0xbbd90bfc	-0.006623743
121	0x3da846d8	0.082166374
122	0xbdc5e79c	-0.096633166
123	0xbdfba180	-0.12286663
124	0xbbf1c0a2	-0.0073777
125	0xbd61abf2	-0.05509562
126	0xbd1989b6	-0.037484847
127	0xbe0f5e8f	-0.14000915
128	0x3dd92bc3	0.1060405
129	0x3d1ce9bd	0.038308848
130	0xbd51e19a	-0.05124054
131	0x3dcae351	0.099066384
132	0xbd505ee6	-0.050871752
133	0xbe0a4cce	-0.13505861
134	0xbccea648	-0.025225773
135	0xbc1b4489	-0.009476789
136	0xbd86c21d	-0.06579993
137	0x3dfb62d6	0.12274711
138	0x3e01b4cc	0.12666625
139	0xbdbe669a	-0.092969134
140	0x3c8abb1b	0.016934922
141	0xbd75253e	-0.05984997
142	0x3c2eef0e	0.010677112
143	0xbda15116	-0.07876794
144	0x3cb7ce08	0.02243711
145	0x3d911d71	0.07085694
146	0xbe024a1e	-0.12723586
147	0x3db2aec5	0.08724741
148	0x3da407cf	0.08009302
149	0x3dfa77c1	0.122298725
150	0xbd98a5d2	-0.07453503
151	0x3ce56137	0.028000457
152	0xbdd3df7f	-0.10345363
153	0x3d0af12a	0.0339214
154	0xbad42730	-0.0016185995
155	0x3e08d12a	0.1336104
156	0xbc59bfb9	-0.013290339
157	0xbd83810b	-0.06421097
158	0xbdfa1422	-0.12210871
159	0xbc87a537	-0.016558273
160	0xbd83b602	-0.064311996
161	0xbda60b44	-0.081076175
162	0xbdf22db4	-0.118251234
163	0xbe07e54d	-0.13271065
164	0x3e0c9956	0.13730368
165	0xbdf45b62	-0.119314924
166	0xbd81e56f	-0.06342589
167	0xbcf2626e	-0.02958795
168	0x3db13697	0.0865299
169	0xbdd9d876	-0.1063699
170	0x3dcfea53	0.10152116
171	0x3dbee956	0.09321849
172	0xbcc7ebf0	-0.024404496
173	0xbd98233b	-0.07428595
174	0xbd5fdc8c	-0.05465369
175	0xbb0e78b3	-0.0021739423
176	0xbd149213	-0.03627212
177	0x3de3b337	0.11118167
178	0x3d998b37	0.07497256
179	0x3c37a05e	0.011207668
180	0xbdad2236	-0.08453791
181	0x3e0b7ba9	0.13621391
182	0x3dba5893	0.090989254
183	0x3c7006ac	0.014650028
184	0x3db657fc	0.089035004
185	0xbd782305	-0.060580272
186	0xbdf9ebe0	-0.12203193
187	0xbd03813e	-0.032105677
188	0xbdf9b5cd	-0.12192879
189	0xbc38b8bb	-0.011274512
190	0xbde0875c	-0.10963318
191	0xbd3a81ef	-0.04553407
192	0xbd9e571f	-0.07731461
193	0x3db1fc0d	0.08690653
194	0xbd9738ac	-0.07383856
195	0x3cc4533b	0.023965469
196	0x3ddaaa0b	0.10676964
197	0x3d432164	0.047639266
198	0xbd941f24	-0.07232502
199	0x3d0d48c9	0.03449324
200	0xbdccc3e6	-0.09998302
201	0x3d757704	0.059927955
202	0x3d0a5b83	0.03377868
203	0xbd0b3cca	-0.03399352
204	0x3d1b89fe	0.037973396
205	0xbd6b338b	-0.057422202
206	0x3d3df814	0.046379164
207	0xbd2229e5	-0.039590735
208	0x3df44667	0.11927491
209	0x3cdc34a7	0.026880575
210	0x3c8b4c3e	0.017004129
211	0x3c81028c	0.015748285
212	0x3d889cb2	0.06670512
213	0x3dc9546f	0.098305576
214	0xbdbedb60	-0.09319186
215	0xbcdb9ac7	-0.026807202
216	0x3aba80ff	0.0014229118
217	0x3d085cac	0.033291504
218	0xbdc67534	-0.096903235
219	0xbcc681c9	-0.024231808
220	0xbd6e2fbd	-0.058150996
221	0x3d925663	0.07145383
222	0x3bb93e7e	0.0056532016
223	0x3b9cc2df	0.0047839726
224	0xbbe34b93	-0.0069364994
225	0xbde72e06	-0.11288075
226	0x3cc23202	0.023705486
227	0xbd308a03	-0.04310037
228	0xbe02f55b	-0.12788908
229	0x3c86cc26	0.016454767
230	0xbe03e33e	-0.12879655
231	0x3c59cec6	0.013293928
232	0xbdd46d9b	-0.10372468
233	0x3c89240c	0.016740821
234	0xbb246994	-0.0025087344
235	0x3d99cfb0	0.07510316
236	0x3deeaed3	0.11654439
237	0x3d479c08	0.048732787
238	0x3da65b38	0.08122867
239	0xbdaacced	-0.08339868
240	0xbdd4f629	-0.10398514
241	0x3e0458cb	0.12924497
242	0xbdbcac2c	-0.09212527
243	0xbd2b2b23	-0.041789185
244	0xbc7afdd7	-0.015319309
245	0x3d91aa96	0.07112615
246	0xbdace38a	-0.08441837
247	0xbdd66c46	-0.1046987
248	0x3ca927b3	0.020648813
249	0xbdc15993	-0.09440913
250	0x3ccd054b	0.025026938
251	0x3cc7f8d3	0.02441064
252	0x3d1da071	0.038483087
253	0x3d15b4ed	0.036549497
254	0x3de9e54f	0.1142069
255	0x3c427a85	0.011870031

fc1.bias f4 [50]
0	0xbda344bc	-0.079720944
1	0xbe05f47c	-0.13081545
2	0xbdd916ce	-0.10600053
3	0x3df3fc95	0.119134106
4	0x3d95c7e5	0.073135175
5	0x3d19eb8c	0.03757815
6	0xbce26d69	-0.027640061
7	0xbcbee7a2	-0.02330381
8	0xbde24492	-0.11048235
9	0x3db9e2fa	0.090764955
10	0x3d74efcf	0.05979901
11	0xbd0b6ee7	-0.03404131
12	0xbdeffce8	-0.1171816
13	0xbd65ce83	-0.056105148
14	0x3e00abb4	0.125655
15	0x3e092ca4	0.13395935
16	0x3dfe9d23	0.12432315
17	0xbc65804a	-0.014007637
18	0x3de23f83	0.1104727
19	0x3dd967a5	0.10615472
20	0x3ce0e35f	0.027452169
21	0x3dbd9092	0.0925609
22	0x3e0ee33f	0.13953875
23	0x3de173bb	0.11008402
24	0xbd20e47d	-0.039280403
25	0x3cce85a9	0.025210219
26	0x3df5bc91	0.11998857
27	0xbd598a08	-0.053110152
28	0x3da37552	0.079813614
29	0xbc2ba27c	-0.010475751
30	0x3da99ef9	0.08282275
31	0x3d8c353a	0.0684609
32	0x3e0c7284	0.13715559
33	0x3dbba22b	0.091617905
34	0xbd421175	-0.04737993
35	0xbcefb937	-0.029263122
36	0xbca867ae	-0.02055725
37	0x3da86b58	0.08223599
38	0xbd7bc148	-0.061463624
39	0x3e0c3c3a	0.1369485
40	0xbd4fc1f0	-0.050722063
41	0x3c51650d	0.01278044
42	0xbc55f443	-0.013058725
43	0x3dc8f0e4	0.09811571
44	0xbccf4b9c	-0.025304608
45	0x3c434223	0.011917624
46	0x3e03d7a4	0.12875229
47	0xbe084fd4	-0.13311702
48	0xbda7b83e	-0.08189438
49	0x3e0b2c6b	0.13591163

fc2.weight f4 [50, 50]
0	0x3d8c2161	0.06842304
1	0xbd859e3e	-0.06524323
2	0x3e0ad62a	0.1355826
3	0x3d117951	0.035516087
4	0xbd9f748f	-0.07785904
5	0x3e07c1da	0.13257542
6	0x3de2d687	0.11076074
7	0xbc1dc6b5	-0.009629895
8	0x3cfedb0d	0.03111031
9	0xbdcaec8f	-0.09908401
10	0xbcce6191	-0.025193008
11	0x3d4d5612	0.05013091
12	0x3df9b191	0.12192071
13	0xbd6c66da	-0.057715274
14	0x3db20ea8	0.08694202
15	0x3e038f96	0.12847742
16	0xbd01e2a7	-0.031710293
17	0x3c1742c6	0.009232229
18	0x3cb68eb6	0.022284847
19	0xbdd3ab67	-0.10335427
20	0xbca11bcc	-0.019666575
21	0xbd7bab17	-0.06144246
22	0x3de4d45c	0.11173317
23	0xbde3383c	-0.1109471
24	0xbe0d8c53	-0.1382306
25	0xbd9609f3	-0.073261164
26	0x3d914323	0.070928834
27	0xbdacdd01	-0.08440591
28	0xbdd2204a	-0.10260065
29	0x3dad18c8	0.08451992
30	0x3d8ff0c3	0.070283435
31	0x3dc790f4	0.097444445
32	0x3e0578ee	0.13034412
33	0x3de8a23c	0.11359069
34	0xbde31f65	-0.110899724
35	0x3d90878b	0.07057103
36	0x3dbe55dc	0.0929372
37	0xbe0c0166	-0.13672408
38	0x3dfca5e1	0.123363264
39	0x3df717d1	0.120650895
40	0x3dd9925a	0.106236175
41	0x3c0b11be	0.008488117
42	0x3dea2b62	0.11434056
43	0x3c96cdc1	0.018408658
44	0xbd041daf	-0.03225487
45	0xbdf91904	-0.121629745
46	0xbcc2b3e3	-0.023767417
47	0x3d4cb1c8	0.049974233
48	0xbde9b41f	-0.114113085
49	0xbda9ad2f	-0.08284985
50	0xbd6db0e6	-0.05803003
51	0x3c694a1f	0.014238863
52	0xbddc9a42	-0.1077161
53	0xbdd369a0	-0.10322881
54	0xbdd66722	-0.1046889
55	0x3b4926f8	0.0030693393
56	0x3d9336fc	0.07188222
57	0x3d1b9cab	0.037991207
58	0xbd4d1a43	-0.050073873
59	0xbc953b10	-0.01821664
60	0x3dae1250	0.084995866
61	0xba30deab	-0.00067470473
62	0xbd94f64f	-0.07273542
63	0xbe089e95	-0.13341744
64	0x3d2c7fb6	0.042113982
65	0x3d4186f5	0.047247846
66	0xbd9000da	-0.070314124
67	0xbccafd4c	-0.024778984
68	0x3c6d69ae	0.014490528
69	0xbe068d9f	-0.13139962
70	0x3e0a4d2b	0.13506
71	0xbd8b9876	-0.06816189
72	0xbd6dcedb	-0.0580586
73	0x3d375375	0.044757325
74	0x3c486823	0.012231859
75	0xbde69988	-0.112597525
76	0xbc18902d	-0.009311718
77	0x3d8f6b8f	0.07002937
78	0x3ded48da	0.11586161
79	0x3c1dcc6d	0.009631258
80	0xbbe5885f	-0.007004782
81	0x3d1d909a	0.03846798
82	0xbdb44a3c	-0.088032216
83	0x3e0fe5b1	0.14052464
84	0xbdc94ee8	-0.09829503
85	0xbdf39bca	-0.11894949
86	0x3da69555	0.081339516
87	0x3c58b4f3	0.013226735
88	0x3dd8245a	0.105538085
89	0x3e0d6767	0.13808976
90	0x3e0d9efc	0.13830179
91	0x3db59781	0.08866788
92	0x3dae54d0	0.085122705
93	0x3e073a43	0.13205819
94	0xbda3ad1a	-0.07992001
95	0xbd925273	-0.07144632
96	0x3cd50c61	0.02600688
97	0x3d958852	0.07301392
98	0x3d6a5b21	0.057215814
99	0x3d5003b1	0.05078477
100	0xbd3f9daf	-0.04678124
101	0xbddd1934	-0.10795823
102	0x3ca4413a	0.020050634
103	0xbcf7bf9f	-0.03024274
104	0x3db99114	0.090608746
105	0x3d9b0433	0.0756916
106	0x3cc21dc4	0.023695834
107	0x3caac8f2	0.020847771
108	0xbda95bf4	-0.08269492
109	0xbd944a09	-0.072406836
110	0xbde35d3c	-0.111017674
111	0x3db8575e	0.09001039
112	0xbdcb938c	-0.09940252
113	0xbdce7108	-0.10080153
114	0xbdfca4c1	-0.12336112
115	0x3da19f25	0.078916825
116	0xbdaaaebd	-0.0833411
117	0x3d8c183d	0.068405606
118	0xbdce9310	-0.10086644
119	0x3da9cbd6	0.08290832
120	0x3e0af1ca	0.13568798
121	0x3c416d95	0.011805912
122	0x3d80b3b2	0.06284274
123	0x3d2779c4	0.04088761
124	0xbd2cdd0e	-0.042203
125	0xbddc1698	-0.10746497
126	0xbd853390	-0.065039754
127	0xbd08bf6a	-0.03338567
128	0xbc40fd2b	-0.01177911
129	0x3bf32d20	0.007421151
130	0x3dc848b7	0.09779494
131	0x3d212a75	0.03934713
132	0xbbb77034	-0.0055980925
133	0xbe0c0099	-0.13672103
134	0x3c2b59ed	0.010458452
135	0xbdb3c5c8	-0.08777958
136	0xbd7c7aa0	-0.06164038
137	0xbbe19a74	-0.0068848673
138	0xbd4d3d11	-0.050107066
139	0xbe0e939c	-0.13923496
140	0x3d86db98	0.06584853
141	0x3d8da801	0.0691681
142	0xbd94fc00	-0.07274628
143	0xbc6939e7	-0.014234996
144	0x3e0dea97	0.1385902
145	0x3d85c23b	0.06531187
146	0xbd84e8dd	-0.06489728
147	0x3d15f0c6	0.036606573
148	0x3e0a6685	0.1351567
149	0xbd490966	-0.04908123
150	0x3e0c491b	0.13699763
151	0xbe02d436	-0.12776265
152	0xbdfe16f5	-0.124067225
153	0x3c613513	0.013745564
154	0xbdfac214	-0.12244049
155	0xbdfc62b4	-0.123235136
156	0x3da3c0ee	0.07995783
157	0xbdd6593c	-0.10466239
158	0x3dcecf8f	0.100981824
159	0xbe020eeb	-0.12701003
160	0xbd19e213	-0.037569117
161	0x3d60fc65	0.054928202
162	0x3ddb346f	0.1070336
163	0x3e03c04e	0.12866327
164	0x3da41bb3	0.08013096
165	0x3de44b61	0.1114719
166	0xbdcf75b4	-0.10129872
167	0x3db75f39	0.08953709
168	0x3d82f7f8	0.063949525
169	0xb943c05f	-0.00018668313
170	0x3e0e0715	0.13869889
171	0x3d908603	0.07056811
172	0x3dcf64e8	0.10126668
173	0x3d8054b6	0.06266157
174	0xbd76229c	-0.0600916
175	0xbe116b3b	-0.14201061
176	0x3dfd92da	0.12381525
177	0xbd00ce68	-0.031446844
178	0x3cce76fa	0.025203217
179	0xbc9391e8	-0.01801391
180	0xbdf8be51	-0.12145675
181	0x3ce750a6	0.028236698
182	0xbe05fd72	-0.13084963
183	0x3d821719	0.06352062
184	0x3dac04ec	0.08399376
185	0xbd37c061	-0.0448612
186	0x3e08761e	0.13326308
187	0x3dc37115	0.09543053
188	0xbdaa9875	-0.0832986
189	0x3bdf1408	0.006807808
190	0x3d53a98b	0.05167536
191	0xbd9a599b	-0.07536622
192	0x3cc863ac	0.02446159
193	0xbc9bd216	-0.019021075
194	0x3e0880d8	0.133304
195	0xbddf58b0	-0.10905588
196	0x3e0111cb	0.12604444
197	0xbd690d6b	-0.056897562
198	0x3dae4600	0.08509445
199	0x3d633b50	0.055476487
200	0x3d3361b4	0.04379435
201	0x3e03cd95	0.12871392
202	0xbc4f72be	-0.012661634
203	0xbd9e115a	-0.07718153
204	0x3e0b4321	0.13599826
205	0xbe0a48c7	-0.13504325
206	0x3cc253e7	0.023721648
207	0x3d4a370b	0.0493689
208	0xbc524da1	-0.012835891
209	0xbde5eb3e	-0.112265095
210	0x3dd0e41d	0.10199759
211	0xbda003c7	-0.078132205
212	0x3dc422eb	0.095769726
213	0xba88a8c1	-0.0010426269
214	0xbcea89d5	-0.028630177
215	0x3d4d24f0	0.050084054
216	0x3dd86c36	0.105675146
217	0xbde3d09b	-0.11123773
218	0xbdcddc96	-0.10051839
219	0xbde771c8	-0.11300999
220	0x3d05b4b6	0.032643043
221	0xbdadbd83	-0.08483412
222	0x3ded7446	0.11594443
223	0x3d9d524f	0.07681715
224	0xbd671927	-0.05642047
225	0xbda175db	-0.07883807
226	0x3da7c34f	0.08191549
227	0xbd73be50	-0.059507668
228	0x3d3afd27	0.04565158
229	0x3e097636	0.13424
230	0x3d5fd08f	0.054642256
231	0xbd4fc690	-0.050726473
232	0xbdb07191	-0.08615411
233	0x3e009ece	0.12560579
234	0xbd13848b	-0.036015075
235	0x3db9aa95	0.09065739
236	0xbd7481bc	-0.059694037
237	0xb7a55989	-1.9711226e-05
238	0x3dd5e0ba	0.10443254
239	0x3c29cd2d	0.010363859
240	0x3d922d1b	0.071375094
241	0x3d249088	0.0401769
242	0x3d9110a2	0.070832506
243	0xbd953cea	-0.07287009
244	0xbde2f246	-0.11081366
245	0xbd94c19b	-0.0726349
246	0x3da08df4	0.078395754
247	0x3db51fcf	0.08843958
248	0xbdb3d8c8	-0.08781582
249	0xbcf8208e	-0.03028896
250	0x3e05a373	0.13050632
251	0xbcfdc9f1	-0.030980082
252	0x3db506fb	0.08839222
253	0x3dec3b5a	0.11534758
254	0xbcc2c023	-0.023773259
255	0xbd7ca49f	-0.061680432

fc2.bias f4 [50]
0	0xbd642c5e	-0.055706374
1	0x3d511322	0.051043637
2	0xbd4acdfd	-0.049512852
3	0xbd90ffc6	-0.07080035
4	0x3ccfe15b	0.025376013
5	0x3d94d50a	0.072671965
6	0xbda50a94	-0.08058658
7	0x3d6dc96b	0.058053415
8	0xbcd2ffbd	-0.025756711
9	0x3d59253f	0.053014036
10	0xbe0ac603	-0.13552098
11	0x3d578113	0.05261333
12	0xbd80f680	-0.06297016
13	0xbdf25a78	-0.11833662
14	0xbe0713bc	-0.13191122
15	0x3db12f69	0.08651621
16	0x3db07f02	0.08617975
17	0x3d9c89b4	0.07643452
18	0x3e0d8080	0.1381855
19	0xbd92fb07	-0.07176786
20	0x3dbeb973	0.093127154
21	0xbe02e62c	-0.12783116
22	0x3c88d86c	0.01670476
23	0xbca98a35	-0.020695785
24	0xbdb95706	-0.090498015
25	0x3d217621	0.039419297
26	0xbdfde07d	-0.12396333
27	0xbd9d183e	-0.076706395
28	0x3dafeab6	0.085896894
29	0x3d9c1e4a	0.07622965
30	0xbd1a4216	-0.03766068
31	0xbdb11b16	-0.08647744
32	0x3dfa26e9	0.12214453
33	0xbd01240a	-0.03152851
34	0xbdad9c5c	-0.08477089
35	0xbdbf595a	-0.09343214
36	0xbc8552cb	-0.01627483
37	0xbd4309c2	-0.047616728
38	0xbda357e2	-0.07975747
39	0xbc2be1a5	-0.01049081
40	0x3d0e2f6f	0.034713205
41	0x3da9a510	0.08283436
42	0xbdde9067	-0.10867386
43	0xbd835630	-0.06412923
44	0x3d5070dd	0.050888885
45	0xbd5dc52a	-0.05414311
46	0x3dadad8a	0.084803656
47	0xbd5bc3e5	-0.053653616
48	0x3e0b9098	0.13629377
49	0x3dd3d44e	0.10343228

fc3.weight f4 [2, 50]
0	0x3dc34cef	0.09536158
1	0x3d6d39b9	0.057916377
2	0x3ce2e2f6	0.027696114
3	0x3d962056	0.07330386
4	0x3da688fb	0.08131596
5	0x3d605936	0.05477258
6	0xbdf3335b	-0.1187503
7	0x3d3e9daf	0.046537098
8	0x3e00de70	0.12584853
9	0xbd6a5344	-0.057208315
10	0xba7c9bcc	-0.00096362527
11	0x3e0647f4	0.13113385
12	0x3ccf9e16	0.025343936
13	0xbe085dd5	-0.13317044
14	0x3d310578	0.043218106
15	0xbbd472fb	-0.0064834333
16	0x3d99ecb1	0.075158484
17	0x3d457cb5	0.048214633
18	0x3e0dee05	0.13860328
19	0xbe0d25df	-0.13783978
20	0xbda820a6	-0.08209352
21	0x3d851bfb	0.064994775
22	0xbd9be042	-0.07611133
23	0x3d3180ff	0.04333591
24	0xbdd889f6	-0.10573189
25	0xba45ecce	-0.000755024
26	0xbe07bf1b	-0.13256495
27	0xbcb0c324	-0.021577425
28	0x3bf54646	0.007485184
29	0xbe0bdecd	-0.1365921
30	0xbbc735c6	-0.0060794083
31	0x3d9e27f6	0.07722466
32	0x3d1017ae	0.035178833
33	0x3ddb7482	0.107155815
34	0x3df39ad6	0.11894767
35	0xbdc1f86a	-0.09471209
36	0x3dd5d29e	0.10440563
37	0xbcface72	-0.030616019
38	0xbd9fe3ca	-0.07807119
39	0x3d99480e	0.074844465
40	0xbe126433	-0.14296035
41	0x3dcb0b2c	0.0991424
42	0x3e0abc6e	0.13548443
43	0xbdb0c68b	-0.08631619
44	0x3defbff1	0.11706532
45	0xbe028326	-0.12745342
46	0x3dc61685	0.09672264
47	0x3e0aa80e	0.1354067
48	0x3d620fdc	0.055190906
49	0x3dbb8ef9	0.09158129
50	0xbc27b020	-0.010234863
51	0xbd82ff6a	-0.063963726
52	0xbd9312d2	-0.07181324
53	0xbdcc0b59	-0.09963102
54	0x3b563ca0	0.0032689944
55	0x3de19cda	0.11016245
56	0xbd6bc2a3	-0.057558667
57	0xbe06ec3c	-0.13176054
58	0x3d9480bc	0.07251117
59	0x3cf67f2e	0.03008994
60	0xbd4f384e	-0.050590806
61	0xbc843db5	-0.016142705
62	0x3de1ddad	0.110286094
63	0x3e0629e8	0.13101923
64	0x3d0d4c0f	0.034496363
65	0xbda4cb80	-0.08046627
66	0xbda7a4b3	-0.08185711
67	0xbd46188f	-0.048363265
68	0xbda54a85	-0.08070854
69	0xbda1d42e	-0.07901798
70	0x3dbe8396	0.09302442
71	0xbdc3370f	-0.09531986
72	0xbd38a8d0	-0.045082867
73	0x3c35f043	0.011104646
74	0xbcf01970	-0.029309005
75	0x3e150e48	0.14556229
76	0xbdb7d07f	-0.08975314
77	0x3db94dba	0.09048028
78	0xbdc99d24	-0.09844425
79	0xbdd3057b	-0.1030378
80	0xbda25c64	-0.07927778
81	0x3d0ebf0b	0.03485016
82	0x3c76be16	0.015059968
83	0x3d6852ca	0.05671958
84	0x3c462e25	0.012095963
85	0x3ca87e80	0.020568132
86	0xbdc067c9	-0.093947954
87	0xbc6bc73a	-0.014390761
88	0xbd924a46	-0.07143073
89	0x3ce7c4e2	0.028292123
90	0xbda45ee9	-0.08025915
91	0xbb936087	-0.004497591
92	0x3e045ed7	0.12926804
93	0x3dc32550	0.09528601
94	0x3dbfe0ff	0.093690865
95	0xbd1753da	-0.0369452
96	0xbc4660fc	-0.012108084
97	0x3c0222ea	0.0079428945
98	0xbe0d3f84	-0.1379376
99	0x3d6fd284	0.058550373

fc3.bias f4 [2]
0	0x3c71cdbd	0.0147585245
1	0xbe0469a7	-0.12930928
